Lid_Driven_Re1000/saved_models/VA-20000.pt (torch, 95111 bytes, 36 tensors)

linears.0.weight f4 [40, 2]
-0.10076035 0.19461007 0.36263227 0.08125465 0.14518774 -0.24439357 -0.21463948 0.36107722
-0.20071869 -0.21866608 0.29718775 0.039657626 0.18872386 -0.20920002 0.046155743 -0.22942382
-0.26391295 0.2671852 -0.2342406 -0.14148621 0.09875679 0.1024085 -0.16480207 -0.2892157
-0.35823524 -0.06254648 0.15998189 -0.12685333 0.29994082 -0.26025763 0.4208488 0.34169644
-0.17773485 -0.17161007 -0.09312742 -0.18577018 0.2642404 -0.23428549 0.11783622 -0.09695807
0.020667383 -0.044090874 -0.30406874 -0.1526295 0.16215052 0.33666357 -0.08970039 -0.14851588
-0.07889689 -0.40040788 -0.010578409 -0.08954518 -0.14763415 0.19965734 -0.20846497 -0.11016516
0.012106912 0.280957 -0.24292018 0.115920685 -0.21023129 0.27187607 0.30439904 0.07033424
-0.18913028 -0.107061654 0.3578618 -0.42321452 0.085996605 0.048529014 0.012636179 -0.13983332
0.15280224 0.11290137 -0.0873773 -0.09085694 -0.11598894 0.14220913 0.17176422 0.25476906
00000000: 715b cebd dd47 473e f0aa b93e d768 a63d
00000010: 18ac 143e 4f42 7abe 74ca 5bbe 1ddf b83e
00000020: 3389 4dbe 00ea 5fbe fe28 983e 0970 223d
00000030: d440 413e 8838 56be ce0d 3d3d 14ee 6abe
00000040: 991f 87be 80cc 883e c5dc 6fbe c3e1 10be
00000050: 0041 ca3d 8cbb d13d e0c1 28be 1514 94be
00000060: 9c6a b7be 5e18 80bd 4bd2 233e d7e5 01be
00000070: d891 993e 7d40 85be 7e79 d73e d6f2 ae3e
00000080: 2000 36be 8dba 2fbe 97b9 bebd 8a3a 3ebe
00000090: 854a 873e 89e8 6fbe 1e54 f13d f491 c6bd
000000a0: a54e a93c a298 34bd e6ae 9bbe e84a 1cbe
000000b0: c90a 263e 2b5f ac3e d7b4 b7bd 8c14 18be
000000c0: b194 a1bd 4302 cdbe 1051 2dbc 7763 b7bd
000000d0: 682d 17be f972 4c3e d777 55be 459e e1bd
000000e0: 125c 463c 99d9 8f3e 11c0 78be d367 ed3d
000000f0: df46 57be 5733 8b3e 31da 9b3e 660b 903d
00000100: 5eab 41be 2443 dbbd a939 b73e 93af d8be
00000110: fd1e b03d 5cc6 463d fa07 4f3c 7730 0fbe
00000120: 3178 1c3e d538 e73d dff2 b2bd 3413 babd
00000130: 9c8b edbd 459f 113e f6e2 2f3e 1771 823e

linears.0.bias f4 [40]
-0.13653426 -0.052023046 0.08558594 -0.19281876 0.12071759 0.13140033 0.037655722 0.08688018
-0.14429845 0.18397686 -0.06068603 -0.082611084 0.08883869 0.12656605 0.09295873 0.06498699
-0.038060192 0.084323585 0.06453638 0.30869108 0.031975333 -0.123151846 -0.15742908 0.10954524
0.16000092 -0.07568016 -0.136155 0.08524186 0.09048846 0.018474543 -0.11859257 -0.11648462
0.09127096 0.10441904 -0.05040077 0.09230139 -0.09889733 0.20476094 -0.08357538 -0.12508297
00000000: a3cf 0bbe 1e16 55bd ae47 af3d 4872 45be
00000010: c93a f73d cf8d 063e e33c 1a3d 3cee b13d
00000020: f9c2 13be 6e64 3c3e ea91 78bd 0030 a9bd
00000030: 0ff1 b53d 889a 013e 2661 be3d e617 853d
00000040: 01e5 1bbd d8b1 ac3d a62b 843d c20c 9e3e
00000050: 91f8 023d 0937 fcbd 1735 21be 4159 e03d
00000060: 48d7 233e 33fe 9abd 376c 0bbe 4993 ae3d
00000070: 0452 b93d ed57 973c a9e0 f2bd 7d8f eebd
00000080: 45ec ba3d a6d9 d53d 0a71 4ebd 8308 bd3d
00000090: af8a cabd daac 513e 9229 abbd c015 00be

linears.1.weight f4 [40, 40]
0.07768986 0.06375673 0.21546477 0.3055716 0.029315552 0.26653853 0.17835763 -0.26400554
0.051218133 -0.09556111 -0.1896535 -0.13404186 0.025216624 -0.19316326 0.28526363 -0.01095986
-0.07421274 -0.2396755 0.10895818 0.020783763 -0.061771467 -0.2906654 0.21220961 0.03086421
0.11889297 0.21771441 0.26867732 -0.043402664 -0.18208666 0.12627499 -0.18944082 0.106470816
0.08821939 -0.12958957 -0.17699535 -0.047885254 0.30990157 -0.590397 0.14422935 0.049238835
-0.3244368 0.029404774 0.32235563 -0.16135137 0.034146056 -0.004675439 0.1074365 0.29959872
0.122877285 0.25227442 -0.20359577 -0.22371426 0.12425713 0.11223334 0.2631251 0.044324998
0.053618923 0.0073162364 0.18120347 -0.081397906 0.04315928 -0.23357998 -0.24740109 0.2698827
-0.09866364 0.052527383 -0.05902759 0.29674175 0.10438991 0.26692662 -0.37298906 -0.123400554
0.08464262 0.31230408 -0.26859617 -0.050550126 0.07300432 0.50491744 0.03939597 0.13200633
0.1139813 -0.12468968 -0.2761039 -0.098619975 -0.1760909 0.22075394 0.055972476 -0.2391742
0.08758264 -0.15813744 -0.154268 -0.13928364 0.09841654 -0.20070797 0.011551556 -0.14886935
0.13426763 -0.11813557 -0.2508534 -0.29557675 -0.14223294 0.23632981 -0.008453612 0.22268103
-0.2709447 0.18365835 -0.047746025 -0.12210649 -0.069458544 0.18374375 0.27147767 0.16509414
-0.083533265 -0.30556226 0.22767127 -0.28486386 -0.20805755 0.095526166 0.22949803 -0.162047
0.0067971447 -0.09498383 0.17960277 -0.01468269 0.21254615 0.16374527 0.245933 -0.29477593
-0.24766283 -0.36546174 0.14274114 -0.20031163 -0.09924008 -0.023249997 0.08993779 -0.24598527
0.05084886 -0.30960983 0.0765012 -0.20134765 -0.054341383 0.03172706 0.2061434 0.18974921
-0.18153863 -0.17480664 -0.24462369 -0.20226872 -0.032509275 -0.24422975 -0.26149598 -0.14623481
0.14993015 0.2333222 -0.041608404 -0.0507088 0.17411432 -0.28393242 0.09863946 0.11463273
0.11352129 -0.2299023 -0.0934216 0.086820215 0.2549543 -0.0028679364 0.20926155 0.195231
-0.04903346 0.14350207 -0.14127332 -0.0027305027 0.27927297 0.23642671 0.15097106 -0.16666803
0.0058359443 0.06273869 0.06338283 0.26180565 -0.038653567 0.18301407 -0.2127285 0.16581227
-0.1426465 0.11915657 -0.2369512 0.26622418 0.24271657 0.19922368 -0.030849386 -0.073811494
-0.104675986 -0.13393146 0.25404182 -0.17645413 -0.10822693 0.03202973 0.17657927 -0.06907813
0.15139663 0.120488144 0.24516216 0.042543538 0.11610365 -0.21382478 0.08483765 0.039068036
-0.030408632 0.23557405 -0.20442642 0.007980769 0.07632574 0.06868191 0.09603999 0.075791284
0.13745101 0.12785648 0.10371321 -0.05564092 -0.2560495 -0.24011342 -0.06139637 0.31567454
-0.20567451 -0.09256596 0.1396488 0.037371844 -0.2641496 0.27008808 -0.046729993 0.10580478
-0.12561488 -0.19776098 -0.0086165825 -0.10326306 0.031162517 0.03965386 -0.16300431 -0.2878294
-0.42067274 0.0808574 0.13970162 -0.22867061 0.21232067 0.16298397 0.20201524 0.17872684
-0.12008616 0.3375316 0.025880678 0.009694403 0.20788614 0.2535055 0.2120993 -0.057258397
00000000: dc1b 9f3d e392 823d cca2 5c3e e173 9c3e
00000010: 2b27 f03c bd77 883e 62a3 363e bc2b 87be
00000020: 1bca 513d 8bb5 c3bd 8734 42be 4542 09be
00000030: 1893 ce3c 97cc 45be 130e 923e fc90 33bc
00000040: d9fc 97bd 7f6d 75be 7725 df3d b642 aa3c
00000050: 1404 7dbd 18d2 94be 7a4d 593e f1d6 fc3c
00000060: 287e f33d 87f0 5e3e 1390 893e fec6 31bd
00000070: ed74 3abe 3b4e 013e c6fc 41be 5f0d da3d
00000080: 5eac b43d 21b3 04be 453e 35be 5423 44bd
00000090: 6bab 9e3e 4224 17bf dcb0 133e a9ae 493d
000000a0: 951c a6be 48e2 f03c cc0b a53e 4b39 25be
000000b0: bcdc 0b3d 6d34 99bb ab07 dc3d 0165 993e
000000c0: 16a7 fb3d 1d2a 813e 697b 50be 5a15 65be
000000d0: 867a fe3d 98da e53d 55b8 863e 218e 353d
000000e0: 849f 5b3d 0abd ef3b 678d 393e f2b3 a6bd
000000f0: c9c7 303d 972f 6fbe b656 7dbe 112e 8a3e
00000100: 2a10 cabd f426 573d eac6 71bd 89ee 973e
00000110: 61ca d53d 9baa 883e 6cf8 bebe 6eb9 fcbd
00000120: 1c59 ad3d 52e6 9f3e 7085 89be a60d 4fbd
00000130: 4a83 953d 4542 013f ab5d 213d ab2c 073e
00000140: 076f e93d 4e5d ffbd 7e5d 8dbe 45f9 c9bd
00000150: 2c51 34be 520d 623e 6543 653d 15ea 74be
00000160: 875e b33d c8ee 21be 6ef8 1dbe 5fa0 0ebe
00000170: 9c8e c93d 6486 4dbe bd42 3d3c 3571 18be
00000180: 747d 093e 10f1 f1bd db6f 80be d655 97be
00000190: 83a5 11be 7100 723e 0581 0abc 7f06 643e
000001a0: 44b9 8abe ef10 3c3e 5691 43bd f812 fabd
000001b0: 4840 8ebd 5227 3c3e 1fff 8a3e 700e 293e
000001c0: 7d13 abbd a872 9cbe a822 693e add9 91be
000001d0: 0a0d 55be 39a3 c33d 8801 6b3e a6ef 25be
000001e0: 95ba de3b e286 c2bd cae9 373e aa8f 70bc
000001f0: b3a5 593e d7ac 273e dcd5 7b3e dfec 96be
00000200: 539b 7dbe cd1d bbbe bc2a 123e 7e1e 4dbe
00000210: 623e cbbd c776 bebc 4e31 b83d 90e3 7bbe
00000220: e546 503d 2e85 9ebe a9ac 9c3d 142e 4ebe
00000230: 1295 5ebd 3cf4 013d 4117 533e 9e4d 423e
00000240: 43e5 39be 8300 33be a27e 7abe 881f 4fbe
00000250: 7228 05bd 5d17 7abe cde2 85be 94be 15be
00000260: 4a87 193e 04ec 6e3e 936d 2abd 08b4 4fbd
00000270: 064b 323e 975f 91be 7c03 ca3d 91c4 ea3d
00000280: da7d e83d 826b 6bbe d353 bfbd ccce b13d
00000290: 5f89 823e fdf3 3bbb a948 563e a3ea 473e
000002a0: 4fd7 48bd 35f2 123e f4a9 10be 3cf2 32bb
000002b0: defc 8e3e d819 723e 2898 1a3e 06ab 2abe
000002c0: 733b bf3b 247d 803d dbce 813d 640b 863e
000002d0: 3453 1ebd 0a68 3b3e 80d5 59be b1ca 293e
000002e0: ed11 12be 5c08 f43d 56a3 72be 894e 883e
000002f0: b18a 783e 4b01 4c3e dab7 fcbc 7b2a 97bd
00000300: 5d60 d6bd 5425 09be c511 823e 64b0 34be
00000310: 15a6 ddbd 9b31 033d 32d1 343e d678 8dbd
00000320: b807 1b3e 7dc2 f63d ca0b 7b3e 2242 2e3d
00000330: c0c7 ed3d e2f4 5abe 5dbf ad3d ce05 203d
00000340: 861b f9bc 533a 713e 2955 51be c5c1 023c
00000350: ab50 9c3d 1aa9 8c3d 9db0 c43d 7638 9b3d
00000360: f5bf 0c3e cfec 023e 9767 d43d bce7 63bd
00000370: ec18 83be 4be0 75be c37a 7bbd 18a0 a13e
00000380: 579c 52be 3993 bdbd 1800 0f3e 3813 193d
00000390: 9e3e 87be fc48 8a3e f367 3fbd 2db0 d83d
000003a0: 30a1 00be db81 4abe 912c 0dbc 957b d3bd
000003b0: 8948 ff3c 166c 223d 9aea 26be 605e 93be
000003c0: 6b62 d7be 9198 a53d f10d 0f3e a128 6abe
000003d0: 976a 593e 45e5 263e 15dd 4e3e 2b04 373e
000003e0: bcef f5bd f1d0 ac3e b703 d43c 46d5 1e3c
000003f0: 1be0 543e 79cb 813e 8f30 593e c887 6abd

linears.1.bias f4 [40]
-0.07155661 0.06612475 -0.0043247733 -0.039007027 0.045081947 0.07338604 0.10693131 0.11899577
-0.0060226237 0.046892833 -0.04598729 -0.11852134 0.03972571 -0.08725511 -0.037322924 0.123476066
-0.028231516 0.056493986 0.0728215 -0.0066775763 0.10360925 0.03953111 0.0708641 -0.11884814
-0.06321146 -0.10123303 -0.12484862 0.11125347 0.12707166 -0.02227059 -0.09311427 0.013860077
0.07476222 0.014972327 -0.027735885 0.13477284 -0.063618615 -0.018910037 -0.11224343 -0.04232642
00000000: 468c 92bd 6a6c 873d d4b6 8dbb d5c5 1fbd
00000010: d9a7 383d 6c4b 963d cdfe da3d 0eb4 f33d
00000020: 6e59 c5bb b312 403d 2b5d 3cbd 51bb f2bd
00000030: 6db7 223d cfb2 b2bd ecdf 18bd 05e1 fc3d
00000040: c845 e7bc 3d66 673d 7023 953d 92cf dabb
00000050: 1631 d43d 60eb 213d 3221 913d a766 f3bd
00000060: 0375 81bd 4353 cfbd a2b0 ffbd dcd8 e33d
00000070: 131f 023e d070 b6bc b2b2 bebd 6015 633c
00000080: ef1c 993d 7e4e 753c 5e36 e3bc e401 0a3e
00000090: 7a4a 82bd 39e9 9abc e2df e5bd 785e 2dbd

linears.2.weight f4 [40, 40]
-0.20516105 0.3716926 -0.3062973 0.040307127 0.1549054 -0.07712898 0.4547892 0.098452285
0.030740773 0.2058129 -0.15648644 0.06712378 -0.26131046 -0.12263112 -0.13917795 0.22342329
-0.20551106 0.11919962 0.23048341 0.2053145 0.027585188 0.09953527 0.23112161 -0.076696284
0.045990508 -0.2772108 -0.40764278 0.34064668 0.19478549 0.05010846 0.16966763 0.15796596
-0.13879552 -0.10126231 -0.122334875 0.08458954 -0.26363137 -0.062043834 -0.22756542 -0.14243491
-0.15655196 -0.39751646 -0.18442476 -0.035433654 -0.12904829 0.05487429 -0.32224983 -0.15984946
-0.095503815 0.23247278 0.09355843 0.3112071 -0.14990221 0.26569054 -0.17840517 -0.23465537
0.21553472 -0.018717444 -0.26426157 -0.19677621 -0.006584973 -0.17329237 -0.086370915 0.06811514
0.087376684 0.003122978 0.52875113 -0.08705244 -0.46712494 0.20229983 -0.25693518 -0.059250362
0.06431824 0.103980236 -0.015191308 -0.39119294 0.20021784 -0.022708545 0.6959202 0.27635884
0.101090215 -0.28555316 0.12273273 0.13484076 -0.24508093 0.19640057 -0.4789228 0.22171825
-0.1612203 0.021899022 -0.14092962 -0.08313714 -0.040072825 -0.22839954 0.24170135 -0.028048676
-0.016311765 -0.23191863 -0.29046342 -0.14336997 0.12380944 0.0509202 -0.530916 0.2818288
0.32481918 0.2590557 0.35824126 -0.2925991 -0.41303003 0.26959848 0.09628328 0.16050789
-0.16251238 0.067289986 0.09925058 -0.14264598 0.17282271 0.10307224 0.45361543 0.14868413
-0.11590288 -0.2244693 0.09556144 -0.1786445 -0.17105892 0.29981822 0.14803088 0.11395438
-0.043708086 -0.0041980892 -0.17108506 0.20056188 -0.19769971 -0.104146995 -0.25365078 0.22192223
-0.28782746 -0.08697024 0.16533712 -0.16905053 -0.26250222 0.038497623 -0.20939372 -0.14265265
0.08690563 0.27102515 -0.029770594 0.12296841 0.3597131 0.11362087 0.018555066 0.13437067
-0.17368433 0.07066368 0.026876323 0.24111849 0.109325096 0.08568074 0.16527054 -0.1152694
0.25477824 -0.7551082 0.2359575 0.009294996 -0.04486355 -0.17530146 -0.5550885 -0.24935842
-0.19685853 0.04367826 0.06783608 0.26392847 -0.30099446 -0.048920494 0.016987644 -0.4369157
-0.0025131907 0.05850508 -0.4853302 -0.15378076 -0.12326728 0.18196471 -0.39582998 0.441807
0.10966496 0.2569402 0.35004598 -0.49341935 -0.49237296 0.18760118 0.24478881 0.23047714
-0.23666893 0.26509586 -0.03084955 -0.37184352 0.17355806 -0.16199549 0.9401014 0.11452522
-0.14243722 -0.10925455 0.023128016 0.10498812 -0.20118305 -0.14269824 -0.008384785 -0.13227837
0.092565544 0.03665267 0.23377414 0.15404437 -0.24428476 -0.0362507 0.08070773 -0.18835668
0.1461997 0.23603277 0.05817635 0.22399075 -0.26201633 -0.13352911 -0.25072 0.20548213
0.084973395 0.20526019 -0.13318029 0.1298449 -0.29207584 -0.1046065 0.2650724 0.1712343
0.23342957 -0.17584996 -0.004523921 -0.3187958 0.021907145 -0.231381 0.14312524 -0.21106346
-0.093968086 -0.16385572 0.17438428 0.2309147 -0.034944795 0.040219985 -0.18887995 -0.069996536
-0.15683392 -0.07094696 -0.20066941 -0.060818452 -0.10622473 -0.10968314 -0.24023077 0.11465738
00000000: bd15 52be 7e4e be3e 00d3 9cbe 1619 253d
00000010: 859f 1e3e ccf5 9dbd 21da e83e 5aa1 c93d
00000020: 13d4 fb3c 9ec0 523e fb3d 20be 3178 893d
00000030: 7cca 85be 0626 fbbd aa84 0ebe 13c9 643e
00000040: 7e71 52be ee1e f43d d803 6c3e f73d 523e
00000050: 55fa e13c 26d9 cb3d 25ab 6c3e f112 9dbd
00000060: 8b60 3c3d 93ee 8dbe 8eb6 d0be 3e69 ae3e
00000070: d975 473e 873e 4d3d 5abd 2d3e d4c1 213e
00000080: 6a20 0ebe 9d62 cfbd b58a fabd 483d ad3d
00000090: b1fa 86be ad21 7ebd e906 69be 75da 11be
000000a0: 284f 20be 4787 cbbe d8d9 3cbe e122 11bd
000000b0: 3c25 04be ddc3 603d eefd a4be 94af 23be
000000c0: 8197 c3bd 580d 6e3e 909b bf3d 8956 9f3e
000000d0: f77f 19be 9708 883e d8af 36be 7f49 70be
000000e0: 22b5 5c3e 5355 99bc 4b4d 87be b47f 49be
000000f0: c2c6 d7bb 8e73 31be 3ce3 b0bd f37f 8b3d
00000100: 8cf2 b23d e0aa 4c3b 3c5c 073f 8d48 b2bd
00000110: 002b efbe b027 4f3e 028d 83be 82b0 72bd
00000120: 48b9 833d 97f3 d43d f7e4 78bc 714a c8be
00000130: e805 4d3e 4507 babc d427 323f e87e 8d3e
00000140: 6308 cf3d 0634 92be 4c5b fb3d b213 0a3e
00000150: 7ff6 7abe 3b1d 493e 5f35 f5be 1c0a 633e
00000160: ef16 25be 9465 b33c db4f 10be ce43 aabd
00000170: 6723 24bd 92e1 69be 8f80 773e 56c6 e5bc
00000180: 40a0 85bc 147c 6dbe 9fb7 94be 94cf 12be
00000190: ce8f fd3d b391 503d 1cea 07bf dd4b 903e
000001a0: b34e a63e f3a2 843e 666b b73e 8dcf 95be
000001b0: ac78 d3be d008 8a3e 2b30 c53d 2e5c 243e
000001c0: a569 26be 55cf 893d e343 cb3d ca11 12be
000001d0: 70f8 303e 8a17 d33d 4840 e83e a740 183e
000001e0: 7d5e edbd 48db 65be b7b5 c33d 95ee 36be
000001f0: 122a 2fbe c681 993e 6895 173e ea60 e93d
00000200: 4007 33bd 2090 89bb ec30 2fbe 1860 4d3e
00000210: cb71 4abe 054b d5bd 84de 81be 953f 633e
00000220: 1f5e 93be 741d b2bd 224e 293e 951b 2dbe
00000230: b166 86be afaf 1d3d 4f6b 56be 8913 12be
00000240: 94fb b13d cfc3 8a3e 76e1 f3bc ddd6 fb3d
00000250: 512c b83e 0fb2 e83d cb00 983c 7798 093e
00000260: 4eda 31be 1fb8 903d bc2b dc3c c4e7 763e
00000270: d6e5 df3d 6279 af3d ae3c 293e 5d12 ecbd
00000280: 4b72 823e c54e 41bf d89e 713e 0a4a 183c
00000290: d8c2 37bd 3a82 33be 481a 0ebf d057 7fbe
000002a0: 4895 49be fae7 323d a5ed 8a3d a221 873e
000002b0: f21b 9abe db60 48bd ac29 8b3c 6ab3 dfbe
000002c0: 58b4 24bb 06a3 6f3d 337d f8be b478 1dbe
000002d0: 8e73 fcbd f554 3a3e 3aaa cabe 8734 e23e
000002e0: 0698 e03d aa8d 833e 3a39 b33e 76a1 fcbe
000002f0: 4f18 fcbe 861a 403e eba9 7a3e 3302 6c3e
00000300: 5759 72be a5ba 873e 32b8 fcbc 4662 bebe
00000310: 34b9 313e 25e2 25be 7caa 703f 338c ea3d
00000320: 10db 11be d9c0 dfbd f776 bd3c 0304 d73d
00000330: ee02 4ebe 7d1f 12be 5660 09bc fb73 07be
00000340: 0193 bd3d 1c21 163d 7d62 6f3e cfbd 1d3e
00000350: c925 7abe 9d7b 14bd 184a a53d 93e0 40be
00000360: 60b5 153e 93b2 713e 534a 6e3d d55d 653e
00000370: 0127 86be dbbb 08be 5f5e 80be e869 523e
00000380: 8806 ae3d ba2f 523e 6a60 08be 10f6 043e
00000390: f78a 95be ef3b d6bd 92b7 873e 0b58 2f3e
000003a0: 2908 6f3e 0312 34be 663d 94bb 3439 a3be
000003b0: 9d76 b33c 24ef 6cbe 6c8f 123e 0521 58be
000003c0: 5772 c0bd cbc9 27be cb91 323e e774 6c3e
000003d0: 4622 0fbd b6bd 243d bf69 41be 585a 8fbd
000003e0: 1299 20be a44c 91bd 487c 4dbe c51c 79bd
000003f0: 5a8c d9bd 8ea1 e0bd 0eff 75be 7dd1 ea3d

linears.2.bias f4 [40]
0.009433051 -0.045629323 -0.07484204 -0.042157296 -0.16166177 -0.04311628 -0.009844611 0.06680488
0.008262475 0.02584613 -0.055893403 -0.046039198 0.008393904 -0.015062481 0.020671148 0.08633343
-0.059212953 -0.015027523 -0.09932583 -0.026223488 0.12316507 -0.034087986 -0.10362688 0.040712707
0.055172287 -0.06175385 0.0014663286 -0.010756019 -0.036819495 -0.037156586 0.04195038 0.0030530714
-0.13289127 -0.010047897 -0.010485473 -0.2575145 0.056346465 -0.0012943307 -0.012388586 -0.028499104
00000000: 158d 1a3c d0e5 3abd c946 99bd 21ad 2cbd
00000010: aa8a 25be b29a 30bd 4b4b 21bc ffd0 883d
00000020: 555f 073c 43bb d33c 7bf0 64bd 9993 3cbd
00000030: 9686 093c a0c8 76bc 8a56 a93c 95cf b03d
00000040: 4889 72bd 0036 76bc 576b cbbd a4d2 d6bc
00000050: f83d fc3d d89f 0bbd 543a d4bd 5ec2 263d
00000060: 56fc 613d 9bf1 7cbd d331 c03a 033a 30bc
00000070: 0ad0 16bd 8131 18bd 29d4 2b3d 0a16 483b
00000080: a614 08be ef9f 24bc 43cb 2bbc f1d8 83be
00000090: 8dcb 663d 88a6 a9ba 7ff9 4abc f476 e9bc

linears.3.weight f4 [40, 40]
-0.19313204 0.2535169 -0.074289866 0.129473 -0.13512188 0.25071573 -0.22660093 -0.2668077
-0.09168793 0.15860529 0.19022016 0.20895438 -0.0656891 0.23337413 0.1483511 -0.21609384
-0.06370005 -0.33831966 0.03592316 0.06641403 0.08242636 0.3289712 -0.26428488 0.096303
0.0024183113 0.008277629 -0.07072335 0.28612387 0.12625879 0.004067904 0.064058036 -0.12558782
0.068025164 -0.22651403 0.013443145 -0.069467574 -0.16906111 0.06212643 -0.08607192 0.05931086
0.40150595 -0.28397605 0.0088855075 0.056953616 -0.32848525 0.14526108 0.06299921 0.21680918
0.16415593 0.004521885 -0.3382294 -0.20501864 0.21048586 -0.002770438 -0.12456342 0.23696998
-0.3079586 -0.1803155 -0.15823348 -0.3293893 0.22981502 -0.15629745 0.07782725 0.16387933
0.11850065 -0.16795346 -0.098646514 -0.0048199757 -0.32626972 -0.39913517 0.24526149 0.048637576
-0.22039545 -0.16915813 -0.13930908 0.09337036 -0.1282829 -0.1910667 0.05867146 0.22798832
-0.13502601 0.13365352 -0.2168728 0.19069107 -0.010427191 0.1293406 -0.069237806 0.025689913
-0.085210554 -0.09707272 -0.12299384 0.09328471 -0.0068667294 -0.05675574 0.24918082 -0.12702191
0.026946837 0.04720283 -0.21328469 0.09511436 0.297418 -0.0017502228 0.17847474 0.24904433
0.21719207 0.21801782 0.19911435 -0.11796606 -0.20727642 -0.2080551 0.16048439 0.10722291
-0.1281404 -0.27440152 0.11069376 -0.2066188 0.054074578 0.028602127 0.06786357 -0.23874615
-0.19135578 0.23256814 -0.10916613 -0.0987595 -0.30040738 -0.301015 -0.15285236 0.2409039
-0.029874798 -0.22304837 0.10382433 -0.14458497 -0.15610985 0.22818695 0.2293919 -0.007813773
-0.18899406 0.06432888 -0.12006148 0.048625506 0.34181324 0.1863372 -0.26310688 0.27545157
0.28165704 0.10273553 0.18277071 0.14764625 -0.30253237 -0.22667716 -0.0031627247 -0.108532585
-0.24853021 0.020086886 0.25585327 0.05405719 -0.009837318 0.1279722 0.117229596 0.15386084
-0.21072571 -0.124640055 0.16104065 -0.005027018 0.20101057 0.0027900808 0.08236773 -0.26387942
-0.040627338 -0.29683915 -0.2350709 0.16240278 -0.10431702 0.09964967 -0.22259343 -0.14156799
0.13028862 0.15753943 0.1992246 0.25688395 0.121803805 0.070146285 -0.28430867 -0.0982899
0.18364505 0.1251618 0.14531703 -0.021507978 0.31804612 0.23161983 0.2657158 0.15619971
0.13508514 0.27630684 -0.040461306 -0.14764462 0.11386078 -0.061066408 0.017941788 -0.043067046
0.12900096 -0.023741562 0.18957648 0.05438501 0.14421192 0.19935526 -0.10710695 0.22906871
-0.08007579 -0.27021226 0.04875383 -0.1454339 0.22300383 -0.053429738 0.061864585 -0.17637503
-0.058329917 -0.17808425 -0.02522346 0.027611451 0.016575554 0.010680577 -0.03215794 -0.16754588
-0.1773326 0.05621024 -0.022584615 0.13576238 0.28277585 -0.057567067 0.006255318 -0.27558765
-0.122564346 0.09826675 0.27590415 0.19169746 0.16002025 -0.21721345 0.29480535 -0.16260551
-0.0013949379 0.30566722 0.24125518 -0.083666876 -0.017106267 0.060467504 0.09009348 0.019375442
-0.030903786 -0.048270717 0.073331535 -0.0047564832 0.16079761 -0.2856767 0.29231805 0.20658784
00000000: 68c4 45be f8cc 813e 4925 98bd 9294 043e
00000010: 645d 0abe d05d 803e 130a 68be 059b 88be
00000020: e2c6 bbbd 6d69 223e 13c9 423e 23f8 553e
00000030: 0288 86bd a1f9 6e3e 5ae9 173e b447 5dbe
00000040: 2c75 82bd 3c38 adbe 2a24 133d 1404 883d
00000050: 27cf a83d ea6e a83e 5950 87be 823a c53d
00000060: 887c 1e3b e49e 073c 67d7 90bd d47e 923e
00000070: fc49 013e 0d4c 853b dc30 833d 189a 00be
00000080: c750 8b3d 4bf3 67be a340 5c3c 0445 8ebd
00000090: 5b1e 2dbe 4978 7e3d 7a46 b0bd f2ef 723d
000000a0: 3092 cd3e 4f65 91be 8594 113c 3248 693d
000000b0: 382f a8be 52bf 143e bb05 813d 3a03 5e3e
000000c0: 7e18 283e 522c 943b 672c adbe 68f0 51be
000000d0: 9b89 573e 3d90 35bb 1b1b ffbd 42a8 723e
000000e0: c0ac 9dbe a0a4 38be f507 22be b7a5 a8be
000000f0: a154 6b3e 700c 20be e563 9f3d fccf 273e
00000100: 78b0 f23d fefb 2bbe 2f07 cabd e3f0 9dbb
00000110: d30c a7be 725b ccbe d425 7b3e 3238 473d
00000120: 58af 61be ca37 2dbe 0aa7 0ebe f638 bf3d
00000130: 985c 03be fda6 43be 7c51 703d c575 693e
00000140: 4244 0abe 78dc 083e e713 5ebe 8544 433e
00000150: cfd6 2abc dd71 043e 8dcc 8dbd a773 d23c
00000160: df82 aebd 10ce c6bd 32e4 fbbd 0e0c bf3d
00000170: 4d02 e1bb b578 68bd 4229 7f3e 0812 02be
00000180: 9dbf dc3c c157 413d 4d67 5abe 51cb c23d
00000190: 2c47 983e bb67 e5ba 15c2 363e 7a05 7f3e
000001a0: 9967 5e3e 1040 5f3e a2e4 4b3e 3198 f1bd
000001b0: 4540 54be 650c 55be 0556 243e af97 db3d
000001c0: 3d37 03be 5b7e 8cbe 69b3 e23d e193 53be
000001d0: 4e7d 5d3d 024f ea3c 0efc 8a3d df79 74be
000001e0: c5f2 43be 5826 6e3e 7e92 dfbd 6c42 cabd
000001f0: ffce 99be a31e 9abe 5485 1cbe 83af 763e
00000200: febb f4bc cb66 64be daa1 d43d 150e 14be
00000210: 43db 1fbe d7a9 693e b6e5 6a3e 5705 00bc
00000220: a987 41be dcbe 833d cbe2 f5bd 8a2b 473d
00000230: 2502 af3e 2ecf 3e3e f2b5 86be fd07 8d3e
00000240: 5a35 903e 0167 d23d 3f28 3b3e 9430 173e
00000250: 86e5 9abe 0f1e 68be b745 4fbb 5546 debd
00000260: b47e 7ebe 418d a43c 33ff 823e 126b 5d3d
00000270: b42c 21bc 250b 033e 1216 f03d b28d 1d3e
00000280: 7bc8 57be 4943 ffbd d7e7 243e afb9 a4bb
00000290: b7d5 4d3e cad9 363b 6ab0 a83d 341b 87be
000002a0: da68 26bd 4dfb 97be 6db6 70be ea4c 263e
000002b0: 29a4 d5bd 2015 cc3d 88ef 63be 33f7 10be
000002c0: 616a 053e 0452 213e 8901 4c3e 4b86 833e
000002d0: 4674 f93d dba8 8f3d e890 91be 374c c9bd
000002e0: 730d 3c3e 6a2a 003e fdcd 143e 8031 b0bc
000002f0: f1d6 a23e c02d 6d3e e70b 883e d1f2 1f3e
00000300: c253 0a3e 1778 8d3e c1ba 25bd 2730 17be
00000310: d72f e93d c520 7abd a8fa 923c 1267 30bd
00000320: d418 043e aa7d c2bc 5620 423e d1c2 5e3d
00000330: 4aac 133e c923 4c3e e35a dbbd fd90 6a3e
00000340: c7fe a3bd 4359 8abe 19b2 473d a0ec 14be
00000350: 1e5b 643e 24d9 5abd b865 7d3d a89b 34be
00000360: 5aeb 6ebd b85b 36be 6ea1 cebc 6931 e23c
00000370: 75c9 873c 96fd 2e3c 0bb8 03bd 2691 2bbe
00000380: ad96 35be b53c 663d 5f03 b9bc 4b05 0b3e
00000390: ffc7 903e 72cb 6bbd 69f9 cc3b d319 8dbe
000003a0: 0403 fbbd 1440 c93d 4f43 8d3e 574c 443e
000003b0: 59dc 233e 346d 5ebe baf0 963e 0f82 26be
000003c0: 59d6 b6ba 6a80 9c3e 990b 773e 8a59 abbd
000003d0: 7122 8cbc c6ac 773d ee82 b83d 3fb9 9e3c
000003e0: f029 fdbc 84b7 45bd d82e 963d 46dc 9bbb
000003f0: 21a8 243e 3744 92be b6aa 953e c38b 533e

linears.3.bias f4 [40]
-0.06208419 0.053522848 0.038530517 0.090311944 0.008339154 -0.013937819 0.04280865 -0.03198503
-0.02375465 0.011932733 -0.028867854 -0.0010253079 -0.042131014 0.0066000577 0.007867295 -0.03374137
-0.041412637 -0.056173403 0.057487108 0.018710751 -0.061949436 0.026504958 -0.011457475 0.020962084
-0.05394267 -0.018463692 -0.006949066 -0.0966271 0.030916855 0.006944611 -0.015811656 -0.016710045
-0.01959324 -0.00254786 -0.04075403 0.021031376 0.052816693 -0.03386927 0.035541285 -0.033310156
00000000: fe4b 7ebd c63a 5b3d 2dd2 1d3d 78f5 b83d
00000010: f2a0 083c 735b 64bc 1f58 2f3d bc02 03bd
00000020: 1d99 c2bc 8281 433c 477c ecbc a063 86ba
00000030: 9291 2cbd 4c45 d83b d4e5 003c 6434 0abd
00000040: 4ca0 29bd 1516 66bd 9a77 6b3d 4a47 993c
00000050: b1be 7dbd ed20 d93c 22b8 3bbc adb8 ab3c
00000060: fdf2 5cbd 2b41 97bc feb4 e3bb 6ee4 c5bd
00000070: 5845 fd3c 9f8f e33b 7287 81bc 81e3 88bc
00000080: 0182 a0bc fff9 26bb b3ed 26bd fe49 ac3c
00000090: 5156 583d 81ba 0abd bd93 113d 3b70 08bd

linears.4.weight f4 [40, 40]
0.08008541 -0.012130922 0.17116717 0.14137521 -0.27175498 -0.13046224 -0.17092648 0.06513296
-0.075615376 0.3172875 -0.19524477 0.117252156 -0.25439662 -0.05468493 0.15636265 -0.11162752
0.09701817 -0.09364356 0.23968172 -0.1641894 0.14460914 0.018930646 0.11381207 0.22807932
-0.044397507 -0.2532939 0.014968779 -0.18970942 -0.112593986 0.16139741 -0.05763794 -0.16880557
-0.20752338 -0.15606374 0.106733225 -0.06287732 0.17124502 0.15259364 0.22665548 0.2566344
-0.112096 -0.14978781 0.080098 0.31032774 -0.13233963 -0.12784243 0.13941021 0.023767963
-0.228736 -0.1443109 -0.029165963 -0.091425344 0.1523568 -0.007785424 0.016621467 0.15861888
-0.25654063 -0.13464457 0.25714958 0.005666377 0.1833058 -0.12182594 0.011332503 -0.2019019
-0.19619821 -0.16642962 0.17146312 -0.26428124 0.1422826 -0.117573224 -0.11714526 -0.15832286
0.14990363 0.25239906 0.118038096 0.15173686 0.18819106 -0.2805102 0.34019834 0.064621925
-0.14870992 0.18566647 0.08955566 0.071403556 0.15062883 0.045299344 0.19979806 -0.1513397
-0.23009188 0.17326425 -0.19456074 0.26147345 -0.20065555 0.22122507 -0.18500726 -0.1309982
-0.18369019 0.059948284 0.21913993 -0.14532672 0.18886064 0.09916038 -0.02685135 0.06595766
0.1189807 -0.17662995 -0.24198753 0.039633833 0.1813786 -0.051967178 0.12343276 -0.11450635
-0.0711275 -0.05866314 -0.05705495 0.051045164 0.26266855 0.16663732 0.1617244 -0.16605401
0.22558874 -0.17578362 -0.2349536 0.051736422 0.16726895 0.18727073 -0.0010697362 0.0065902793
-0.10969022 -0.16939895 0.14737102 -0.043331742 0.1557076 -0.059680097 0.16818409 -0.12172377
-0.22262633 0.253427 -0.16627812 0.04862573 -0.04230921 0.005859932 0.14516659 -0.099850126
-0.23902614 0.035732087 -0.1483299 0.059457824 0.032223213 -0.015188611 0.18364799 0.2308966
-0.24612747 0.0060685407 -0.06818205 -0.16523671 -0.21401529 0.15354486 -0.09026674 0.18243809
-0.1554565 -0.08874734 -0.22041897 -0.23482808 -0.087476365 -0.1862021 -0.20916654 0.16213685
-0.27191284 -0.019250588 -0.0162163 0.0848151 0.06742124 0.21091272 -0.2034906 -0.12961298
0.18590958 0.12985075 0.1434292 -0.24390425 -0.11948934 0.14183669 0.15170129 -0.20860873
-0.15052533 -0.2145047 -0.01008582 0.20542726 -0.112016685 0.07973801 0.12366739 0.13235596
-0.11589125 -0.037865676 0.11395413 -0.030124191 -0.1799026 0.20901358 -0.15483187 0.14512393
0.0133862635 -0.060273312 -0.22692153 0.19355805 0.053948022 0.019947175 0.20567474 0.001848245
0.16418874 -0.024936719 -0.20849985 -0.23316464 0.13374327 -0.0074733747 0.16948816 -0.08729812
-0.2161116 -0.03205444 -0.09202128 0.21090665 -0.0044069174 0.15531786 0.07001201 -0.00044300963
0.02501617 -0.11674539 0.20429833 -0.23427507 -0.18309157 -0.087648 -0.28557426 0.15541866
-0.064382635 -0.21331324 0.09913219 0.116066515 0.009105554 -0.24643959 -0.18746692 0.10976465
0.0004297594 0.20898613 0.051677287 0.20730852 -0.33167735 -0.09275701 -0.27182403 0.24715325
-0.08782775 -0.053918328 0.085914284 0.2949064 -0.08353108 -0.0015678974 0.03760116 -0.32644898
00000000: d203 a43d c6c0 46bc 7246 2f3e aac4 103e
00000010: 7823 8bbe e597 05be 5a07 2fbe 6e64 853d
00000020: 3cdc 9abd 8273 a23e 3fee 47be e621 f03d
00000030: 4640 82be 4efd 5fbd 881d 203e f89c e4bd
00000040: 76b1 c63d 32c8 bfbd 206f 753e 4421 28be
00000050: 6b14 143e 7114 9b3c 4d16 e93d a08d 693e
00000060: 29da 35bd bdaf 81be 9c3f 753c 3043 42be
00000070: ad97 e6bd 5d45 253e c315 6cbd 5edb 2cbe
00000080: 0281 54be 2ccf 1fbe f396 da3d d3c5 80bd
00000090: db5a 2f3e 8241 1c3e 6018 683e 9665 833e
000000a0: 9692 e5bd fa61 19be 6c0a a43d 47e3 9e3e
000000b0: 0a84 07be 20e9 02be 8dc1 0e3e 08b5 c23c
000000c0: c539 6abe 3dc6 13be 75ed eebc 363d bbbd
000000d0: 6c03 1c3e df1c ffbb be29 883c fd6c 223e
000000e0: 4b59 83be 44e0 09be 1ca9 833e 04ad b93b
000000f0: 84b4 3b3e e17f f9bd f6ab 393c 5fbf 4ebe
00000100: 2fe8 48be 876c 2abe 0794 2f3e df4f 87be
00000110: 88b2 113e 3bca f0bd dbe9 efbd 631f 22be
00000120: 5680 193e 733a 813e f5bd f13d e860 1b3e
00000130: 28b5 403e 089f 8fbe 7a2e ae3e 8058 843d
00000140: 6a47 18be 5a1f 3e3e f568 b73d 073c 923d
00000150: 723e 1a3e ce8b 393d dd97 4c3e cbf8 1abe
00000160: 359d 6bbe 2f6c 313e ee3a 47be d9df 853e
00000170: a678 4dbe d388 623e 8b72 3dbe 6424 06be
00000180: 4819 3cbe 558c 753d 3866 603e 87d0 14be
00000190: af64 413e 9914 cb3d 5df7 dbbc cf14 873d
000001a0: 27ac f33d 7bde 34be 94cb 77be 1657 223d
000001b0: 50bb 393e 89db 54bd 51ca fc3d 4e82 eabd
000001c0: 4bab 91bd c348 70bd 74b2 69bd bc14 513d
000001d0: 7e7c 863e f9a2 2a3e 159b 253e 100a 2abe
000001e0: bc00 673e 9f00 34be ad97 70be 92e9 533d
000001f0: 8d48 2b3e e6c3 3f3e 6436 8cba 45f3 d73b
00000200: 44a5 e0bd eb76 2dbe 6ee8 163e a07c 31bd
00000210: d071 1f3e 1e73 74bd 7338 2c3e 504a f9bd
00000220: 28f8 63be 2fc1 813e d044 2abe c62b 473d
00000230: 6c4c 2dbd ac04 c03b 8da6 143e 397e ccbd
00000240: 45c3 74be cf5b 123d cbe3 17be 0c8a 733d
00000250: 7dfc 033d a7d9 78bc 380e 3c3e 2970 6c3e
00000260: d708 7cbe 9cda c63b 08a3 8bbd d033 29be
00000270: d326 5bbe dd3a 1d3e c5dd b8bd 0dd1 3a3e
00000280: fd2f 1fbe 2ac1 b5bd 83b5 61be c676 70be
00000290: cf26 b3bd c3ab 3ebe c12f 56be 3407 263e
000002a0: 2938 8bbe 69b3 9dbc 0cd8 84bc 8ab3 ad3d
000002b0: 2614 8a3d 81f9 573e d75f 50be 44b9 04be
000002c0: 155f 3e3e 98f7 043e 1bdf 123e 09c2 79be
000002d0: d4b6 f4bd a33d 113e 9557 1b3e 879d 55be
000002e0: 5023 1abe 1fa7 5bbe ff3e 25bc 865b 523e
000002f0: 0169 e5bd af4d a33d 5445 fd3d 5288 073e
00000300: 6458 edbd 0a19 1bbd c860 e93d 02c7 f6bc
00000310: 6338 38be a807 563e 3f8c 1ebe 5e9b 143e
00000320: 0f52 5b3c 26e1 76bd 1e5e 68be 1534 463e
00000330: 9af8 5c3d 4268 a33c 669c 523e d040 f23a
00000340: 1821 283e 1748 ccbc fc80 55be b6c2 6ebe
00000350: fff3 083e 36e3 f4bb 4e8e 2d3e 5bc9 b2bd
00000360: 5c4c 5dbe 844b 03bd a775 bcbd eaf7 573e
00000370: e767 90bb a50b 1f3e 7562 8f3d bf43 e8b9
00000380: b6ee cc3c 3518 efbd 9533 513e cee5 6fbe
00000390: 5b7c 3bbe cb80 b3bd ca36 92be 1226 1f3e
000003a0: 0bdb 83bd c96e 5abe d105 cb3d 48b4 ed3d
000003b0: 762f 153c a95a 7cbe 54f7 3fbe 4acc e03d
000003c0: 5551 e139 7600 563e 90ab 533d af48 543e
000003d0: 9dd1 a9be 63f7 bdbd 852c 8bbe be15 7d3e
000003e0: 09df b3bd 77d9 5cbd d4f3 af3d f9fd 963e
000003f0: 5812 abbd e881 cdba ad03 1a3d 5224 a7be

linears.4.bias f4 [40]
0.031965945 0.045523092 0.037829626 0.0018459797 -0.03176857 -0.014575106 0.007064203 0.0268177
0.017230801 0.026340818 -0.040591527 0.027557746 0.05307584 -0.05562616 0.043722127 -0.009387492
-0.010747651 0.023035828 0.01791737 -0.00053581875 0.038276244 0.047489066 -0.001419689 0.042072326
-0.054058153 -0.07414665 0.018050848 0.03568734 -0.05219538 -0.034297395 -0.033546582 -0.062262062
-0.048038565 0.05570459 -0.035271253 0.032188427 0.03969807 -0.027988464 0.057403155 -0.0022398175
00000000: b9ee 023d 6c76 3a3d 3df3 1a3d cdf4 f13a
00000010: c31f 02bd 6dcc 6ebc d47a e73b cbb0 db3c
00000020: 9c27 8d3c b3c8 d73c 4d43 26bd c8c0 e13c
00000030: 0d66 593d 42d8 63bd f915 333d ffcd 19bc
00000040: ea16 30bc a2b5 bc3c 73c7 923c 3076 0cba
00000050: 8dc7 1c3d e583 423d dc14 baba 0854 2c3d
00000060: 156c 5dbd 33da 97bd 5fdf 933c e32c 123d
00000070: d3ca 55bd 6d7b 0cbd 2468 09bd 8106 7fbd
00000080: 16c4 44bd 7f2a 643d 9778 10bd 03d8 033d
00000090: 729a 223d 1048 e5bc 921f 6b3d e7c9 12bb

linears.5.weight f4 [3, 40]
0.08886894 0.23468602 0.36369413 -0.06427381 -0.26800346 -0.13498664 -0.29376185 0.16440986
0.36446407 0.27793732 -0.24920635 0.20988059 0.22573936 -0.30699906 0.059158616 0.046036057
0.022735922 0.26757273 0.1638875 0.050429866 0.24084648 -0.42542616 0.02937648 0.1515942
-0.53391063 -0.457436 0.07028554 0.023675676 0.55912095 -0.2558684 -0.120982684 -0.49893907
-0.14111063 0.24856143 -0.26383862 0.11130588 0.16716017 -0.2139329 0.44573683 -0.045399845
-0.13206317 -0.098847926 0.30257466 -0.3062202 -0.2764208 -0.17907162 -0.12343813 -0.20067984
0.16952254 0.20522033 0.31833813 0.12794107 0.106062695 -0.045766678 0.18632026 0.11766635
0.13763927 0.13489361 -0.17652139 0.2003865 -0.31452376 -0.023423363 0.22779834 0.11282822
-0.06613568 0.07618562 -0.21223001 -0.13725896 -0.041303206 0.10935681 0.31193283 0.12130454
-0.00860128 0.014836682 -0.056081407 0.10040891 -0.33435744 -0.19912179 0.106734306 -0.18345432
0.07803125 -0.03952331 -0.3481399 -0.28435358 0.24834543 -0.31364906 -0.09378191 -0.1158815
0.10922828 0.07038091 -0.04289826 -0.027272727 -0.31257015 0.10485608 -0.031209847 0.13665992
-0.10489996 -0.16924001 0.3097642 -0.2685982 0.29130632 0.18324307 -0.17441979 0.2349645
-0.16542721 -0.2499016 0.2201415 -0.074042656 0.15144528 0.2951349 0.17465395 0.08253582
-0.26950577 0.22615968 0.31914932 0.2150493 0.015845757 -0.21145718 -0.014992443 0.04122477
00000000: eb00 b63d 8851 703e 1e36 ba3e fda1 83bd
00000010: c037 89be f039 0abe f467 96be 0f5b 283e
00000020: 099b ba3e cd4d 8e3e f32f 7fbe f0ea 563e
00000030: 3828 673e fb2e 9dbe 4e50 723d 4e90 3c3d
00000040: af40 ba3c 4bff 883e 20d2 273e 8c8f 4e3d
00000050: 76a0 763e 75d1 d9be f2a6 f03c 833b 1b3e
00000060: 5eae 08bf 0d35 eabe ddf1 8f3d 7ef3 c13c
00000070: 8d22 0f3f 2f01 83be c5c5 f7bd f174 ffbe
00000080: 4e7f 10be e386 7e3e db15 87be 56f4 e33d
00000090: 092c 2b3e 3a11 5bbe 9e37 e43e 30f5 39bd
000000a0: 913b 07be c870 cabd 11eb 9a3e e5c8 9cbe
000000b0: 0787 8dbe 8d5e 37be 21cd fcbd 047f 4dbe
000000c0: 5197 2d3e 4725 523e 37fd a23e fc02 033e
000000d0: 6637 d93d d775 3bbd bdca 3e3e 0efb f03d
000000e0: 4ff1 0c3e 8d21 0a3e 06c2 34be 1e32 4d3e
000000f0: 4209 a1be 5ae2 bfbc f843 693e 7b12 e73d
00000100: 2572 87bd 3507 9c3d d352 59be 9d8d 0cbe
00000110: 8d2d 29bd 77f6 df3d a9b5 9f3e 846e f83d
00000120: 62ec 0cbc 8e15 733c 9eb5 65bd 30a3 cd3d
00000130: e630 abbe 95e6 4bbe 8497 da3d 73db 3bbe
00000140: d9ce 9f3d 32e3 21bd 653f b2be cb96 91be
00000150: 444e 7e3e 9c96 a0be bb10 c0bd 4853 edbd
00000160: 14b3 df3d de23 903d 16b6 2fbd 0e6b dfbc
00000170: 3209 a0be c9be d63d cbab ffbc 94f0 0b3e
00000180: cad5 d6bd 414d 2dbe 6a99 9e3e b485 89be
00000190: 1a26 953e 12a4 3b3e 1a9b 32be 899a 703e
000001a0: c065 29be 34e6 7fbe c66c 613e ada3 97bd
000001b0: 7914 1b3e ec1b 973e 7cd8 323e 8a08 a93d
000001c0: a9fc 89be 6796 673e 8a67 a33e e235 5c3e
000001d0: f6ce 813c 3b88 58be dda2 75bc 4edb 283d

linears.5.bias f4 [3]
0.072318636 -0.017178085 0.0
00000000: cb1b 943d 0eb9 8cbc 0000 0000

exp_avg f4 [40, 2]
0.0031013174 0.006344066 0.0006345807 0.0011794702 -0.0010402832 -0.0022752325 0.0019234004 0.0043495316
-0.0014205314 -0.0024250986 -0.00080369075 -0.0011353071 -0.0006681155 -0.0014975982 -0.002039918 -0.004278022
0.0014757619 0.0030593015 -0.0021887869 -0.0043665017 0.0019155456 0.0033845063 0.000638853 0.0012070999
-0.0013652445 -0.0026337022 -0.0012159501 -0.0020358749 -0.0004239513 -0.0015581767 -0.00059785816 -0.0009323144
-0.00019670362 -0.00015972591 -0.0014138169 -0.0028583833 -0.00021875228 -0.0001628192 -0.0012309767 -0.0024544203
-9.646357e-05 -0.00022384428 0.00045008125 0.00089777797 0.0013632522 0.0029158033 -0.0028780515 -0.005396735
-0.00092112523 -0.0018964978 0.00074820913 0.0017387545 0.0018392195 0.0039949603 -0.0016560546 -0.0030711195
-0.0002973248 -0.0004830057 2.7665062e-06 0.00039668928 0.0019240333 0.0043658903 0.0015798914 0.0031198433
-0.0014030117 -0.0030042066 -0.0013077637 -0.0030469028 0.0010939548 0.002903989 -0.0020498866 -0.0045027877
0.0023616839 0.004286965 -0.0034919702 -0.0074048126 0.00085281936 0.0017150028 0.0019576491 0.003562908
00000000: 793f 4b3b e2e1 cf3b fd59 263a 7498 9a3a
00000010: 1d5a 88ba 111c 15bb 9c1a fc3a 8486 8e3b
00000020: 2031 baba 67ee 1ebb c6ae 52ba 96ce 94ba
00000030: 7924 2fba 0f4b c4ba 25b0 05bb a62e 8cbb
00000040: 5a6e c13a 907e 483b c071 0fbb df14 8fbb
00000050: 0b13 fb3a 98ce 5d3b b378 273a 8d37 9e3a
00000060: 01f2 b2ba 319a 2cbb 8460 9fba 506c 05bb
00000070: c845 deb9 bc3b ccba 95b9 1cba 8f66 74ba
00000080: 3a42 4eb9 197c 27b9 d34f b9ba b753 3bbb
00000090: de60 65b9 72ba 2ab9 b958 a1ba 57da 20bb
000000a0: 7c4c cab8 beb7 6ab9 e2f8 eb39 dc58 6b3a
000000b0: 27af b23a 1017 3f3b b19d 3cbb 18d7 b0bb
000000c0: ab77 71ba e893 f8ba 7723 443a ebe6 e33a
000000d0: f711 f13a 28e8 823b f90f d9ba d644 49bb
000000e0: 42e2 9bb9 ed3b fdb9 37a8 3936 bcfa cf39
000000f0: d82f fc3a be0f 8f3b 5c14 cf3a 4976 4c3b
00000100: 43e5 b7ba 39e2 44bb 4569 abba 8cae 47bb
00000110: 0863 8f3a da50 3e3b 6457 06bb 1f8c 93bb
00000120: 7bc6 1a3b ab79 8c3b 8ad9 64bb 12a4 f2bb
00000130: bd8f 5f3a f2c9 e03a e74b 003b ad7f 693b

exp_avg_sq f4 [40, 2]
0.32601836 0.9034396 0.0069178557 0.02228718 0.00621337 0.016394788 0.1624837 0.45006314
0.04097502 0.1145087 0.010260039 0.030370485 0.00084543024 0.001999449 0.12900673 0.35543698
0.07300298 0.20357147 0.09205212 0.25797504 0.059897397 0.1668828 0.0043627173 0.013169472
0.041955117 0.12132658 0.042015105 0.119731806 0.020677457 0.057117023 0.0019658005 0.0065914253
1.9406287e-05 7.4760406e-05 0.06390337 0.17833276 0.0022982762 0.0063343444 0.08626446 0.24938482
1.6787322e-05 7.161002e-05 0.007215572 0.024007188 0.04388494 0.12480204 0.13436222 0.3728605
0.013032466 0.038489748 0.021594923 0.060030647 0.10654417 0.29042244 0.05652547 0.16044912
0.00632137 0.018051008 3.8849257e-06 4.640408e-06 0.100708224 0.27976286 0.056076683 0.16083457
0.07041098 0.20184596 0.044824917 0.12036556 0.032331843 0.08943143 0.12012433 0.33318645
0.11307712 0.32061014 0.4750167 1.3055823 0.032434348 0.09141424 0.046697263 0.13134609
00000000: e1eb a63e d147 673f 2eaf e23b 9b93 b63c
00000010: 8699 cb3b 5d4e 863c 2162 263e ad6e e63e
00000020: 6cd5 273d 8a83 ea3d b919 283c 86cb f83c
00000030: dd9f 5d3a 3009 033b 571a 043e d6fb b53e
00000040: 9682 953d 0a75 503e d285 bc3d 4e15 843e
00000050: f956 753d 53e3 2a3e 20f5 8e3b c5c4 573c
00000060: 21d9 2b3d 127a f83d 0818 2c3d f335 f53d
00000070: c563 a93c 8af3 693d a9d4 003b e2fc d73b
00000080: afca a237 b0c8 9c38 c5df 823d dd9c 363e
00000090: ad9e 163b 5590 cf3b 6cab b03d bc5e 7f3e
000000a0: 80d2 8c37 562d 9638 9b70 ec3b b9aa c43c
000000b0: b2c0 333d 3698 ff3d 4096 093e 92e7 be3e
000000c0: 2086 553c 6da7 1d3d d6e7 b03c b2e2 753d
000000d0: d433 da3d 40b2 943e 4087 673d c64c 243e
000000e0: 7f23 cf3b b5df 933c 425b 8236 cdb4 9b36
000000f0: 1d40 ce3d 143d 8f3e aab0 653d d1b1 243e
00000100: a233 903d b5b0 4e3e 559a 373d 3882 f63d
00000110: 656e 043d d327 b73d bf03 f63d 6a97 aa3e
00000120: fa94 e73d 0327 a43e 6435 f33e 521d a73f
00000130: e1d9 043d 6437 bb3d a145 3f3d 977f 063e

exp_avg f4 [40]
0.007365071 0.0013034563 -0.0024975264 0.005057295 -0.0027953843 -0.001336036 -0.0016100403 -0.0048678825
0.003535673 -0.004915383 0.0038388767 0.0013430879 -0.0029876635 -0.002373702 -0.0018642499 -0.0010324769
-0.00013693707 -0.003274828 -0.00022571014 -0.0029513082 -0.00022106941 0.0010647067 0.0032994617 -0.0060914643
-0.0020984097 0.0019928967 0.004581414 -0.0034775 -0.0005976192 0.0004361496 0.004985178 0.0035661072
-0.0034885658 -0.0034193194 0.0032718314 -0.005108579 0.0048575513 -0.008614176 0.0020114586 0.0039705974
00000000: b256 f13b bcd8 aa3a 8aad 23bb aab7 a53b
00000010: c432 37bb ee1d afba fd07 d3ba c282 9fbb
00000020: c0b6 673b 3911 a1bb aa95 7b3b 8d0a b03a
00000030: adcc 43bb 1c90 1bbb d959 f4ba 2d54 87ba
00000040: c496 0fb9 7f9e 56bb 9bac 6cb9 bc6a 41bb
00000050: dece 67b9 a18d 8b3a c83b 583b e89a c7bb
00000060: 7985 09bb 429b 023b b01f 963b c5e6 63bb
00000070: 8ca9 1cba 02ab e439 b45a a33b 5ab5 693b
00000080: 6ca0 64bb a916 60bb 396c 563b de65 a7bb
00000090: 182c 9f3b 7922 0dbc add2 033b c91b 823b

exp_avg_sq f4 [40]
0.90779597 0.02230847 0.016457332 0.45224276 0.11533351 0.030535024 0.0020080963 0.3568889
0.20451763 0.259048 0.1676183 0.013202501 0.121886626 0.12013437 0.057492577 0.0065901456
7.6358825e-05 0.17921005 0.006392574 0.25043985 7.1721915e-05 0.02398643 0.12537368 0.37430954
0.038513426 0.060309332 0.2918789 0.16095637 0.018130044 4.656342e-06 0.28084207 0.16162017
0.20273457 0.12069019 0.08982408 0.33479178 0.32167563 1.3119236 0.09173828 0.1318917
00000000: 5165 683f 41c0 b63c 87d1 863c 5d8c e73e
00000010: fa33 ec3d 9624 fa3c 449a 033b 24ba b63e
00000020: 126d 513e f1a1 843e 22a4 2b3e 4e4f 583c
00000030: b29f f93d 0209 f63d 567d 6b3d 26f2 d73b
00000040: d522 a038 d782 373e cc78 d13b a739 803e
00000050: 6969 9638 317f c43c f561 003e 80a5 bf3e
00000060: 41c0 1d3d eb06 773d 2771 953e bfd1 243e
00000070: 7585 943c ac3d 9c36 88ca 8f3e c27f 253e
00000080: a799 4f3e 6b2c f73d b0f5 b73d d469 ab3e
00000090: abb2 a43e 1ded a73f 48e1 bb3d 9e0e 073e

exp_avg f4 [40, 40]
6.218222e-06 3.618277e-05 -2.2549435e-05 1.7164475e-05 -3.4673147e-05 4.973339e-05 -2.3136638e-05 -2.6256845e-05
6.425235e-06 -1.0153783e-05 1.8581904e-05 -7.3121606e-05 -2.487029e-05 8.284015e-06 -1.340658e-05 9.7278615e-05
-4.6903606e-05 -2.8365339e-05 -1.7040626e-05 4.7273476e-05 -2.0336884e-06 -6.822957e-05 4.546909e-05 -1.6322509e-05
-5.0284812e-05 -2.656566e-05 3.977835e-06 -2.2732904e-05 6.3018124e-05 8.054273e-06 1.6458209e-05 1.631387e-05
-1.9574332e-05 -3.7523703e-05 1.0094341e-05 -1.1318344e-05 1.6459177e-05 1.3655609e-05 6.450074e-06 3.806449e-05
-1.8529538e-05 -0.00045105614 0.0002252675 -0.00014633217 0.00042446575 -0.0007115929 0.0002267174 0.00028676397
-3.9700417e-06 0.00011015875 -0.00020647999 0.0010000531 0.00030518408 -0.00017538705 8.9026995e-05 -0.0013009096
0.0006611477 0.0003330357 0.00013864154 -0.0006730719 7.649387e-06 0.0009437515 -0.0005608267 0.00017591532
0.000614402 0.00039430987 1.628196e-05 0.00027197157 -0.000858607 -8.0661004e-05 -0.00013760124 -0.00019418643
0.00022905211 0.0003865919 -9.4176205e-05 9.681333e-05 -0.00018514738 -0.0002149228 -2.0078845e-05 -0.00046654197
1.5446485e-05 -5.6256424e-05 -1.9047178e-05 3.068509e-05 3.2902077e-05 -4.9674214e-05 -2.5141064e-05 -3.8812723e-06
3.9347167e-05 3.405247e-05 -1.6241023e-05 3.3980403e-05 5.4385157e-05 -2.6232978e-05 -4.338436e-05 -6.4419764e-05
3.2966982e-05 1.6775157e-05 -3.7419595e-05 -2.6081947e-05 -3.2702142e-06 5.1317296e-05 -2.8596874e-05 1.4305342e-05
1.7519495e-05 7.114028e-06 2.2673605e-05 3.2663746e-05 -1.3002438e-05 3.474544e-05 2.9817911e-05 -4.5495042e-05
2.9387254e-05 -4.789941e-05 -1.3088894e-05 -1.4363833e-06 -2.3607654e-05 8.532784e-06 1.7377743e-05 -2.9198598e-05
3.0687631e-06 -7.467375e-05 2.8071914e-05 -1.5183413e-05 7.179896e-05 -0.00012260712 2.5458248e-05 4.178876e-05
1.0402372e-05 2.3675964e-05 -3.2374912e-05 0.00017004249 5.336656e-05 -3.6740614e-05 3.240492e-07 -0.0002095491
0.00011519789 5.3785632e-05 8.467728e-06 -0.000111657224 -1.4615749e-07 0.00015846873 -9.441382e-05 2.8525827e-05
0.000101683705 6.9945316e-05 1.0259716e-05 4.648229e-05 -0.0001452323 -7.561675e-06 -1.1970366e-05 -3.6459554e-05
3.9224706e-05 4.3620945e-05 -1.3219335e-05 1.1603947e-05 -3.1455456e-05 -3.3359738e-05 4.7857247e-06 -7.84223e-05
-2.9060468e-06 -4.099205e-05 1.7960892e-05 -1.1942541e-05 3.6027624e-05 -5.5637e-05 1.7544078e-05 2.3358765e-05
-2.5006733e-08 1.3149583e-05 -1.8460369e-05 7.395946e-05 2.9780516e-05 -1.2546072e-05 6.1002684e-06 -0.00010060717
5.027322e-05 2.7909382e-05 1.0274321e-05 -4.9127484e-05 1.1549605e-06 7.2790186e-05 -4.555719e-05 1.6249089e-05
4.8659844e-05 2.7632293e-05 2.2120577e-07 2.4687408e-05 -6.228222e-05 -3.6582323e-06 -1.09342855e-05 -2.0328145e-05
2.1255419e-05 2.9726943e-05 -9.868714e-06 9.376831e-06 -1.755316e-05 -1.2771517e-05 -2.6478992e-06 -3.8720733e-05
1.4807584e-05 -3.9343173e-05 -1.974572e-05 3.2070413e-05 1.3553208e-05 -2.7868193e-05 -2.1055863e-05 -1.0577941e-05
3.2760385e-05 1.8198592e-05 -8.58151e-06 2.7190003e-06 3.7721973e-05 -1.7576524e-05 -3.4105793e-05 -3.6756963e-05
8.1182525e-06 4.1368885e-06 -2.9215616e-05 -1.46755265e-05 -2.6731393e-06 2.5289592e-05 -4.3134974e-06 4.9720547e-06
-6.7374954e-06 -6.5800064e-06 1.9321622e-05 1.8900784e-05 1.2491993e-05 2.6452846e-05 2.7062653e-05 -2.9972196e-05
1.6875229e-05 -4.0488852e-05 -9.867472e-06 -3.8253997e-06 -1.2771874e-05 5.7010893e-06 1.3203371e-05 -8.890494e-06
4.2479135e-07 -0.0005281713 0.00019387412 -9.950395e-05 0.0004615382 -0.0007582794 0.00018770277 0.0002745768
4.9612157e-05 0.00015985855 -0.00022799723 0.0010064199 0.00038269823 -0.0002025573 2.8326924e-05 -0.0013578808
00000000: 1fa6 d036 f4c2 1738 8b28 bdb7 6efc 8f37
00000010: 026e 11b8 d298 5038 8d15 c2b7 2542 dcb7
00000020: 5998 d736 2a5a 2ab7 56e0 9b37 dd58 99b8
00000030: 8ba0 d0b7 93fb 0a37 d3ec 60b7 0f02 cc38
00000040: 5dba 44b8 1af2 edb7 77f2 8eb7 8247 4638
00000050: 807a 08b6 7916 8fb8 10b6 3e38 52ec 88b7
00000060: e8e8 52b8 52d9 deb7 5879 8536 8ab2 beb7
00000070: 9928 8438 d720 0737 bc0f 8a37 c5d9 8837
00000080: 8f33 a4b7 c562 1db8 dd5a 2937 ebe3 3db7
00000090: d011 8a37 651a 6537 b76d d836 6fa7 1f38
000000a0: e16f 9bb7 bb7b ecb9 c935 6c39 be70 19b9
000000b0: d48a de39 318a 3aba fdba 6d39 cf58 9639
000000c0: 6636 85b6 0705 e738 8d82 58b9 3714 833a
000000d0: 1d01 a039 1ae8 37b9 01b4 ba38 4883 aaba
000000e0: df50 2d3a 4c9b ae39 4e60 1139 1771 30ba
000000f0: de55 0037 1766 773a 7104 13ba e975 3839
00000100: d20f 213a 60bb ce39 3e95 8837 6897 8e39
00000110: 2414 61ba 8c28 a9b8 0d49 10b9 869e 4bb9
00000120: b52d 7039 7daf ca39 7780 c5b8 4308 cb38
00000130: 1f24 42b9 e65c 61b9 fe6e a8b7 349a f4b9
00000140: 1393 8137 e0f4 6bb8 81c7 9fb7 ddb3 0038
00000150: 5600 0a38 4859 50b8 06e6 d2b7 e03b 82b6
00000160: b308 2538 90d3 0e38 553d 88b7 2e86 0e38
00000170: 9e1b 6438 e40e dcb7 9af7 35b8 1919 87b8
00000180: 0746 0a38 60b8 8c37 fcf2 1cb8 8eca dab7
00000190: da75 5bb6 873d 5738 52e3 efb7 fa00 7037
000001a0: d4f6 9237 09b5 ee36 3233 be37 6e00 0938
000001b0: 0c25 5ab7 a2bb 1138 7a21 fa37 eed1 3eb8
000001c0: a684 f637 9ae7 48b8 5f98 5bb7 c1c9 c0b5
000001d0: 0d09 c6b7 0728 0f37 6bc6 9137 83ef f4b7
000001e0: f3f0 4d36 2a9a 9cb8 fa7b eb37 43bc 7eb7
000001f0: c692 9638 1990 00b9 2c8f d537 5746 2f38
00000200: d985 2e37 bf9b c637 4cca 07b8 6f4d 3239
00000210: e8d5 5f38 ef19 1ab8 fcf8 ad34 69ba 5bb9
00000220: 6596 f138 e297 6138 9d10 0e37 8429 eab8
00000230: 77ef 1cb4 a02a 2639 0900 c6b8 bf4a ef37
00000240: 063f d538 9baf 9238 2521 2c37 fbf5 4238
00000250: 8049 18b9 4bba fdb6 55d4 48b7 26ec 18b8
00000260: 3585 2438 a2f5 3638 9dc8 5db7 93ae 4237
00000270: 0aef 03b8 bfeb 0bb8 1095 a036 a776 a4b8
00000280: 8105 43b6 e1ee 2bb8 b9aa 9637 d35c 48b7
00000290: 5e1c 1738 c65b 69b8 9f2b 9337 91f2 c337
000002a0: 63ce d6b2 079d 5c37 57db 9ab7 af1a 9b38
000002b0: 2cd1 f937 f87c 52b7 e8b0 cc36 10fd d2b8
000002c0: 75dc 5238 f11e ea37 df5f 2c37 3c0e 4eb8
000002d0: 2404 9b35 efa6 9838 a914 3fb8 a74e 8837
000002e0: 1c18 4c38 e6cb e737 9484 6d34 ce17 cf37
000002f0: 839d 82b8 f47f 75b6 6672 37b7 5c86 aab7
00000300: aa4d b237 205e f937 ce91 25b7 2f51 1d37
00000310: 203f 93b7 3f45 56b7 90b2 31b6 1268 22b8
00000320: 176e 7837 6904 25b8 9ca3 a5b7 5883 0638
00000330: 9662 6337 7dc6 e9b7 1fa1 b0b7 e977 31b7
00000340: 3268 0938 2ea9 9837 4ef9 0fb7 1278 3636
00000350: a937 1e38 4c71 93b7 d10c 0fb8 7d2b 1ab8
00000360: a133 0837 9acf 8a36 0f14 f5b7 e836 76b7
00000370: 2f64 33b6 fc24 d437 a9bc 90b6 a0d5 a636
00000380: a512 e2b6 d3c9 dcb6 de14 a237 208d 9e37
00000390: b494 5137 0ee7 dd37 9b04 e337 cd6c fbb7
000003a0: 478f 8d37 93d2 29b8 788c 25b7 ef5b 80b6
000003b0: c846 56b7 fc4b bf36 0c84 5d37 6228 15b7
000003c0: e10e e434 fa74 0aba b04a 4b39 c7ac d0b8
000003d0: 9cfa f139 45c7 46ba 14d2 4439 13f5 8f39
000003e0: a616 5038 b49f 2739 8a12 6fb9 d9e9 833a
000003f0: e3a4 c839 9065 54b9 9b9f ed37 ebfa b1ba
