Lid_Driven_Re1000/saved_models/Van-60000.pt (torch, 95161 bytes, 36 tensors)

linears.0.weight f4 [40, 2]
0.26213056 -0.19506893 0.04113522 -0.25340143 0.17450133 -0.22506799 0.28766823 -0.31791496
-0.09792695 0.3514045 0.040763266 -0.17653331 0.30632654 -0.18336067 0.4667699 -0.08483903
-0.32248235 0.023835963 0.02014016 0.20267086 -0.057789356 0.18493737 -0.13612705 -0.29679963
-0.10694591 -0.036019873 -0.27153632 0.39068013 0.08189175 0.07750749 0.032304704 0.17473046
-0.35641387 -0.70527714 -0.27880403 0.1985347 -0.07821242 0.17995284 0.116509095 0.0902328
0.30979145 0.30126953 -0.21331502 -0.22819796 0.16072024 0.16319007 -0.25008592 0.35866392
0.2207557 0.15023087 0.28967836 0.15195708 -0.13697425 -0.25123647 -0.0018465855 0.07079055
-0.28453067 -0.14286321 0.13777857 0.27140558 0.312973 0.09544336 0.30242038 -0.083536685
-0.24663666 -0.009099285 0.053127933 -0.20625736 -0.11966661 0.21076365 0.11784884 -0.18339005
0.3227027 -0.17199585 -0.221412 0.38862464 -0.14515008 -0.2363517 0.29414597 0.25359333
00000000: fa35 863e 26c0 47be 687d 283d d5bd 81be
00000010: 7ab0 323e 3978 66be 4049 933e c0c5 a2be
00000020: ed8d c8bd 4aeb b33e 62f7 263d 26c5 34be
00000030: d5d6 9c3e e6c2 3bbe 77fc ee3e 16c0 adbd
00000040: 681c a5be a343 c33c fafc a43c f388 4f3e
00000050: 88b4 6cbd 3960 3d3e e464 0bbe 1ff6 97be
00000060: 7506 dbbd 9389 13bd cf06 8bbe 3a07 c83e
00000070: ddb6 a73d 3fbc 9e3d f051 043d 8bec 323e
00000080: e17b b6be 0b8d 34bf 67bf 8ebe ae4c 4b3e
00000090: d52d a0bd 8f45 383e 529c ee3d f9cb b83d
000000a0: fc9c 9e3e 0040 9a3e 416f 5abe baac 69be
000000b0: d993 243e 4c1b 273e 430b 80be cca2 b73e
000000c0: c80d 623e 1fd6 193e b950 943e a39a 1b3e
000000d0: fa42 0cbe 11a2 80be 2109 f2ba a3fa 903d
000000e0: 01ae 91be bc4a 12be d315 0d3e acf5 8a3e
000000f0: ff3d a03e cf77 c33d d8d6 9a3e 4815 abbd
00000100: 528e 7cbe 2b15 15bc ad9c 593d 2135 53be
00000110: c513 f5bd 6dd2 573e bc5a f13d 9aca 3bbe
00000120: 4a39 a53e ae1f 30be d4b9 62be cff9 c63e
00000130: 39a2 14be 2e06 72be 4d9a 963e fcd6 813e

linears.0.bias f4 [40]
0.08694471 0.29181343 0.11606687 0.13375689 -0.24100022 0.11615152 0.05007902 -0.085888885
0.12437066 -0.1198185 -0.15274723 0.33401585 0.07623481 -0.16786619 -0.090648115 -0.074613705
0.0006029325 -0.07684749 -0.14696607 -0.13351227 -0.014537824 0.076351896 -0.09726451 -0.19580862
-0.09184582 -0.09045218 0.11427309 -0.069508746 0.087304525 0.03475503 -0.13994169 -0.024913453
0.10289172 -0.024025645 -0.08327962 0.12493943 0.03726892 -0.16329569 0.3035452 -0.20242281
00000000: 1110 b23d 9268 953e 78b4 ed3d 91f7 083e
00000010: c3c8 76be d9e0 ed3d a91f 4d3d 83e6 afbd
00000020: 0bb6 fe3d 6763 f5bd c569 1cbe 2004 ab3e
00000030: ff20 9c3d 1de5 2bbe b8a5 b9bd 12cf 98bd
00000040: 1d0e 1e3a 3862 9dbd 467e 16be 71b7 08be
00000050: 0e30 6ebc 625e 9c3d 9e32 c7bd 0e82 48be
00000060: a919 bcbd fe3e b9bd 0308 ea3d 9a5a 8ebd
00000070: b7cc b23d 4a5b 0e3d e04c 0fbe 4c17 ccbc
00000080: e5b8 d23d 6ed1 c4bc 818e aabd 3ee0 ff3d
00000090: 4ca7 183d fc36 27be 476a 9b3e ed47 4fbe

linears.1.weight f4 [40, 40]
-0.08277663 0.0256927 0.11766265 -0.089989595 -0.35982004 -0.054580852 -0.19503333 -0.22745433
-0.1470461 0.08744946 0.07602169 0.2551082 0.00047895196 -0.30396008 -0.041079234 0.18423153
-0.15668006 0.10844988 0.14375325 0.034713816 -0.1320134 -0.018013394 -0.23763289 -0.01671606
0.035348978 -0.21937205 0.2688902 -0.0913485 -0.22945684 0.030970018 -0.239376 0.23749527
0.14208628 0.0018063565 -0.13071896 0.071522385 -0.14723945 -0.017214991 0.58871096 0.11080446
-0.0969244 0.07174353 0.09564543 -0.17683928 -0.39923263 0.18425077 -0.22634012 -0.09405581
0.21782061 0.17267996 -0.06579187 0.38040456 -0.018722856 -0.24259852 -0.2681317 -0.030949524
0.107807316 -0.053381104 -0.17495869 0.13174154 -0.04165359 -0.10926739 -0.2099166 -0.24229759
-0.17225409 0.04437545 -0.058482494 0.17833762 -0.15902045 -0.087904066 0.255315 0.03053305
0.01716135 0.20367421 -0.14368731 0.3476473 -0.07113744 0.13360599 0.98168296 -0.042047136
0.24054675 -0.052420035 -0.017946938 0.19302462 0.24912879 -0.17030264 0.0034676774 -0.18310039
-0.12768666 -0.0510819 -0.049532637 -0.4503257 -0.22896875 -0.20804407 0.21077456 -0.15499726
0.051919598 -0.26555365 -0.012725153 0.22246304 -0.2129324 -0.2018298 -0.25725943 0.11827963
0.14097318 -0.14918694 0.0453755 -0.16656044 -0.1979129 0.060824707 -0.17779322 0.09574585
-0.2827388 -0.24360056 0.2614516 0.18038972 0.09787939 0.24864149 -0.6888441 0.23383605
-0.30614686 0.25671008 0.1586276 -0.09251884 0.119312465 -0.10801489 0.056847725 0.14305745
0.24547452 0.18563423 0.18731175 0.13342135 -0.19671889 -0.15623094 -0.35124516 -0.20798735
0.13297951 0.106591694 0.1780773 -0.18657613 0.28706467 -0.036564406 -0.1739386 0.017486652
0.11090856 -0.1898315 0.086318046 0.04593539 -0.13904959 -0.04238375 0.18760623 -0.2275574
0.20697613 0.2125716 0.1993205 -0.15306032 -0.16336614 0.3073226 0.05897055 -0.18223982
-0.19079603 0.26518953 -0.08103272 0.23591468 -0.011086104 0.105827294 -0.09873862 -0.16526024
-0.13927923 0.02580033 -0.050525073 0.64824045 0.16665506 -0.15833914 -0.0722238 -0.060110852
-0.03951558 -0.21660791 0.10262337 0.08844871 0.18222807 -0.1291823 0.03974969 -0.16056839
0.023121364 0.072683714 0.09936095 -0.008538745 0.020013759 -0.31909376 -0.035812076 -0.18089692
-0.0064991424 -0.15336785 0.037176814 0.33920065 0.024738219 -0.2824604 0.9928336 -0.22943671
-0.07519879 -0.23196761 0.011440923 -0.32746854 -0.12551828 -0.28652275 -0.11358786 0.27387702
0.015009403 -0.20342521 0.14062826 -0.586466 0.1767781 0.11261087 0.21518236 0.19683431
0.28716472 0.09731906 -0.072361454 0.21669464 0.12758899 0.24750516 0.0915894 0.31455284
0.28271788 0.21038736 -0.21176523 -0.13507321 0.030239701 -0.06808007 0.1699439 0.15928276
-0.025533058 -0.037617892 0.24583931 0.039676674 0.0987033 0.31423038 -0.79827255 0.14221561
-0.12110297 0.044162475 0.1037386 0.08335956 -0.31013253 0.14246674 -0.16538917 0.114261754
0.02999355 -0.19874497 -0.18132089 0.26583666 0.27875188 -0.15965837 -0.04180918 0.2117418
00000000: cb86 a9bd 7f79 d23c 1ef9 f03d 774c b8bd
00000010: 553a b8be 2c90 5fbd d1b6 47be cae9 68be
00000020: 4193 16be b418 b33d 43b1 9b3d 8b9d 823e
00000030: d81b fb39 a8a0 9bbe b342 28bd 31a7 3c3e
00000040: bd70 20be f81a de3d 0d34 133e 1330 0e3d
00000050: 852e 07be d390 93bc 0956 73be 1ef0 88bc
00000060: 17ca 103d 11a3 60be faab 893e ec14 bbbd
00000070: bcf6 6abe d6b4 fd3c fb1e 75be f631 733e
00000080: 117f 113e 44c3 ec3a 31db 05be 547a 923d
00000090: f0c5 16be 7406 8dbc c3b5 163f 73ed e23d
000000a0: 4d80 c6bd 46ee 923d c0e1 c33d 5b15 35be
000000b0: 3868 ccbe 3cac 3c3e b4c5 67be 55a0 c0bd
000000c0: 5e0c 5f3e 04d3 303e e3bd 86bd 63c4 c23e
000000d0: ad60 99bc bf6b 78be 8f48 89be db89 fdbc
000000e0: 15ca dc3d 25a6 5abd 5f28 33be 41e7 063e
000000f0: f49c 2abd 95c7 dfbd 61f4 56be dc1c 78be
00000100: 6063 30be 08c3 353d 578b 6fbd 239e 363e
00000110: 42d6 22be 0c07 b4bd a6b8 823e 7220 fa3c
00000120: f695 8c3c f98f 503e c422 13be d4fe b13e
00000130: 82b0 91bd 02d0 083e 934f 7b3f 9e39 2cbd
00000140: e351 763e 64b6 56bd 7505 93bc 3fa8 453e
00000150: 9e1b 7f3e d163 2ebe f941 633b ab7e 3bbe
00000160: 4bc0 02be 413b 51bd bce2 4abd 1791 e6be
00000170: c976 6abe 8109 55be 49d5 573e 9ab7 1ebe
00000180: a5a9 543d a6f6 87be 297d 50bc 5acd 633e
00000190: f30a 5abe 79ac 4ebe 82b7 83be 973c f23d
000001a0: 465b 103e 76c4 18be a9db 393d d28e 2abe
000001b0: aea9 4abe 5423 793d 6d0f 36be 6616 c43d
000001c0: 24c3 90be 6d72 79be fcdc 853e 15b8 383e
000001d0: fd74 c83d e09b 7e3e 1658 30bf b872 6f3e
000001e0: 48bf 9cbe 816f 833e 466f 223e 857a bdbd
000001f0: 185a f43d e936 ddbd 29d9 683d a77d 123e
00000200: ac5d 7b3e e616 3e3e a7ce 3f3e 9b9f 083e
00000210: ad70 49be 01fb 1fbe 68d6 b3be a3fa 54be
00000220: c82b 083e bf4c da3d e559 363e d00d 3fbe
00000230: 24fa 923e 8fc4 15bd f61c 32be 2b40 8f3c
00000240: 0724 e33d 3063 42be 84c7 b03d bf26 3c3d
00000250: 0463 0ebe 959a 2dbd d91b 403e cf04 69be
00000260: 8df1 533e 5fac 593e ac1a 4c3e d8bb 1cbe
00000270: 7449 27be 6359 9d3e 1a8b 713d 139d 3abe
00000280: 0960 43be ecc6 873e 7cf4 a5bd 9e93 713e
00000290: 7ea2 35bc fbbb d83d 7937 cabd fb39 29be
000002a0: 379f 0ebe 375b d33c 61f3 4ebd 16f3 253f
000002b0: a0a7 2a3e a823 22be 12ea 93bd cc36 76bd
000002c0: 17db 21bd 77ce 5dbe 342c d23d 9924 b53d
000002d0: ff99 3a3e 5d48 04be 92d0 223d 0a6c 24be
000002e0: 0469 bd3c 33db 943d c17d cb3d 18e6 0bbc
000002f0: e5f3 a33c 4260 a3be afaf 12bd 0b3d 39be
00000300: c2f6 d4bb 760c 1dbe b746 183d b5ab ad3e
00000310: cea7 ca3c a69e 90be 582a 7e3f 75f1 6abe
00000320: d301 9abd eb88 6dbe b672 3b3c f5a9 a7be
00000330: dd87 00be 1cb3 92be c0a0 e8bd 9c39 8c3e
00000340: 00ea 753c b34e 50be db00 103e a322 16bf
00000350: 5105 353e 87a0 e63d c458 5c3e ef8e 493e
00000360: 4107 933e 374f c73d 3e32 94bd 33e5 5d3e
00000370: b0a6 023e fe71 7d3e 3993 bb3d 120d a13e
00000380: 66c0 903e c96f 573e fcd8 58be a250 0abe
00000390: 40b9 f73c 906d 8bbd c605 2e3e 051b 233e
000003a0: b42a d1bc 3815 1abd 4dbd 7b3e 0284 223d
000003b0: f524 ca3d cee2 a03e 975b 4cbf f8a0 113e
000003c0: d504 f8bd b6e3 343d e774 d43d 6bb8 aa3d
000003d0: b1c9 9ebe cde2 113e c75b 29be 1102 ea3d
000003e0: 09b5 f53c cd83 4bbe 2fac 39be be1b 883e
000003f0: 91b8 8e3e 7c7d 23be 1a40 2bbd d8d2 583e

linears.1.bias f4 [40]
0.033868853 0.06421074 -0.05709715 0.02184761 0.056167126 -0.06274329 0.011963087 0.118429855
-0.09117568 -0.025083194 0.06839738 0.026452294 -0.1377268 -0.06466167 0.04357802 -0.07878628
-0.038399577 0.024286086 -0.04651642 0.045585874 0.056082327 0.20247942 0.037896585 0.059626747
-0.03881105 0.017650574 -0.07628891 -0.021187676 0.3480267 0.11420619 -0.15100092 0.02041176
0.053429715 0.02634284 -0.032945476 -0.066912495 -0.04633726 -0.049288306 0.04258828 -0.05503986
00000000: 11ba 0a3d ec80 833d b3de 69bd c2f9 b23c
00000010: 800f 663d 8e7f 80bd d300 443c 5a8b f23d
00000020: 51ba babd 457b cdbc ed13 8c3d 7bb2 d83c
00000030: 4108 0dbe 566d 84bd de7e 323d b35a a1bd
00000040: e048 1dbd 9df3 c63c 0088 3ebd 41b8 3a3d
00000050: 95b6 653d c456 4f3e 7339 1b3d 2d3b 743d
00000060: 56f8 1ebd f097 903c 5c3d 9cbd c791 adbc
00000070: 8e30 b23e efe4 e93d fc9f 1abe 9036 a73c
00000080: 1ed9 5a3d f1cc d73c d6f1 06bd 6b09 89bd
00000090: 24cc 3dbd 89e2 49bd 0c71 2e3d 7a71 61bd

linears.2.weight f4 [40, 40]
0.03517352 -0.010503589 -0.0023735443 0.09785848 -0.443477 0.31321746 0.030700065 -0.121702
0.08374452 0.014805747 -0.57673144 -0.8372194 0.21709104 0.029501433 -0.17880291 0.46628326
0.051477563 -0.2176015 0.42310885 0.0041954047 -0.25254524 0.2585738 -0.013994783 0.09319735
0.30156147 0.2616679 -0.14998437 -0.34073627 -0.11981141 -0.55762094 0.25512633 0.045522727
-0.058746696 0.005288069 0.26477563 0.080126 0.071296975 0.20349991 -0.41942346 -0.17895757
-0.05191189 0.3238853 -0.14523275 0.010698626 0.48013327 -0.4634342 0.225486 0.0038826992
-0.36895964 0.13140114 0.4439301 0.5715638 -0.30835816 -0.059651017 -0.24502616 -0.74217826
-0.07037449 0.07341492 -0.045979507 0.08369856 0.14571023 0.19451392 -0.174466 -0.13163744
-0.19929156 0.21207665 0.08435715 0.021287374 -0.11664615 0.71637034 -0.18678997 0.080253154
-0.0041269762 0.034727767 0.1400924 -0.023149319 -0.29067013 0.11025705 -0.040215343 0.056838885
-0.070610836 0.08461287 -0.19022293 0.05779172 0.40522227 -0.10709411 -0.15860301 -0.11798861
-0.10247525 -0.1981803 0.37353972 0.92421085 -0.024101712 -0.3285339 0.23288877 -0.55737865
-0.00049323053 0.17417645 -0.3986672 0.12871575 0.101544775 -0.33811942 0.1632077 0.10014853
-0.10542722 -0.2938839 -0.32173494 0.14477041 -0.23622476 0.6011719 -0.21480331 0.39925066
-0.032579966 0.12475032 0.018639674 -0.2149519 -0.48261952 0.0007346181 0.5044252 -0.25533015
0.29691944 0.05018222 -0.23376969 0.48323965 0.23324694 -0.035254486 -0.17475928 0.12772688
0.34133375 0.29905763 -0.25889376 0.106853396 0.30727807 0.09780468 -0.03224932 0.056540675
0.4753403 0.20761363 -0.055856947 -0.24289773 -0.090845354 -0.0685267 0.033387568 0.04041999
0.05970022 0.20890418 -0.03439415 0.13946155 0.7678517 0.106471546 -0.22179444 0.21136174
0.24206458 -0.19693115 -0.51751053 -0.5883486 0.20572421 -0.046576213 -0.42128107 0.12735122
0.15297851 0.28229243 -0.106759496 -0.019140322 -0.13987938 -0.34851068 -0.13670549 0.21228015
-0.1602504 -0.130897 0.1483073 0.17721827 -0.06243177 -0.048489965 -0.038300518 -0.5156301
0.16380484 -0.21396394 0.08514495 0.01845085 0.114933506 -0.23696667 0.24133603 -0.052856877
0.024504941 0.1596147 0.08012104 0.12327472 -0.34064925 0.18886153 0.052823946 0.10763071
0.20733987 0.02332979 0.29561114 -0.0970987 -0.07845009 0.10455999 0.02070083 -0.13695449
0.09464539 0.030257711 -0.061012883 -0.001639958 -0.2587608 0.17399213 -0.14258201 -0.21645561
0.021659805 0.20619649 -0.43494502 -0.96861297 0.18128178 0.2716242 -0.19836779 0.54360306
-0.014126918 0.18671131 0.5463308 -0.35398853 -0.2285405 0.3065767 -0.20911485 -0.31194654
0.038585078 -0.073876806 0.119599804 -0.17254882 0.28380078 -0.61473477 0.0339595 -0.13516773
0.115249746 -0.22541901 -0.007853279 -0.06615341 0.34347355 0.38684702 -0.19484478 0.063873574
0.099549696 0.015675653 0.1412676 -0.20320939 -0.20984629 0.02172748 -0.025112942 -0.37027994
0.1901816 0.025683416 -0.0809665 -0.58568627 0.22087456 -0.11278552 0.061926335 0.41741136
00000000: 1c12 103d 3f17 2cbc 778d 1bbb 076a c83d
00000010: 6b0f e3be 0a5e a03e b47e fb3c e63e f9bd
00000020: 3f82 ab3d ce93 723c aca4 13bf 0354 56bf
00000030: 1d4d 5e3e fdac f13c 1c18 37be aebc ee3e
00000040: 23da 523d edd2 5ebe b9a1 d83e 9b79 893b
00000050: 9c4d 81be c963 843e 604a 65bc 41de be3d
00000060: 4466 9a3e 56f9 853e 8195 19be fc74 aebe
00000070: af5f f5bd 3fc0 0ebf eb9f 823e 0a76 3a3d
00000080: 60a0 70bd 8a47 ad3b ac90 873e 1a19 a43d
00000090: 2604 923d 4862 503e acbe d6be a740 37be
000000a0: 90a1 54bd 4bd4 a53e e5b7 14be 4a49 2f3c
000000b0: 07d4 f53e 3f47 edbe cde5 663e e274 7e3b
000000c0: 47e8 bcbe 058e 063e ce4a e33e 0152 123f
000000d0: 1fe1 9dbe a054 74bd 23e8 7abe 65ff 3dbf
000000e0: 8020 90bd 905a 963d 0255 3cbd 276a ab3d
000000f0: 1035 153e a82e 473e 37a7 32be f7cb 06be
00000100: 1613 4cbe 9f2a 593e 71c3 ac3d dc62 ae3c
00000110: 2de4 eebd 0c64 373f df45 3fbe c45b a43d
00000120: 963b 87bb b43e 0e3d 6274 0f3e a4a3 bdbc
00000130: b7d2 94be 73ce e13d d8b8 24bd e4cf 683d
00000140: 6a9c 90bd 8349 ad3d cdc9 42be 03b7 6c3d
00000150: 4b79 cf3e 2854 dbbd d468 22be 03a4 f1bd
00000160: 8bde d1bd c7ef 4abe 9940 bf3e 1599 6c3f
00000170: f470 c5bc 9835 a8be 657a 6e3e 5eb0 0ebf
00000180: 244c 01ba 505b 323e 1b1e ccbe 10ce 033e
00000190: b5f6 cf3d fd1d adbe eb1f 273e ac1a cd3d
000001a0: 3aea d7bd f377 96be 71ba a4be b23e 143e
000001b0: e7e4 71be 67e6 193f 66f5 5bbe 956a cc3e
000001c0: 9272 05bd 197d ff3d 3bb2 983c 5a1c 5cbe
000001d0: e819 f7be 6393 403a 0322 013f a2ba 82be
000001e0: d305 983e df8b 4d3d 5261 6fbe 306b f73e
000001f0: 49d8 6e3e 0267 10bd 19f4 32be d6ca 023e
00000200: 4cc3 ae3e 151e 993e b98d 84be f4d5 da3d
00000210: 8d53 9d3e d24d c83d dd17 04bd 3297 673d
00000220: ce5f f33e ab98 543e 41ca 64bd 2fba 78be
00000230: 210d babd ba57 8cbd 67c1 083d 6e8f 253d
00000240: 3888 743d faea 553e e1e0 0cbd 02cf 0e3e
00000250: ee91 443f c10d da3d 151e 63be 366f 583e
00000260: c7df 773e 52a8 49be 927b 04bf 049e 16bf
00000270: 5ea9 523e b3c6 3ebd 27b2 d7be 5c68 023e
00000280: 66a6 1c3e a288 903e b9a4 dabd 2acc 9cbc
00000290: 8a3c 0fbe fe6f b2be 86fc 0bbe f85f 593e
000002a0: ae18 24be dd09 06be dedd 173e b578 353e
000002b0: 75b8 7fbd 6a9d 46bd 01e1 1cbd 5600 04bf
000002c0: 75bc 273e 5d19 5bbe 7a60 ae3d 3d26 973c
000002d0: 4262 eb3d 64a7 72be cb20 773e 7480 58bd
000002e0: 96be c83c 0972 233e 8016 a43d 7577 fc3d
000002f0: 9469 aebe eb64 413e ec5d 583d 7d6d dc3d
00000300: e750 543e 1e1e bf3c 585a 973e afdb c6bd
00000310: 71aa a0bd 8c23 d63d c994 a93c cc3d 0cbe
00000320: 71d5 c13d 05df f73c a5e8 79bd dcf3 d6ba
00000330: 4c7c 84be fe2a 323e 0501 12be 8aa6 5dbe
00000340: e76f b13c 2c25 533e 1db1 debe 05f7 77bf
00000350: eea1 393e 5412 8b3e ed20 4bbe 9229 0b3f
00000360: 9774 67bc 4031 3f3e 56dc 0b3f fc3d b5be
00000370: 8506 6abe 9ff7 9c3e 3422 56be 75b7 9fbe
00000380: 630b 1e3d b94c 97bd bef0 f43d a3b0 30be
00000390: 564e 913e 425f 1dbf 1e19 0b3d 6969 0abe
000003a0: 0f08 ec3d 3ed4 66be 0aab 00bc 707b 87bd
000003b0: c4db af3e d010 c63e 6485 47be 26d0 823d
000003c0: b6e0 cb3d 3a6a 803c 74a8 103e 1f16 50be
000003d0: f2e1 56be d4fd b13c a8b9 cdbc 5595 bdbe
000003e0: f7be 423e 0766 d23c c4d1 a5bd 89ef 15bf
000003f0: f12c 623e 18fc e6bd 78a6 7d3d f1b6 d53e

linears.2.bias f4 [40]
-0.019018814 0.06043996 0.05298576 -0.05042995 -0.014841729 0.010481534 -0.053745277 -0.0047613205
-0.08935239 -0.011948091 0.017601306 0.021876613 0.056961637 0.060332753 -0.029640352 0.12501936
-0.13442118 0.03744057 0.060442183 0.13877434 0.0016674908 -0.09651078 0.023881134 -0.09557141
0.038818516 0.10408076 0.04096058 0.00032929765 0.0032189207 -0.04066643 0.00077301636 -0.056019142
-0.054952737 0.051159035 0.0018532692 -0.028004292 -0.12445354 -0.049176212 0.065850474 0.065225676
00000000: 58cd 9bbc e48f 773d 9907 593d a38f 4ebd
00000010: b92a 73bc bdba 2b3c 0224 5cbd da04 9cbb
00000020: 63fe b6bd edc1 43bc 9d30 903c 9536 b33c
00000030: 9b50 693d 7a1f 773d 53d0 f2bc 1305 003e
00000040: b5a5 09be 485b 193d 3992 773d dc1a 0e3e
00000050: b58f da3a 72a7 c5bd 5ea2 c33c f2ba c3bd
00000060: 2a00 1f3d 4b28 d53d 48c6 273d 95a5 ac39
00000070: 87f4 523b d891 26bd 40a4 4a3a 5474 65bd
00000080: 1f16 61bd 238c 513d 65e9 f23a 4269 e5bc
00000090: 7fe1 febd ff6c 49bd 9ddc 863d 0a95 853d

linears.3.weight f4 [40, 40]
-0.098653585 0.0048934775 -0.11332317 -0.12597728 -0.11896326 0.30086678 0.08831891 -0.27336156
-0.14759248 0.06312171 0.19437261 0.0032075925 0.28951177 0.04006122 -0.12079201 0.009187791
-0.052051492 -0.28079695 0.38874626 0.2492629 -0.07578003 0.13215362 -0.13303739 -0.17374413
-0.07300836 0.11377337 0.0715489 -0.00045087663 -0.25133514 -0.28793126 -0.20560467 -0.16699126
-0.18410198 -0.16276136 -0.12545317 -0.085434 -0.02053523 -0.122228436 -0.23942348 -0.05671361
0.20611382 -0.42674828 0.012331283 0.26547915 0.13674605 0.092085965 -0.29044053 -0.29835752
-0.2170896 -0.28354016 -0.07376468 -0.10673287 -0.067320056 0.11281834 -0.17427045 0.10501546
-0.20715839 0.31133854 -0.044267185 -0.014397553 0.07185939 0.03002209 0.21449807 0.028140567
-0.27378675 0.15625186 -0.07328901 0.2053944 -0.13282101 -0.084630966 0.2925992 0.18179947
-0.19182804 0.32294768 -0.047656246 0.19552283 0.26067558 -0.19451213 -0.24251287 0.107176274
0.2536696 0.22826864 0.07826753 0.022130337 -0.27296057 -0.22569284 -0.113250986 -0.028616186
-0.13363253 0.19108105 -0.21213095 -0.002539208 0.110379905 0.20797868 -0.19719642 0.07330673
-0.09014671 -0.08190312 -0.035329975 -0.12643874 0.06108408 0.18770207 -0.036556836 -0.02757612
0.14630236 0.08100117 -0.09668205 -0.19282818 0.16642243 0.2319298 -0.06946163 0.15496525
0.12670445 -0.03364715 0.010934008 0.012181988 0.10633126 -0.17310745 -0.0015277021 0.018458523
0.21126379 -0.8078978 -0.5360105 -0.07772319 0.12819915 0.36412868 0.72094864 0.20064366
0.13372615 -0.105201885 0.060605597 0.003268874 -0.68803346 -0.65001917 0.39277282 -0.09634196
0.27313438 -0.22600123 -1.7851927 -0.33220544 -0.6190937 1.1729742 -0.47550115 0.48221633
-0.46367094 -1.1797028 -0.19852394 0.0055181696 0.25323927 0.38025433 0.105590105 0.15208974
0.78148156 -0.6270278 0.26048902 0.1716633 0.323583 0.18157771 0.04633988 -0.6626628
-0.0524912 -0.30037737 0.28489703 0.055989433 0.20571764 -0.04906931 -0.33248687 0.32430637
-0.1778536 0.017636571 -0.18074505 0.15681905 -0.22185566 0.07361045 0.2919262 -0.08876674
0.028576273 0.16093297 0.13383277 0.1473195 0.014483664 0.110928856 0.03514256 -0.06803994
-0.15566906 0.09230582 0.1812773 0.12878335 -0.06538962 0.07253146 0.014121459 0.073614195
0.07325687 -0.104560636 0.031292435 -0.044873994 -0.08604769 0.0040780273 -0.21745484 -0.21165228
0.4153081 -0.34882733 0.4047681 -0.339329 -0.049836658 -0.37664345 -0.060075294 0.45028928
-0.3968198 0.07760312 -0.4146292 0.07235158 -0.18716983 -0.09463814 0.12126529 -0.03118362
0.24498704 -0.26442996 -0.12626678 -0.033754885 -0.022139478 0.43033093 -0.7369149 0.5663173
-0.09503466 -0.92222625 -0.36113736 -0.15318309 0.1355094 0.47602996 0.003356527 -0.26454112
0.059703834 -0.56891984 -0.09316385 0.120215885 0.19582506 -0.30758584 0.092715845 -0.32651922
-0.29762968 0.3053662 0.123564035 0.1006569 0.31282914 -0.2954272 -0.32451877 -0.1289972
-0.1343769 0.25436628 0.11444151 -0.06365951 0.1579066 0.21428375 -0.23947549 0.23005138
00000000: e40a cabd 7759 a03b fa15 e8bd 3000 01be
00000010: 02a3 f3bd 360b 9a3e 8be0 b43d 0cf6 8bbe
00000020: 7c22 17be f545 813d 9d09 473e 7936 523b
00000030: e33a 943e 3c17 243d cd61 f7bd 6388 163c
00000040: f233 55bd 9ec4 8fbe c009 c73e c63e 7f3e
00000050: 8f32 9bbd 4753 073e f43a 08be fbe9 31be
00000060: 6885 95bd 0302 e93d 3b88 923d a363 ecb9
00000070: 00af 80be ba6b 93be 088a 52be c2ff 2abe
00000080: 3b85 3cbe eaaa 26be cc76 00be 05f8 aebd
00000090: 8039 a8bc e752 fabd 6e2b 75be 884c 68bd
000000a0: 800f 533e c07e dabe 2609 4a3c e2ec 873e
000000b0: 2807 0c3e 9197 bc3d 9fb4 94be 51c2 98be
000000c0: bc4c 5ebe 2d2c 91be f011 97bd c396 dabd
000000d0: 19df 89bd 4d0d e73d f473 32be 5812 d73d
000000e0: 5421 54be c467 9f3e 8251 35bd b7e3 6bbc
000000f0: 042b 933d e3f0 f53c 62a5 5b3e 0c87 e63c
00000100: c72d 8cbe 7d00 203e 8c18 96bd e952 523e
00000110: 3b02 08be 0053 adbd 90cf 953e a429 3a3e
00000120: 926e 44be 6659 a53e 3233 43bd 2337 483e
00000130: 4577 853e 302e 47be 4b55 78be 3c7f db3d
00000140: fbe0 813e 41bf 693e ba4a a03d ae4a b53c
00000150: 7dc1 8bbe 061c 67be 22f0 e7bd 7e6c eabc
00000160: f7d6 08be c0aa 433e db38 59be d768 26bb
00000170: dc0e e23d 5df8 543e dced 49be d721 963d
00000180: d79e b8bd d3bc a7bd 2ab6 10bd 2879 01be
00000190: 4d33 7a3d f934 403e 9fbc 15bd 51e7 e1bc
000001a0: 49d0 153e f1e3 a53d 3d01 c6bd c074 45be
000001b0: a46a 2a3e 017f 6d3e e641 8ebd 36af 1e3e
000001c0: d0be 013e 98d1 09bd 8e24 333c f696 473c
000001d0: 34c4 d93d 1443 31be 2d3d c8ba 5436 973c
000001e0: 8955 583e 64d2 4ebf fc37 09bf 562d 9fbd
000001f0: a346 033e 136f ba3e 1790 383f 8875 4d3e
00000200: 82ef 083e 1674 d7bd 933d 783d 9b3a 563b
00000210: f622 30bf a867 26bf 8519 c93e ef4e c5bd
00000220: 45d8 8b3e de6c 67be 3281 e4bf d516 aabe
00000230: ed7c 1ebf 0524 963f e374 f3be 0fe5 f63e
00000240: 4766 edbe 8000 97bf dc49 4bbe c3d1 b43b
00000250: 94a8 813e b2b0 c23e a03f d83d 6abd 1b3e
00000260: 2d0f 483f e584 20bf d15e 853e 81c8 2f3e
00000270: acac a53e 82ef 393e e3ce 3d3d 45a4 29bf
00000280: 0301 57bd 10cb 99be 06de 913e 2d55 653d
00000290: a5a7 523e e7fc 48bd b83b aabe 7c0b a63e
000002a0: 411f 36be 927a 903c 3b15 39be 2c95 203e
000002b0: 212e 63be 13c1 963d 5a77 953e 56cb b5bd
000002c0: ca18 ea3c 9dcb 243e 750b 093e ecda 163e
000002d0: e44c 6d3c ab2e e33d a5f1 0f3d 8658 8bbd
000002e0: b667 1fbe d50a bd3d c2a0 393e c8df 033e
000002f0: feea 85bd 608b 943d b15d 673c 0ac3 963d
00000300: b307 963d e323 d6bd 7f2c 003d cbcd 37bd
00000310: c539 b0bd f9a0 853b 7bac 5ebe 60bb 58be
00000320: 43a3 d43e 7f99 b2be c43d cf3e 88bc adbe
00000330: 8621 4cbd 69d7 c0be 8311 76bd 518c e63e
00000340: f72b cbbe 62ee 9e3d 474a d4be 112d 943d
00000350: 73a9 3fbe a4d1 c1bd f059 f83d cb74 ffbc
00000360: e2dd 7a3e 5d63 87be 144c 01be 9042 0abd
00000370: da5d b5bc 5654 dc3e 74a6 3cbf 2cfa 103f
00000380: 88a1 c2bd 0517 6cbf ffe6 b8be 07dc 1cbe
00000390: fac2 0a3e 33ba f33e 2ef9 5b3b ef71 87be
000003a0: 028c 743d bba4 11bf b0cc bebd bf33 f63d
000003b0: 5d86 483e e47b 9dbe cee1 bd3d 872d a7be
000003c0: eb62 98be f558 9c3e 240f fd3d 3425 ce3d
000003d0: 242b a03e 3c42 97be 5327 a6be d817 04be
000003e0: 199a 09be 4c3c 823e 4f60 ea3d eb5f 82bd
000003f0: 45b2 213e 336d 5b3e 1039 75be 9792 6b3e

linears.3.bias f4 [40]
0.0843532 0.052544165 -0.04024294 -0.11988221 0.04244607 -0.1969826 -0.018420858 0.07904301
-0.014302062 -0.016314574 0.06571368 0.016303528 -0.028484056 -0.14853692 0.04563801 -0.047335114
-0.00086855487 0.007878857 0.09335814 0.021211486 0.01093816 0.037391692 -0.10423795 -0.025488775
-0.012576191 -0.032440573 0.04024187 0.008974258 -0.031431776 -0.08020126 0.0067629847 0.42991778
-0.010090836 -0.012581913 -0.062194705 0.12171181 -0.01477253 0.04219238 -0.036164388 0.06252441
00000000: 5fc1 ac3d 8d38 573d c8d5 24bd ce84 f5bd
00000010: eedb 2d3d cfb5 49be 57e7 96bc 4de1 a13d
00000020: 3253 6abc 24a6 85bc e594 863d fa8e 853c
00000030: 6557 e9bc 101a 18be ecee 3a3d 77e2 41bd
00000040: bbaf 63ba 5216 013c 8d32 bf3d b6c3 ad3c
00000050: f835 333c 0828 193d b57a d5bd d6cd d0bc
00000060: 5e0c 4ebc 68e0 04bd a9d4 243d c408 133c
00000070: 9bbe 00bd 8f40 a4bd 079c dd3b 2f1e dc3e
00000080: 0954 25bc 5e24 4ebc e0bf 7ebd 0b44 f93d
00000090: 7b08 72bc ebd1 2c3d 1c21 14bd cc0c 803d

linears.4.weight f4 [40, 40]
-0.14682448 -0.27977014 -0.18017292 -0.09091738 0.037085637 0.15075302 -0.27625766 0.18530574
-0.1488964 -0.046668746 0.056862004 0.09019425 0.10486182 -0.21574295 -0.1843493 0.19618407
0.25377494 0.05873351 -0.10920311 -0.19365412 -0.009933219 -0.09273358 0.018961694 -0.015660152
-0.072363615 0.08889732 0.17722185 0.04477091 0.2742486 -0.025408775 0.07475529 -0.053603783
0.030306235 0.16085587 0.1441653 0.1302945 -0.14540708 -0.1851626 -0.087146364 0.02126379
0.2097534 0.25713435 -0.15750875 -0.07549239 -0.043015342 0.03007624 -0.116572775 0.23550308
-0.26054317 0.20738965 0.14251643 -0.2016434 0.2702472 -0.18897359 -0.1799349 0.11486878
-0.24002808 0.056794785 -0.1683547 0.1757634 -0.2020672 -0.16400656 -0.2799885 0.24912304
0.12543073 0.095696375 0.109051935 -0.21233867 -0.27989274 0.019314462 0.15220736 0.2781411
0.15872051 0.23138234 -0.14257996 0.16948521 -0.1501495 -0.037698053 -0.07238636 0.22453476
-0.31175426 -0.21094812 0.23640169 0.29792258 -0.0018680646 0.040451065 0.09313998 -0.22798513
-0.11607922 0.0781931 -0.062080316 -0.21373188 -0.18835494 0.1591062 -0.36896148 0.36849272
0.19672312 -0.25787583 -0.07786413 0.14934632 0.076320685 -0.024454499 0.18647392 0.3581255
0.2976398 -0.2861349 -0.026470408 0.17006849 0.13987662 0.12803783 -0.15292712 -0.008909694
-0.1734079 -0.08089915 -0.0911251 -0.1405742 -0.20284206 0.1953879 0.08584127 -0.1609345
-0.24790506 -0.3017491 -0.07814073 0.061539732 -0.011047746 0.16982028 -0.28115183 -0.24253915
0.071533866 -0.07952437 -0.3163414 0.07136997 0.011811367 -0.02167108 0.06688906 0.13531122
0.22027999 0.13346133 -0.37497565 -0.06814795 -0.033946484 -0.2644105 0.15802203 -0.050990514
0.20345259 -0.1622763 -0.16107976 -0.23913936 0.16926154 -0.23403865 0.060240872 -0.2005378
0.091383256 0.23467894 -0.17710851 -0.14042434 0.31832138 -0.046372857 0.05976385 -0.1879618
0.4149701 0.21073698 -0.14138208 0.4320905 -0.2874831 -0.51097184 -0.20520128 0.28694665
-0.0948649 0.07974874 0.38574946 -0.21518864 0.02332981 -0.19958904 0.4004928 -0.29861307
0.27154636 -0.2682073 -0.1471919 -0.5760943 0.30893853 0.030018536 -0.09063222 -0.13550432
-0.1581834 0.35012707 -0.29516718 0.27798262 -0.31545255 -0.1754637 -0.31118253 0.22676936
-0.23119636 0.3352062 -0.1471207 0.6403714 -0.2159528 -0.1180695 -0.37372175 0.20426089
0.11457868 -0.041291688 -0.20260683 -0.26587886 0.087104 0.049772114 -0.27403784 -0.18363449
-0.26136124 0.013616143 -0.13141817 0.090246424 -0.16604102 -0.0012167294 -0.35081044 0.20287213
-0.06794314 0.16051108 0.09914857 -0.114072464 -0.16568692 -0.017854271 -0.034222454 -0.063070945
-0.15815893 0.17862299 -0.022219464 0.5054675 0.3208778 0.05515203 0.15769713 -0.12999882
0.06745624 -0.097200856 -0.030770237 -0.1139231 0.18024988 0.27736598 -0.2373848 -0.20428206
0.017267102 -0.12906197 0.20739764 -0.07964455 -0.0022213447 -0.20913842 0.24811646 0.24603401
0.05509957 0.060120344 -0.07402843 -0.081741415 -0.17582919 0.047752365 0.076976344 0.22298856
00000000: 2859 16be 083e 8fbe 407f 38be e432 babd
00000010: 1ce7 173d 005f 1a3e a571 8dbe cac0 3d3e
00000020: 4c78 18be ba27 3fbd 22e8 683d c3b7 b83d
00000030: cbc1 d63d b8eb 5cbe 10c6 3cbe 7ae4 483e
00000040: caee 813e 8d92 703d e1a5 dfbd 444d 46be
00000050: f1be 22bc 1aeb bdbd 8e55 9b3c b849 80bc
00000060: 6033 94bd cc0f b63d a579 353e b461 373d
00000070: 506a 8c3e 1026 d0bc 4d19 993d a48f 5bbd
00000080: c844 f83c 67b7 243e 12a0 133e ec6b 053e
00000090: 98e5 14be 449b 3dbe cb79 b2bd 6631 ae3c
000000a0: 98c9 563e 1da7 833e f949 21be c19b 9abd
000000b0: db30 30bd 7262 f63c b5bd eebd b827 713e
000000c0: ea65 85be f45d 543e d4ef 113e 9c7b 4ebe
000000d0: d75d 8a3e 4b82 41be db40 38be 5340 eb3d
000000e0: ecc9 75be a6a1 683d 2d65 2cbe 52fb 333e
000000f0: b4ea 4ebe 56f1 27be a75a 8fbe 1c1a 7f3e
00000100: ea70 003e 76fc c33d 9f56 df3d 4f6f 59be
00000110: 1a4e 8fbe 5d39 9e3c 3fdc 1b3e 8368 8e3e
00000120: a187 223e 7eef 6c3e 7b00 12be 888d 2d3e
00000130: cac0 19be 4669 1abd 4d3f 94bd 71ec 653e
00000140: 419e 9fbe c902 58be 4913 723e 4f89 983e
00000150: d9d9 f4ba 04b0 253d 2dc0 be3d ef74 69be
00000160: f1ba edbd b423 a03d ee47 7ebd 88dc 5abe
00000170: 1ee0 40be bcec 223e 85e8 bcbe 14ab bc3e
00000180: c971 493e 4d08 84be 3b77 9fbd 3eee 183e
00000190: 054e 9c3d cd54 c8bc 05f3 3e3e 3a5c b73e
000001a0: 3e64 983e 4680 92be 78d8 d8bc 6f26 2e3e
000001b0: d13b 0f3e 591c 033e ed98 1cbe f7f9 11bc
000001c0: d791 31be 74ae a5bd cc9f babd aff2 0fbe
000001d0: d4b5 4fbe c413 483e 8ccd af3d 03cc 24be
000001e0: d3da 7dbe dc7e 9abe 3f08 a0bd 1611 7c3d
000001f0: 9b01 35bc 5ee5 2d3e 22f3 8fbe 2f5c 78be
00000200: 5980 923d acdd a2bd 80f7 a1be 6b2a 923d
00000210: 7784 413c 8c87 b1bc 22fd 883d 068f 0a3e
00000220: 1491 613e 16aa 083e cffc bfbe 2791 8bbd
00000230: 780b 0bbd d060 87be 87d0 213e 6edb 50bd
00000240: e055 503e c22b 26be 18f2 24be f3e0 74be
00000250: e652 2d3e d4a7 6fbe 22bf 763d c859 4dbe
00000260: 2527 bb3d ad4f 703e ef5b 35be 66cb 0fbe
00000270: 05fb a23e 77f1 3dbd f0ca 743d 0f79 40be
00000280: f676 d43e 6fcb 573e 77c6 10be f73a dd3e
00000290: fc30 93be 0dcf 02bf 4920 52be acea 923e
000002a0: 8748 c2bd 4f53 a33d f480 c53e 695a 5cbe
000002b0: 281e bf3c 1261 4cbe 640d cd3e d0e3 98be
000002c0: 2008 8b3e 7852 89be 79b9 16be eb7a 13bf
000002d0: 312d 9e3e 6fe9 f53c 639d b9bd a5c1 0abe
000002e0: d4fa 21be db43 b33e 2720 97be bd53 8e3e
000002f0: ff82 a1be c2ac 33be 5153 9fbe 3a36 683e
00000300: bdbe 6cbe 26a0 ab3e cfa6 16be 61ef 233f
00000310: bb22 5dbe 6cce f1bd 7558 bfbe c429 513e
00000320: 3aa8 ea3d 7921 29bd 2a78 4fbe 4621 88be
00000330: 9563 b23d d8dd 4b3d b04e 8cbe ae0a 3cbe
00000340: 24d1 85be 3e16 5f3c 7c92 06be 1ed3 b83d
00000350: a806 2abe aa7a 9fba 6d9d b3be b6bd 4f3e
00000360: c625 8bbd 045d 243e 680e cb3d d39e e9bd
00000370: d5a9 29be 1f43 92bc d82c 0cbd 572b 81bd
00000380: 6af4 21be f2e8 363e 9805 b6bc 5166 013f
00000390: 184a a43e 18e7 613d 5b7b 213e 691e 05be
000003a0: 7f26 8a3d 3e11 c7bd dd11 fcbc 8450 e9bd
000003b0: 6d93 383e ea02 8e3e 0015 73be 512f 51be
000003c0: bd73 8d3c d228 04be 0c60 543e af1c a3bd
000003d0: fb93 11bb 6228 56be 3e12 7e3e 57f0 7b3e
000003e0: 16b0 613d c040 763d 389c 97bd 0b68 a7bd
000003f0: 910c 34be fc97 433d c6a5 9d3d 1d57 643e

linears.4.bias f4 [40]
-0.032367505 0.10630531 -0.046762228 -0.081408024 0.036088742 -0.014067483 0.019648902 0.0080101285
-0.022753557 -0.08548324 -0.0044667176 -0.0159357 -0.04421962 -0.047552135 -0.010216957 0.025026517
0.029150851 0.013435285 0.040680088 0.025361873 -0.067380235 -0.039528273 -0.01017393 -0.033680372
-0.052744493 -0.06923307 -0.026803402 -0.024787212 -0.08074091 0.06826548 0.02162725 -0.0914366
-0.07344391 0.04851789 -0.014687409 -0.051992174 0.0010136942 0.03394205 0.030671375 -0.016052173
00000000: ca93 04bd 99b6 d93d c089 3fbd 40b9 a6bd
00000010: cad1 133d 4d7b 66bc bcf6 a03c ea3c 033c
00000020: ab65 babc d611 afbd 8b5d 92bb 968b 82bc
00000030: a21f 35bd 07c6 42bd 0665 27bc 6904 cd3c
00000040: c4cd ee3c ab1f 5c3c 2aa0 263d b4c3 cf3c
00000050: a6fe 89bd 66e8 21bd 8eb0 26bc 6ef4 09bd
00000060: 9c0a 58bd 11ca 8dbd cf92 dbbc 8d0e cbbc
00000070: 7d5b a5bd c6ce 8b3d a12b b13c 1d43 bbbd
00000080: c369 96bd b2ba 463d 75a3 70bc bff5 54bd
00000090: efdd 843a d206 0b3d 8942 fb3c d97f 83bc

linears.5.weight f4 [3, 40]
-0.23063312 0.15883322 -0.086749315 -0.1940793 0.38638118 0.042554177 0.03183929 -0.033300087
-0.043943614 -0.38076535 -0.14733234 -0.1379996 -0.1643004 -0.111500055 -0.09530414 0.1639217
0.35742736 0.13625067 0.15164605 0.054350633 -0.26973635 -0.36661372 -0.12934116 -0.21450564
-0.2539877 -0.24571171 -0.16935411 -0.15911818 -0.61945826 -0.80798143 0.54331183 -0.3667478
-0.15803908 0.2168793 -0.20293394 -0.25499403 -0.04445667 0.1662336 0.073264 -0.1673156
0.19902554 0.10399551 -0.13214171 0.008387475 0.12097257 -0.16655798 -0.018803617 -0.14098836
0.06920858 -0.25483784 0.06342907 -0.28952822 0.38128093 -0.22365142 -0.19122599 -0.1140216
0.111526944 -0.27762535 -0.026392683 0.036697555 0.07000175 0.25802284 0.09219527 0.00094119285
0.09087541 0.057990428 0.1689436 0.035521936 0.008460622 -0.14181852 -0.12832905 0.2206002
-0.34933433 -0.050251212 -0.193464 0.009011818 0.14453273 -0.10055851 0.074336916 -0.08202739
-0.2573238 0.15120836 -0.19298254 0.1367412 -0.3439217 0.17877473 -0.13593304 -0.25226605
-0.04251781 0.33679187 -0.0074092005 0.30135047 -0.009374066 -0.10925067 0.074591644 -0.09881693
-0.17971423 -0.1873831 -0.18026322 0.2465133 -0.28781277 0.092051335 0.08690123 -0.056965854
0.17250425 -0.13941574 -0.03338123 0.0063705356 0.00027634445 -0.042998705 0.05960303 -0.2908663
-0.16202064 0.27492478 0.023240512 0.3066947 0.073663644 -0.05506549 0.03539004 0.028654378
00000000: 172b 6cbe 2da5 223e a0a9 b1bd b9bc 46be
00000010: c1d3 c53e 4a4d 2e3d ea69 023d ac65 08bd
00000020: 38fe 33bd adf3 c2be 4ade 16be c44f 0dbe
00000030: 5d3e 28be 245a e4bd d12e c3bd 17db 273e
00000040: b800 b73e 4c85 0b3e 1a49 1b3e c59e 5e3d
00000050: e21a 8abe cbb4 bbbe 0272 04be 5ea7 5bbe
00000060: ad0a 82be da9b 7bbe 2a6b 2dbe e0ef 22be
00000070: d194 1ebf dfd7 4ebf 7c16 0b3f 5ec6 bbbe
00000080: ffd4 21be 9b15 5e3e eacd 4fbe 948e 82be
00000090: 3218 36bd 2439 2a3e 700b 963d c854 2bbe
000000a0: 5acd 4b3e 99fb d43d 2850 07be 9f6b 093c
000000b0: 77c0 f73d 2d8e 2abe 0b0a 9abc 415f 10be
000000c0: 3abd 8d3d 1b7a 82be 1ae7 813d 0b3d 94be
000000d0: 4137 c33e e104 65be bfd0 43be 2884 e9bd
000000e0: 3d68 e43d e924 8ebe 7835 d8bc 2d50 163d
000000f0: 145d 8f3d 921b 843e e0d0 bc3d 62ba 763a
00000100: e31c ba3d 5f87 6d3d 8dff 2c3e 737f 113d
00000110: 6c9e 0a3c e038 11be b168 03be 05e5 613e
00000120: f3db b2be 37d4 4dbd 6d1b 46be 4ea6 133c
00000130: 6300 143e 9ff1 cdbd f43d 983d fafd a7bd
00000140: f2bf 83be 5dd6 1a3e 379d 45be e305 0c3e
00000150: 8116 b0be b910 373e 0832 0bbe 0429 81be
00000160: 2827 2ebd fc6f ac3e e1c8 f2bb 9c4a 9a3e
00000170: af95 19bc d1be dfbd 81c3 983d 8860 cabd
00000180: 0207 38be 5be1 3fbe ec96 38be fc6d 7c3e
00000190: 325c 93be 6985 bc3d 46f9 b13d 0755 69bd
000001a0: f4a4 303e 00c3 0ebe c2ba 08bd edbf d03b
000001b0: 53e2 9039 691f 30bd 4f22 743d 6dec 94be
000001c0: bde8 25be f1c2 8c3e e362 be3c 1607 9d3e
000001d0: f7dc 963d 5a8c 61bd 26f5 103d 96bc ea3c

linears.5.bias f4 [3]
0.048598535 -0.00036773473 0.0
00000000: 420f 473d 85cc c0b9 0000 0000

exp_avg f4 [40, 2]
-0.00071507046 -0.000850275 -0.009429727 -0.013587119 -0.0023432376 -0.0033069167 -0.0077076056 -0.010713638
0.008122671 0.011436322 -0.0070665167 -0.009958013 -0.00081485754 -0.0011883266 0.00014337896 -0.00023888912
-0.0026877343 -0.0035195346 0.0012531121 0.0011929665 0.0067378334 0.009479131 -0.02035814 -0.027897798
-6.316596e-05 3.2069563e-06 0.0054140883 0.0072673257 0.00105378 0.0009294284 0.0020606185 0.002608116
0.001811148 0.0026607192 0.0013569446 0.0020726628 0.002039837 0.0027560974 0.00028211696 0.00010342992
-0.0013318587 -0.0020717774 -0.0017171043 -0.0018440128 0.0016431342 0.0024313095 0.0059147775 0.008182006
0.002340045 0.0028158138 0.0017476111 0.0019267446 -0.0045781676 -0.0059619844 2.560148e-05 7.254304e-05
-0.0014306967 -0.0012578259 -0.0011973337 -0.001764059 0.00041053043 -0.0006510921 0.00015244259 -0.00010533973
-4.3349955e-06 0.00020203732 0.00073500996 0.0009639461 0.0038322324 0.005143361 -0.0059074666 -0.00886357
-0.0001218248 -9.447556e-05 0.0076877703 0.01048796 -0.029227793 -0.04034983 0.005600305 0.0072164526
00000000: 9173 3bba fde4 5eba 247f 1abc 829c 5ebc
00000010: 0191 19bb dbb8 58bb 1590 fcbb 4188 2fbc
00000020: f414 053c 695f 3b3c 3d8e e7bb ef26 23bc
00000030: 2a9c 55ba a0c1 9bba ff57 1639 4f7e 7ab9
00000040: b324 30bb fea7 66bb 773f a43a 505d 9c3a
00000050: 0bc9 dc3b 5b4e 1b3c 1dc6 a6bc ec89 e4bc
00000060: f777 84b8 1737 5736 aa68 b13b bf22 ee3b
00000070: fd1e 8a3a e2a4 733a 710b 073b edec 2a3b
00000080: 0b64 ed3a 765f 2e3b 81db b13a 83d5 073b
00000090: c9ae 053b a49f 343b 19e9 9339 84e8 d838
000000a0: c391 aeba a8c6 07bb 7610 e1ba cdb2 f1ba
000000b0: 6f5e d73a 9b56 1f3b c0d0 c13b d20d 063c
000000c0: 715b 193b 8489 383b 1910 e53a d28a fc3a
000000d0: 7404 96bb c05c c3bb c2c2 d637 3f22 9838
000000e0: 3786 bbba a2dd a4ba daef 9cba ff37 e7ba
000000f0: 763c d739 0dae 2aba ffd8 1f39 d6e9 dcb8
00000100: 5475 91b6 fbd9 5339 afad 403a 54b1 7c3a
00000110: 3126 7b3b a489 a83b 6c93 c1bb 8238 11bc
00000120: 317c ffb8 2e21 c6b8 b1e9 fb3b b1d5 2b3c
00000130: 206f efbc dd45 25bd c382 b73b fe77 ec3b

exp_avg_sq f4 [40, 2]
0.00031772227 0.0018526621 0.050078396 0.29826245 0.0031129322 0.018053444 0.035052493 0.20295681
0.03772699 0.21909417 0.028346721 0.16720334 0.00045708087 0.0024969866 2.6881473e-06 1.8284467e-05
0.0038113587 0.021759907 0.00083382445 0.00460688 0.025848005 0.15305486 0.23292182 1.3752941
5.7832807e-07 8.559205e-06 0.017210618 0.09657413 0.00071118225 0.004235787 0.0023200111 0.012794526
0.002133263 0.018574396 0.0011067267 0.006438849 0.002432955 0.014734357 1.9058503e-05 0.00013590601
0.0011692824 0.008688076 0.0017400088 0.010425635 0.00145267 0.0087816445 0.019993082 0.11573541
0.0033691872 0.020372149 0.0016960176 0.01055316 0.012562037 0.07684896 3.3202795e-07 1.9905974e-06
0.0012491822 0.0075180577 0.0007797634 0.0049120737 8.334203e-05 0.00044905345 5.871218e-06 6.4596425e-05
1.1804201e-06 9.608761e-06 0.00032075605 0.0017584634 0.00862911 0.050280582 0.01934412 0.11610614
1.627112e-05 5.0193885e-05 0.034298003 0.19309357 0.49136576 2.8994143 0.01770406 0.11056823
00000000: f693 a639 06d5 f23a 011f 4d3d dbb5 983e
00000010: 5602 4c3b d1e4 933c 3493 0f3d e9d3 4f3e
00000020: 9e87 1a3d 395a 603e 6237 e83c 5a37 2b3e
00000030: 5ba4 ef39 7ca4 233b 0566 3436 9861 9937
00000040: fdc7 793b d541 b23c 0395 5a3a 4ff5 963b
00000050: 32bf d33c 6aba 1c3e 0f83 6e3e a309 b03f
00000060: 673e 1b35 8199 0f37 48fd 8c3c a8c8 c53d
00000070: a26e 3a3a 5bcc 8a3b 540b 183b 22a0 513c
00000080: 37ce 0b3b 5529 983c 960f 913a fbfc d23b
00000090: 3672 1f3b 5f68 713c d3df 9f37 fe81 0e39
000000a0: 9b42 993a 6f58 0e3c 0211 e43a 48d0 2a3c
000000b0: 8467 be3a e3e0 0f3c 88c8 a33c b006 ed3d
000000c0: 95cd 5c3b 7ee3 a63c e84c de3a 29e7 2c3c
000000d0: 01d1 4d3c fd62 9d3d 9341 b234 3496 0536
000000e0: 99bb a33a 0a5a f63b 0969 4c3a 76f5 a03b
000000f0: e9c7 ae38 ef6e eb39 6101 c536 f177 8738
00000100: ed6e 9e35 5035 2137 262b a839 3e7c e63a
00000110: 1c61 0d3c 03f3 4d3d 8f77 9e3c 0ec9 ed3d
00000120: f77d 8837 4687 5238 107c 0c3d 52ba 453e
00000130: 4b94 fb3e 0190 3940 1b08 913c 9971 e23d

exp_avg f4 [40]
-0.00087842037 -0.013953915 -0.003398406 -0.011008315 0.01173383 -0.010222573 -0.001239975 -0.00026163645
-0.0036021802 0.001224762 0.009735909 -0.028620044 -2.3472305e-06 0.0074611525 0.00092817494 0.0026617262
0.0027442658 0.0021393187 0.0028508967 9.4306204e-05 -0.002150345 -0.0018891903 0.0024714696 0.008413059
0.0028729534 0.0019565662 -0.006117263 8.12693e-05 -0.0012772175 -0.0018127045 -0.00067379355 -0.00012639632
0.00021257003 0.0010013854 0.0052843816 -0.009098435 -0.00012527661 0.010763385 -0.041392166 0.007393643
00000000: cb45 66ba f69e 64bc cbb7 5ebb 385c 34bc
00000010: 403f 403c 947c 27bc a886 a2ba 402c 89b9
00000020: 8e12 6cbb 3188 a03a 5d83 1f3c 9574 eabc
00000030: 1d85 1db6 af7c f43b c450 733a 5b70 2e3b
00000040: 24d9 333b d033 0c3b 1cd6 3a3b 42c6 c538
00000050: cdec 0cbb b59e f7ba 61f8 213b edd6 093c
00000060: 2948 3c3b bc39 003b 5273 c8bb 206f aa38
00000070: 4f68 a7ba 4598 edba 85a1 30ba 4189 04b9
00000080: 55e5 5e39 eb40 833a 9b28 ad3b 9a11 15bc
00000090: af5c 03b9 e958 303c d58a 29bd 5f46 f23b

exp_avg_sq f4 [40]
0.0018572407 0.2989003 0.018096277 0.20336235 0.21952155 0.16751495 0.0025068917 1.8661665e-05
0.02179282 0.0046089543 0.15337387 1.3777478 8.572346e-06 0.09675722 0.004228881 0.012808281
0.018609824 0.0064631724 0.014767412 0.00013527375 0.008716105 0.010432687 0.008793589 0.11598554
0.020382483 0.010558182 0.076967545 2.0827692e-06 0.007522604 0.0049222787 0.0004489181 6.419321e-05
9.681455e-06 0.0017657628 0.050367147 0.116345964 5.1231535e-05 0.19346546 2.9045062 0.11071447
00000000: a86e f33a 7609 993e a53e 943c 383e 503e
00000010: 42ca 603e 0a89 2b3e aa4a 243b 9f8b 9c37
00000020: db86 b23c b606 973b 0a0e 1d3e 0a5a b03f
00000030: f2d1 0f37 a628 c63d 6d92 8a3b d3d9 513c
00000040: a173 983c 05c9 d33b 04f3 713c 45d8 0d39
00000050: fecd 0e3c dced 2a3c fc12 103c d489 ed3d
00000060: 2af9 a63c 3afc 2c3c 29a1 9d3d b4c5 0b36
00000070: 2d80 f63b 114b a13b c45c eb39 789f 8638
00000080: 886d 2237 2b71 e73a c84d 4e3d cb46 ee3d
00000090: 71e1 5638 cf1b 463e 6ee3 3940 45be e23d

exp_avg f4 [40, 40]
6.363956e-06 -2.094671e-05 1.9621852e-05 3.3568842e-05 -3.1543837e-05 1.9333307e-05 1.0098016e-05 1.2414862e-06
-1.2779031e-05 -3.7343856e-05 -5.3570107e-06 5.520627e-06 -6.295273e-07 -5.1568113e-05 -7.0822325e-06 -4.6051508e-05
0.00027761172 -9.44239e-06 -2.6846624e-06 1.1967472e-07 -0.00015327532 9.194074e-05 -5.068915e-05 -3.051428e-05
-5.6139368e-05 -6.70131e-05 7.5704695e-05 -7.9680717e-07 6.393206e-05 -0.00013912651 -2.7732402e-05 -4.49e-08
-2.2450804e-06 8.490781e-05 -3.512527e-05 7.2829766e-06 8.091721e-06 -5.9899547e-05 -5.450556e-06 -6.369881e-05
-6.764601e-05 -0.00010012299 9.329228e-06 2.2135531e-05 -7.501771e-05 5.3726235e-05 -6.7416724e-05 -0.00014748347
5.852153e-05 -0.00014051347 4.659076e-06 5.592399e-05 3.1888452e-05 -9.285675e-05 -5.1482246e-05 -0.00017808747
0.0010834952 6.159659e-05 2.1211286e-05 -3.5339144e-05 -0.0006487578 0.00040349088 -0.0002370066 -2.1448523e-05
-0.00027644995 -0.00033731753 0.00031955587 -5.0550847e-07 0.00032481947 -0.0005528102 -0.00020203402 -0.000101448626
7.218659e-05 0.00029451243 -8.6058e-05 -1.7098251e-05 -7.960797e-05 -0.00014059598 1.978296e-05 -0.00032313244
-1.1617464e-05 1.7456921e-05 -1.9919176e-05 -3.4168555e-05 2.6856227e-05 -1.6072854e-05 -1.5998905e-05 -1.3526236e-05
1.9691994e-05 2.8996712e-05 5.019706e-06 1.0283918e-06 3.827218e-06 4.8166345e-05 2.9768662e-06 3.5971454e-05
-0.00022134313 1.4612041e-05 3.4369589e-06 -4.0259083e-06 0.00011798488 -6.8852925e-05 3.6296362e-05 3.0360794e-05
3.930285e-05 4.6627363e-05 -5.7168152e-05 2.6665725e-07 -4.4228862e-05 0.00010981987 1.3589456e-05 -8.135274e-06
8.987252e-06 -7.0337876e-05 3.1174797e-05 -8.346749e-06 -1.4884199e-05 5.357343e-05 1.001598e-05 4.3183052e-05
1.9508434e-05 -9.2953105e-06 2.2181413e-05 3.7138936e-05 -2.4870023e-05 1.3920242e-05 2.4218405e-05 2.798343e-05
-2.6804879e-05 -2.0818057e-05 -6.8345066e-06 -4.381548e-06 -6.7691462e-06 -4.679101e-05 7.9793404e-07 -2.5096968e-05
0.00015212185 -2.228596e-05 -6.4840765e-06 7.0215524e-06 -7.4949305e-05 4.196282e-05 -2.0284815e-05 -3.326888e-05
-2.0063913e-05 -2.2760645e-05 3.6590685e-05 -5.318756e-07 2.1167058e-05 -7.455848e-05 2.069547e-06 1.808878e-05
-1.5991629e-05 5.317168e-05 -2.788984e-05 1.1537404e-05 2.3988594e-05 -4.8663376e-05 -1.1468065e-05 -2.0762922e-05
-0.00025299616 -0.0002328079 -5.6381894e-05 -7.757318e-05 -0.00010977449 9.2971764e-05 -0.00027001038 -0.000499862
0.0002560948 -0.00029979958 3.7063557e-05 0.00016683129 0.00011071158 -7.639104e-05 -0.00014111116 -0.0003844025
0.002342143 0.00024710357 8.0072656e-05 -0.00012085717 -0.0014617267 0.0009260021 -0.0005600056 6.505131e-05
-0.00066665607 -0.00082018954 0.00072088116 4.549524e-07 0.0007925486 -0.0012045623 -0.00054968556 -0.00033868992
0.0002530124 0.0005920472 -0.0001279766 -8.779714e-05 -0.00030183824 -0.00019749868 9.614169e-05 -0.00078985357
0.00022438134 0.00026427992 1.4128978e-05 5.2301602e-06 0.0001639759 -0.00012460347 0.00023204664 0.00046219092
-0.0002105136 0.0003546283 -2.5929752e-05 -0.0001625354 -0.000101032194 0.00017499593 0.00014466226 0.00045205597
-0.0027583558 -0.000212392 -7.149816e-05 0.000110508445 0.0016799195 -0.001051934 0.00062520104 -5.6939473e-07
0.0007359776 0.0009015947 -0.00082662277 -1.7265262e-07 -0.00086948235 0.0014112967 0.000567738 0.00031559702
-0.00022988806 -0.00072784594 0.0001901389 6.8959955e-05 0.00026549186 0.00030507988 -7.433894e-05 0.0008651304
-2.9686942e-05 -1.6048214e-05 -1.3406225e-05 -2.1034426e-05 -4.3007768e-07 2.9178793e-06 -3.3123626e-05 -5.505035e-05
3.3205342e-05 -1.8351002e-05 5.596843e-06 1.7179003e-05 1.2590892e-05 1.1197977e-05 -1.285929e-05 -2.3952507e-05
00000000: f789 d536 b8b6 afb7 9b99 a437 45cc 0c38
00000010: f04d 04b8 f62d a237 a66a 2937 24a1 a635
00000020: 8565 56b7 a9a1 1cb8 5fc0 b3b6 d33d b936
00000030: c9fc 28b5 d74a 58b8 eaa3 edb6 6e27 41b8
00000040: 6a8c 9139 c26a 1eb7 262a 34b6 f07f 0034
00000050: 88b8 20b9 4fd0 c038 0f9b 54b8 ebf8 ffb7
00000060: 3077 6bb8 6289 8cb8 a6c3 9e38 2ce4 55b5
00000070: 4313 8638 7de2 11b9 e1a2 e8b7 12d8 40b3
00000080: 30aa 16b6 8910 b238 7953 13b8 4b60 f436
00000090: adc1 0737 a63c 7bb8 ebe3 b6b6 0a96 85b8
000000a0: 2ddd 8db8 1ff9 d1b8 bb84 1c37 b1af b937
000000b0: d452 9db8 1b58 6138 1462 8db8 cba5 1ab9
000000c0: 0475 7538 cc56 13b9 2855 9c36 ed8f 6a38
000000d0: f7bf 0538 17bc c2b8 a4ee 57b8 febc 3ab9
000000e0: 1104 8e3a 6b2d 8138 e4ee b137 1e39 14b8
000000f0: 6611 2aba a18b d339 fa84 78b9 5aec b3b7
00000100: 7cf0 90b9 fed9 b0b9 108a a739 47b2 07b5
00000110: 884c aa39 77ea 10ba 18d9 53b9 d1c0 d4b8
00000120: e162 9738 ca68 9a39 097a b4b8 376e 8fb7
00000130: 34f3 a6b8 f26c 13b9 95f3 a537 1a6a a9b9
00000140: a1e8 42b7 7470 9237 1b18 a7b7 3550 0fb8
00000150: 4f49 e137 31d4 86b7 6335 86b7 beee 62b7
00000160: 3c30 a537 f73d f337 f26e a836 4607 8a35
00000170: 8d6b 8036 3806 4a38 2cc6 4736 0ee0 1638
00000180: 5818 68b9 3d26 7537 81a6 6636 4a16 87b6
00000190: a66e f738 2265 90b8 ec3c 1838 4faf fe37
000001a0: 1dd9 2438 c091 4338 d6c7 6fb8 1829 8f34
000001b0: 6182 39b8 184f e638 45fe 6337 bc7c 08b7
000001c0: f4c7 1637 5c82 93b8 afc1 0238 0409 0cb7
000001d0: 26b7 79b7 08b4 6038 4e0a 2837 731f 3538
000001e0: 0ba6 a337 0ef3 1bb7 3912 ba37 a1c5 1b38
000001f0: f89f d0b7 fc8a 6937 a128 cb37 f5bd ea37
00000200: 0adb e0b7 70a2 aeb7 f753 e5b6 3605 93b6
00000210: 8622 e3b6 7741 44b8 9c31 5635 5487 d2b7
00000220: e682 1f39 bcf2 bab7 cb91 d9b6 ad9a eb36
00000230: 1a2e 9db8 3c01 3038 4f29 aab7 308a 0bb8
00000240: ed4e a8b7 1dee beb7 f378 1938 37c6 0eb5
00000250: e98f b137 475c 9cb8 8ce2 0a36 5cbd 9737
00000260: c325 86b7 a804 5f38 faf4 e9b7 c690 4137
00000270: 1d3b c937 e71b 4cb8 f766 40b7 092c aeb7
00000280: 92a4 84b9 e51d 74b9 997b 6cb8 c9ae a2b8
00000290: bb36 e6b8 d6f9 c238 2e90 8db9 2c09 03ba
000002a0: 7644 8639 6b2e 9db9 b174 1b38 6fef 2e39
000002b0: d42d e838 2134 a0b8 3df7 13b9 a189 c9b9
000002c0: a47e 193b ae8d 8139 aeec a738 b374 fdb8
000002d0: 6997 bfba f3be 723a 57cd 12ba 286c 8838
000002e0: 88c2 2eba fd01 57ba 84f9 3c3a 2f40 f434
000002f0: 09c3 4f3a 67e2 9dba c618 10ba 3192 b1b9
00000300: c0a6 8439 9d33 1b3a 7531 06b9 bb1f b8b8
00000310: 0b40 9eb9 a617 4fb9 ad9f c938 2d0e 4fba
00000320: e847 6b39 0d8f 8a39 800b 6d37 bc7e af36
00000330: f2f0 2b39 fda7 02b9 8c51 7339 3752 f239
00000340: 50bd 5cb9 68ed b939 b883 d9b7 446e 2ab9
00000350: 3fe1 d3b8 1d7f 3739 7bb0 1739 ed01 ed39
00000360: 88c5 34bb 8bb5 5eb9 48f1 95b8 c5c0 e738
00000370: bf30 dc3a 0ce1 89ba 88e4 233a 82d8 18b5
00000380: 9fee 403a ff58 6c3a b7b1 58ba 6462 39b4
00000390: f9ed 63ba 42fb b83a 41d4 143a b776 a539
000003a0: 1b0e 71b9 eacc 3eba 0660 4739 989e 9038
000003b0: b731 8b39 21f3 9f39 6ae6 9bb8 ebc9 623a
000003c0: 3908 f9b7 479f 86b7 4ceb 60b7 1673 b0b7
000003d0: 6de5 e6b4 c9d0 4336 39ee 0ab8 dde5 66b8
000003e0: f745 0b38 7af0 99b7 84cc bb36 a11b 9037
000003f0: 783d 5337 f2de 3b37 3bbe 57b7 9eed c8b7
