Lid_Driven_Re100/saved_models/GA-14000.pt (torch, 95111 bytes, 36 tensors)

linears.0.weight f4 [40, 2]
-0.20516875 -0.18708807 -0.11757345 -0.44085854 -0.41061243 0.0188906 0.25035226 -0.35434973
-0.45000237 0.37092867 -0.15311755 -0.17119434 0.08966077 -0.10009677 0.05929179 -0.010689968
0.0008155371 0.3664041 -0.047461946 0.22573562 0.13659708 0.26411557 0.1455835 0.0093989745
0.22147723 -0.1287156 0.4110678 -0.1462751 -0.21936029 -0.3038634 -0.021569582 -0.33503202
-0.26261875 0.35645866 -0.0054516383 0.20506959 0.041086648 0.19136548 -0.26253098 0.1650219
0.008048727 -0.31375962 0.13458794 0.12975173 0.31556752 -0.1005158 0.30406085 0.09309514
0.3493187 -0.19139434 -0.26611218 0.21413335 0.16176224 0.020338677 0.3592172 -0.02798163
0.06699626 0.1750377 -0.22671989 -0.004371857 0.048553944 0.28664416 0.17896338 -0.34594497
-0.10552177 0.1351764 -0.3686838 0.35113183 -0.3987935 0.031427998 0.027787974 0.09972873
-0.25403616 0.13317631 0.003768528 0.2720785 0.27439344 -0.19119465 0.34239534 0.27748665
00000000: c217 52be 0494 3fbe 59ca f0bd 36b8 e1be
00000010: cb3b d2be 76c0 9a3c 2c2e 803e 546d b5be
00000020: b666 e6be 5dea bd3e d9ca 1cbe 924d 2fbe
00000030: 11a0 b73d 89ff ccbd f3db 723d fa24 2fbc
00000040: c5c9 553a 5199 bb3e 7567 42bd 3d27 673e
00000050: 1be0 0b3e 283a 873e d713 153e 28fe 193c
00000060: edca 623e 06ce 03be 7b77 d23e 24c9 15be
00000070: fc9f 60be fc93 9bbe b1b2 b0bc 5189 abbe
00000080: f775 86be c081 b63e a8a3 b2bb c3fd 513e
00000090: 794a 283d 50f5 433e 766a 86be 80fb 283e
000000a0: cfde 033c 1aa5 a0be 6cd1 093e a3dd 043e
000000b0: 1192 a13e 3adb cdbd ddad 9b3e aaa8 be3d
000000c0: e7d9 b23e e1fc 43be db3f 88be c645 5b3e
000000d0: 00a5 253e 4c9d a63c 51eb b73e bb39 e5bc
000000e0: 5635 893d 153d 333e 4229 68be cb41 8fbb
000000f0: 80e0 463d 06c3 923e 2d42 373e b31f b1be
00000100: cc1b d8bd af6b 0a3e 1fc4 bcbe 8dc7 b33e
00000110: a92e ccbe a5ba 003d 9ba3 e33c 943e cc3d
00000120: 0711 82be 5f5f 083e 69f9 763b e04d 8b3e
00000130: 4c7d 8c3e 88c8 43be 714e af3e bb12 8e3e

linears.0.bias f4 [40]
0.09899173 0.022117646 0.015207719 0.16396233 0.11871912 0.17768121 0.03752982 0.09514078
-0.1502322 -0.16452393 0.105604485 -0.04465763 0.14264916 0.08256691 0.08507197 -0.039058544
-0.062496804 -0.08244731 -0.05532862 -0.050466463 0.20856106 -0.18385889 -0.07242509 -0.040935654
0.05859259 0.019369615 -0.06053265 0.03550909 0.35877222 0.046467744 -0.08890174 0.10785423
0.111549996 0.031604167 0.031112269 0.082483 -0.016050456 -0.04157064 -0.006478743 -0.060793273
00000000: 2dbc ca3d 1130 b53c cc29 793c bee5 273e
00000010: 0323 f33d 10f2 353e deb8 193d 2bd9 c23d
00000020: 78d6 19be f678 28be 2a47 d83d ebea 36bd
00000030: 9f12 123e d718 a93d 373a ae3d dafb 1fbd
00000040: a6fc 7fbd 23da a8bd 43a0 62bd ecb5 4ebd
00000050: 0891 553e 8145 3cbe 9b53 94bd 25ac 27bd
00000060: c9fe 6f3d 07ad 9e3c 16f1 77bd fb71 113d
00000070: feb0 b73e f654 3e3d 1e12 b6bd aee2 dc3d
00000080: 5374 e43d 5f73 013d 28df fe3c d9ec a83d
00000090: 3f7c 83bc fa45 2abd a34b d4bb 5e02 79bd

linears.1.weight f4 [40, 40]
-0.2912616 -0.2892206 0.033463437 -0.14325045 -0.09475444 -0.3554406 -0.24790329 -0.31513235
0.20159471 0.16182972 -0.1318764 0.20665562 -0.30566192 0.18060386 -0.28130516 -0.010687889
0.025060806 0.019194843 0.15855655 0.19839759 -0.26133332 0.37498146 0.28193846 -0.13008878
-0.22888608 0.28307125 0.031085998 -0.111162335 -0.27242497 -0.07508621 -0.21548532 -0.07514875
0.19150679 -0.22742808 -0.068607554 -0.17875862 0.05296475 -0.10992049 -0.24813928 0.037025087
-0.046282835 -0.042096987 -0.052533742 0.124528125 0.09727519 -0.0450947 -0.31131667 -0.2983634
-0.20769933 -0.027630672 0.087321445 -0.3667714 -0.2732598 0.039311375 -0.097198956 0.18307212
-0.08116245 -0.1359917 0.09764892 0.40926358 -0.17151406 0.14273334 -0.09178346 -0.11583311
0.030554965 0.22502881 -0.39534536 -0.28814194 0.12099787 0.06746494 0.2606701 -0.21887103
0.17104587 0.17591773 0.08730705 -0.030104341 0.060364805 0.18320356 -0.15329908 0.19403687
-0.017768437 -0.009399043 -0.19335821 -0.34818062 0.15186512 -0.095349714 0.011418637 0.078760214
0.033098035 0.51998836 -0.16146733 -0.13529928 0.12608926 0.044753876 0.115861274 0.019512994
-0.11267835 0.10860715 0.31793466 0.13971604 0.009827616 0.3492258 0.14647335 -0.20229942
0.14129008 0.09034841 -0.043462235 -0.02893611 0.18807665 0.02424622 0.27675116 -0.18859187
-0.20159505 0.17591487 -0.18183935 -0.16249195 -0.17295367 0.035582487 -0.11503461 0.035552587
0.015323167 -0.05293809 0.2339139 0.0062936223 -0.26810193 -0.26153764 -0.27784398 -0.111146584
0.03658375 -0.12533808 -0.12390913 0.14803933 -0.14658523 0.15342651 0.20283939 0.16135615
0.078931846 -0.2764183 0.09700849 -0.011979773 -0.1043736 0.31059694 0.21752504 0.032184545
-0.26450527 0.21071279 -0.05525635 -0.07222777 -0.03740607 0.23927073 -0.01984562 -0.07034415
-0.2944122 -0.26134512 0.056510586 -0.2706204 0.255397 -0.0029432084 0.21323378 0.24537124
-0.20136493 -0.11747835 0.17474213 0.18395367 -0.2861273 0.09063114 -0.044657562 0.026947351
-0.07163293 -0.1395259 -0.083067104 0.20775743 0.27852795 0.097254656 -0.05351337 -0.17602174
-0.15369809 0.13619684 -0.056968194 0.06966779 0.2642148 0.028547063 0.29059917 0.024096973
0.29015636 -0.14384623 0.11973925 -0.019936576 -0.2688079 0.001937395 -0.052335106 0.22599638
-0.076808535 0.09580827 -0.25681886 0.13340832 -0.16321176 -0.036769606 0.30258727 0.14522909
-0.05522147 -0.09088009 -0.25095552 0.1705775 0.041929014 0.23820253 -0.23236659 -0.23246375
-0.06345862 0.1429591 0.11009752 0.17213136 -0.21271047 -0.24431305 0.003269748 0.020402925
0.1696456 -0.058834873 0.09982546 0.09222398 -0.04502094 -0.014410345 -0.24448854 0.10896223
-0.0005390514 0.012368499 -0.019363144 -0.2229648 0.2130179 0.25253135 -0.13884337 -0.14286806
-0.0793549 0.3209431 0.07653207 0.116477735 -0.20274271 0.062217806 0.13655044 -0.22971813
-0.036886208 0.10052997 0.3351972 -0.25977513 0.22872226 0.03117105 0.1997726 -0.22582173
0.13677958 0.1741327 0.16844113 -0.0009222345 -0.18599774 -0.34610522 0.18029691 0.20771556
00000000: 3e20 95be b914 94be f510 093d 3fb0 12be
00000010: 9e0e c2bd 4ffc b5be 5cda 7dbe 0759 a1be
00000020: d86e 4e3e b1b6 253e 9b0a 07be 889d 533e
00000030: b87f 9cbe 38f0 383e 3b07 90be 411c 2fbc
00000040: 524c cd3c 813e 9d3c a65c 223e bd28 4b3e
00000050: 7bcd 85be 92fd bf3e 3d5a 903e fe35 05be
00000060: 1d61 6abe b7ee 903e 10a8 fe3c 14a9 e3bd
00000070: 497b 8bbe cdc6 99bd 2fa8 5cbe 96e7 99bd
00000080: 5b1a 443e e8e2 68be 1e82 8cbd 800c 37be
00000090: 91f1 583d fe1d e1bd 3918 7ebe 9ea7 173d
000000a0: 1293 3dbd e46d 2cbd 9f2d 57bd 9a08 ff3d
000000b0: 3738 c73d 38b5 38bd e664 9fbe 16c3 98be
000000c0: 22af 54be b859 e2bc 96d5 b23d 76c9 bbbe
000000d0: b5e8 8bbe f704 213d 3f10 c7bd 4277 3b3e
000000e0: 8038 a6bd 6941 0bbe 28fc c73d ff8a d13e
000000f0: 62a1 2fbe b028 123e f7f8 bbbd e939 edbd
00000100: 684e fa3c f46d 663e b56a cabe 5787 93be
00000110: bbcd f73d 0f2b 8a3d 8d76 853e ba1f 60be
00000120: a626 2f3e c723 343e 0ace b23d 619d f6bc
00000130: 1641 773d b799 3b3e 6ffa 1cbe 9ab1 463e
00000140: 1d8f 91bc 72fe 19bc b2ff 45be bb44 b2be
00000150: 8882 1b3e b646 c3bd 3c15 3b3c 094d a13d
00000160: ce91 073d f51d 053f b157 25be e58b 0abe
00000170: 8b1d 013e d74f 373d ad48 ed3d b7d9 9f3c
00000180: e8c3 e6bd 6d6d de3d 55c8 a23e b911 0f3e
00000190: 0204 213c b9cd b23e 1cfd 153e 9427 4fbe
000001a0: 59ae 103e 9608 b93d 7505 32bd 6c0b edbc
000001b0: 2a97 403e 02a0 c63c 54b2 8d3e 3a1e 41be
000001c0: ef6e 4ebe 0723 343e 1834 3abe 4a64 26be
000001d0: c41a 31be f1be 113d 4497 ebbd 979f 113d
000001e0: 050e 7b3c 9cd5 58bd 2087 6f3e bb3a ce3b
000001f0: a844 89be 43e8 85be 9141 8ebe d2a0 e3bd
00000200: d8d8 153d a058 00be 12c4 fdbd 9f97 173e
00000210: 701a 16be d71b 1d3e 21b5 4f3e 8c3a 253e
00000220: 05a7 a13d b386 8dbe 63ac c63d cf46 44bc
00000230: d3c1 d5bd 9006 9f3e e2be 5e3e f1d3 033d
00000240: 3c6d 87be 18c5 573e 7c54 62bd 27ec 93bd
00000250: 1b37 19bd 6303 753e 4893 a2bc 9810 90bd
00000260: 32bd 96be 07cf 85be a577 673d c28e 8abe
00000270: 65c3 823e d8e2 40bb f559 5a3e 9942 7b3e
00000280: 9c32 4ebe 7d98 f0bd 9aef 323e 5a5e 3c3e
00000290: 477f 92be d29c b93d d9ea 36bd b1c0 dc3c
000002a0: 49b4 92bd e1df 0ebe 161f aabd 5dbe 543e
000002b0: 379b 8e3e 732d c73d d630 5bbd 0b3f 34be
000002c0: 0863 1dbe 2f77 0b3e 7b57 69bd fcad 8e3d
000002d0: 2a47 873e 88db e93c 6ac9 943e 0467 c53c
000002e0: 608f 943e 6d4c 13be da39 f53d 0852 a3bc
000002f0: 30a1 89be 30f0 fd3a 565d 56bd 986b 673e
00000300: cb4d 9dbd 2037 c43d c37d 83be 319c 083e
00000310: fc20 27be ba9b 16bd b8ec 9a3e efb6 143e
00000320: e82f 62bd 571f babd 3e7d 80be deab 2e3e
00000330: c2bd 2b3d 5deb 733e 82f1 6dbe fa0a 6ebe
00000340: 98f6 81bd df63 123e cf7a e13d 3443 303e
00000350: c6d0 59be 332d 7abe 4549 563b 0924 a73c
00000360: 93b7 2d3e d6fc 70bd 4a71 cc3d eddf bc3d
00000370: e167 38bd 5e19 6cbc 345b 7abe 9727 df3d
00000380: 214f 0dba 3fa5 4a3c 759f 9ebc e250 64be
00000390: 5d21 5a3e ca4b 813e f52c 0ebe 014c 12be
000003a0: d284 a2bd a752 a43e d9bc 9c3d e18b ee3d
000003b0: c99b 4fbe 19d8 7e3d e1d3 0b3e 3b3b 6bbe
000003c0: fe15 17bd a8e2 cd3d f89e ab3e 3f01 85be
000003d0: 2b36 6a3e 6e5a ff3c 3091 4c3e d03d 67be
000003e0: f20f 0c3e d84f 323e d57b 2c3e 1cc2 71ba
000003f0: 3176 3ebe b434 b1be c19f 383e 63b3 543e

linears.1.bias f4 [40]
-0.10152552 -0.012180603 -0.07449196 -0.07034196 0.002779924 0.01634853 -0.043010924 -0.05783536
-0.0819329 0.12012264 0.16247019 0.14011325 -0.014247903 0.044968057 -0.008157815 -0.064279765
-0.004612302 -0.080820315 0.054455202 -0.07663117 0.03744162 0.019527262 -0.044206426 0.015577312
-0.02467467 0.15940721 -0.054629378 0.048370868 0.192431 0.05674932 -0.009245982 -0.06645603
-0.05648013 -0.08621334 0.17375472 0.03698441 0.035739742 0.036894616 0.07860521 0.022936804
00000000: 9dec cfbd 2791 47bc 3e8f 98bd 720f 90bd
00000010: 632f 363b 5aed 853c 392c 30bd c5e4 6cbd
00000020: 70cc a7bd dc02 f63d 965e 263e d979 0f3e
00000030: 0970 69bc 6d30 383d 5ba8 05bc 1ca5 83bd
00000040: cb22 97bb 1f85 a5bd 6b0c 5f3d cef0 9cbd
00000050: 625c 193d a3f7 9f3c cc11 35bd fb37 7f3c
00000060: 8922 cabc a53b 233e 0ec3 5fbd 8820 463d
00000070: a20c 453e fa71 683d 767c 17bc 191a 88bd
00000080: b557 67bd 9f90 b0bd c2ec 313e f77c 173d
00000090: d663 123d cf1e 173d c5fb a03d f7e5 bb3c

linears.2.weight f4 [40, 40]
0.034259923 0.15088864 0.010796615 -0.012922315 0.10100152 -0.12477315 0.04597684 0.08511574
0.22861825 -0.3339674 0.069381244 -0.08005868 -0.026906898 -0.02603811 0.17232236 -0.045704428
-0.08429453 0.4189463 0.074977614 0.2862448 -0.009780979 0.28262848 0.24310422 -0.06261109
0.16023217 0.11768607 0.1798202 -0.25557822 -0.20066525 0.12644711 -0.15292981 0.13279305
-0.19407766 0.08962994 0.10061677 0.025569728 0.116498806 -0.101716064 0.21394134 0.11600454
-0.2746974 -0.21144633 -0.36524028 0.07813199 -0.24821205 -0.048741434 -0.080656074 0.12626758
-0.1204356 0.26261264 0.16889213 0.105887815 -0.06351108 -0.22672129 -0.18367183 -0.08974537
0.11651122 -0.35681805 0.3538115 -0.17014998 0.11347067 0.22689934 0.16995506 0.14793822
-0.20651881 -0.17447871 -0.09017503 -0.02374728 0.14971432 0.31994498 -0.025064897 -0.020624312
0.22743429 -0.31596103 0.28498426 0.2511976 0.07961018 -0.027979687 0.009849999 0.23803118
-0.24169675 -0.03578731 0.14516045 0.119373836 0.2390782 0.058030378 -0.13526401 0.035322435
-0.19970618 0.14489557 0.17266276 0.028368538 -0.034400865 0.1062779 -0.09180854 0.05840267
0.07925127 0.33102277 -0.14866382 -0.029235367 -0.1221455 0.24423534 0.010189914 0.008169395
-0.23824026 0.04884973 0.036459155 -0.061934665 0.094959855 0.36880863 0.19995765 -0.33413
0.16456932 0.006353656 0.05842491 0.21145386 -0.031087175 0.20668009 -0.10225372 0.09602066
0.20973144 -0.3749589 -0.2028756 0.23471321 0.2697118 -0.43691275 -0.045694347 0.06300312
0.2673602 -0.25222293 -0.17313708 -0.0911627 -0.090490386 0.364779 -0.1241121 0.06447116
0.041461084 0.4913431 0.27440903 -0.13496943 0.22113653 0.35918364 -0.31547645 -0.20158209
-0.060037408 -0.4017272 -0.1781533 -0.17058064 -0.44922414 -0.20715441 0.19856958 -0.39774913
0.5009076 -0.04669192 0.08655851 -0.28005478 0.4292341 0.04279659 0.27416828 -0.1438329
0.084337845 0.2706789 -0.17838646 0.23414738 0.022868974 0.13813218 -0.17434889 0.16752835
-0.23586637 -0.030588755 0.26273292 -0.1928825 0.09116763 -0.11396581 0.1701942 0.09706179
0.053368405 -0.24274594 -0.23439507 -0.12446267 0.20006694 -0.0780635 0.07591319 0.22673035
0.07036922 -0.13449962 -0.22226305 -0.005850219 -0.04206067 0.14089988 -0.03030728 -0.15771545
-0.16067277 -0.20558958 -0.2582406 0.12276392 -0.04788776 -0.17322922 -0.06022152 -0.25403288
0.5101908 0.16837576 -0.12760693 0.124460846 0.04653027 -0.24238521 0.23353103 0.15130281
0.09579469 -0.18012108 -0.1885918 -0.120479 0.005157921 -0.32075518 0.14139616 0.25778294
0.25055763 -0.1525482 0.17607433 -0.2015352 -0.08965526 -0.035795532 0.04468798 -0.14738554
0.16315839 -0.16158484 0.33753914 -0.26142928 -0.27689275 -0.1897609 0.13606946 0.27470094
-0.09950321 0.0062841787 -0.20890741 0.06503557 -0.17710738 -0.14383373 -0.12808876 -0.05953354
0.13729659 0.24341194 0.30924192 -0.13235907 0.06723205 0.1063959 -0.01913949 0.27473852
0.018616557 -0.302581 -0.25779992 -0.078832895 -0.14885809 0.12316657 -0.12498206 0.27080438
00000000: 2254 0c3d 8d82 1a3e 49e4 303c 1eb8 53bc
00000010: e3d9 ce3d 1189 ffbd 3652 3c3d 2951 ae3d
00000020: e71a 6a3e c6fd aabe c117 8e3d cef5 a3bd
00000030: db6b dcbc e04d d5bc 4675 303e 9134 3bbd
00000040: 9ca2 acbd 2180 d63e dd8d 993d ae8e 923e
00000050: 6640 20bc aeb4 903e 50f0 783e 3e3a 80bd
00000060: e713 243e 6505 f13d c922 383e 26db 82be
00000070: 317b 4dbe 5a7b 013e a299 1cbe e7fa 073e
00000080: 4bbc 46be e78f b73d 2a10 ce3d 9b77 d13c
00000090: ed96 ee3d 8350 d0bd 7013 5b3e ca93 ed3d
000000a0: 23a5 8cbe 6385 58be c600 bbbe aa03 a03d
000000b0: 4d2b 7ebe 19a5 47bd 032f a5bd 4a4c 013e
000000c0: f1a6 f6bd 2a75 863e 0ff2 2c3e b6db d83d
000000d0: 1912 82bd a029 68be 7814 3cbe 6ccc b7bd
000000e0: 6f9d ee3d dbb0 b6be c826 b53e cc3b 2ebe
000000f0: 5063 e83d 4d58 683e b308 2e3e 1e7d 173e
00000100: ab79 53be 8caa 32be b0ad b8bd a889 c2bc
00000110: b64e 193e d4cf a33e e654 cdbc 51f4 a8bc
00000120: 89e4 683e a5c5 a1be 75e9 913e f99c 803e
00000130: a90a a33d a835 e5bc e461 213c 72be 733e
00000140: 5a7f 77be b795 12bd f1a4 143e 457a f43d
00000150: ead0 743e 43b1 6d3d a682 0abe 42ae 103d
00000160: c77f 4cbe 815f 143e 82ce 303e 2365 e83c
00000170: ece7 0cbd 3aa8 d93d 1e06 bcbd a337 6f3d
00000180: 7d4e a23d d17b a93e 543b 18be 027f efbc
00000190: 6b27 fabd d418 7a3e 99f3 263c edd8 053c
000001a0: 41f5 73be a816 483d 3256 153d 34af 7dbd
000001b0: 507a c23d 7cd4 bc3e b3c1 4c3e 1613 abbe
000001c0: dc84 283e 5432 d03b f54e 6f3d 5c87 583e
000001d0: 88aa febc f2a3 533e 666a d1bd 7ba6 c43d
000001e0: d7c3 563e 9dfa bfbe 9fbe 4fbe a958 703e
000001f0: aa17 8a3e 07b3 dfbe ff29 3bbd c807 813d
00000200: 70e3 883e 5d23 81be d94a 31be 82b3 babd
00000210: 0653 b9bd 50c4 ba3e 7c2e febd 7509 843d
00000220: 19d3 293d 5391 fb3e 577f 8c3e 6d35 0abe
00000230: 9d71 623e ebe6 b73e 2186 a1be 896b 4ebe
00000240: c9e9 75bd 30af cdbe d26d 36be b1ac 2ebe
00000250: b500 e6be 4920 54be d355 4b3e c6a5 cbbe
00000260: 7b3b 003f 0740 3fbd 9745 b13d 5763 8fbe
00000270: 92c4 db3e 7a4b 2f3d c95f 8c3e ef48 13be
00000280: 52b9 ac3d 6d96 8a3e f1aa 36be 55c4 6f3e
00000290: b757 bb3c 8672 0d3e 8488 32be 8d8c 2b3e
000002a0: f486 71be 4595 fabc ee84 863e fd82 45be
000002b0: 18b6 ba3d e866 e9bd 6347 2e3e 55c8 c63d
000002c0: d498 5a3d 6492 78be 4305 70be 49e6 febd
000002d0: 59de 4c3e c2df 9fbd 6078 9b3d 002c 683e
000002e0: bd1d 903d 45ba 09be ed98 63be 32b3 bfbb
000002f0: cf47 2cbd 0f48 103e f946 f8bc 2980 21be
00000300: 6787 24be 1386 52be 1d38 84be a66b fb3d
00000310: f525 44bd 0063 31be d7aa 76bd 9910 82be
00000320: dd9b 023f b26a 2c3e 64ab 02be 54e5 fe3d
00000330: 8696 3e3d d433 78be c222 6f3e 20ef 1a3e
00000340: 0230 c43d a971 38be 351e 41be b2bd f6bd
00000350: c703 a93b 063a a4be 28ca 103e 20fc 833e
00000360: 1749 803e 9835 1cbe d44c 343e 3e5f 4ebe
00000370: 2d9d b7bd 569e 12bd be0a 373d 3cec 16be
00000380: fe12 273e 7f76 25be eed1 ac3e 0fda 85be
00000390: e3c4 8dbe ae50 42be cb55 0b3e 9aa5 8c3e
000003a0: 57c8 cbbd 83eb cd3b d3eb 55be 5e31 853d
000003b0: a35b 35be 2649 13be b329 03be 71d9 73bd
000003c0: 7a97 0c3e fb40 793e f554 9e3e 2389 07be
000003d0: f5b0 893d 18e6 d93d 6bca 9cbc 87aa 8c3e
000003e0: c081 983c e6eb 9abe 5afe 83be 2473 a1bd
000003f0: 416e 18be c13e fc3d 98f6 ffbd dfa6 8a3e

linears.2.bias f4 [40]
-0.03841857 0.10653947 0.045005832 -0.054240312 -0.008609611 -0.031714 -0.030382361 0.034179807
0.025919966 0.032805007 0.056704745 -0.009397093 0.062789276 0.018136654 -0.016998168 -0.047984198
-0.046486612 0.025184527 -0.04598715 -0.061536912 -0.010569527 0.01512881 0.022021038 -0.057930097
0.08849526 0.069908895 -0.016327698 0.072737664 -0.041038312 -0.056847543 0.06499752 0.031704668
-0.06559519 -0.01795485 0.021088438 -0.024235556 0.17761092 -0.04147395 -0.083597824 0.007699426
00000000: ca5c 1dbd 5e31 da3d 0958 383d 172b 5ebd
00000010: 530f 0dbc 8ae6 01bd 6ee4 f8bc 2000 0c3d
00000020: 1c56 d43c 8b5e 063d 3c43 683d 44f6 19bc
00000030: aa97 803d 5293 943c be3f 8bbc 148b 44bd
00000040: bf68 3ebd c84f ce3c 065d 3cbd 210e 7cbd
00000050: cf2b 2dbc d4de 773c 7765 b43c 1c48 6dbd
00000060: 013d b53d 652c 8f3d aac1 85bc 7cf7 943d
00000070: ca17 28bd f8d8 68bd 6b1d 853d c1dc 013d
00000080: c556 86bd 0d16 93bc a9c1 ac3c a589 c6bc
00000090: a3df 353e 97e0 29bd 5635 abbd 774b fc3b

linears.3.weight f4 [40, 40]
-0.20221603 0.3060305 -0.0743568 -0.35093814 -0.23512393 -0.22688417 -0.06492861 0.11557548
0.049633317 -0.029705642 -0.23258585 -0.06859744 -0.21207261 -0.06379394 0.26420233 0.16198874
0.086922124 0.14614774 -0.061640564 -0.022013957 -0.36104292 -0.21804133 -0.069536395 0.053675443
-0.09076235 0.22346608 -0.2312281 0.09723855 -0.27826837 -0.14624336 0.18745042 0.22046655
0.25866836 -0.18164715 -0.24212562 -0.19882761 -0.054108843 -0.16454485 -0.1282303 -0.07625949
-0.19589575 0.29077172 -0.12884729 -0.36105606 -0.18338552 0.04296371 -0.20662755 -0.24839002
0.2130202 -0.1729217 0.29265237 -0.24440032 0.31137422 0.2952778 -0.11107325 -0.35412163
0.27761674 0.069386534 -0.30639106 0.14012654 -0.26736033 0.24810508 0.29221132 -0.3987183
0.302442 -0.2183907 0.25198802 0.24568345 0.06780358 -0.37118188 0.2446628 -0.048144475
-0.16766146 0.32299218 0.2501663 0.03293429 0.051331647 0.014766674 -0.5160011 0.57232416
0.23224081 -0.006391414 0.25327247 0.2713711 0.15340233 0.090109676 0.29080734 0.2599485
0.21202384 0.10590728 -0.25871518 -0.060292117 0.026841436 0.011755168 0.20781337 0.21943788
0.13412572 -0.21121272 -0.048782717 -0.3405004 0.12580279 0.043916456 -0.08292908 -0.23544979
-0.0014924826 0.021221217 0.084531635 0.25766316 0.21014872 0.036153037 -0.16127804 0.19294284
0.22959018 -0.00019685287 -0.0623136 0.0017880495 -0.027472528 0.03783385 0.29317978 0.018029572
0.092458606 -0.18203859 -0.05652528 0.24634936 -0.118323795 -0.094748296 0.286209 0.11508657
0.029660165 -0.24654005 -0.26183528 0.22052258 0.012067485 0.18713398 0.055250846 -0.002457769
0.08652601 -0.034280747 -0.22844991 0.05568216 -0.009441439 0.2190776 0.22753364 0.2605385
0.02019586 -0.23730248 0.02024197 -0.23895553 0.017185532 0.16235226 0.086659916 -0.076575585
0.086797796 0.18553898 0.111819185 0.30327594 0.025062999 0.06287061 0.31260493 -0.052072644
0.28628215 0.24499285 -0.054532114 -0.07260431 -0.22933236 0.19914992 -0.19908002 -0.17811069
-0.16057403 -0.051091596 0.020006303 0.2836237 -0.04079336 -0.14692368 -0.2000229 -0.10142542
-0.121387914 0.3086814 0.03399391 0.33523172 -0.03361352 0.008876556 0.14256267 0.11747418
0.026678508 0.09441867 -0.08319302 0.094472736 -0.14047378 -0.21964154 0.10625821 0.010250691
0.30435142 -0.17684515 -0.15875652 0.04582402 -0.19774748 -0.31983832 -0.33751348 -0.12125335
-0.15196589 0.11057002 -0.022806719 0.1311964 -0.22449276 -0.04120838 -0.05886661 -0.084207356
0.16266401 -0.22973779 -0.2121889 -0.24601392 0.002868834 -0.08323805 0.19836046 0.10215058
0.2887313 -0.14043309 0.12985086 0.054892164 -0.18388237 -0.08327166 0.32963026 0.122597575
-0.11588269 0.087512806 0.19863999 0.071071886 0.18551211 0.10899854 -0.000108418855 0.126214
0.21241872 0.2785226 -0.17277738 -0.06943245 -0.05381145 0.22837722 0.16241443 0.09382349
0.28055847 -0.20649633 -0.201554 0.19958049 -0.08299886 -0.16071543 -0.19265519 0.24375235
-0.009948528 -0.14740592 0.09113717 -0.0022400806 0.25392452 0.27176097 -0.08717184 0.22449468
00000000: b811 4fbe 08b0 9c3e 6148 98bd 2aae b3be
00000010: 54c4 70be 5354 68be 4bf9 84bd d6b2 ec3d
00000020: 4e4c 4b3d 3f59 f3bc fc2a 6ebe d17c 8cbd
00000030: 9029 59be 66a6 82bd 8745 873e 60e0 253e
00000040: 3a04 b23d c1a7 153e d17a 7cbd 9d56 b4bc
00000050: 9eda b8be 3a46 5fbe 1969 8ebd c8da 5b3d
00000060: 9ce1 b9bd 4bd4 643e 0fc7 6cbe 0125 c73d
00000070: 3179 8ebe d2c0 15be 01f3 3f3e fcc1 613e
00000080: 2e70 843e b601 3abe c7ef 77be 7799 4bbe
00000090: 3ca1 5dbd 727e 28be ce4e 03be ef2d 9cbd
000000a0: e598 48be 08e0 943e 8bf0 03be 57dc b8be
000000b0: 6ac9 3bbe b7fa 2f3d 2c96 53be f459 7ebe
000000c0: f821 5a3e 6312 31be 88d6 953e 1444 7abe
000000d0: 716c 9f3e a72e 973e 5f7a e3bd 6e4f b5be
000000e0: c823 8e3e 871a 8e3d 4adf 9cbe 557d 0f3e
000000f0: 74e3 88be 420f 7e3e b99c 953e ce24 ccbe
00000100: aed9 9a3e d0a1 5fbe 9304 813e 7194 7b3e
00000110: 9adc 8a3d 8d0b bebe e388 7a3e 2433 45bd
00000120: 72af 2bbe 3b5f a53e cc15 803e 1be6 063d
00000130: 2241 523d ebef 713c a618 04bf d683 123f
00000140: 89d0 6d3e 116f d1bb eeac 813e 27f1 8a3e
00000150: 8015 1d3e 6c8b b83d b3e4 943e f817 853e
00000160: c71c 593e ebe5 d83d 5176 84be def4 76bd
00000170: 92e2 db3c c098 403c 07cd 543e 53b4 603e
00000180: 4158 093e 2648 58be 63d0 47bd 1256 aebe
00000190: 72d2 003e bee1 333d b9d6 a9bd c019 71be
000001a0: 689f c3ba 1ed8 ad3c ec1e ad3d 6dec 833e
000001b0: 3a31 573e 3515 143d 1226 25be cf92 453e
000001c0: b019 6b3e 4a6a 4eb9 8c3c 7fbd fc5c ea3a
000001d0: 110e e1bc abf7 1a3d a91b 963e c1b2 933c
000001e0: f05a bd3d 5368 3abe 0d87 67bd 0243 7c3e
000001f0: bf53 f2bd 650b c2bd fc89 923e 82b2 eb3d
00000200: e0f9 f23c ff74 7cbe 460f 86be acd0 613e
00000210: b3b6 453c 0da0 3f3e b64e 623d 8512 21bb
00000220: 8c34 b13d f869 0cbd c6ee 69be fa12 643d
00000230: 44b0 1abc e155 603e 94fe 683e 4d65 853e
00000240: ca71 a53c 6cff 72be 7dd2 a53c c2b0 74be
00000250: acc8 8c3c ac3f 263e c17a b13d a9d3 9cbd
00000260: 0bc3 b13d eefd 3d3e 7501 e53d fc46 9b3e
00000270: eb50 cd3c 4ec2 803d c10d a03e 204a 55bd
00000280: 9393 923e 68df 7a3e 115d 5fbd 92b1 94bd
00000290: 1ad6 6abe f5ed 4b3e a2db 4bbe a662 36be
000002a0: 856d 24be 6c45 51bd 42e4 a33c 2037 913e
000002b0: f016 27bd 2973 16be ced2 4cbe 21b8 cfbd
000002c0: 3a9a f8bd 7d0b 9e3e 333d 0b3d 7ea3 ab3e
000002d0: 55ae 09bd f96e 113c f3fb 113e 4e96 f03d
000002e0: e38c da3c 935e c13d 1a61 aabd ec7a c13d
000002f0: 5cd8 0fbe b6e9 60be e89d d93d 84f2 273c
00000300: f3d3 9b3e e516 35be 1291 22be f8b1 3b3d
00000310: 517e 4abe d9c1 a3be 91ce acbe ad53 f8bd
00000320: f29c 1bbe 8972 e23d 28d5 babc 5958 063e
00000330: 6ee1 65be 1eca 28bd 1d1e 71bd e874 acbd
00000340: 6591 263e 6240 6bbe 0c48 59be 13eb 7bbe
00000350: 0c03 3c3b b678 aabd 011f 4b3e 5334 d13d
00000360: 97d4 933e b1cd 0fbe a0f7 043e 9bd6 603d
00000370: a94b 3cbe 558a aabd 4cc5 a83e 7014 fb3d
00000380: e753 edbd ea39 b33d 4868 4b3e 238e 913d
00000390: e3f6 3d3e a03a df3d ee5e e3b8 3e3e 013e
000003a0: 4b84 593e 849a 8e3e 8eec 30be 9a32 8ebd
000003b0: 6569 5cbd b8db 693e f84f 263e 8826 c03d
000003c0: 5ca5 8f3e c673 53be 2c64 4ebe d45e 4c3e
000003d0: 4efb a9bd 9692 24be 6747 45be 379a 793e
000003e0: 27ff 22bc 94f1 16be 20a6 ba3d 51ce 12bb
000003f0: 6502 823e 4124 8b3e 2687 b2bd efe1 653e

linears.3.bias f4 [40]
0.086870834 0.024574297 0.026801473 -0.020046037 0.029452672 -0.026658965 -0.041788124 -0.1700435
-0.016257027 0.004033282 0.022052288 -0.012451571 0.042296637 0.0061146626 -0.015138149 0.038394254
0.034800507 -0.026060065 -0.02849776 0.009619909 0.0024939247 0.028645078 -0.020456737 0.052171182
0.060115702 -0.027030962 0.025258288 -0.0151050035 -0.028580427 -0.08654922 0.0053222235 0.0056772665
0.0033275338 -0.010518838 0.021954998 -0.0130648 -0.018813502 0.02653355 -0.017086564 -0.06345179
00000000: 56e9 b13d 0950 c93c c38e db3c 9637 a4bc
00000010: bb46 f13c e763 dabc 062a 2bbd e21f 2ebe
00000020: 752d 85bc 9f29 843b 00a7 b43c ad01 4cbc
00000030: 3d3f 2d3d 825d c83b 0006 78bc 4b43 1d3d
00000040: fa8a 0e3d eb7b d5bc 2274 e9bc d39c 1d3c
00000050: 1d71 233b 15a9 ea3c e394 a7bc 73b1 553d
00000060: e23b 763d 0970 ddbc 78ea ce3c fa7a 77bc
00000070: 8021 eabc b840 b1bd 0c66 ae3b 5d08 ba3b
00000080: c112 5a3b 3457 2cbc f8da b33c be0d 56bc
00000090: c61e 9abc e35c d93c 1ff9 8bbc 03f3 81bd

linears.4.weight f4 [40, 40]
-0.12117163 0.074571766 0.08672732 -0.03338563 0.17156267 0.11661485 -0.10069352 -0.17273378
-0.11534158 0.25783542 -0.21793792 0.2858297 -0.05333915 -0.05861731 -0.17093673 0.033772957
-0.13785622 -0.2554755 -0.26939136 -0.21445444 0.2610085 -0.011541399 0.07628478 -0.102690265
0.13722582 0.18284488 -0.044309556 0.12136373 -0.12569337 0.12359262 0.122542046 0.21682449
0.22540355 0.1710717 -0.1629281 -0.071092956 0.16775909 -0.120341726 0.2169416 0.22329627
-0.07191479 -0.18283817 -0.1300951 -0.21985734 0.004746639 -0.18659908 -0.21596347 -0.27061483
0.15967113 -0.10827518 0.2302446 0.21638593 0.26216444 -0.119809434 0.12209153 -0.017578566
0.02474923 0.18180318 0.17198224 -0.10943531 -0.15090378 0.15829422 -0.1309215 -0.07661786
0.14545777 0.18867904 0.24480101 -0.022140132 0.22058159 -0.23722097 -0.04009988 -0.2741639
-0.17255645 0.24578759 -0.10904707 -0.15533419 0.1518665 0.10481786 0.20300035 0.26020467
0.012451371 0.010491536 -0.4156974 0.25516132 -0.014981664 0.19449973 -0.2921856 -0.13984796
-0.2900392 -0.26712212 0.13621506 -0.14708558 -0.31935474 0.21859899 0.13877593 -0.1284739
0.052014958 0.34114075 0.19939585 0.08809437 0.375887 0.14674082 0.2750052 -0.23683628
-0.0023640909 0.14846683 -0.27999505 -0.16904058 -0.05056654 0.30643538 0.22058913 0.13742034
0.076534204 -0.17988437 -0.045164593 -0.14325158 0.1190602 0.20445038 0.093196616 -0.12732579
0.22071351 -0.12593473 -0.058129683 0.15738188 -0.03647659 0.21170749 -0.17204508 -0.005181845
0.14059465 0.17839012 -0.14584808 0.18724795 -0.08362278 -0.049706258 0.11905471 0.26047957
-0.14332838 -0.07685047 0.1374563 -0.25945413 0.14077124 0.2765542 -0.2253803 0.21359617
-0.2585779 -0.057713546 -0.10720076 0.23892924 -0.053246956 0.023324953 -0.099504 -0.1874686
0.08827506 -0.24732457 0.11290034 -0.12268104 -0.28367522 -0.17380108 0.18162934 -0.1430318
0.026700629 0.15234114 -0.13525447 -0.32529598 -0.040809747 -0.086589105 -0.2169281 0.21835995
0.15760931 -0.041473836 0.1469413 -0.025956739 -0.21141408 -0.13269147 0.22454782 0.092856504
0.072277896 0.30736378 -0.14123271 0.2642517 0.12606998 0.14483564 -0.0036180052 -0.27700305
0.090066 0.022545982 0.13620591 -0.31256709 0.14677317 -0.019660894 -0.15368688 0.018771833
-0.14970452 -0.19276501 0.21945591 -0.016273329 0.18168896 -0.12122481 0.20840731 -0.087389134
-0.058475 -0.11085511 0.21270195 0.09099042 -0.07058861 0.33025727 0.17757231 -0.17142816
0.20022537 0.2552457 -0.047704756 -0.35453716 -0.19943586 -0.3048685 -0.04685913 -0.10291961
0.23448022 0.08467964 -0.02551911 -0.1763735 -0.19926429 -0.27479333 0.23703519 -0.11410819
-0.25668743 0.15187389 0.121823 -0.16055804 0.25921357 -0.23490836 -0.20709068 -0.074724145
-0.08688261 0.25288442 -0.06304239 0.17201045 0.16834113 -0.14627379 0.116923444 0.38470432
-0.09295074 0.04631777 -0.17729966 -0.025323458 0.24908753 -0.03281509 -0.18089002 -0.2212434
0.1449502 -0.049127027 0.025636822 -0.026344268 0.16123003 -0.30899942 -0.2077165 -0.07552251
00000000: d528 f8bd 15b9 983d 189e b13d 5fbf 08bd
00000010: 20ae 2f3e c4d3 ee3d 6738 cebd 20e1 30be
00000020: 3538 ecbd 0103 843e 1e2b 5fbe 4558 923e
00000030: 277a 5abd b418 70bd 0a0a 2fbe 8355 0a3d
00000040: 2e2a 0dbe afcd 82be aaed 89be f299 5bbe
00000050: e8a2 853e 2318 3dbc 323b 9c3d 464f d2bd
00000060: ed84 0c3e b03b 3b3e f07d 35bd 8c8d f83d
00000070: c3b5 00be 211e fd3d 53f7 fa3d 3d07 5e3e
00000080: 30d0 663e 6b2d 2f3e a0d6 26be 2f99 91bd
00000090: 0ac9 2b3e b975 f6bd f025 5e3e c7a7 643e
000000a0: 1048 93bd ee39 3bbe a637 05be 4822 61be
000000b0: b289 9b3b d413 3fbe 8725 5dbe 078e 8abe
000000c0: d480 233e 61bf ddbd 3ec5 6b3e 4694 5d3e
000000d0: 6b3a 863e a65e f5bd 200b fa3d ed00 90bc
000000e0: e6be ca3c 9d2a 3a3e 1d1c 303e 9f1f e0bd
000000f0: 8586 1abe e117 223e 4910 06be d3e9 9cbd
00000100: e2f2 143e 1435 413e 1ead 7a3e 395f b5bc
00000110: 24e0 613e 0eea 72be c63f 24bd 365f 8cbe
00000120: a3b2 30be beaf 7b3e 1254 dfbd ed0f 1fbe
00000130: e482 1b3e bfaa d63d 53df 4f3e 8c39 853e
00000140: d600 4c3c b1e4 2b3c 4ad6 d4be 81a4 823e
00000150: a775 75bc f02a 473e 5a99 95be 4e34 0fbe
00000160: 0580 94be 3bc4 88be f67b 0b3e 9a9d 16be
00000170: 7782 a3be 6ad8 5f3e 471b 0e3e a98e 03be
00000180: a30d 553d 00aa ae3e 6d2e 4c3e d26a b43d
00000190: 4374 c03e 3a43 163e 7bcd 8c3e 3685 72be
000001a0: ddee 1abb b007 183e 835b 8fbe f918 2dbe
000001b0: dc1e 4fbd 19e5 9c3e 1ee2 613e ebb7 0c3e
000001c0: f7bd 9c3d 9c33 38be 82fe 38bd 8bb0 12be
000001d0: d6d5 f33d 715b 513e dedd be3d b161 02be
000001e0: b902 623e 09f5 00be 6419 6ebd b728 213e
000001f0: 7a68 15bd d9c9 583e 962c 30be 77cc a9bb
00000200: 0bf8 0f3e e6ab 363e 3359 15be edbd 3f3e
00000210: 6c42 abbd ca98 4bbd f5d2 f33d 945d 853e
00000220: adc4 12be c763 9dbd 58c1 0c3e 2cd7 84be
00000230: 5626 103e 8398 8d3e 18ca 66be f4b8 5a3e
00000240: 5364 84be 0a65 6cbd 128c dbbd dea9 743e
00000250: 7b19 5abd f913 bf3c c1c8 cbbd c5f7 3fbe
00000260: 8ec9 b43d a742 7dbe 4b38 e73d 3240 fbbd
00000270: e13d 91be e9f8 31be 0bfd 393e ee76 12be
00000280: 47bb da3c 51ff 1b3e 2680 0abe 328d a6be
00000290: 1f28 27bd a155 b1bd 6622 5ebe c099 5f3e
000002a0: 5664 213e 78e0 29bd c877 163e 3aa3 d4bc
000002b0: ef7c 58be 46e0 07be ddef 653e 8d2b be3d
000002c0: 6f06 943d c95e 9d3e 4f9f 10be 004c 873e
000002d0: 7d18 013e cb4f 143e 0e1c 6dbb 58d3 8dbe
000002e0: 8674 b83d 5ab2 b83c 9079 0b3e cb08 a0be
000002f0: b54b 163e e20f a1bc 1860 1dbe 63c7 993c
00000300: 244c 19be 3164 45be 0db9 603e a54f 85bc
00000310: ac0c 3a3e b744 f8bd ba68 553e 13f9 b2bd
00000320: 7b83 6fbd 0108 e3bd 8ace 593e 2f59 ba3d
00000330: c390 90bd 7b17 a93e 84d5 353e dd8a 2fbe
00000340: e107 4d3e 90af 823e 1066 43bd e585 b5be
00000350: ea38 4cbe b917 9cbe 5cef 3fbd 84c7 d2bd
00000360: 951b 703e 856c ad3d 740d d1bc 419b 34be
00000370: f00b 4cbe b6b1 8cbe 5ab9 723e 8eb1 e9bd
00000380: 896c 83be d484 1b3e 567e f93d 5469 24be
00000390: a4b7 843e d18b 70be 940f 54be f908 99bd
000003a0: 83ef b1bd 117a 813e 5e1c 81bd 8223 303e
000003b0: 9e61 2c3e ccc8 15be 8f75 ef3d f7f7 c43e
000003c0: f55c bebd b4b7 3d3d 0b8e 35be 2473 cfbc
000003d0: cd10 7f3e 1e69 06bd 3c3b 39be a18d 62be
000003e0: d36d 143e 6c39 49bd 5004 d23c efcf d7bc
000003f0: 7c19 253e 2c35 9ebe a2b3 54be 8cab 9abd

linears.4.bias f4 [40]
-0.007547343 -0.033021476 -0.024032524 -0.035268925 0.009726932 -0.0126951365 -0.010435097 -0.014361411
0.025015801 -0.04613353 0.008217206 0.018288437 0.030710604 0.0068620695 -0.032170277 0.050540928
-0.018798275 -0.034149565 -0.0148989465 0.026948906 0.0013346636 -0.017563384 0.0063561783 0.015831612
0.0068335207 -0.047511924 0.071803525 -0.0019476981 -0.04464928 0.014281065 0.022968441 0.004843814
-0.047526058 0.05302343 0.013060499 -0.01808664 0.0003507671 -0.042747308 -0.007696637 -0.047031973
00000000: b44f f7bb 8741 07bd dbdf c4bc 2676 10bd
00000010: b65d 1f3c 43ff 4fbc f8f7 2abc 204c 6bbc
00000020: f0ed cc3c 83f6 3cbd 76a1 063c a2d1 953c
00000030: ce94 fb3c 36db e03b fbc4 03bd 0104 4f3d
00000040: d7fe 99bc 6ae0 0bbd b61a 74bc f4c3 dc3c
00000050: e1ef ae3a 16e1 8fbc 7d47 d03b 4cb1 813c
00000060: baeb df3b dd9b 42bd ba0d 933d e749 ffba
00000070: 2ae2 36bd 21fb 693c 5028 bc3c dbb8 9e3b
00000080: afaa 42bd 192f 593d b4fb 553c 6f2a 94bc
00000090: 2ae7 b739 cd17 2fbd 1234 fcbb 99a4 40bd

linears.5.weight f4 [3, 40]
0.112608045 -0.24372973 0.0862085 -0.032586746 0.2237298 0.3728984 -0.051968686 -0.25064725
0.40488684 -0.124780886 -0.05505075 0.25515476 0.38646665 -0.2722302 -0.42461222 0.10158133
-0.04363412 -0.27280787 0.09373603 0.37702945 0.10825785 -0.1908667 -0.08430315 0.40826738
0.44825464 0.014416005 0.116752476 -0.0076191514 -0.09933407 -0.0932 0.21574214 0.0208126
0.15251018 0.11582875 0.22141124 -0.049584363 0.34509546 0.11541339 -0.491049 -0.21632507
0.24731384 0.079845265 0.37913647 0.29293588 -0.06025066 0.15960336 -0.1866859 0.29173633
0.16106777 -0.02998422 -0.2825668 -0.06632638 0.05213511 0.3257544 0.26253104 -0.03750117
0.18192174 0.19642961 0.14622009 0.068494774 0.19775225 0.04254277 -0.12170497 0.26529163
0.29279628 0.25645486 -0.07451719 0.3025269 0.14196613 -0.15568146 0.07099917 0.23771879
0.1021084 -0.2656637 0.018802423 0.19269545 -0.091591194 0.1851704 0.37189907 0.3012009
-0.30861294 -0.1375748 -0.19442464 -0.1585878 0.3687956 0.3116038 0.13895771 -0.015298394
0.446834 -0.27272573 0.026463736 -0.12935859 -0.28852752 0.30498588 0.20826887 -0.12535247
0.082441285 -0.27203426 0.18054973 -0.33535692 -0.26692003 0.21277638 0.22583522 -0.043772496
0.038676947 0.20933975 0.12620912 -0.34584644 -0.2182412 -0.31002522 -0.056540553 0.24404866
0.09931791 -0.2893984 0.20479873 -0.2802086 0.35177442 0.0027801772 0.19889201 -0.16373084
00000000: 0c9f e63d 4994 79be 158e b03d ae79 05bd
00000010: 6d19 653e 8aec be3e 1edd 54bd d654 80be
00000020: 544d cf3e 1f8d ffbd e57c 61bd a5a3 823e
00000030: f5de c53e c261 8bbe c666 d9be df09 d03d
00000040: b1b9 32bd 79ad 8bbe adf8 bf3d 010a c13e
00000050: 4bb6 dd3d 8f72 43be 21a7 acbd 6c08 d13e
00000060: a281 e53e 1c31 6c3c ec1b ef3d 13aa f9bb
00000070: a96f cbbd a4df bebd 82eb 5c3e 307f aa3c
00000080: a12b 1c3e a037 ed3d a1b9 623e f918 4bbd
00000090: 5ab0 b03e db5d ec3d c66a fbbe 5284 5dbe
000000a0: d73f 7d3e ea85 a33d 2d1e c23e b1fb 953e
000000b0: 65c9 76bd 106f 233e 972a 3fbe 775e 953e
000000c0: f3ee 243e 78a1 f5bc 98ac 90be 20d6 87bd
000000d0: a08b 553d 48c9 a63e 786a 863e d49a 19bd
000000e0: b149 3a3e d824 493e b8ba 153e fd46 8c3d
000000f0: 917f 4a3e 5441 2e3d 7540 f9bd 4ed4 873e
00000100: 65e9 953e 0d4e 833e 789c 98bd cee4 9a3e
00000110: 925f 113e f66a 1fbe 0368 913d 8e6c 733e
00000120: 351e d13d 1305 88be 8a07 9a3c f551 453e
00000130: 2a94 bbbd 4f9d 3d3e 8e69 be3e 0137 9a3e
00000140: 8402 9ebe 69e0 0cbe 4117 47be d764 22be
00000150: c7d2 bc3e 898a 9f3e ee4a 0e3e 1da6 7abc
00000160: 6dc7 e43e b5a2 8bbe 7aca d83c 9476 04be
00000170: e1b9 93be 1c27 9c3e 6f44 553e 665c 00be
00000180: fad6 a83d 1348 8bbe 07e2 383e e7b3 abbe
00000190: bea9 88be 0de2 593e 5941 673e ca4a 33bd
000001a0: b86b 1e3d 295d 563e f73c 013e c912 b1be
000001b0: 9f7a 5fbe a0bb 9ebe 1197 67bd e4e7 793e
000001c0: 3067 cb3d 072c 94be c2b6 513e 8077 8fbe
000001d0: c71b b43e a233 363b 59aa 4b3e 0fa9 27be

linears.5.bias f4 [3]
0.032202963 -0.044222288 0.0
00000000: 41e7 033d 6e22 35bd 0000 0000

exp_avg f4 [40, 2]
0.0013794799 0.0033127859 8.76624e-05 0.00028271196 0.00067428336 0.001466626 0.002370813 0.0057503753
0.00014742013 5.2872434e-05 0.0021631634 0.004894956 0.0015998142 0.0039936653 0.0012559786 0.0029030829
-0.0014029063 -0.003521113 -0.004356768 -0.010530161 0.00048061818 0.0010774623 -0.0007202886 -0.0014963892
0.0019611665 0.004746792 0.0002898574 0.00091429875 0.0014150762 0.0035904876 0.00014738052 0.00044547225
-0.0011906687 -0.002894047 -0.0014166232 -0.0033643807 -0.0012993297 -0.0032997916 -0.000770907 -0.0019335876
0.003251257 0.007940145 -0.0042299624 -0.009838364 -0.001415732 -0.003267264 -2.2000359e-05 1.6345693e-06
0.0008525922 0.0022149722 -4.402338e-05 -0.000414298 -0.0008906686 -0.0019274723 0.00018673317 0.00052643556
0.0016466271 0.0040162303 0.0006957597 0.0015527718 -0.00078823534 -0.0019581197 0.0020489686 0.004954703
0.0006759662 0.0014524198 -4.8873568e-05 -0.0005976332 0.00080118905 0.0018669736 0.0006958224 0.0014386711
-0.00014197512 -0.00050114247 -0.0006897804 -0.0016838001 0.00022004866 0.0006928647 -0.00063582516 -0.0016883966
00000000: aacf b43a 531b 593b 65d7 b738 f538 9439
00000010: 64c2 303a cd3b c03a a45f 1b3b a56d bc3b
00000020: ca94 1a39 58c3 5d38 dcc3 0d3b de65 a03b
00000030: dbb0 d13a 4bdd 823b a69f a43a a641 3e3b
00000040: b9e1 b7ba 79c2 66bb 38c3 8ebb b286 2cbc
00000050: 7bfb fb39 a339 8d3a c0d1 3cba 7d22 c4ba
00000060: ea86 003b fa8a 9b3b 00f8 9739 8dad 6f3a
00000070: 147a b93a 634e 6b3b 288a 1a39 468e e939
00000080: 3610 9cba 0daa 3dbb fdad b9ba f17c 5cbb
00000090: 454e aaba 5141 58bb b116 4aba 6f70 fdba
000000a0: 0a13 553b 6217 023c 7f9b 8abb 1731 21bc
000000b0: 1590 b9ba 981f 56bb 698d b8b7 6063 db35
000000c0: 7e80 5f3a 1129 113b bfa5 38b8 2336 d9b9
000000d0: c27b 69ba 3da3 fcba cecd 4339 7e00 0a3a
000000e0: a3d3 d73a 959a 833b a563 363a 6086 cb3a
000000f0: 94a1 4eba cc53 00bb fd47 063b 105b a23b
00000100: 5333 313a 1f5f be3a 98fd 4cb8 7caa 1cba
00000110: e306 523a 3db5 f43a da67 363a cb91 bc3a
00000120: 28df 14b9 1a5f 03ba 61d2 34ba f5b2 dcba
00000130: ddbc 6639 5da1 353a 81ad 26ba 304d ddba

exp_avg_sq f4 [40, 2]
0.0008174761 0.0029080473 1.19183915e-05 9.922907e-05 0.00040165373 0.00075060426 0.0029454366 0.008369183
3.5087894e-06 8.0607e-06 0.0020076851 0.006420073 0.0014194198 0.0042064427 0.00054843223 0.0022601434
0.0011219014 0.003327684 0.009912817 0.028640976 0.000101443366 0.00033929918 0.00026076773 0.0006906725
0.0017408691 0.0059819785 3.8036167e-05 0.00019814224 0.0010774658 0.0033446401 2.1495965e-05 0.00016440268
0.000752916 0.0020598024 0.0009936774 0.002959556 0.0011233023 0.0028641126 0.00027533417 0.001009481
0.0053337747 0.016009007 0.008200765 0.025364796 0.0009935015 0.0029365963 1.376402e-06 7.0876563e-06
0.00030091713 0.001275811 3.352808e-05 0.00021902772 0.00028693993 0.0011850076 1.9719122e-05 0.000106682724
0.0013220884 0.004250422 0.00022791888 0.0007056301 0.00040051292 0.00111077 0.0021512434 0.006165974
0.00014040044 0.0006668994 0.00010070816 0.00017431822 0.00037133595 0.0009949184 0.00012475123 0.0005688721
1.2386076e-05 7.1183815e-05 0.00030473748 0.0007087147 5.4707823e-05 0.00018877596 0.00017610205 0.00078994874
00000000: e44b 563a f094 3e3b 1af5 4737 3419 d038
00000010: 0d95 d239 33c4 443a 3a08 413b e61e 093c
00000020: 8b78 6b36 713c 0737 5e93 033b 7a5f d23b
00000030: d30b ba3a 33d6 893b aac4 0f3a ea1e 143b
00000040: c40c 933a 4615 5a3b 5e69 223c 7ba0 ea3c
00000050: febd d438 f7e3 b139 a7b7 8839 3f0e 353a
00000060: e02d e43a 7904 c43b 0689 1f38 67c4 4f39
00000070: c139 8d3a c031 5b3b 3c52 b437 8263 2c39
00000080: 565f 453a c0fd 063b 483e 823a 1cf5 413b
00000090: c53b 933a d6b3 3b3b ba5a 9039 9050 843a
000000a0: f2c6 ae3b 5225 833c 805c 063c d5c9 cf3c
000000b0: 6138 823a e973 403b d0bc b835 81d2 ed36
000000c0: 6ac4 9d39 1d39 a73a 80a0 0c38 ceaa 6539
000000d0: 6d70 9639 4252 9b3a 7e6a a537 daba df38
000000e0: ed49 ad3a 2047 8b3b 82fd 6e39 09fa 383a
000000f0: effb d139 4297 913a e0fb 0c3b f00b ca3b
00000100: 7538 1339 dcd2 2e3a 4833 d338 31c9 3639
00000110: deaf c239 ec67 823a a7cf 0239 5c20 153a
00000120: cbcd 4f37 8548 9538 2cc5 9f39 0ac9 393a
00000130: 1476 6538 29f2 4539 09a8 3839 9014 4f3a

exp_avg f4 [40]
0.0031853125 0.00030051157 0.0014413296 0.0055861315 -2.8523625e-06 0.004692247 0.0038834834 0.002767556
-0.0034515823 -0.01022009 0.0010140653 -0.001439083 0.0046164305 0.00092741236 0.0034958718 0.0004897423
-0.0027981082 -0.0032701863 -0.0032348116 -0.0018530573 0.0076962938 -0.009451179 -0.0031632097 1.0886419e-06
0.0021840935 -0.00044094288 -0.0018532419 0.00052112195 0.0038645032 0.0015097565 -0.0019108487 0.0048273182
0.0013617951 -0.0006493263 0.0017878836 0.0013405089 -0.00048594008 -0.0016409893 0.00068910996 -0.0016128365
00000000: adc0 503b fb8d 9d39 ffea bc3a de0b b73b
00000010: 376b 3fb6 6cc1 993b 0a82 7e3b e35f 353b
00000020: f133 62bb 2a72 27bc 63ea 843a 9d9f bcba
00000030: 6d45 973b 971d 733a ff1a 653b 0d62 003a
00000040: 7760 37bb 9f50 56bb 22ff 53bb 49e2 f2ba
00000050: 3131 fc3b 1ed9 1abc da4d 4fbb 731d 9235
00000060: 0223 0f3b 5a2e e7b9 7be8 f2ba e79b 083a
00000070: 9b43 7d3b 06e3 c53a 7175 faba 7b2e 9e3b
00000080: 437e b23a 8d37 2aba 6b57 ea3a 04b4 af3a
00000090: c6c5 feb9 7716 d7ba 63a5 343a d065 d3ba

exp_avg_sq f4 [40]
0.0029142338 9.818377e-05 0.0007424979 0.008415687 8.8655415e-06 0.006420454 0.00422362 0.002295367
0.003395901 0.028946588 0.00033885366 0.00069703977 0.0060852566 0.00020030793 0.003362808 0.00015753455
0.0020578057 0.0029923324 0.002894156 0.00095475256 0.016223323 0.025584519 0.002948508 5.4573957e-06
0.0012767812 0.00019351668 0.0011786338 0.00010516047 0.0042642336 0.00071345497 0.0011099708 0.006228368
0.000667425 0.00015049025 0.000979816 0.00056312303 7.5114134e-05 0.0007030957 0.00018404066 0.0007787269
00000000: bbfc 3e3b 03e8 cd38 31a4 423a f3e1 093c
00000010: 36bd 1437 ac62 d23b 4b66 8a3b de6d 163b
00000020: c48d 5e3b 6521 ed3c 2ba8 b139 8cb9 363a
00000030: d566 c73b c009 5239 8e62 5c3b dc2f 2539
00000040: 40dc 063b 021b 443b e1ab 3d3b 5c48 7a3a
00000050: c6e6 843c a096 d13c c13b 413b ac1e b736
00000060: ab59 a73a bdea 4a39 637c 9a3a 9989 dc38
00000070: fcba 8b3b 2707 3b3a 717c 913a 5617 cc3b
00000080: 22f6 2e3a ebcc 1d39 2b6d 803a 8c9e 133a
00000090: 9886 9d38 f44f 383a 0afb 4039 7a23 4c3a

exp_avg f4 [40, 40]
0.00066831894 0.0016700742 0.0005225081 0.00033473532 -0.0010792933 0.00023931847 9.570063e-05 -0.0004123709
-0.00083200797 -0.00017309937 -0.0015341368 -0.000103001585 -0.00039850487 -0.00041108704 0.0011551561 0.001396924
-0.0006925073 -0.00046643813 -0.0005881456 -1.4238965e-05 0.00040961796 -2.7962797e-05 0.00014329312 -0.0006824843
-5.63343e-05 -0.0004545213 -0.000112093636 -0.00059825677 -0.0019216472 0.00020773665 -0.00083181344 0.0006249395
-0.0007568732 -0.00083657756 0.00040053765 -0.00073080533 -3.4444554e-05 -0.0008777927 0.0003057631 -0.0013101741
2.837102e-05 9.0275214e-05 1.2642364e-05 3.571424e-05 -9.1517286e-05 6.2139648e-06 1.1299834e-05 -1.9151765e-05
-4.873262e-05 -1.4289548e-05 -8.053122e-05 2.4574929e-06 -9.576158e-06 -4.804904e-06 5.7061323e-05 7.80905e-05
-5.6787816e-05 -2.7666696e-05 -3.156683e-05 -1.6362264e-05 2.5743828e-05 4.986028e-06 2.5986792e-05 -2.5252348e-05
1.5976793e-05 -4.225983e-05 2.6739385e-06 -1.8091032e-05 -0.000103629645 -5.7467935e-07 -4.54522e-05 4.786186e-05
-4.874601e-05 -7.1491246e-05 5.045829e-06 -3.928173e-05 -1.6978825e-05 -5.0138682e-05 3.4024382e-05 -6.433411e-05
0.00038911318 0.0009922965 0.00029778798 0.00020706786 -0.0006630959 0.00013343325 6.012195e-05 -0.0002453244
-0.0004942341 -0.000102508384 -0.0009126631 -5.4832093e-05 -0.00023202688 -0.00023316327 0.0006798928 0.00083346304
-0.00042284542 -0.00027717446 -0.00034835836 -1.7711864e-05 0.00024147813 -7.933383e-06 9.891692e-05 -0.00039561925
-2.192989e-05 -0.00028211004 -5.932295e-05 -0.00034544538 -0.0011506343 0.00011430678 -0.00049297244 0.00037861115
-0.00045779033 -0.00051409524 0.000224698 -0.00043637631 -3.0148569e-05 -0.00052301405 0.00019333106 -0.0007698304
5.786661e-05 0.00012271246 4.4995835e-05 2.6847883e-05 -6.0585688e-05 3.0485195e-05 6.6878156e-06 -2.616229e-05
-6.754533e-05 -2.0029369e-05 -0.00010720515 -1.3241124e-05 -2.5726802e-05 -3.1793556e-05 9.160851e-05 9.875106e-05
-4.665943e-05 -3.7878282e-05 -4.633605e-05 2.0818472e-06 4.017092e-05 -1.5195559e-05 -5.187427e-07 -5.7044137e-05
-7.865735e-06 -2.5430421e-05 -1.5136805e-05 -4.7261907e-05 -0.000121176025 2.2499427e-05 -6.5690634e-05 4.6139896e-05
-4.6163026e-05 -4.9705635e-05 3.7365066e-05 -4.9102113e-05 2.4229282e-06 -6.5452594e-05 1.5322596e-05 -0.000102022466
-4.7584854e-06 -2.456793e-05 -4.937921e-06 -2.6637795e-06 2.7598275e-05 3.9274823e-06 -1.4372407e-06 7.800302e-06
7.3652623e-06 -2.0883242e-06 2.4795316e-05 -1.74046e-06 7.657432e-06 5.9220356e-06 -1.3506208e-05 -2.1549125e-05
1.174478e-05 4.0941695e-06 6.1179708e-06 1.816758e-06 6.525733e-07 -7.0133374e-06 -8.114366e-06 6.5330037e-06
-9.3587045e-07 1.0811381e-05 -2.3000123e-06 7.4011004e-06 3.7327478e-05 1.0476949e-06 8.694215e-06 -7.970098e-06
1.5431477e-05 1.8968765e-05 -2.1866065e-06 1.2296738e-05 3.1195793e-06 1.1272567e-05 -8.2475735e-06 1.7895785e-05
-1.3151117e-06 2.3116183e-05 -6.81205e-06 1.1043422e-05 -4.2846987e-05 -9.6400245e-06 4.4097737e-06 -7.429766e-06
-8.389565e-06 8.2991795e-07 -2.4324867e-05 6.727909e-06 -2.2544773e-06 5.2076675e-06 7.916289e-06 2.3547687e-05
-2.1320659e-05 -4.880614e-06 -5.697483e-06 -1.0026066e-05 -2.8364653e-07 1.2588442e-05 1.912662e-05 2.0750583e-06
1.1494638e-05 -2.0434843e-05 7.875444e-06 2.133775e-06 -4.172243e-05 -8.418771e-06 -8.304816e-06 1.4793158e-05
-2.1310005e-05 -3.1812615e-05 -9.693366e-06 -1.3632488e-05 -1.139585e-05 -1.2713108e-05 1.7750699e-05 -9.223501e-06
-2.648143e-06 -1.5087812e-05 -3.0244744e-06 2.3810084e-07 1.6156006e-05 3.58555e-06 -2.6147995e-07 6.341665e-06
3.6250985e-06 -2.8929323e-06 1.7206672e-05 -9.502612e-07 6.9405346e-06 4.6401346e-06 -7.85144e-06 -1.4330731e-05
00000000: 2032 2f3a 64e6 da3a edf8 083a 6a7f af39
00000010: 1377 8dba 90f1 7a39 e2b2 c838 7c33 d8b9
00000020: 1c1b 5aba 0282 35b9 1715 c9ba 8e02 d8b8
00000030: 6bee d0b9 2b87 d7b9 9b68 973a fe18 b73a
00000040: 6189 35ba 448c f4b9 c82d 1aba e4e3 6eb7
00000050: fec1 d639 a691 eab7 f440 1639 bfe8 32ba
00000060: 7e48 6cb8 d14c eeb9 d013 ebb8 55d4 1cba
00000070: c8df fbba e2d3 5939 0e0e 5aba fbd2 233a
00000080: e768 46ba c54d 5bba 41ff d139 8493 3fba
00000090: 8f78 10b8 ac1b 66ba d44e a039 26ba abba
000000a0: 4dfe ed37 2352 bd38 8a1a 5437 e0cb 1538
000000b0: f8ec bfb8 8d81 d036 6b94 3d37 1aa8 a0b7
000000c0: 4166 4cb8 24bd 6fb7 dfe2 a8b8 68eb 2436
000000d0: 49a9 20b7 d039 a1b6 2155 6f38 85c4 a338
000000e0: 742f 6eb8 c715 e8b7 a066 04b8 b241 89b7
000000f0: 73f4 d737 a84d a736 36fe d937 01d5 d3b7
00000100: e705 8637 2640 31b8 ea71 3336 32c2 97b7
00000110: be53 d9b8 aa43 1ab5 eea3 3eb8 48bf 4838
00000120: a174 4cb8 92ed 95b8 574f a936 70c2 24b8
00000130: c06d 8eb7 004c 52b8 67b5 0e38 1deb 86b8
00000140: e301 cc39 f20f 823a 6d20 9c39 5b20 5939
00000150: 9dd3 2dba 37ea 0b39 742b 7c38 e29e 80b9
00000160: 7d8f 01ba c5f9 d6b8 c93f 6fba 83fb 65b8
00000170: 3e4c 73b9 4a7d 74b9 d53a 323a c27c 5a3a
00000180: 5ab1 ddb9 ba51 91b9 dea3 b6b9 f093 94b7
00000190: 4b35 7d39 9f19 05b7 9e71 cf38 1e6b cfb9
000001a0: 15f6 b7b7 2be8 93b9 88d1 78b8 e51c b5b9
000001b0: e1d0 96ba fcb7 ef38 d23a 01ba 5480 c639
000001c0: 9403 f0b9 59c4 06ba e99c 6b39 70c9 e4b9
000001d0: 8fe7 fcb7 e11a 09ba e9b8 4a39 72ce 49ba
000001e0: cdb5 7238 60ac 0039 e9b9 3c38 6437 e137
000001f0: 631d 7eb8 75ba ff37 e667 e036 1777 dbb7
00000200: 1fa7 8db8 be04 a8b7 54d3 e0b8 3226 5eb7
00000210: e3cf d7b7 125a 05b8 f21d c038 9218 cf38
00000220: 2eb4 43b8 7fdf 1eb8 f458 42b8 ddb5 0b36
00000230: 327d 2838 6ef0 7eb7 ba3f 0bb5 ad42 6fb8
00000240: 13f7 03b7 6a53 d5b7 15f4 7db7 163b 46b8
00000250: e21f feb8 27bd bc37 64c3 89b8 5686 4138
00000260: 2c9f 41b8 057b 50b8 6fb8 1c38 fef2 4db8
00000270: 9799 2236 9843 89b8 0689 8037 e5f4 d5b8
00000280: 14ab 9fb6 3a17 ceb7 6bb0 a5b6 62c3 32b6
00000290: d882 e737 d1c8 8336 37e7 c0b5 0bde 0237
000002a0: 1f23 f736 2325 0cb6 89ff cf37 c099 e9b5
000002b0: 6c78 0037 e6b5 c636 b998 62b7 65c4 b4b7
000002c0: 720b 4537 a660 8936 f848 cd36 54d7 f335
000002d0: 7f2c 2f35 1c54 ebb6 f022 08b7 1336 db36
000002e0: 8738 7bb5 8762 3537 e959 1ab6 f856 f836
000002f0: 1390 1c38 869e 8c35 5edd 1137 4fb7 05b7
00000300: d872 8137 1d1f 9f37 9dbd 12b6 164e 4e37
00000310: f759 5136 4e1f 3d37 0f5f 0ab7 e81e 9637
00000320: e582 b0b5 a0e9 c137 1093 e4b6 2347 3937
00000330: 9ab6 33b8 97bb 21b7 abf7 9336 344d f9b6
00000340: e8c0 0cb7 87c7 5e35 410d ccb7 4cc0 e136
00000350: a04b 17b6 86bd ae36 34d0 0437 4688 c537
00000360: c4d9 b2b7 28c4 a3b6 022d bfb6 a035 28b7
00000370: 1548 98b4 f232 5337 1b72 a037 3b41 0b36
00000380: 18d9 4037 7e6b abb7 c620 0437 fa31 0f36
00000390: 1eff 2eb8 593e 0db7 ea54 0bb7 2130 7837
000003a0: e3c2 b2b7 896e 05b8 b1a0 22b7 17b7 64b7
000003b0: ce30 3fb7 624a 55b7 56e7 9437 a3be 1ab7
000003c0: c0b6 31b6 a921 7db7 13f8 4ab6 a9a8 7f34
000003d0: c286 8737 489f 7036 8861 8cb4 7dca d436
000003e0: b846 7336 3324 42b6 0c57 9037 7415 7fb5
000003f0: bde2 e836 74b2 9b36 aeb9 03b7 056e 70b7
