Lid_Driven_Re100/saved_models/GA-10000.pt (torch, 95111 bytes, 36 tensors)

linears.0.weight f4 [40, 2]
-0.24763167 -0.1853819 -0.12629668 -0.43158236 -0.44078115 0.011178407 0.27665272 -0.3705914
-0.31530133 0.24407034 -0.15503775 -0.17550275 0.09103644 -0.097977154 0.16541345 -0.0069189463
-0.008608314 0.36416355 -0.03248989 0.23003155 0.14924309 0.25704685 0.16460276 0.023798607
0.21161915 -0.13821039 0.4141653 -0.119533546 -0.27162352 -0.3056802 0.07272612 -0.33590227
-0.27592576 0.36406296 0.045669194 0.19504291 0.080789916 0.18930143 -0.30848727 0.1585658
0.004506775 -0.3079229 0.15032461 0.12644629 0.3353012 -0.0856411 0.21931677 0.1434932
0.38826856 -0.17744152 -0.3761019 0.20279706 0.16879904 0.0059601236 0.4137462 0.00012121714
0.037051458 0.18960038 -0.27957782 -0.013048365 0.090276495 0.2918054 0.17276755 -0.3430473
-0.06485161 0.15112919 -0.35431865 0.33178213 -0.42472947 0.030595485 0.09408601 0.09637972
-0.35001272 0.09331721 0.014440268 0.2784004 0.3766678 -0.17210317 0.34666193 0.27550808
00000000: 2893 7dbe c1d4 3dbe eb53 01be 5df8 dcbe
00000010: 11ae e1be a325 373c 6da5 8d3e 28be bdbe
00000020: 2d6f a1be 93ed 793e 37c2 1ebe feb6 33be
00000030: 5071 ba3d 3fa8 c8bd 2562 293e 54b8 e2bb
00000040: e309 0dbc a573 ba3e 1e14 05bd 648d 6b3e
00000050: 2ed3 183e a59b 833e a08d 283e 4cf5 c23c
00000060: b1b2 583e 0687 0dbe 790d d43e 01ce f4bd
00000070: 3d12 8bbe 1d82 9cbe 6ff1 943d 62fb abbe
00000080: 2446 8dbe 7666 ba3e 9f0f 3b3d 54b9 473e
00000090: 2f75 a53d 3cd8 413e 0bf2 9dbe 135f 223e
000000a0: 92ad 933b 12a8 9dbe b2ee 193e 237b 013e
000000b0: 99ac ab3e 9a64 afbd 9394 603e e2ef 123e
000000c0: 23cb c63e 3bb3 35be 6e90 c0be 08aa 4f3e
000000d0: a8d9 2c3e 244d c33b 8bd6 d33e f535 fe38
000000e0: 45c3 173d 9a26 423e d324 8fbe cfc8 55bc
000000f0: e2e2 b83d 8467 953e fae9 303e e5a3 afbe
00000100: ecd0 84bd 9cc1 1a3e 4169 b5be 59df a93e
00000110: 2476 d9be 62a3 fa3c 2ab0 c03d bb62 c53d
00000120: de34 b3be 181d bf3d e096 6c3c 7f8a 8e3e
00000130: 9ada c03e d03b 30be ac7d b13e 650f 8d3e

linears.0.bias f4 [40]
0.080379985 -0.017692018 0.0036421446 0.1910627 0.005684874 0.19586205 0.038136207 0.06973641
-0.1633668 -0.20320682 0.07993023 -0.01223714 0.17005251 0.15932861 0.08804638 -0.016236212
-0.08825361 -0.03150769 -0.062564164 -0.100821234 0.2295501 -0.2106732 -0.05522454 0.093860604
0.11501314 -0.01744916 -0.040865455 0.12635086 0.31382596 0.020991953 -0.083445586 0.11929895
0.092717364 -0.014861653 0.010007816 0.093205616 -0.05011561 -0.048897866 0.08597356 -0.050791483
00000000: 439e a43d daee 90bc 0cb1 6e3b f1a5 433e
00000010: 2e48 ba3b 1090 483e b634 1c3d f7d1 8e3d
00000020: a049 27be 7315 50be 76b2 a33d 497e 48bc
00000030: 3f22 2e3e 0a27 233e a951 b43d ce01 85bc
00000040: 4fbe b4bd 350e 01bd a421 80bd 5d7b cebd
00000050: 2e0f 6b3e b7ba 57be 2133 62bd fd39 c03d
00000060: 028c eb3d 8af1 8ebc 8962 27bd 1f62 013e
00000070: ccad a03e 51f7 ab3c 85e5 aabd 0253 f43d
00000080: 9ae2 bd3d 4a7e 73bc d3f7 233c 96e2 be3d
00000090: 0746 4dbd 2149 48bd e812 b03d bb0a 50bd

linears.1.weight f4 [40, 40]
-0.28460392 -0.2831022 0.03067624 -0.17198718 -0.09049505 -0.39273566 -0.25964287 -0.28230894
0.21324737 0.38047498 -0.13984233 0.199095 -0.32740727 0.16366822 -0.28216684 -0.008187162
0.040143993 -0.011227362 0.15933566 0.21023996 -0.3208488 0.4619885 0.2829929 -0.14307134
-0.2420259 0.28858265 0.031349413 -0.14114211 -0.27508667 -0.065167055 -0.2176809 -0.08889659
0.18137076 -0.21808542 -0.06381832 -0.19132549 0.057556543 -0.114017025 -0.25563556 0.036161702
-0.044813078 -0.027896836 -0.047377843 0.14484091 0.026646392 -0.041284166 -0.2565522 -0.31069466
-0.22378486 -0.01940396 0.07445535 -0.3148155 -0.25445038 0.043574445 -0.08800049 0.207001
-0.12462305 -0.16933794 0.07827019 0.40312856 -0.16711335 0.21404913 -0.064187236 -0.10821678
0.04452396 0.21485125 -0.39224303 -0.28255612 0.105638646 0.043221742 0.23835236 -0.17867939
0.13398057 0.1189825 0.091267586 -0.04684206 0.02954046 0.15935013 -0.17408691 0.18616048
-0.02235455 -0.013079951 -0.22122687 -0.31715763 0.11429649 -0.13063465 0.058294423 0.0977805
0.027126612 0.7185628 -0.16146772 -0.10968497 0.14697881 0.06729265 0.11019548 0.026498003
-0.13446063 0.06315003 0.31193876 0.10805791 -0.00022670567 0.42038235 0.19247106 -0.19955102
0.16972674 0.046312176 -0.01841407 -0.01312173 0.19573455 -0.0027521295 0.26780972 -0.15774101
-0.22323765 0.1510601 -0.21013553 -0.1692421 -0.20688693 0.024640275 -0.08019186 0.046142485
0.029127523 -0.06835502 0.2976982 -0.1283471 -0.19681558 -0.26032805 -0.35711217 -0.0977502
0.0705278 -0.005609328 -0.1078488 0.09066724 -0.21346614 0.08473378 0.20273758 0.12611462
0.15555522 -0.25725794 0.1123868 0.15627715 -0.15353878 0.26846763 0.034965023 0.024045644
-0.42066827 0.37378994 -0.11779207 -0.118543245 -0.0040239054 0.3137333 -0.001992943 -0.13386685
-0.24110062 -0.18554375 0.13058586 -0.25279158 0.3706251 0.023822954 -0.110391274 0.24127398
-0.1618907 -0.11751212 0.24522854 0.19441742 -0.22036181 0.1940642 -0.07245501 0.012907301
-0.08214561 -0.28825316 -0.083178796 0.12711121 0.260222 0.04573814 -0.03014475 -0.19642541
-0.11159029 0.15473865 -0.07212676 0.13205647 0.31808048 -0.19087769 0.19767198 0.0018290071
0.21676153 -0.092223376 0.048743762 -0.06320536 -0.24492462 0.07602352 -0.062617905 0.19712399
-0.015227979 0.15408225 -0.18245162 0.13530132 -0.08406192 -0.033526324 0.23353179 0.122582085
-0.110327065 -0.09812528 -0.31603485 0.26172143 -0.05463125 0.1212701 -0.12705581 -0.21234971
-0.066141255 0.11446087 0.1147323 0.26316535 -0.16462901 -0.19669028 -0.029289061 0.032192886
0.088826545 -0.06172669 0.117512636 -0.002545865 -0.055577002 0.1265444 -0.13643481 0.14464583
0.08388644 -0.09345311 0.08813943 -0.1772826 0.20035188 0.15867542 -0.12749818 -0.07905625
-0.1202453 0.2255683 0.0063525476 0.11577689 -0.30005246 0.05666713 0.24196495 -0.19778942
-0.05087984 0.08115802 0.33788437 -0.32603583 0.28648338 0.056345843 0.12979959 -0.19260545
0.17285718 0.2626033 0.18855321 -0.009390104 -0.15847196 -0.3393231 0.16651756 0.16834368
00000000: 9bb7 91be c6f2 90be bd4c fb3c 681d 30be
00000010: 7855 b9bd a614 c9be e9ef 84be cc8a 90be
00000020: 855d 5a3e 9ecd c23e d432 0fbe 8fdf 4b3e
00000030: eda1 a7be a498 273e 2c78 90be 7223 06bc
00000040: 076e 243d f8f2 37bc e328 233e 2549 573e
00000050: 4b46 a4be c289 ec3e 72e4 903e 4b81 12be
00000060: a3d5 77be 1bc1 933e 3e68 003d 8f87 10be
00000070: 29d8 8cbe 4e76 85bd bee7 5ebe 6a0f b6bd
00000080: 42b9 393e c951 5fbe 2eb3 82bd d4ea 43be
00000090: 69c0 6b3d c281 e9bd aae2 82be 4b1e 143d
000000a0: eb8d 37bd e887 e4bc 450f 42bd 2d51 143e
000000b0: 8949 da3c 9619 29bd cf5a 83be 5f13 9fbe
000000c0: dc27 65be 0ef5 9ebc 0c7c 983d 7f2f a1be
000000d0: 5247 82be 1e7b 323d 9a39 b4bd 12f8 533e
000000e0: 5f3a ffbd ed66 2dbe 1f4c a03d de66 ce3e
000000f0: c31f 2bbe b22f 5b3e 9974 83bd c2a0 ddbd
00000100: c25e 363d f701 5c3e 14d4 c8be 32ab 90be
00000110: 1359 d83d 4809 313d a412 743e bbf7 36be
00000120: 3432 093e 19ad f33d 80ea ba3d 76dd 3fbd
00000130: d6fe f13c ae2c 233e d743 32be daa0 3e3e
00000140: e420 b7bc 4a4d 56bc 4c89 62be 7c62 a2be
00000150: 4714 ea3d 17c5 05be 22c6 6e3d 2541 c83d
00000160: a138 de3c bbf3 373f cb57 25be 83a2 e0bd
00000170: 9d81 163e bbd0 893d 2bae e13d 5712 d93c
00000180: 0cb0 09be ce54 813d 70b6 9f3e 774d dd3d
00000190: d7b7 6db9 5b3c d73e 2217 453e 1a57 4cbe
000001a0: d9cc 2d3e d6b1 3d3d 1bd9 96bc 86fc 56bc
000001b0: a36e 483e 125d 34bb 5b1e 893e dc86 21be
000001c0: 6998 64be 80af 1a3e c52d 57be cd4d 2dbe
000001d0: 2bda 53be 67da c93c a13b a4bd e7ff 3c3d
000001e0: d89c ee3c b7fd 8bbd e66b 983e 6c6d 03be
000001f0: 068a 49be b849 85be 68d7 b6be 4231 c8bd
00000200: e170 903d 74ce b7bb d5df dcbd bfaf b93d
00000210: de96 5abe e788 ad3d 719a 4f3e 3124 013e
00000220: de49 1f3e 50b7 83be 0d2b e63d 1e07 203e
00000230: 4539 1dbe 9774 893e 7c37 0f3d 5ffb c43c
00000240: d561 d7be 6561 bf3e f83c f1bd cdc6 f2bd
00000250: f7da 83bb a7a1 a03e 099c 02bb 6414 09be
00000260: 15e3 76be 2eff 3dbe 4db8 053e e66d 81be
00000270: 93c2 bd3e 5b28 c33c d214 e2bd 8710 773e
00000280: adc6 25be 32aa f0bd 311d 7b3e 5c15 473e
00000290: 87a6 61be c4b8 463e 4b63 94bd 2579 533c
000002a0: f53b a8bd eb95 93be a559 aabd 7129 023e
000002b0: d13b 853e ea57 3b3d 1ff2 f6bc be23 49be
000002c0: 7389 e4bd cf73 1e3e 32b7 93bd d039 073e
000002d0: 72db a23e 7175 43be 866a 4a3e 4bbb ef3a
000002e0: bcf6 5d3e 9cdf bcbd 8aa7 473d d071 81bd
000002f0: 85cd 7abe 38b2 9b3d d13d 80bd dfda 493e
00000300: c67e 79bc bdc7 1d3e 99d4 3abe 6e8c 0a3e
00000310: a828 acbd e652 09bd f522 6f3e 510c fb3d
00000320: 28f3 e1bd e8f5 c8bd 52cf a1be 5a00 863e
00000330: 05c5 5fbd 755c f83d eb1a 02be 3472 59be
00000340: 1175 87bd 766a ea3d c5f8 ea3d 9cbd 863e
00000350: 8294 28be 2d69 49be 9def efbc b0dc 033d
00000360: b1ea b53d 20d5 7cbd 77aa f03d 87d8 26bb
00000370: b6a4 63bd db94 013e 91b5 0bbe 091e 143e
00000380: a7cc ab3d 5864 bfbd 7282 b43d 9289 35be
00000390: 0b29 4d3e cf7b 223e e28e 02be 3ee8 a1bd
000003a0: 2b43 f6bd 60fb 663e 0829 d03b 6f1c ed3d
000003b0: 7aa0 99be cb1b 683d a9c5 773e 4f89 4abe
000003c0: 6167 50bd 2d36 a63d 2eff ac3e 2bee a6be
000003d0: f3ad 923e e6ca 663d 2fea 043e 5d3a 45be
000003e0: 7901 313e f173 863e 1814 413e f3d8 19bc
000003f0: 7946 22be c2bb adbe 9483 2a3e 4962 2c3e

linears.1.bias f4 [40]
-0.13486956 -0.029823018 -0.07868617 -0.032350764 0.037382323 -0.014243302 -0.019341104 -0.08002653
-0.0832087 0.14374289 0.1927172 0.1600541 -0.031150715 0.051048197 -0.0171149 -0.029960664
-0.04607309 -0.07409506 0.05992372 -0.06763276 0.028881943 0.005695153 -0.065245956 0.14145507
-0.04755682 0.07800903 -0.064812526 0.070784815 0.11600803 -0.04208511 -0.025490649 -0.08301696
-0.044847034 -0.11033447 0.1903933 0.08671303 0.024225349 0.041427482 0.10085345 0.12364106
00000000: 3f1b 0abe 674f f4bc 3726 a1bd 3c82 04bd
00000010: 351e 193d bd5c 69bc 3c71 9ebc f3e4 a3bd
00000020: 5369 aabd 5631 133e a857 453e 39e5 233e
00000030: c92f ffbc ea17 513d 8c34 8cbc 1170 f5bc
00000040: 23b7 3cbd 27bf 97bd 9372 753d 0b83 8abd
00000050: d399 ec3c 689e ba3b ac9f 85bd 99d9 103e
00000060: f1ca 42bd 33c3 9f3d 6ebc 84bd a1f7 903d
00000070: 9e95 ed3d 7061 2cbd c4d1 d0bc cc04 aabd
00000080: 86b1 37bd 0af7 e1bd 76f6 423e 9a96 b13d
00000090: 3d74 c63c ddaf 293d 418c ce3d 8637 fd3d

linears.2.weight f4 [40, 40]
0.018550182 0.15740396 0.005222074 0.0050723185 0.030818736 -0.07078091 0.08964528 0.07556897
0.2374999 -0.36184204 0.07101134 -0.07918626 -0.023836203 -0.02218315 0.18321311 -0.06076847
-0.10919183 0.32101223 0.02703514 0.319122 -0.027539821 0.20146266 0.2666441 -0.15014704
0.2099234 0.13809586 0.16572769 -0.27638426 -0.08112373 0.25843742 -0.15597239 0.14289692
-0.19155781 0.12382382 0.089375995 0.04141963 0.08059053 -0.1305122 0.20906205 0.07988724
-0.34383243 -0.2201179 -0.5365443 0.10617948 -0.18820603 -0.09511102 -0.07033887 0.1247292
-0.107304364 0.34911707 0.36627576 0.21115813 -0.07860482 -0.18003073 -0.26033667 -0.09687526
0.10246179 -0.37045532 0.5188334 -0.21947667 0.13710143 0.24460252 0.09025086 0.23811564
-0.20321073 -0.15780835 -0.11827848 0.08170206 0.1976321 0.30689478 -0.106742464 -0.11174654
0.21907055 -0.5087748 0.27332014 0.32544124 0.23586419 0.33507457 0.12755677 0.23981681
-0.29891515 -0.06242075 0.14003582 0.16488226 0.2521982 0.14311194 -0.041385937 -0.020375255
-0.23664209 0.17532833 0.17942558 0.06639722 -0.16643587 0.11193678 -0.06724227 0.07277201
0.012135559 0.25129694 -0.1584142 -0.031861335 -0.19332609 0.20459343 0.008752021 -0.11543418
-0.21173264 0.09291623 0.11610246 -0.0143595515 0.121742204 0.43223432 0.17174102 -0.33121985
0.04369392 -0.02329474 0.06199157 0.21689877 -0.17589635 0.24749613 -0.06786162 0.11098652
0.3119543 -0.091233626 -0.11106093 0.21700113 0.070603386 -0.1830681 -0.029417785 0.28363517
0.21425636 -0.33334547 -0.25865072 -0.31962046 -0.24988452 0.10251517 0.22383966 0.23785904
-0.0677717 0.303851 0.1828707 -0.03427069 0.19883364 0.2669525 -0.07531211 -0.19807902
0.2117691 -0.16718672 0.07708652 -0.3260658 -0.24657016 -0.2330585 0.259052 -0.10301152
0.25921333 0.12176836 0.11878079 -0.2857505 0.1844045 -0.1112917 0.06556208 -0.0702673
0.16606927 0.2811474 -0.20476945 0.29871035 0.0024193688 0.15175614 -0.13521263 0.22943449
-0.22094996 -0.08416506 0.23531836 -0.24846701 0.067599714 -0.15250775 0.21538448 0.13246073
0.026265983 -0.29676846 -0.25728354 -0.10624377 0.24706103 -0.13303664 0.10434829 0.14028282
0.14868432 -0.13907322 -0.19175325 -0.043137554 0.023410141 0.16462712 -0.0392165 -0.1313094
-0.1495918 -0.1660587 -0.26630247 0.11700115 0.025738912 -0.15283622 -0.09700944 -0.30498898
0.44867653 0.23487361 -0.14942162 0.19008897 -0.0457356 -0.2533014 0.30026817 0.26356724
0.13483694 -0.23891394 -0.18323272 -0.37922305 -0.11575155 -0.569076 0.23210515 0.34586444
0.14665537 -0.22572438 0.12135442 -0.093044505 -0.015285298 -0.14896853 0.21988401 -0.26172775
0.20820847 -0.18918395 0.46939343 -0.3708785 -0.18471654 -0.12019626 0.13343827 0.3137798
-0.008527115 0.09378984 -0.2402234 0.08228192 -0.07819175 -0.096279405 -0.32752293 -0.1463582
-0.005531215 0.16619942 0.40862697 -0.20835839 0.13252048 0.107838854 -0.09452467 0.19176926
-0.015529877 -0.2311789 -0.37431926 -0.0042979675 -0.07327477 0.19636331 -0.22005194 0.21236546
00000000: 8df6 973c 812e 213e ef1d ab3b b135 a63b
00000010: 9377 fc3c 95f5 90bd f297 b73d e7c3 9a3d
00000020: 2c33 733e 5c43 b9be 656e 913d 682c a2bd
00000030: 2444 c3bc 70b9 b5bc 389c 3b3e 5ce8 78bd
00000040: f79f dfbd b75b a43e cc78 dd3c f563 a33e
00000050: 319b e1bc 3a4c 4e3e 9385 883e 25c0 19be
00000060: 29f6 563e 0069 0d3e 85b4 293e 3d82 8dbe
00000070: 3324 a6bd e951 843e 3ab7 1fbe 9253 123e
00000080: bb27 44be 5897 fd3d c30a b73d a1a7 293d
00000090: a60c a53d fda4 05be 5d14 563e ec9b a33d
000000a0: ce0a b0be 9666 61be f85a 09bf a174 d93d
000000b0: 15b9 40be 91c9 c2bd d30d 90bd 0672 ff3d
000000c0: 64c2 dbbd 79bf b23e 7f88 bb3e d639 583e
000000d0: 90fb a0bd fa59 38be d94a 85be 8966 c6bd
000000e0: 7dd7 d13d 52ac bdbe 44d2 043f 7ebe 60be
000000f0: 5164 0c3e 1579 7a3e 71d5 b83d 96d4 733e
00000100: 7916 50be 8398 21be fd3b f2bd 6953 a73d
00000110: 1260 4a3e 5021 9d3e cb9b dabd 5fdb e4bd
00000120: 0854 603e 113f 02bf 9ef0 8b3e 3ca0 a63e
00000130: 6286 713e e58e ab3e 3e9e 023e 8a92 753e
00000140: 680b 99be e6ac 7fbd 8d65 0f3e e5d6 283e
00000150: 1f20 813e f08b 123e 4d84 29bd 02ea a6bc
00000160: 4e52 72be 4589 333e 57bb 373e 44fb 873d
00000170: 2a6e 2abe 1c3f e53d 51b6 89bd 7e09 953d
00000180: 39d4 463c fea9 803e 5537 22be 0881 02bd
00000190: 46f7 45be f180 513e a364 0f3c c168 ecbd
000001a0: 71d0 58be dd4a be3d 20c7 ed3d 5344 6bbc
000001b0: fa53 f93d d14d dd3e e1dc 2f3e a695 a9be
000001c0: 65f8 323d 9cd4 bebc dfea 7d3d b61a 5e3e
000001d0: 2c1e 34be a06f 7d3e 08fb 8abd e74c e33d
000001e0: 79b8 9f3e b2d8 babd ea73 e3bd 8b35 5e3e
000001f0: 8298 903d 3476 3bbe 91fd f0bc a138 913e
00000200: 0566 5b3e 42ac aabe de6d 84be 4ba5 a3be
00000210: bae1 7fbe 79f3 d13d 3936 653e 5291 733e
00000220: e4cb 8abd 5c92 9b3e 7542 3b3e 6c5f 0cbd
00000230: 0c9b 4b3e 00ae 883e 3c3d 9abd 3ad5 4abe
00000240: 00da 583e ff32 2bbe 8adf 9d3d 19f2 a6be
00000250: e37c 7cbe e3a6 6ebe 77a2 843e b4f7 d2bd
00000260: 9cb7 843e b161 f93d 5843 f33d e44d 92be
00000270: 89d4 3c3e e7ec e3bd 6945 863d 4de8 8fbd
00000280: 100e 2a3e 8df2 8f3e 15af 51be 90f0 983e
00000290: 468e 1e3b f665 1b3e 2e75 0abe e0f0 6a3e
000002a0: b540 62be bb5e acbd 4cf7 703e 236e 7ebe
000002b0: b871 8a3d fe2a 1cbe c08d 5c3e c9a3 073e
000002c0: c22b d73c 09f2 97be abba 83be 5596 d9bd
000002d0: 91fd 7c3e c23a 08be 8eb4 d53d 4da6 0f3e
000002e0: b440 183e 3669 0ebe f75a 44be 01b1 30bd
000002f0: a0c6 bf3c 0394 283e 7ba1 20bd f975 06be
00000300: 982e 19be 4b0b 2abe cc58 88be 4d9e ef3d
00000310: 69da d23c 1981 1cbe e3ac c6bd 8427 9cbe
00000320: eeb8 e53e b582 703e fb01 19be afa6 423e
00000330: 4155 3bbd b9b0 81be c0bc 993e 49f2 863e
00000340: b212 0a3e dba5 74be 5ca1 3bbe 8629 c2be
00000350: 260f edbd f7ae 11bf f9ac 6d3e 2515 b13e
00000360: d32c 163e 4b24 67be ab88 f83d 1e8e bebd
00000370: 306f 7abc 358b 18be 4629 613e 2e01 86be
00000380: 9a34 553e 70b9 41be 5654 f03e c9e3 bdbe
00000390: 5526 3dbe 7529 f6bd 0ba4 083e bfa7 a03e
000003a0: 50b5 0bbc e314 c03d 1ffd 75be 6c83 a83d
000003b0: ff22 a0bd 232e c5bd 16b1 a7be edde 15be
000003c0: 323f b5bb 2e30 2a3e 8e37 d13e e75b 55be
000003d0: 73b3 073e 9eda dc3d 2696 c1bd 295f 443e
000003e0: 0671 7ebc 29ba 6cbe c6a6 bfbe f7d5 8cbb
000003f0: 1511 96bd 7713 493e 4c55 61be 5576 593e

linears.2.bias f4 [40]
-0.039308205 0.08888677 0.06656328 -0.030859133 -0.020319078 -0.05756151 0.009900798 0.020962778
0.032943103 0.01909775 0.07577829 0.0070975805 -0.034061566 0.010451818 -0.014929575 -0.02506284
-0.07185008 0.030824648 -0.048276227 -0.017050318 -0.024706693 0.009143962 0.024994845 -0.07280032
0.11053652 0.06589541 -0.014578767 0.07501667 0.024016166 -0.06969775 0.105577804 0.078064226
0.031938054 0.017018592 0.07022563 -0.049699105 0.09829847 -0.006724433 -0.086876675 0.032001633
00000000: a401 21bd 440a b63d 5452 883d 4bcc fcbc
00000010: 3274 a6bc 9ec5 6bbd f536 223c 22ba ab3c
00000020: 59ef 063d e272 9c3c a631 9b3d d292 e83b
00000030: 2484 0bbd 1a3e 2b3c 2d9b 74bc 9650 cdbc
00000040: 2226 93bd f983 fc3c 4bbd 45bd 1cad 8bbc
00000050: b165 cabc 8ed0 153c fdc1 cc3c 5618 95bd
00000060: f960 e23d 2cf4 863d c8db 6ebc 57a2 993d
00000070: 8dbd c43c b2bd 8ebd 2d39 d83d 23e0 9f3d
00000080: 7ad1 023d 936a 8b3c 75d2 8f3d 4a91 4bbd
00000090: b550 c93d a258 dcbb 66ec b1bd 2514 033d

linears.3.weight f4 [40, 40]
-0.24524438 0.3909123 -0.04037501 -0.36512038 -0.26691064 -0.27439252 -0.063373424 0.14897743
0.116159655 -0.022004597 -0.15757251 -0.09872046 -0.14807796 -0.108057 0.17301401 -0.005172726
0.049570356 0.2130479 -0.21953857 -0.07905309 -0.274571 -0.24184343 0.035899993 -0.13211772
0.032255396 0.27076167 -0.24075083 0.17580502 -0.22950564 -0.24939239 0.22613458 0.403626
0.23498154 -0.20223314 -0.14971238 -0.19376549 0.07777122 -0.08897885 -0.33391333 0.0050389655
-0.35256788 0.85125655 0.20757361 -0.72199625 -0.19854715 -0.121893026 -0.18571998 -0.22521524
0.23824413 -0.035746034 0.5004686 -0.2011293 0.4822976 0.24371609 -0.56657284 -0.7626892
0.12786035 0.22547415 -0.28536394 0.13182849 -0.4799217 0.22782837 0.34324065 -0.6781293
0.34613466 0.12633327 0.108422995 0.4444527 0.09443034 -0.5584244 0.4910244 0.018533112
-0.08506202 -0.45123878 0.3163534 -0.18551882 0.15414652 -0.05425837 -0.858254 0.307473
0.17912516 0.010985449 0.3147452 0.124448955 0.14783023 0.058135826 0.31671354 0.25538778
0.21824582 0.12503684 -0.24210443 0.061679278 0.079631984 0.12591049 0.23119852 0.19606026
0.12314191 -0.20751944 0.004867048 -0.2524884 -0.022372566 0.16896929 -0.059683304 -0.17301121
0.009831027 0.051470477 0.030809825 0.25517094 0.1869311 -0.0024442535 -0.14048359 0.16163214
0.22400048 -0.12822363 -0.044519387 -0.009059538 -0.03130859 -0.04631477 0.31648904 0.043545276
0.051918257 -0.15228301 -0.064332984 0.20751606 -0.12023188 -0.14330056 0.24540798 0.10439044
0.058214094 -0.25068006 -0.22001867 0.17833203 0.016593717 0.18974307 0.02410572 -0.046166338
0.11290731 -0.030820834 -0.26191452 0.0047687152 0.060825188 0.20770796 0.23270239 0.23327069
0.055293184 -0.20850815 0.0741761 -0.22187982 -0.039098743 0.1725516 0.10826508 -0.09404919
0.083523385 0.2547701 0.12252687 0.19999175 0.012813854 0.11651826 0.23341148 0.082264096
0.40509963 0.28522992 0.19782309 -0.36141613 -0.17736873 0.19849476 -0.21153592 -0.29914504
-0.22162557 0.021745885 0.036974534 0.42391744 -0.062305953 -0.11909567 -0.33943626 -0.14732496
-0.087330975 0.38776326 0.2782168 0.43466276 0.08182779 0.1912475 0.14152604 0.086024754
0.058748182 0.08169214 -0.060196258 0.132875 -0.28789192 -0.24149606 0.034442563 -0.01599965
0.40402663 -0.36614415 -0.30827636 0.006559617 -0.19468401 -0.4129914 -0.5611021 -0.115609415
-0.17182894 0.13131826 -0.08404398 0.16912998 -0.24296108 -0.04295454 -0.10592855 -0.019844595
0.14649928 -0.23429605 -0.24034302 -0.2596831 0.043501865 -0.10356467 0.22540338 0.116746485
0.21381764 -0.15167724 0.05204098 0.06702878 -0.27079323 -0.11444535 0.25626978 0.11749674
-0.14758824 0.12875096 0.17684403 0.069418184 0.22229978 0.1109079 0.06039876 0.15759785
0.18123111 0.37347245 -0.18141569 -0.03742603 -0.09279529 0.295622 0.22503887 0.07171637
0.25803286 -0.11917175 -0.12616897 0.08914059 -0.0855942 -0.23619701 -0.17643146 0.25687146
-0.041895576 -0.08206281 0.14862375 -0.013594929 0.24872838 0.24096176 -0.17947435 0.14285704
00000000: 5821 7bbe a825 c83e 4460 25bd 0ff1 babe
00000010: 83a8 88be 2d7d 8cbe edc9 81bd 8a8d 183e
00000020: 1de5 ed3d fc42 b4bc b05a 21be f42d cabd
00000030: c0a1 17be fd4c ddbd 962a 313e f97f a9bb
00000040: 490a 4b3d 3b29 5a3e b8ce 60be 96e6 a1bd
00000050: 9294 8cbe cea5 77be df0b 133d de49 07be
00000060: 3c1e 043d 46a1 8a3e 6387 76be 3b06 343e
00000070: 8703 6bbe b860 7fbe d38f 673e 11a8 ce3e
00000080: 009f 703e 3416 4fbe 344e 19be 766a 46be
00000090: 8446 9f3d 8b3a b6bd b0f6 aabe e81d a53b
000000a0: c783 b4be f3eb 593f 2d8e 543e bfd4 38bf
000000b0: f24f 4bbe 0da3 f9bd 612d 3ebe d39e 66be
000000c0: 45f6 733e 6f6a 12bd b61e 003f d7f4 4dbe
000000d0: b6ef f63e b690 793e eb0a 11bf 993f 43bf
000000e0: d3ed 023e b2e2 663e 391b 92be 0cfe 063e
000000f0: 4cb8 f5be d74b 693e 3dbd af3e e299 2dbf
00000100: 9038 b13e 825d 013e e00c de3d 4e8f e33e
00000110: b264 c13d e7f4 0ebf 8d67 fb3e c1d2 973c
00000120: ff34 aebd c508 e7be 13f9 a13e a5f8 3dbe
00000130: 96d8 1d3e 063e 5ebd 89b6 5bbf 1a6d 9d3e
00000140: 966c 373e 50fc 333c 4826 a13e 18df fe3d
00000150: cf60 173e d51f 6e3d 4728 a23e 30c2 823e
00000160: d57b 5f3e a809 003e 39ea 77be 69a3 7c3d
00000170: 1816 a33d aeee 003e 4ebf 6c3e 05c4 483e
00000180: d331 fc3d fa7f 54be c27b 9f3b 2946 81be
00000190: ac46 b7bc 4906 2d3e 7b76 74bd da29 31be
000001a0: 5112 213c b5d2 523d e364 fc3c c4a5 823e
000001b0: de6a 3f3e c52f 20bb eeda 0fbe e582 253e
000001c0: 6260 653e 0e4d 03be f659 36bd 756e 14bc
000001d0: 703d 00bd 8eb4 3dbd da0a a23e 885c 323d
000001e0: 3da8 543d 14f0 1bbe 03c1 83bd 177f 543e
000001f0: 223c f6bd 62bd 12be 3b4c 7b3e a8ca d53d
00000200: e771 6e3d 2359 80be 934c 61be ac9c 363e
00000210: 8cef 873c 024c 423e 5c79 c53c ea18 3dbd
00000220: f33b e73d f97b fcbc a919 86be e242 9c3b
00000230: d523 793d 65b1 543e 8949 6e3e 83de 6e3e
00000240: 1b7b 623d 2983 55be a4e9 973d 7734 63be
00000250: 0126 20bd 5eb1 303e 15ba dd3d dd9c c0bd
00000260: 4f0e ab3d 3a71 823e 5eef fa3d a3ca 4c3e
00000270: 33f1 513c 20a1 ee3d 6b03 6f3e 147a a83d
00000280: 3869 cf3e a809 923e 2392 4a3e 890b b9be
00000290: 26a0 35be 3642 4b3e df9c 58be 8a29 99be
000002a0: d0f1 62be 6d24 b23c 9c72 173d b50b d93e
000002b0: 8734 7fbd 6ee8 f3bd 97ca adbe 5bdc 16be
000002c0: 95da b2bd e888 c63e 6f72 8e3e 1e8c de3e
000002d0: 5495 a73d 62d6 433e 34ec 103e bf2d b03d
000002e0: efa1 703d 354e a73d 5a90 76bd 6210 083e
000002f0: 9266 93be be4a 77be a513 0d3d b311 83bc
00000300: 94dc ce3e 3f77 bbbe 66d6 9dbe 0ef2 d63b
00000310: 3f5b 47be 9c73 d3be 63a4 0fbf a1c4 ecbd
00000320: edf3 2fbe 4b78 063e 401f acbd 6930 2d3e
00000330: caca 78be 1af1 2fbd 11f1 d8bd 2291 a2bc
00000340: e803 163e 4eeb 6fbe 7b1c 76be 2ff5 84be
00000350: 032f 323d b719 d4bd 25d0 663e c818 ef3d
00000360: 03f3 5a3e 4751 1bbe ec28 553d 6346 893d
00000370: 69a5 8abe 5362 eabd cb35 833e 21a2 f03d
00000380: 5f21 17be 4bd7 033e 9a16 353e 1f2b 8e3d
00000390: 8ea2 633e ae23 e33d b164 773d 5561 213e
000003a0: a694 393e c837 bf3e 09c5 39be 094c 19bd
000003b0: 750b bebd c45b 973e 9770 663e 08e0 923d
000003c0: e21c 843e 5210 f4bd 7032 01be 578f b63d
000003d0: 034c afbd a1dd 71be 73aa 34be a884 833e
000003e0: b29a 2bbd 8c10 a8bd d330 183e 44bd 5ebc
000003f0: a7b2 7e3e aebe 763e 20c8 37be 1e49 123e

linears.3.bias f4 [40]
0.11883439 0.062157057 0.014274429 -0.0074275336 0.036108166 -0.03222978 0.021918247 -0.07869046
0.007928254 -0.0012810675 0.022812031 0.01735497 -0.013503785 -0.013328593 0.0028160894 0.041221708
0.026441814 -0.001203238 -0.07145618 0.028493576 -0.014574641 0.026762772 -0.08917697 0.060735725
0.029350113 -0.02965803 0.03000581 -0.011593315 -0.05597394 -0.08411205 0.0100813005 0.03755467
0.017918512 -0.040621143 0.019496823 -0.010581874 0.009016205 0.030297685 0.0022248041 -0.055947054
00000000: 725f f33d 6698 7e3d 4bdf 693c ab62 f3bb
00000010: 28e6 133d 6003 04bd e58d b33c 7728 a1bd
00000020: 82e5 013c 7ee9 a7ba 4ce0 ba3c 032c 8e3c
00000030: fb3e 5dbc 2c60 5abc 248e 383b 18d8 283d
00000040: 819c d83c f8b5 9dba 9e57 92bd 5c6b e93c
00000050: 7aca 6ebc 9a3d db3c 6aa2 b6bd 06c6 783d
00000060: a66f f03c 66f5 f2bc bfce f53c e3f1 3dbc
00000070: ee44 65bd f042 acbd 0a2c 253c edd2 193d
00000080: d8c9 923c 5b62 26bd cdb7 9f3c 995f 2dbc
00000090: b4b8 133c da32 f83c 05ce 113b bd28 65bd

linears.4.weight f4 [40, 40]
-0.09356124 0.14896618 0.12541845 -0.033203177 0.16736168 0.14887427 -0.07249728 -0.1609249
-0.076602995 0.29296562 -0.20579022 0.31381613 -0.065196134 -0.113281496 -0.22837107 0.058165018
-0.13140382 -0.2605062 -0.31229123 -0.18795459 0.25988564 0.013205558 0.051391643 -0.083048105
0.13719288 0.16568531 -0.025968716 0.1531115 -0.12159471 0.15497375 0.12415508 0.22654012
0.25755736 0.13202326 -0.1538247 -0.06552757 0.14683129 -0.1371781 0.21082182 0.21319528
-0.092171036 -0.20856705 -0.05745148 -0.20757166 0.04081441 -0.1829882 -0.2186752 -0.22026247
0.16172203 -0.07787071 0.21566552 0.23033464 0.27964255 -0.11680215 0.03156214 -0.016498161
-0.06827896 0.25862452 0.17589597 -0.10136603 -0.12704201 0.1699375 -0.089750126 -0.08983767
0.11511255 0.19435033 0.23413831 -0.025212325 0.19719362 -0.2075974 -0.019999193 -0.2896152
-0.16715778 0.22226155 -0.11423377 -0.16855252 0.14824474 0.13041177 0.2040784 0.2561012
-0.030174896 0.0012615704 -0.39625493 0.3627516 0.01250642 0.28235608 -0.32098418 -0.12694982
-0.32707393 -0.24758519 0.16341601 -0.2488913 -0.3880362 0.14411494 0.14592114 -0.16550621
-0.1622138 0.37475464 0.2018103 0.0467661 0.44423035 0.1001088 0.3134248 -0.26821378
0.031492144 0.17699622 -0.30985904 -0.11647039 -0.045429885 0.33044285 0.19755168 0.072795555
0.080902226 -0.12897699 -0.13894367 -0.22346564 0.056655146 0.20015937 0.06991554 -0.12094256
0.22504348 -0.10107175 -0.025415141 0.14759581 -0.034999516 0.23705369 -0.16184784 0.020009562
0.150492 0.17608628 -0.15365736 0.20516194 -0.098740004 -0.021477968 0.10349194 0.25418004
-0.1109348 -0.092520855 0.09501417 -0.25268188 0.13461487 0.26867172 -0.2562219 0.2179973
-0.26319772 -0.07253214 -0.097924694 0.25293505 -0.04349887 -0.0018308501 -0.09947449 -0.19904016
0.09986107 -0.25067568 0.123684645 -0.14018217 -0.25071806 -0.1851703 0.17117849 -0.15488489
-0.009418348 0.17109355 -0.16674642 -0.2943713 -0.048651155 -0.12773606 -0.21411164 0.22684936
0.12806332 -0.03225113 0.14821993 -0.0353571 -0.20482849 -0.13202265 0.2515564 0.07702295
0.10465554 0.24918069 -0.1159621 0.28213635 0.07223881 0.16524471 -0.008397052 -0.27147433
0.20687954 0.005844065 0.09242846 -0.30088574 0.17555037 -0.045770813 -0.11836816 0.067484036
-0.17117007 -0.18305372 0.23113255 -0.031118233 0.19200382 -0.10554061 0.1105656 -0.066757545
0.024116216 -0.15799536 0.20868303 0.049504485 -0.08836425 0.30898017 0.17610247 -0.14638507
0.19985527 0.2439262 -0.04194446 -0.34410766 -0.21185812 -0.19264081 -0.045205414 -0.14477941
0.34388253 -0.013818497 -0.036438014 -0.21628311 -0.21171254 -0.32573733 0.2124203 -0.12853292
-0.3148374 0.12813784 0.12549053 -0.18102252 0.28674537 -0.19394654 -0.23428594 -0.120064124
-0.08944141 0.31628746 -0.020382527 0.22108771 0.18999535 -0.20876822 0.0003421966 0.34730002
-0.09288238 0.035713337 -0.20995735 -0.03501373 0.284517 -0.11286826 -0.17893167 -0.21760572
0.13504936 -0.06970435 0.05999335 -0.03073919 0.17936215 -0.25337118 -0.20348082 -0.08456952
00000000: 099d bfbd 978a 183e b26d 003e 0e00 08bd
00000010: dc60 2b3e 7f72 183e 7479 94bd 7fc9 24be
00000020: 08e2 9cbd 97ff 953e acba 52be 82ac a03e
00000030: 8d85 85bd 2100 e8bd 1bda 69be 713e 6e3d
00000040: b98e 06be 1261 85be a3e4 9fbe 2b77 40be
00000050: bb0f 853e 205c 583c 0b80 523d 2015 aabd
00000060: 4a7c 0c3e 69a9 293e 58bc d4bc 43c9 1c3e
00000070: a606 f9bd 70b1 1e3e 0545 fe3d 22fa 673e
00000080: 8fde 833e 1b31 073e 3984 1dbe 5233 86bd
00000090: f15a 163e 6a78 0cbe ade1 573e dd4f 5a3e
000000a0: 2bc4 bcbd 9a92 55be 3e52 6bbd aa8d 54be
000000b0: 032d 273d 4261 3bbe 64ec 5fbe 7c8c 61be
000000c0: 769a 253e ae7a 9fbd 6cd7 5c3e d8dc 6b3e
000000d0: 4f2d 8f3e f735 efbd 4d47 013d 2727 87bc
000000e0: d7d5 8bbd 6f6a 843e 131e 343e fe98 cfbd
000000f0: 4d17 02be 1904 2e3e eace b7bd d0fc b7bd
00000100: 21c0 eb3d c603 473e f4c1 6f3e 148a cebc
00000110: 20ed 493e 6a94 54be 59d5 a3bc 7248 94be
00000120: 692b 2bbe 8898 633e 65f3 e9bd 0899 2cbe
00000130: 78cd 173e aa8a 053e eef9 503e b21f 833e
00000140: 5831 f7bc 475b a53a ede1 cabe 94ba b93e
00000150: bae7 4c3c fa90 903e 0a58 a4be 22ff 01be
00000160: 3c76 a7be f986 7dbe 8756 273e 5cdd 7ebe
00000170: aeac c6be de92 133e 5a6c 153e 767a 29be
00000180: 601b 26be d7df bf3e 5ca7 4e3e cf8d 3f3d
00000190: 2972 e33e d805 cd3d 3779 a03e 5153 89be
000001a0: e8fd 003d 7f3e 353e d8a5 9ebe 0788 eebd
000001b0: b014 3abd ce2f a93e fd4a 4a3e d615 953d
000001c0: 11b0 a53d 8b12 04be 4047 0ebe 2dd4 64be
000001d0: 3a0f 683d 94f6 4c3e e12f 8f3d bcb0 f7bd
000001e0: cc71 663e b5fe cebd 6a33 d0bc 5b23 173e
000001f0: a75b 0fbd 34be 723e 71bb 25be 18eb a33c
00000200: 931a 1a3e f64f 343e 5b58 1dbe f915 523e
00000210: 3338 cabd 90f2 afbc 95f3 d33d e323 823e
00000220: c931 e3bd 937b bdbd ca96 c23d 855f 81be
00000230: 7bd8 093e 578f 893e 842f 83be af3a 5f3e
00000240: dac1 86be bb8b 94bd be8c c8bd b480 813e
00000250: df2b 32bd 23f9 efba 48b9 cbbd 2fd1 4bbe
00000260: f683 cc3d 9058 80be 604e fd3d ea8b 0fbe
00000270: 1e5e 80be 489d 3dbe 6a49 2f3e 259a 1ebe
00000280: 6a4f 1abc 2633 2f3e 93bf 2abe d6b7 96be
00000290: 6f46 47bd 3ecd 02be 1540 5bbe 334b 683e
000002a0: 0823 033e c319 04bd f7c6 173e 9bd2 10bd
000002b0: 8fbe 51be f230 07be 00cc 803e 35be 9d3d
000002c0: a555 d63d 3929 7f3e 8a7d edbd 2d74 903e
000002d0: f1f1 933d e935 293e ca93 09bc affe 8abe
000002e0: 3bd8 533e 927f bf3b 224b bd3d b20d 9abe
000002f0: 7ac3 333e 2d7a 3bbd 026b f2bd 1235 8a3d
00000300: 3547 2fbe 6f72 3bbe 03ae 6c3e aaeb febc
00000310: a69c 443e ad25 d8bd 3870 e23d 2eb8 88bd
00000320: 5f8f c53c 89c9 21be 01b1 553e 37c5 4a3d
00000330: 51f8 b4bd a632 9e3e 3554 343e f8e5 15be
00000340: dca6 4c3e cac7 793e f4cd 2bbd e12e b0be
00000350: 56f1 58be a243 45be 5029 39bd 0e41 14be
00000360: 5f11 b03e fa66 62bc 0740 15bd 5279 5dbe
00000370: 2ccb 58be 0bc7 a6be b584 593e 229e 03be
00000380: 5e32 a1be 9136 033e 9780 003e f85d 39be
00000390: 4ad0 923e ec99 46be a7e8 6fbe 2ee4 f5bd
000003a0: 0f2d b7bd 6ef0 a13e 42f9 a6bc d164 623e
000003b0: 248e 423e 56c7 55be da68 b339 4fd1 b13e
000003c0: 1e39 bebd 2648 123d 0fff 56be 8f6a 0fbd
000003d0: 36ac 913e 7927 e7bd dd39 37be 09d4 5ebe
000003e0: 614a 0a3e 27c1 8ebd 96bb 753d c1d0 fbbc
000003f0: b6aa 373e deb9 81be 475d 50be c932 adbd

linears.4.bias f4 [40]
-0.0024026015 -0.0597766 -0.048103906 -0.016279902 0.027946573 0.0022934403 -0.002482811 -0.023960028
0.015133763 -0.017981358 0.01687123 0.015745612 0.027325198 -0.013274139 -0.043920115 0.033046596
-0.014769546 -0.034533832 -0.007917229 0.009912834 0.021938607 0.0075723785 0.006870486 0.005744379
-0.03447856 -0.055444382 0.027983556 -0.00041960564 -0.04968793 -0.0015284275 0.014650745 0.016806187
-0.04825363 0.052298572 -0.027095878 -0.008797051 -0.020136448 -0.05359208 -0.015352261 -0.044566635
00000000: f774 1dbb 4fd8 74bd 9a08 45bd 6e5d 85bc
00000010: 36f0 e43c 8b4d 163b a8b6 22bb d247 c4bc
00000020: 9af3 773c a44d 93bc 8935 8a3c f1fc 803c
00000030: 18d9 df3c c67b 59bc 94e5 33bd de5b 073d
00000040: f7fb 71bc 5973 0dbd 44b7 01bc 7069 223c
00000050: 98b8 b33c b721 f83b d021 e13b 583b bc3b
00000060: 6439 0dbd a619 63bd c53d e53c 84fe dbb9
00000070: 9285 4bbd 8455 c8ba ae09 703c 21ad 893c
00000080: 99a5 45bd 0737 563d 2df8 ddbc 8221 10bc
00000090: 31f5 a4bc 5e83 5bbd 0d88 7bbc 818b 36bd

linears.5.weight f4 [3, 40]
0.08542697 -0.091705374 0.10762234 -0.018270474 0.313958 0.31746316 -0.065425575 -0.37395123
0.39276403 -0.13248827 -0.09444117 0.2858654 0.45259142 -0.2460942 -0.5186527 0.14775161
0.01981639 -0.28834814 0.07633186 0.37153706 0.115516536 -0.24743134 -0.28236598 0.4477461
0.46904835 0.045201614 0.06330396 0.046883605 -0.1084449 -0.11597493 0.3183385 0.010302255
0.08251254 0.1315576 0.2972659 0.024829213 0.3860219 -0.013325491 -0.4534506 -0.24442317
0.307635 0.10601129 0.37296116 0.33187065 -0.024343427 0.12011312 -0.19110689 0.26597
0.1932669 -0.016475013 -0.25062016 -0.073629156 0.060912162 0.33322304 0.23596512 -0.04708835
0.12617716 0.18909822 0.16567276 0.079763286 0.21263047 0.057853498 -0.11840018 0.23447892
0.23646264 0.27351347 -0.066957116 0.3163293 0.14202924 -0.119918294 0.059129674 0.27009386
0.23326123 -0.2835448 0.035075366 0.19534798 -0.122673325 0.16106687 0.40385336 0.3085223
-0.31233346 0.16545816 -0.15734857 -0.16646464 0.37283105 0.32073846 0.16897932 0.04810527
0.3555867 -0.25282136 0.04886243 -0.08811274 -0.26225945 0.25529638 0.18119128 -0.2930946
0.12847424 -0.19712654 0.21009065 -0.33300886 -0.24296878 0.24371637 0.22054586 -0.05957968
-0.0038569055 0.14839756 0.09636673 -0.2618345 -0.11553828 -0.321462 -0.06284254 0.2831319
0.25912553 -0.28054345 0.24722376 -0.21368888 0.33246207 -0.042159643 0.20374681 -0.21274765
00000000: 56f4 ae3d 07d0 bbbd 1a69 dc3d f6ab 95bc
00000010: 1abf a03e 888a a23e d8fd 85bd 8976 bfbe
00000020: 5e18 c93e 01ab 07be 5f6a c1bd f35c 923e
00000030: 10ba e73e 1e00 7cbe 6cc6 04bf 334c 173e
00000040: fb55 a23c 5ea2 93be e153 9c3d 1b3a be3e
00000050: ef93 ec3d a45e 7dbe 4692 90be fa3e e53e
00000060: 1b27 f03e 5425 393d 82a5 813d 0609 403d
00000070: 5c18 debd 4484 edbd 44fd a23e caca 283c
00000080: 56fc a83d 09b7 063e 3c33 983e a266 cb3c
00000090: aaa4 c53e 2953 5abc ad2a e8be 114a 7abe
000000a0: 5682 9d3e 721c d93d c4f4 be3e f3ea a93e
000000b0: de6b c7bc defd f53d 86b1 43be 382d 883e
000000c0: c2e7 453e 9bf6 86bc 4951 80be e2ca 96bd
000000d0: 087f 793d 369c aa3e d7a0 713e b7df 40bd
000000e0: 9634 013e f7a2 413e 1fa6 293e ef5a a33d
000000f0: cdbb 593e caf7 6c3d cb7b f2bd 3e1b 703e
00000100: 4323 723e f509 8c3e d020 89bd eaf5 a13e
00000110: 1d70 113e b997 f5bd f531 723d be49 8a3e
00000120: 08dc 6e3e c92c 91be 30ab 0f3d 4d09 483e
00000130: 273c fbbd b7ee 243e dec5 ce3e a3f6 9d3e
00000140: 2cea 9fbe dd6d 293e fc1f 21be b575 2abe
00000150: b6e3 be3e d537 a43e ea08 2d3e 080a 453d
00000160: 760f b63e cd71 81be f923 483d 7474 b4bd
00000170: df46 86be 35b6 823e 358a 393e 7f10 96be
00000180: c08e 033e 8adb 49be 0122 573e 2380 aabe
00000190: cfcc 78be c990 793e c6d6 613e d309 74bd
000001a0: 23c4 7cbb 88f5 173e ec5b c53d 2c0f 86be
000001b0: 559f ecbd ab96 a4be 97b3 80bd aaf6 903e
000001c0: 1aac 843e 64a3 8fbe 3a28 7d3e 42d1 5abe
000001d0: 7838 aa3e 97af 2cbd 01a3 503e 85da 59be

linears.5.bias f4 [3]
0.026603932 -0.04334841 0.0
00000000: 7df0 d93c 1a8e 31bd 0000 0000

exp_avg f4 [40, 2]
-0.0009670898 -0.0030498048 0.00032047054 0.00057240314 -0.0015728995 -0.0019524859 -0.0035315838 -0.011075143
-0.00015850674 -0.00046050487 -0.0029881676 -0.008935176 -0.001706841 -0.0051162643 -0.00041091032 -0.0028477432
0.001260079 0.0047109365 0.009673578 0.02883126 -0.0005352494 -0.0014046133 0.00079162867 0.0012377196
-0.0019777154 -0.007684249 -0.0005228382 -0.0033141847 -0.0020972171 -0.0054500904 -0.0001297965 -9.993964e-05
0.0021297783 0.0065480843 0.00097399054 0.0021145192 0.0014090516 0.0038218673 0.0019586647 0.005919295
-0.004822606 -0.014649049 0.005936879 0.017795568 0.001131902 0.002825201 4.088213e-05 -0.00049039203
-0.0011113558 -0.0048600263 0.00042152623 0.0013846221 0.0005504641 0.0012419616 -6.42642e-05 -0.0013195607
-0.0015593691 -0.0046740714 -0.0009875532 -0.0018877885 0.0009296321 0.002591218 -0.0024172566 -0.0071745818
-0.0011941667 -0.0028055373 0.000638252 0.0014582588 -0.0008737784 -0.0015637147 -0.00042073525 -0.002301934
0.00027033035 0.0023747962 0.0013057626 0.002971444 -0.0008789945 -0.0033212905 0.0011333848 0.0031418344
00000000: 4c84 7dba 3cdf 47bb d404 a839 530d 163a
00000010: c029 ceba 8eea ffba 2572 67bb 8474 35bc
00000020: d434 26b9 eb6f f1b9 22d5 43bb d864 12bc
00000030: 15b8 dfba 56a6 a7bb 736f d7b9 34a1 3abb
00000040: 3c29 a53a 335e 9a3b ed7d 1e3c 892f ec3c
00000050: fb4f 0cba 001b b8ba 4d85 4f3a fa3a a23a
00000060: 8f9c 01bb 27cc fbbb 140f 09ba cb32 59bb
00000070: 7771 09bb ac96 b2bb fc19 08b9 b096 d1b8
00000080: c093 0b3b 5091 d63b 6653 7f3a bf93 0a3b
00000090: edaf b83a 4b78 7a3b f15c 003b a5f6 c13b
000000a0: f406 9ebb 9102 70bc 278a c23b 03c8 913c
000000b0: 545c 943a 0227 393b da78 2b38 a78d 00ba
000000c0: eaaa 91ba db40 9fbb 4b00 dd39 357c b53a
000000d0: 054d 103a 51c9 a23a 94c5 86b8 1cf5 acba
000000e0: bf63 ccba f428 99bb c970 81ba ac6f f7ba
000000f0: 8eb2 733a 6dd1 293b d66a 1ebb c118 ebbb
00000100: 9685 9cba 1bdd 37bb 5e50 273a 0c23 bf3a
00000110: 470e 65ba 8ff5 ccba 2196 dcb9 0bdc 16bb
00000120: 20bb 8d39 78a2 1b3b 1f26 ab3a 8fbc 423b
00000130: 536c 66ba 02aa 59bb 158e 943a 3ce7 4d3b

exp_avg_sq f4 [40, 2]
0.00050418865 0.0021324547 3.4311752e-06 2.7223441e-05 0.0008585502 0.008680896 0.0058534127 0.02652475
2.0052266e-05 0.00019379157 0.004461308 0.016066663 0.0007286816 0.0046984283 4.16207e-05 0.004952088
0.0017755213 0.0064683952 0.041838005 0.16060796 0.00010335033 0.00052736036 0.00021639196 0.0028562308
0.0019702956 0.0141025605 0.00023667947 0.006071027 0.0016873245 0.0060465536 4.9240523e-05 0.00056520617
0.0021928258 0.010263392 0.0002704192 0.0012705367 0.0014512596 0.0054181474 0.0006867191 0.007477111
0.010922811 0.040025905 0.019380802 0.07081762 0.0012246352 0.005607472 1.9428331e-05 0.000494437
0.00046296953 0.00912271 3.1948766e-05 0.0028002665 0.00036168174 0.0028806236 3.8167283e-05 0.0014326328
0.0011970148 0.004586275 0.00048571898 0.00445608 0.00081114314 0.0031494189 0.002813854 0.010773279
0.0005931342 0.0018437958 0.00017645146 0.00072956225 0.0006595635 0.0055565867 0.00018199583 0.0017658343
1.5141527e-05 0.0069006667 0.0005815787 0.0017601851 6.9410125e-05 0.005537331 0.0002633718 0.0011411633
00000000: 872b 043a a7c0 0b3b 2443 6636 e55d e437
00000010: 5410 613a 513a 0e3c fccd bf3b 6f4a d93c
00000020: ea35 a837 8734 4b39 2a30 923b 3c9e 833c
00000030: ff04 3f3a 46f5 993b e391 2e38 2045 a23b
00000040: 9cb8 e83a d5f4 d33b 545e 2b3d 6a76 243e
00000050: c9bd d838 8e3e 0a3a 46e7 6239 9a2f 3b3b
00000060: 1320 013b 6d0e 673c 292d 7839 77ef c63b
00000070: 3729 dd3a 2b22 c63b 9c87 4e38 582a 143a
00000080: 83b5 0f3b c927 283c 0dc7 8d39 2388 a63a
00000090: 3138 be3a b78a b13b f004 343a 8e02 f53b
000000a0: 97f5 323c 34f2 233d 7dc4 9e3c d408 913d
000000b0: f083 a03a e2be b73b 06fa a237 1b9d 013a
000000c0: b8ba f239 6b77 153c ba00 0638 ad84 373b
000000d0: 1aa0 bd39 d8c8 3c3b cf15 2038 2ec7 bb3a
000000e0: 27e5 9c3a 7748 963b 19a8 fe39 4f04 923b
000000f0: e5a2 543a 7b66 4e3b a368 383b 6882 303c
00000100: 907c 1b3a 85ab f13a d405 3939 1840 3f3a
00000110: 8fe6 2c3a 0714 b63b 22d6 3e39 9173 e73a
00000120: 5d08 7e37 fd1e e23b 1675 183a 03b6 e63a
00000130: 4790 9138 8072 b53b 2a15 8a39 1693 953a

exp_avg f4 [40]
-0.0031575756 0.00054709613 -0.001881791 -0.01120346 -0.00043518486 -0.009127915 -0.005192626 -0.003127348
0.0049077044 0.029584289 -0.0014406133 0.0011823758 -0.007995024 -0.0034616156 -0.0055454588 -0.00011003267
0.006582815 0.0021584486 0.0039407136 0.0060022115 -0.014969124 0.018273458 0.0029268553 -0.000618905
-0.004988043 0.0012764899 0.001323869 -0.0014485979 -0.004759794 -0.0019116265 0.002630368 -0.0073830835
-0.0028430924 0.0014567688 -0.0015711074 -0.0024200734 0.0024549142 0.0029833408 -0.0033110536 0.0031798875
00000000: 54ef 4ebb 006b 0f3a 6ea6 f6ba b88e 37bc
00000010: 8629 e4b9 408d 15bc e726 aabb 31f4 4cbb
00000020: cfd0 a03b c05a f23c f6d2 bcba f3f9 9a3a
00000030: 90fd 02bc 46dc 62bb aeb6 b5bb 57c1 e6b8
00000040: a8b4 d73b c274 0d3b 1a21 813b 33ae c43b
00000050: 0f41 75bc 38b2 953c 7cd0 3f3b 033e 22ba
00000060: bd72 a3bb e54f a73a ac85 ad3a e1de bdba
00000070: 0cf8 9bbb 8b8f faba 4162 2c3b cbed f1bb
00000080: 2d53 3abb 0df1 be3a 9eed cdba 189a 1ebb
00000090: a0e2 203b 2784 433b 43fe 58bb a965 503b

exp_avg_sq f4 [40]
0.002221806 2.295111e-05 0.0090347165 0.02828146 0.00021273748 0.017082246 0.0050341566 0.0054109213
0.006713488 0.17030165 0.0005697895 0.002973354 0.015235685 0.006505609 0.006369296 0.0005577161
0.0109756095 0.0013174649 0.0056143044 0.007928934 0.042448137 0.074969225 0.00571803 0.00054826104
0.009710254 0.0027876876 0.0028822424 0.001562548 0.0048915306 0.0044596214 0.0032781553 0.011556221
0.0019451014 0.0007474316 0.0056999098 0.0019402828 0.007218391 0.001871803 0.005709675 0.0012214137
00000000: b89b 113b 2287 c037 5906 143c 85ae e73c
00000010: 4812 5f39 11f0 8b3c 91f5 a43b 194e b13b
00000020: d2fc db3b 8e63 2e3e ed5d 153a 9adc 423b
00000030: 189f 793c 012d d53b 87b5 d03b b233 123a
00000040: 0bd3 333c c9ae ac3a 33f8 b73b 5ce8 013c
00000050: 19de 2d3d 7789 993d 505e bb3b 2db9 0f3a
00000060: c217 1f3c a3b1 363b 01e4 3c3b 69ce cc3a
00000070: 2249 a03b 0422 923b 52d6 563b 4e56 3d3c
00000080: c6f2 fe3a 49ef 433a 4fc6 ba3b 1651 fe3a
00000090: 4188 ec3b 4957 f53a 3a18 bb3b d817 a03a

exp_avg f4 [40, 40]
-0.00074041565 -0.0018034318 -0.0005323713 -0.00031529096 0.0005477567 -0.00011807728 -0.000116076415 0.000468898
0.0007574454 4.6853653e-05 0.0014598761 0.00026754785 0.00042027427 0.0007138427 -0.0011869563 -0.0012408699
0.0006971513 0.0006983877 0.0006033908 -0.00019350465 -0.00028365583 -0.00014069072 -9.8152166e-05 0.0011963481
0.0002821368 0.0002183697 9.096212e-05 0.0010347948 0.0018957237 -0.00034707732 0.0009225054 -0.000632061
0.00085922214 0.0007565805 -0.00041322308 0.00086114113 -0.000301541 0.0009073849 0.00017361333 0.0013074192
-9.229609e-05 -0.00022087796 -5.5824567e-05 -5.3840664e-05 7.444942e-05 -2.2627986e-05 -1.8895837e-05 5.218157e-05
0.000104782805 1.7041844e-05 0.00017708234 3.0307872e-05 4.096569e-05 7.2039744e-05 -0.0001467973 -0.00015566673
9.637378e-05 8.8439396e-05 7.8150326e-05 -1.3365187e-05 -4.830429e-05 -9.3012695e-06 -1.5606734e-05 0.00014123657
2.1741826e-05 3.545372e-05 9.612115e-06 0.00011270863 0.00022541969 -3.8544385e-05 0.000119033546 -8.868551e-05
0.000106261454 0.0001010811 -4.230102e-05 0.000102730766 -2.7891585e-05 0.00011735383 9.633422e-06 0.0001565706
-0.00044750574 -0.0010746743 -0.0003581507 -0.00014317679 0.000297867 -5.8086494e-05 -5.60587e-05 0.00029708177
0.00042387625 1.5295922e-06 0.0008769389 0.00017112742 0.000282538 0.0004789149 -0.00071337045 -0.0007270568
0.00038101454 0.00041109236 0.00035318537 -0.00015121198 -0.00013859563 -9.5818046e-05 -3.6261205e-05 0.0007320982
0.00021381018 9.521915e-05 6.426911e-05 0.00066648464 0.0011456725 -0.00022726474 0.00053884974 -0.0003452549
0.0005067897 0.00041947517 -0.00028405263 0.0005219479 -0.0002146438 0.0005270609 0.0001458105 0.0007999701
-0.0002253823 -0.000633887 -9.8837576e-05 -0.00019140904 0.0002740667 -2.3959401e-05 -6.9174e-05 0.00012790604
0.00029380523 4.028801e-05 0.0005011922 5.8504735e-05 9.5101066e-05 0.00016272439 -0.00038701054 -0.00046636641
0.00032426047 0.00024721934 0.00020912198 5.9456656e-06 -0.00012345746 -6.94554e-05 -0.000107229745 0.00038650207
9.477195e-06 0.00016727834 -4.567361e-06 0.00028504836 0.00067255215 -6.460112e-05 0.00032604663 -0.00028022207
0.0003258813 0.00035834487 -5.874792e-05 0.0002888131 -2.7972508e-05 0.00033558882 -2.7154974e-05 0.00041428203
8.079521e-05 0.00024154424 2.5418742e-05 7.628788e-05 -0.000107386244 6.541072e-06 2.683037e-05 -4.6554975e-05
-0.00011132839 -1.4910628e-05 -0.00018887132 -2.0300437e-05 -3.283799e-05 -4.9696435e-05 0.00014167473 0.00017876325
-0.0001258104 -9.35742e-05 -7.826714e-05 -7.959556e-06 4.6017314e-05 2.8668037e-05 4.6245776e-05 -0.00014304639
5.5927626e-06 -6.985322e-05 3.734746e-06 -9.567892e-05 -0.00025572034 1.9625028e-05 -0.00012282355 0.000107830994
-0.00012436138 -0.00013964903 1.1387627e-05 -0.000108784145 3.2851287e-06 -0.00012732043 1.8490384e-05 -0.00014887756
-1.9522091e-05 -3.1773605e-05 -4.0194933e-05 3.459779e-05 -1.7924405e-05 4.6961113e-06 9.88587e-06 2.4692808e-05
-7.169297e-06 -2.035825e-05 3.3815635e-05 1.5593423e-05 3.6122645e-05 5.4155764e-05 -2.5252757e-05 -1.1310405e-05
-2.0658188e-05 8.885363e-06 7.0710375e-06 -3.5368255e-05 1.8066785e-05 -9.117191e-06 1.9793568e-05 3.7959366e-05
4.3731787e-05 -2.8492705e-05 1.1215901e-05 5.441406e-05 4.9453334e-05 -2.4222376e-05 9.4387005e-06 1.6713748e-05
1.2145666e-05 -1.9166542e-05 -3.6951395e-05 2.4889427e-05 -3.5401343e-05 6.4304863e-06 3.929169e-05 3.5654382e-05
4.733688e-05 -8.990387e-06 0.00010544378 -7.955278e-05 9.491071e-05 3.7641392e-05 -2.923214e-05 -3.699228e-05
1.8560939e-05 1.0535939e-05 -5.378248e-06 -4.1390434e-05 -4.8683803e-05 -9.3921844e-05 4.0321807e-05 -3.9084596e-05
00000000: 7418 42ba 2161 ecba d58e 0bba a34d a5b9
00000010: 5497 0f3a 42a0 f7b8 0d6e f3b8 6dd6 f539
00000020: 4d8f 463a ba84 4438 5059 bf3a aa45 8c39
00000030: 4258 dc39 2c21 3b3a a593 9bba afa4 a2ba
00000040: 08c1 363a 0114 373a df2c 1e3a 82e7 4ab9
00000050: a4b7 94b9 6186 13b9 0bd7 cdb8 c8ce 9c3a
00000060: c3eb 9339 2cfa 6439 ebc2 be38 f4a1 873a
00000070: ef79 f83a eef7 b5b9 4ad4 713a e5b0 25ba
00000080: 6c3d 613a 4255 463a dda5 d8b9 34be 613a
00000090: 2618 9eb9 92dd 6d3a f90b 3639 b55d ab3a
000000a0: 168f c1b8 7a9b 67b9 2c25 6ab8 f9d2 61b8
000000b0: ba21 9c38 3bd1 bdb7 8082 9eb7 89dd 5a38
000000c0: d7be db38 15f5 8e37 2eaf 3939 a93d fe37
000000d0: 93d2 2b38 0b14 9738 9aed 19b9 783a 23b9
000000e0: 471c ca38 8a78 b938 a3e4 a338 0b3b 60b7
000000f0: 569a 4ab8 a60c 1cb7 35eb 82b7 e718 1439
00000100: 3762 b637 24b4 1438 b843 2137 fc5d ec38
00000110: a35e 6c39 b8aa 21b8 a6a1 f938 acfc b9b8
00000120: afd8 de38 81fb d338 606c 31b8 2971 d738
00000130: b9f8 e9b7 dc1b f638 3c9f 2137 1a2d 2439
00000140: 349f eab9 16dc 8cba 2cc6 bbb9 ba21 16b9
00000150: 082b 9c39 e6a1 73b8 9220 6bb8 a4c1 9b39
00000160: b53b de39 634c cd35 60e2 653a ab70 3339
00000170: 9c21 9439 df16 fb39 7b01 3bba f597 3eba
00000180: e8c2 c739 e287 d739 bd2b b939 a88e 1eb9
00000190: fb53 11b9 ecf1 c8b8 2c17 18b8 47ea 3f3a
000001a0: 3c32 6039 64b0 c738 37c8 8638 07b7 2e3a
000001b0: 642a 963a ea4d 6eb9 9841 0d3a 5403 b5b9
000001c0: 15da 043a 01ed db39 e6ec 94b9 55d3 083a
000001d0: 0212 61b9 752a 0a3a b5e4 1839 16b5 513a
000001e0: 9a54 6cb9 702b 26ba 0547 cfb8 f9b4 48b9
000001f0: 9cb0 8f39 6cfc c8b7 8211 91b8 841e 0639
00000200: df09 9a39 ecfa 2838 7062 033a fb62 7538
00000210: ff70 c738 ffa0 2a39 ade7 cab9 a482 f4b9
00000220: 8101 aa39 389d 8139 c147 5b39 e180 c736
00000230: 5c74 01b9 95a8 91b8 88e0 e0b8 6ea3 ca39
00000240: 3e00 1f37 7067 2f39 5541 99b6 8b72 9539
00000250: 364e 303a 767a 87b8 3df1 aa39 c5ea 92b9
00000260: 0cdb aa39 3ce0 bb39 1968 76b8 d76b 9739
00000270: 81a6 eab7 f8f1 af39 ddca e3b7 fe33 d939
00000280: 9970 a938 0a47 7d39 553a d537 befc 9f38
00000290: 8d34 e1b8 617b db36 c811 e137 0644 43b8
000002a0: f978 e9b8 a928 7ab7 c20b 46b9 db4a aab7
000002b0: 86bb 09b8 2471 50b8 858e 1439 6572 3b39
000002c0: f9eb 03b9 443d c4b8 5a23 a4b8 088a 05b7
000002d0: b702 4138 247c f037 06f8 4138 b9fe 15b9
000002e0: 77a9 bb36 297e 92b8 73a2 7a36 3ba7 c8b8
000002f0: 3412 86b9 6da0 a437 32ca 00b9 5323 e238
00000300: 0167 02b9 c06e 12b9 7c0d 3f37 0b23 e4b8
00000310: 1576 5c36 5181 05b9 cc1b 9b37 041c 1cb9
00000320: 5fc3 a3b7 a644 05b8 fb96 28b8 181d 1138
00000330: 5e5c 96b7 4a93 9d36 7ddb 2537 6723 cf37
00000340: cb8f f0b6 02c7 aab7 43d5 0d38 9fce 8237
00000350: 6582 1738 4f25 6338 e2d5 d3b7 d2c1 3db7
00000360: 1f4b adb7 5812 1537 c043 ed36 6058 14b8
00000370: 208e 9737 0af6 18b7 5d0a a637 8f36 1f38
00000380: a66c 3738 9e03 efb7 ee2b 3c37 a73a 6438
00000390: 1d6c 4f38 2831 cbb7 e95a 1e37 8034 8c37
000003a0: 3dc5 4b37 d6c7 a0b7 42fc 1ab8 a3c9 d037
000003b0: e77b 14b8 75c5 d736 22cd 2438 9a8b 1538
000003c0: 968b 4638 6bd5 16b7 b321 dd38 93d5 a6b8
000003d0: cd0a c738 23e1 1d38 8b37 f5b7 2828 1bb8
000003e0: 50b3 9b37 83c3 3037 cc76 b4b6 a49a 2db8
000003f0: d631 4cb8 e8f7 c4b8 361f 2938 c4ee 23b8
