Lid_Driven_Re100/saved_models/GA-21000.pt (torch, 95111 bytes, 36 tensors)

linears.0.weight f4 [40, 2]
00000000: 2480 53be e0af 3fbe 0538 d5bd 6ce3 e1be
00000010: bfe6 cebe 9728 a13c 9613 7f3e c16d b9be
00000020: d964 13bf 5549 c43e 27d3 22be a737 31be
00000030: f64f b43d 67f9 dfbd 5c1b 453d 8b75 97bc
00000040: 2091 fcb9 b674 bc3e d71e 3bbd 29e4 6c3e
00000050: 02bb 023e e61b 843e 2214 1f3e 6982 843b
00000060: 6c63 5c3e bd34 0bbe 2abd d23e a548 29be
00000070: c527 5cbe 02a4 9bbe 2f06 87bc 0763 a9be
00000080: 0980 88be 5928 ba3e 638d 69bb e759 553e
00000090: c5b3 153d 8e8a 483e f606 87be 821c 333e
000000a0: f9c0 c53b 75d2 a2be 8fe8 0f3e 1ab5 093e
000000b0: a670 a43e 8a35 cfbd c377 a13e aa35 853d
000000c0: 30fb b03e 46d3 53be e9ce b7be 9d2d 753e
000000d0: 370d 323e 3ec5 ba3c e4f4 b13e 0a4a 3fbd
000000e0: 2ea5 843d e33d 303e 268a 6cbe ab8e 1c3b
000000f0: 07df 353d f561 923e ba61 373e 97ea b3be
00000100: d489 04be 746c ff3d be8e dbbe 6924 bd3e
00000110: a561 cabe 2996 0d3d 4296 77b9 bc6e b93d
00000120: 640e 91be b361 263e 9986 86bb 8585 8c3e
00000130: dfc0 a23e a072 56be 2882 ab3e 5f98 8a3e
-0.2065435 -0.18719435 -0.104110755 -0.44118822 -0.4041042 0.019672675 0.24909815 -0.36216548
-0.57575756 0.38337198 -0.1590086 -0.17306386 0.08804314 -0.109362416 0.048121795 -0.018488666
-0.00048173312 0.36807793 -0.045683708 0.23133911 0.1276665 0.25802535 0.15535024 0.0040438664
0.21522301 -0.13594337 0.41159946 -0.16531618 -0.21499546 -0.30398566 -0.01648244 -0.33083364
-0.26660183 0.36358908 -0.0035637252 0.20835076 0.036548395 0.19584104 -0.26372498 0.17491344
0.006034967 -0.3180119 0.14053558 0.13447991 0.32117194 -0.10117634 0.31536683 0.06504376
0.3456664 -0.20686063 -0.35900047 0.23943181 0.17387854 0.02279913 0.3475715 -0.04670147
0.06476818 0.17211108 -0.23099574 0.0023888748 0.04440215 0.2859036 0.17908373 -0.35139915
-0.12943202 0.12471858 -0.4288234 0.3694184 -0.39527622 0.034567032 -0.00023611731 0.09054324
-0.28331292 0.16248207 -0.0041054008 0.27445617 0.31787774 -0.20942163 0.3349774 0.27069375

linears.0.bias f4 [40]
00000000: 3193 f03d 8025 fe3c 49c0 1f3d 7b84 2b3e
00000010: bd0e 873e 31d8 493e 048c 193d 6cb5 d33d
00000020: 41c3 28be 845d 32be ff21 013e 8f55 adbd
00000030: acf8 173e 2c44 593d d8b7 cb3d fc03 59bc
00000040: 447f 80bd 7ebb c7bd e0d2 7dbd 6356 2bbd
00000050: 6644 613e 2e80 4bbe ed89 c5bd eeee 14be
00000060: 0f9d 3f3d 4f7d fb3d c572 b5bd a138 c13c
00000070: 0d30 bf3e 15d9 b13d c312 debd 78f0 e93d
00000080: b315 0c3e 624e b93d bab4 633d 14ba d43d
00000090: 82fc 953d d65e 4fbd fa34 82bd 594e abbd
0.117468245 0.03102374 0.039001737 0.16749756 0.26378432 0.19711377 0.037487045 0.10337338
-0.16480733 -0.17418486 0.12610625 -0.08463585 0.14840955 0.05304353 0.09947175 -0.013245579
-0.06274274 -0.09752558 -0.061968684 -0.04183043 0.21998748 -0.19873115 -0.09645448 -0.1454427
0.046780642 0.1227976 -0.08859781 0.023586573 0.37341347 0.08683983 -0.10843422 0.11422819
0.13680153 0.090481535 0.055592276 0.10387054 0.07323553 -0.050627552 -0.06357761 -0.08364553

linears.1.weight f4 [40, 40]
00000000: a39d 99be 20a4 96be 65e8 f93c ed66 2abe
00000010: 9168 c5bd 4a36 c1be 9a31 7ebe 4f7a a0be
00000020: bc57 5e3e 0052 813e a90f 03be fb27 593e
00000030: f92d 9dbe f7fc 3b3e f481 93be 9641 76bc
00000040: d745 203d 3717 063d 93c9 2a3e 5e1f 493e
00000050: ed0a 98be fa91 d03e 89d9 903e 7c26 fcbd
00000060: 87eb 67be 8130 8e3e 221d 1c3d 6b3c d9bd
00000070: 8505 8cbe 6a74 a4bd 69f9 51be 8640 c6bd
00000080: 540e 473e cf70 69be 8671 93bd 2d68 32be
00000090: 83e4 363d 42c1 d1bd c632 79be b73d 2b3d
000000a0: 0b50 12bd 8fb4 52bd 9d46 18bd f115 ec3d
000000b0: 4ba8 0d3e 879f 123d 10cc a3be 565b 8abe
000000c0: 184f 58be 713f 97bd 37c5 d43d 4f22 f9be
000000d0: d1ae 81be ba73 033d aae8 cabd d726 2f3e
000000e0: ebb6 77bd e223 10be 9492 c63d feb5 e23e
000000f0: 29a3 14be 70a9 f1bc e82a 28be b0e5 06be
00000100: f204 0cbb f92b 873e 1065 febe b802 92be
00000110: d115 153e 0efe 0f3e 9604 853e deb7 6abe
00000120: d410 4f3e 041e 573e 258f f03d 218e 06bc
00000130: f356 f03d b80c 423e 0753 4abe 4659 4d3e
00000140: 2f0a b3bc c57f 33bc 805b 42be 7f09 c2be
00000150: 8527 1f3e 12e9 e5bd a7e0 3d3a c80e 9b3d
00000160: 9b79 403d fa40 1a3f bd35 25be 57cc 0cbe
00000170: b141 f13d 4f60 253d 66c3 e73d 6e6f 943c
00000180: 91cc c0bd 07ee f63d 0786 a53e 19b9 163e
00000190: 4a1b d6bc c330 bf3e 1458 0d3e 88ea 4dbe
000001a0: 90f6 093e b865 c13d a4b5 33bd 44fe f6bc
000001b0: d0d3 3b3e dfdd d63c cfa3 913e 14c5 59be
000001c0: d752 4cbe e5e9 3a3e c1a8 36be 480d 25be
000001d0: abf3 2ebe e3dc 263d 63b4 f7bd 5c6b 123d
000001e0: bf49 11bc 0a98 51bd d7f4 483e cbf1 563d
000001f0: c1e5 afbe 65a2 a9be ffc5 51be 495e eebd
00000200: 529d 323d 4f1a 8bbd 7f9c 03be 373f 6b3e
00000210: 5d59 03be 32a3 493e 2701 453e a593 2c3e
00000220: bd51 ff3c 7d6e 8abe 5ff7 cf3d 96a0 b2bd
00000230: 8f75 0dbe 6c99 e83e 3a86 a63e eaea 8a3d
00000240: 65f8 47be 7eae d63d 1bff 923c d3f2 2cbd
00000250: 6b07 5cbd 80e3 353e a341 5cbc 665f 45bd
00000260: 3462 a8be 58cb aebe 897b 2b3c 4816 90be
00000270: d32c 083e ef52 debb 5d30 a93e 0550 833e
00000280: 04c5 5dbe d8eb b2bd 7c2e 2e3e 33a7 293e
00000290: fe2f d5be c74f 5bbc 404d 11bd 6e08 c6bc
000002a0: eceb 75bd 9157 2abc 7899 fdbd 2fcf 913e
000002b0: a86d 7d3e dd61 bd3d 44ee 33bd 0d19 12be
000002c0: 8027 54be 13ed 173e 568a 76bd 31ca 553d
000002d0: 241d 303e 2fa3 733e 728d c23e 68ee 233d
000002e0: e9f1 9a3e b938 86be 47d6 3e3e 3b3a ddbc
000002f0: bd48 a8be 28e5 33bd 9565 58bd 6100 783e
00000300: df0d 26be a04b 42bc 61a3 8abe 468a b03d
00000310: 6c02 6dbe 66f2 68bd c264 c93e b012 023e
00000320: ad49 bcbc a6a4 c3bd c2cb 63be 2495 1a3e
00000330: e1a8 263e 0f34 a53e 36fa 83be ce15 50be
00000340: ff04 a4bd fad3 15bc 63a9 013e aa1c c03d
00000350: b655 57be 516d 87be eefb 863c d621 fb3b
00000360: bcf3 6c3e 50ce 9dbd e4b5 b33d 869e 053e
00000370: 8ec7 b03c f96e 10be 7e7f a8be a841 953d
00000380: d472 10bd 6c31 003e f9e7 b6bd fbdd 74be
00000390: 6011 7f3e 80b9 9e3e e179 1bbe d650 2ebe
000003a0: 0ca7 11bc 2d10 d93e 4f4a e53d a6b0 163e
000003b0: 6e86 00be f9c1 863d 7ec7 3e3d 6b8b 74be
000003c0: 2623 83bc 5f5e 093e 6001 ae3e 6aa4 62be
000003d0: 2185 313e a932 243d 642e 663e 2338 85be
000003e0: 14b4 c23d 00ad e63d ae02 083e e2a8 053c
000003f0: 4545 4abe 7ea8 b2be c2bd 553e c07e 7a3e
-0.3000308 -0.29422092 0.030506322 -0.16640826 -0.09639085 -0.37736732 -0.24823609 -0.31343314
0.21713156 0.25257874 -0.12798943 0.21206658 -0.30699137 0.18358217 -0.28810084 -0.015030285
0.039129104 0.032736983 0.16678457 0.19640872 -0.29695836 0.4073637 0.28290966 -0.12312028
-0.2264844 0.2777138 0.03811372 -0.10607227 -0.2734796 -0.08030017 -0.20505299 -0.096802756
0.1943906 -0.2279694 -0.07199387 -0.17422552 0.04465152 -0.10241939 -0.24335775 0.041806903
-0.035720866 -0.051441725 -0.037176717 0.115276225 0.1383373 0.03579667 -0.31991625 -0.2702281
-0.21123922 -0.07385147 0.10389178 -0.48658988 -0.25328687 0.032092787 -0.099076584 0.1710466
-0.06047718 -0.14076188 0.09695926 0.44279474 -0.14515366 -0.02949974 -0.16422617 -0.13173556
-0.0021365252 0.26400736 -0.4968648 -0.285177 0.14559104 0.14061758 0.2598006 -0.22921702
0.20221263 0.21007544 0.11746053 -0.008212597 0.11735334 0.18950164 -0.19758235 0.20053586
-0.021855442 -0.010955756 -0.18980217 -0.3789787 0.15542419 -0.11226095 0.00072432536 0.07571179
0.046990972 0.60255396 -0.16133781 -0.13749824 0.11780108 0.04037505 0.11316566 0.01811954
-0.09414018 0.12057119 0.32328817 0.14719047 -0.02613606 0.3734189 0.1380313 -0.20108998
0.13472962 0.094432294 -0.043874398 -0.03015054 0.18342519 0.026228843 0.2844529 -0.21266586
-0.19953476 0.18253286 -0.17837812 -0.16118348 -0.1708514 0.040737998 -0.12094953 0.035746917
-0.00886768 -0.051170386 0.19624649 0.052476685 -0.34354976 -0.3313171 -0.20485686 -0.11639077
0.043607064 -0.06792127 -0.12852667 0.22973333 -0.12827058 0.1969116 0.19238721 0.16853197
0.031166906 -0.2703742 0.10154604 -0.087220356 -0.13814376 0.45429552 0.32524282 0.067830876
-0.19528349 0.104825005 0.01794391 -0.042223763 -0.05371801 0.17762566 -0.013443383 -0.048186682
-0.32887423 -0.34139514 0.010466465 -0.28142 0.13298349 -0.006784789 0.3304471 0.25646988
-0.21657187 -0.0873639 0.1700992 0.16567688 -0.41638178 -0.01338572 -0.035474062 -0.024173941
-0.060039446 -0.010396854 -0.123827875 0.2847838 0.24748862 0.092471816 -0.0439284 -0.14267369
-0.20718193 0.1483653 -0.06019052 0.052194778 0.17198616 0.23792718 0.3799854 0.040022284
0.30262688 -0.2621515 0.18636428 -0.027005306 -0.32867995 -0.043919712 -0.05283125 0.24218895
-0.16216229 -0.011858851 -0.27077773 0.086201236 -0.23145455 -0.056871794 0.39334685 0.12702441
-0.02298435 -0.095528886 -0.22245696 0.15095955 0.1627536 0.3226628 -0.25776833 -0.20320818
-0.080087654 -0.009144777 0.12662272 0.09380467 -0.2102879 -0.2645059 0.016477551 0.0076639457
0.23139852 -0.077053666 0.08774927 0.13048753 0.02157953 -0.14104833 -0.3290977 0.072879136
-0.03526576 0.12518853 -0.08930964 -0.23912804 0.24908972 0.310009 -0.15183212 -0.17023024
-0.008889925 0.42395154 0.11195814 0.14715824 -0.12551281 0.06579966 0.04657697 -0.23881309
-0.016007971 0.13414906 0.33985424 -0.22133031 0.17335941 0.040087376 0.22478634 -0.2601939
0.095070034 0.11263466 0.13282272 0.008157941 -0.19752987 -0.34894174 0.20873168 0.24462414

linears.1.bias f4 [40]
00000000: 3ba3 dcbd af3b 963c 5381 acbd f4fc c4bd
00000010: 161a 97bd b0be 893d 4e2b a4bd 64c6 85bd
00000020: e288 b0bd 5423 033e cc75 353e 4cbc 173e
00000030: ec80 3fbd f03f 513d 9b0a 0abb 5e40 83bd
00000040: 9e76 03bb 0cc8 babd 4def 853d 0ca7 aebd
00000050: f523 3a3d 32f3 8c3c 14b7 17bd 2c0f 91bb
00000060: 5b86 e6bc e6f2 b63e e3fc 5ebd a74e 843d
00000070: ea7b 523e 78cd 4c3d 495d 8fbc 9081 45bd
00000080: 5c77 35be ec7a c9bd 029c 413e 4612 533d
00000090: ecb7 113d 73ab 343d 3edd b73d 8609 fd38
-0.10773321 0.018339006 -0.08423104 -0.096185595 -0.073780224 0.06725824 -0.08016072 -0.06531981
-0.08619858 0.12806445 0.17720717 0.14817923 -0.04675381 0.051086366 -0.002106345 -0.064087614
-0.0020059715 -0.09120187 0.065397836 -0.085279554 0.045444448 0.017205808 -0.03703983 -0.0044268575
-0.028140238 0.35732192 -0.05444039 0.06460314 0.20555082 0.050000638 -0.017500537 -0.048219264
-0.17721313 -0.098378986 0.18907169 0.0515311 0.035575792 0.04410882 0.089777455 0.00012065754

linears.2.weight f4 [40, 40]
00000000: b20a cd3d 0a77 f13d a33f a73c bac5 12bb
00000010: c5d1 033e 564c 29be 69cd 223d e3ca c63d
00000020: d6d5 7f3e 216d b8be b656 e63b 9b60 28be
00000030: cbc8 a13b 5cf3 5ebd 5887 163e f4ab 8ebd
00000040: 7755 a1bd 5c12 f23e d740 053d a6f5 8a3e
00000050: 9bef dbbc fd5b ab3e 2480 653e f0c2 40bd
00000060: 1103 f73d 0b9c 4d3e 7d9b 353e 0338 90be
00000070: 895e 8bbe 8111 de3d bedc 1dbe 255a e63d
00000080: 2553 3ebe 2f56 ce3d 7db3 bc3d 3661 343c
00000090: 60d6 0d3e 95e0 11be 7fa1 2a3e 6a55 1d3e
000000a0: 6638 90be df11 35be f6cc aebe cfd6 813d
000000b0: bc72 87be 287b 89bc 6648 bdbd bf2a 243e
000000c0: 765f 0abe 30a1 8e3e 8c3e 1f3e ad26 053e
000000d0: 8515 6dbd 9734 77be 16a6 2dbe 52d2 9ebd
000000e0: e4c7 093e 65a9 b6be 8e50 b63e 63d6 35be
000000f0: 4331 f93d 226c 5d3e 768e 3a3e bb77 2a3e
00000100: d538 48be 566b 3bbe 8fa7 68bd 42b9 3dbd
00000110: b97e 393e c56d a33e 95c4 4bba 837f ae3a
00000120: b8e1 533e 0dc7 93be dca2 9a3e c208 763e
00000130: 3589 413d 38b2 5ebd ea02 50bc a4b3 873e
00000140: 6fbc 74be 34db 2bbd 6a35 323e 20fc ca3d
00000150: d76b 803e 7b76 5e3d 2259 1cbe 47df 053d
00000160: 1a95 66be f6a6 383e 24b1 fb3d c7f8 aa3c
00000170: f8a5 163c 3a16 b63d 7e35 ecbd 5187 183d
00000180: a53d ee3d 45f0 ae3e aab5 0ebe 7c0a 89bd
00000190: 26fb b6bd 7408 773e 8ff6 8f39 d608 543d
000001a0: b362 88be c7ab 863c b478 393d 824d debd
000001b0: c9cb c73d 5a91 d93e bb7c 683e 3bab aebe
000001c0: 366d 393e 34f7 053d b921 c03d 4613 453e
000001d0: c769 02bd 0e99 493e b985 0bbe efd0 f13d
000001e0: ab58 fe3e c0fa 07bf f18b 3fbe 83f9 7b3e
000001f0: a09c b03e 3299 1ebf 1d4f 16bd d550 af3d
00000200: f3d9 8d3e d8a9 8bbe b884 79be 89d9 98be
00000210: 6c37 a1bd 3e5b c03d 9e53 2ebe 6c1b 343d
00000220: 4bc3 2d3d a096 193f e347 4b3e 5509 0dbe
00000230: 643f 4e3e 9b37 b83e 5981 acbe 43d6 3dbe
00000240: 697b c3bd 039e 01bf 8d72 a3bd eb61 53be
00000250: 7a02 38bf 1d03 33be f5f2 473e 772e fcbe
00000260: 9473 283f 90f3 59bc 00d2 9e3d 17eb 8dbe
00000270: 8558 023f b7a7 7bbe ee6b 223e e42f 61bd
00000280: 8040 8f3d afd3 883e cb88 3cbe 6506 6d3e
00000290: fe4b c83c c6fd 0f3e a155 2cbe aef0 263e
000002a0: dcb6 76be ea0b 01bd 4b25 903e ef07 3dbe
000002b0: c3df ab3d 4335 c1bd 34b2 163e 9751 b23d
000002c0: 2a50 383d 0d86 78be 7c8d 73be 21d0 fbbd
000002d0: eae2 473e 7d3d 70bd 2bfe 543d d2b3 633e
000002e0: ebf2 803d 7683 13be 6d29 75be 6800 873b
000002f0: 0b98 31bd b00c 203e 12c2 14bd 7607 32be
00000300: 0ca9 1fbe bb73 5abe 37a9 86be 0013 083e
00000310: 4df7 44bd 753b 29be fd6d 45bd de11 7bbe
00000320: e9ad 203f 866d 273e 9024 dabd 068a f53d
00000330: f179 1b3d 7140 86be 1ec2 6e3e 443e 353e
00000340: 6c20 b23d f70d 48be 47cf 7fbe 8558 5cbe
00000350: 39c9 1e3c abf5 d5be 930e 103e 14c3 843e
00000360: efd8 823e 64c9 ffbd b34f f93d dbd6 52be
00000370: 3e74 d5bd 1257 26bd f943 8c3d dd47 07be
00000380: 1581 203e 1454 21be 593e bc3e 9691 95be
00000390: d63d a4be e880 3fbe c0d6 143e dd6b 903e
000003a0: b981 b7bd 3a18 263d 3eea 52be 3de0 773d
000003b0: 7d15 3bbe 7fc0 83be 478e 63be e1d3 b53b
000003c0: 070c 5a3e ee85 7c3e bcda 9f3e f030 07be
000003d0: 08d6 553d ec77 cb3d add1 2ebc baac 913e
000003e0: de17 523c 0b46 a4be b1d2 8dbe f1d8 0fbe
000003f0: 7822 20be ef01 7d3d e0ca f0bd a416 8f3e
0.100118056 0.11790283 0.020416087 -0.0022395686 0.1287299 -0.16533026 0.039746676 0.09706666
0.24983916 -0.3602076 0.0070293797 -0.16443102 0.0049372665 -0.054431304 0.14700067 -0.06966391
-0.07877629 0.47279632 0.03253254 0.2714054 -0.026847651 0.3346862 0.22412163 -0.047060907
0.12061132 0.20079057 0.17735095 -0.28167734 -0.27220562 0.10843182 -0.15416238 0.112476625
-0.18586405 0.10075032 0.09213922 0.011009505 0.13851309 -0.14245827 0.16663168 0.15364614
-0.2816803 -0.17682599 -0.34140748 0.063397996 -0.26454723 -0.016782358 -0.092423245 0.16031931
-0.13512978 0.2785735 0.15551203 0.13003035 -0.05788185 -0.24141155 -0.16957888 -0.07754959
0.13455158 -0.35676113 0.35608333 -0.17757563 0.12167599 0.2162328 0.18218407 0.16647236
-0.1955293 -0.18302664 -0.05680042 -0.046319254 0.18114747 0.31919685 -0.00077731285 0.0013313148
0.20691574 -0.288628 0.30202377 0.24026778 0.04724999 -0.05436918 -0.012696007 0.26504242
-0.23900007 -0.041957095 0.17403188 0.0991137 0.25082275 0.05431221 -0.15268376 0.032683637
-0.22517815 0.1803244 0.12289646 0.02087058 0.0091948435 0.08890958 -0.1153364 0.037238423
0.116328515 0.34167686 -0.13936487 -0.06691453 -0.089346215 0.24124318 0.00027458786 0.05176624
-0.26637802 0.016439332 0.045281127 -0.10854627 0.09755666 0.42493707 0.22703831 -0.34115013
0.18108067 0.032706454 0.09381432 0.19245633 -0.03183916 0.19687292 -0.1362523 0.11807429
0.49677023 -0.5311699 -0.18705727 0.246069 0.34494495 -0.6195251 -0.036696542 0.08560339
0.27705345 -0.27278018 -0.24367034 -0.29853466 -0.07871899 0.09392403 -0.17024085 0.043971464
0.042422574 0.5999546 0.19851641 -0.13773091 0.20141369 0.35979924 -0.33692434 -0.18538766
-0.09545023 -0.5063173 -0.07980833 -0.20642821 -0.7187878 -0.17481656 0.19526275 -0.492542
0.6580136 -0.013302699 0.07754898 -0.27718422 0.5091632 -0.24575697 0.15861484 -0.054977313
0.06994724 0.26724002 -0.18411557 0.2314697 0.024450298 0.1406165 -0.1682954 0.1630275
-0.24093193 -0.031505503 0.28153452 -0.18460058 0.083922885 -0.09433987 0.14716417 0.08706968
0.044998325 -0.24269886 -0.23784441 -0.12295557 0.19520155 -0.05865239 0.052000206 0.22236565
0.06296333 -0.14405617 -0.23941584 0.0041199215 -0.04335789 0.1562984 -0.036317892 -0.17385659
-0.1559183 -0.2133321 -0.26300976 0.13288498 -0.048087407 -0.16526587 -0.048200596 -0.24518535
0.62765366 0.16350374 -0.10651505 0.119892165 0.03795809 -0.2622104 0.23316237 0.17699534
0.0869759 -0.19536577 -0.24981414 -0.21518143 0.00969153 -0.41788992 0.1406806 0.25930083
0.25556132 -0.12489584 0.121734045 -0.20589773 -0.10422562 -0.04061038 0.06848902 -0.13211007
0.15674241 -0.1575473 0.36766317 -0.29212636 -0.32078427 -0.18701518 0.14535046 0.28207293
-0.089602895 0.040550448 -0.20597169 0.060516585 -0.18269916 -0.257328 -0.22222243 0.0055489396
0.2129365 0.24660465 0.3122157 -0.13202262 0.05220607 0.09934983 -0.010670108 0.28452092
0.012823073 -0.3208469 -0.27699807 -0.140476 -0.15638149 0.061769422 -0.11757445 0.2794696

linears.2.bias f4 [40]
00000000: f46d 4fbd 2394 023e 39b8 a73d 88be 8abd
00000010: a9be 84bc 5131 08bd 47ee 27bd 355a ca3c
00000020: 4b00 d23b 2a6f 193d 7cc2 9e3d 2467 01bd
00000030: 6dd6 703d 5759 bf3c 34e2 24bd b92f 7cbd
00000040: 729c 35bd 7473 8d3d d5eb 51bd 21e3 b0bd
00000050: 8b11 f3bc 7277 ed3c 856f a23c af68 89bd
00000060: cebf b93d cb94 843d 598f 10bc d351 ad3d
00000070: 267b 49bd f531 79bd 29e6 8a3d 1ce8 3d3d
00000080: 5ecd 55bd 46d9 1ebd 6de4 3f3d d548 28bd
00000090: 3e38 8a3e ddbd 53bd 8369 c0bd d93c ce3c
-0.05064197 0.12751822 0.081894346 -0.06774622 -0.016204195 -0.033250157 -0.040998723 0.024701217
0.0064087263 0.03745953 0.07751939 -0.031592503 0.058798242 0.02335803 -0.040254787 -0.06156895
-0.04433865 0.069067866 -0.051250298 -0.086370714 -0.029671451 0.02898762 0.019828567 -0.0670942
0.09069787 0.064736925 -0.008823239 0.08462872 -0.04918971 -0.06083866 0.06782181 0.046363935
-0.052197807 -0.038781427 0.046848703 -0.041085083 0.26996034 -0.05169474 -0.09395125 0.025175499

linears.3.weight f4 [40, 40]
00000000: 2d51 2fbe 4fa2 8a3e 23d9 5bbd 5fad b7be
00000010: 97d9 72be de86 53be 6929 47bd 5d67 f63d
00000020: bb20 443d 34fe cdbc 01bc 7cbe e273 86bd
00000030: 61ea 4cbe dade 8ebd 2d67 913e 604f 3c3e
00000040: eec0 aa3d 8eb7 143e 2cc7 2dbd f938 2abc
00000050: c10e c9be dab0 68be f24a 4cbd 7b55 613d
00000060: 3b1e dbbd 066b 603e 3382 66be 9168 d43d
00000070: 82fb 87be 6ee7 05be f653 1a3e 9166 583e
00000080: ce9f 8e3e 750a 61be fdb9 75be c21c 40be
00000090: bb06 b7bd 97ba 3fbe 536c 0abe d5c9 d4bd
000000a0: 0510 5fbe 0164 d23e 6996 5ebe 566d febe
000000b0: 69e3 2abe b1c5 debc b861 95be 0956 84be
000000c0: 5176 573e 5df0 2abe f45f 093f 794d 95be
000000d0: daba 9d3e 3343 973e 9a00 a8bd 9962 32bf
000000e0: fd69 bd3e a588 b83d c134 c8be 5bc9 373d
000000f0: 588b b53c 5acc 8a3e 9e0f 873e ca2c 45bf
00000100: bc33 073f c862 1dbe 4294 9c3e 8bd8 903e
00000110: 8fea 6d3c fc83 12bf 36ab 8c3e f516 1d3c
00000120: 18d8 27be 5edd d73e d5cb 843e 6705 bfbd
00000130: 4069 6b3d 48f1 663e 3a06 73bf a29f 883f
00000140: cb87 823e 269f 31bd 48aa 7f3e 64ef 873e
00000150: 7c96 0d3e dcae 053e 1bcb d33e 5ee1 853e
00000160: 574e 443e 813c cb3d 2d49 88be ccae 30be
00000170: d608 bf3c c091 f5bc a063 5b3e 8b9b 8c3e
00000180: 7ec7 083e 3e14 66be f89f f83c a210 d4be
00000190: f54a 493e e8e5 b4bd 740a 96bd 19ef 26be
000001a0: 8be9 4fbd 340d a83c f606 293e e138 7d3e
000001b0: fe02 893e c06b 0e3e 469c 2bbe c974 053e
000001c0: 5ba0 693e ff87 5d3d 1e3b 5abd 8c90 433c
000001d0: 4962 32bd 27ae 313d 44ea b03e f2f3 f23b
000001e0: 5774 f93d 2d94 5ebe 85d3 1cbc 5bb6 603e
000001f0: 2323 e8bd 9922 56bd 7f76 933e 7286 f43d
00000200: 4f3c 003d 139e 74be a2d6 b1be b65f 843e
00000210: 53a1 2d3c 9ee1 383e 56f9 803d df52 f83d
00000220: 1c36 893d f445 0bbd 3dc4 49be c18a c83d
00000230: ee66 2cbe 3307 643e 0214 6d3e c9e9 aa3e
00000240: cf2a 88bd 772b 87be e9aa 95ba 19c6 79be
00000250: ce82 dd3c 356f 483e fbc8 e33c 0202 d4bd
00000260: e63d ad3d 0465 1d3d 9947 d63d b5ec 963e
00000270: 1e44 d23c ea41 9a3b ba91 ea3e 2564 74be
00000280: a2b6 9b3e 6576 833e 47c7 e33c 1d50 14be
00000290: 3312 6dbe fe40 673e bd59 0fbe 2f52 4cbe
000002a0: 7f58 22be de56 a8bc e644 7abd bd3a 713e
000002b0: c4f8 45bd d6b1 33be 84c3 61be 81b9 92bd
000002c0: e38c 6dbd fbfe aa3e 0980 003e 2fd2 963e
000002d0: a11c d1bd 9fd8 72bc 85bf c03d ccf4 193e
000002e0: 0acf b8bb 1ca4 d13d 606e cbbb b781 e33d
000002f0: 3681 d9bd 37a8 10be a480 c73d aa1f 4bbd
00000300: 58ab bf3e ad99 8cbe 74ef 07be bdb5 4abd
00000310: 2587 4abe 71e2 cdbe b9c2 a0be a7c4 1cbe
00000320: ca0e b6bd 5829 223d 923f a7bd d42f c83d
00000330: 3fe5 62be 3893 c2bc 5d4c 21bd 327a babd
00000340: 5555 253e 02b0 8abe ca60 3cbe 5c2f 81be
00000350: 508b 30bd 61cc b8bd 36cc 5d3e 0771 fc3d
00000360: dd67 973e a232 42be 2d53 003e cb73 0f3d
00000370: a53a 0ebe fe12 01be 8772 9f3e 086d 0d3e
00000380: 1426 0cbe 9cf9 9e3d 4b0d 4e3e 8c9a b73c
00000390: f61f 483e 47c9 f63d f548 0fbd d14e 003e
000003a0: 408f 623e 6dcc ba3e ad89 47be 23d5 5ebd
000003b0: ffc4 51bd 62f5 823e 1b16 303e 753e 003e
000003c0: 6219 b83e 78b6 b2be 210d 81be 78a5 4d3e
000003d0: 6298 69bd 8150 14be 5532 26be 05e3 623e
000003e0: f767 afbb 3941 52be ba33 f13d 9ffc 5abd
000003f0: 85b5 5e3e c242 953e f0bc 2ebd 15b6 863e
-0.1712081 0.27076957 -0.053673875 -0.3587446 -0.23715816 -0.20656916 -0.048623476 0.12031434
0.047882777 -0.025145628 -0.24681093 -0.06565072 -0.20011283 -0.06976099 0.2839903 0.18389654
0.0833758 0.14523146 -0.042426273 -0.01038956 -0.3926907 -0.22723714 -0.04987616 0.05501316
-0.106991254 0.21915826 -0.22510605 0.10371507 -0.26559073 -0.13076565 0.15071091 0.21132876
0.27856296 -0.21976645 -0.2399673 -0.1876097 -0.089368306 -0.18723522 -0.13517885 -0.10390059
-0.21783455 0.41091922 -0.21737064 -0.49692792 -0.16688313 -0.027193876 -0.29176116 -0.2584689
0.21041228 -0.16693254 0.5366204 -0.2916067 0.3080662 0.29543456 -0.0820324 -0.696817
0.36994925 0.09010438 -0.39102748 0.044869762 0.02216117 0.27109033 0.26379102 -0.7702147
0.52813315 -0.15369713 0.30581862 0.2829021 0.014521255 -0.5723264 0.27474374 0.009587993
-0.16391027 0.42161077 0.25936761 -0.09327202 0.05747342 0.22552979 -0.94931376 1.0673716
0.25494227 -0.043364666 0.24967301 0.26549828 0.13826936 0.13054985 0.41365895 0.26148504
0.1917051 0.099236496 -0.2661833 -0.1725418 0.023319643 -0.029976726 0.21424723 0.2746242
0.1335735 -0.2246866 0.030349717 -0.4141894 0.196575 -0.08832914 -0.073262125 -0.16302146
-0.050759833 0.020514108 0.16506562 0.24728729 0.26760095 0.13908291 -0.16758832 0.13032831
0.22815077 0.054084774 -0.053279035 0.011936318 -0.043550763 0.043378975 0.3455373 0.0074143345
0.12180393 -0.21736212 -0.009571915 0.21944563 -0.11334827 -0.05227909 0.28801343 0.11939706
0.031307515 -0.23888426 -0.34734064 0.25854272 0.010597545 0.18054816 0.06297557 0.121251814
0.06699774 -0.03400226 -0.19703765 0.0979209 -0.1683614 0.22268371 0.23152164 0.3338149
-0.0664879 -0.2640035 -0.0011418733 -0.24391975 0.027039912 0.19573672 0.027805796 -0.103519455
0.08459072 0.038426414 0.10462875 0.29477468 0.025667246 0.0047075646 0.45814306 -0.23866327
0.30412775 0.25676265 0.027804984 -0.14483686 -0.23151474 0.22583386 -0.13999076 -0.19953226
-0.15854071 -0.020549234 -0.061100863 0.23557563 -0.048332945 -0.17548308 -0.2204724 -0.07164288
-0.05799569 0.3339766 0.12548842 0.29457232 -0.10210539 -0.014822154 0.094115295 0.15034789
-0.0056399154 0.102363795 -0.006208226 0.111087255 -0.10620348 -0.14126669 0.09741333 -0.049590744
0.37435412 -0.27460995 -0.13274938 -0.049489725 -0.19778116 -0.40211824 -0.31398562 -0.15309392
-0.088895395 0.03959021 -0.08166422 0.097747475 -0.22157763 -0.02375184 -0.039379466 -0.09105338
0.16145833 -0.27087408 -0.18396297 -0.25231445 -0.04310161 -0.09023357 0.21659932 0.12326246
0.2957143 -0.18964627 0.12531729 0.03502254 -0.13889559 -0.12604901 0.31142065 0.13811123
-0.136864 0.07762453 0.20122258 0.02241256 0.19543442 0.12050109 -0.034981687 0.12530066
0.22124958 0.3648409 -0.19486113 -0.05440248 -0.05121326 0.25577837 0.17195933 0.12523825
0.35956866 -0.34904838 -0.2520533 0.20082653 -0.05703009 -0.14483835 -0.16230138 0.22156914
-0.0053529697 -0.20532693 0.11777444 -0.053463574 0.21748932 0.29152495 -0.042660654 0.26310793

linears.3.bias f4 [40]
00000000: 424f bc3d df5c 473d bbcf e13c 07d4 9cbc
00000010: bb15 a23d 8966 6dbd 3b58 d2bd def5 68be
00000020: 8a03 29bc 95f0 b8bb 3ab0 9f3c aa87 8c3b
00000030: 852b 403d b8d0 c73c 88d5 4abd 9116 023d
00000040: 6457 2f3d 77c2 39bd cf5f f8bc d0f9 6b3c
00000050: d2bd a73b f18a 163d e437 bbbc 7420 3a3d
00000060: 1ab3 933d e403 63bd 6fa7 8b3b 5c8e 47bc
00000070: 290a 01bd 03df c2bd 935d 0a3c 1145 a7b9
00000080: 4e4b 1c3c baa5 c7bc da02 143d adbf 163b
00000090: ec6c 493b a7fa 413d c7f5 8ebb e917 57bd
0.09194805 0.048672553 0.027564874 -0.019144071 0.07914301 -0.057959113 -0.10270735 -0.22750041
-0.010315785 -0.005643914 0.019493211 0.0042886334 0.046916503 0.024391517 -0.049520046 0.031759802
0.04280795 -0.04535147 -0.030319123 0.014402822 0.005119064 0.0367536 -0.0228538 0.045441106
0.07211895 -0.055423632 0.004261903 -0.012179937 -0.03150383 -0.09515192 0.008445161 -0.0003190418
0.009539438 -0.024371017 0.036135532 0.0023002431 0.0030735089 0.04735818 -0.004362795 -0.052513037

linears.4.weight f4 [40, 40]
00000000: 930b cbbd 70fb 5b3d f40b b73d d389 47bd
00000010: f7a0 273e 61bc df3d 2274 c1bd f6dd 36be
00000020: 0f64 c6bd 5865 8c3e c88d 52be b9da 8f3e
00000030: 7994 71bd 3dc3 87bd 3085 08be d71d 143d
00000040: 5ba3 21be 7cfc 71be 849f 8dbe 64e2 4ebe
00000050: ff81 8e3e 9674 19bb fb38 a03d 641e cdbd
00000060: 6806 1d3e b429 3a3e 4e6e ddbc 022b e63d
00000070: 60e4 06be 8ce1 fd3d 1ecf fc3d ee87 5f3e
00000080: 65a8 5d3e f54d 3e3e 3c94 25be abd7 88bd
00000090: fcf5 183e b466 ffbd deb5 663e 4919 573e
000000a0: 82fb b5bc 1c95 3dbe 190c 27be ce36 5bbe
000000b0: 7b86 c43c 0da3 47be 399b 6bbe b0ae 73be
000000c0: a355 143e a1ed e7bd ccd0 653e 2970 813e
000000d0: 67ae 833e b9fa f7bd 675f 2e3e 257b ebbc
000000e0: 77e7 123d 6e01 3f3e 0730 3b3e 8e7a 12be
000000f0: bcab 0dbe cb89 403e 381b 13be 688c bbbd
00000100: 7fb3 e83d a74a 513e 6102 813e 9f3d 65bd
00000110: 03e4 2c3e 7d52 7abe 5c0c 2bbd ccc0 91be
00000120: 1a20 54be 358d 933e b917 c5bd 775c 00be
00000130: ca1e 103e cc0d d43d a730 483e 7ff9 6c3e
00000140: f1b5 86bc 9823 343c 6097 f8be 7b4f 9e3e
00000150: f192 4c3d 11cf dc3d 9b49 c4be 4717 f3bd
00000160: 106d 9dbe 92aa 7fbe 2f26 f53d 202c 19be
00000170: 8e54 c5be 17ac 973e 6de6 b93d 5fba ebbd
00000180: 5dff 3e3e be10 933e 1127 503e 3914 d73d
00000190: 017f e73e ae59 063e edcc d63e cf5b 8bbe
000001a0: 804f 4ebc 620a 2c3e 182c 8ebe 37b2 20be
000001b0: b8e2 81bd e839 cf3e 5425 a33e 9f4f ba3c
000001c0: 5640 c43d 9117 70be 053e b7bc a0d6 c6bd
000001d0: 88dc ea3d 7821 b83e d21f d53d 7343 4cbe
000001e0: 5f06 6a3e 5e74 15be 3341 81bd 3485 1a3e
000001f0: a204 1cbd df60 4e3e 73a5 37be 17a8 e7bb
00000200: e77c 133e 568b 3f3e 06be 08be 80ff 4c3e
00000210: 5dd4 a3bd 6007 33bd 21e1 1d3e 7b50 8a3e
00000220: c354 21be 9a1c 8fbd 5467 0a3e fc77 85be
00000230: 0728 163e 48bc 8f3e 2936 5fbe 9ae6 573e
00000240: dccb 83be 414d 5fbd 9e91 b8bd 3ec8 5d3e
00000250: 372e 80bd 8677 c13c 5fcb d2bd a423 40be
00000260: d4a3 a03d 739f 72be afbc f13d 0128 f2bd
00000270: 85b3 9bbe 6982 34be dd01 3d3e d2b9 17be
00000280: 66bb ec3c 6cb6 443e 4fc0 13be a272 98be
00000290: 7a26 d9bc 773f 9ebd 237e 60be 1eb5 683e
000002a0: 58cc 123e fbeb a0bd f3e2 ee3d f904 d0bc
000002b0: a0ce 59be 977e f8bd 6f68 613e db25 a93d
000002c0: dcee 8a3d b319 913e 6c82 dbbd 65cc 803e
000002d0: e15c f83d 6478 313e d444 13bb 12e8 94be
000002e0: 7906 7d3d 3a78 293d 155a c53d 98ac 98be
000002f0: f98a f73d e0d8 a2bc 2bb0 11be 0e48 933c
00000300: 5b16 1fbe 766f 4fbe 117e 603e 873d ddbb
00000310: 64b8 3b3e 5db8 e9bd 1d09 353e 26af 7abd
00000320: f5c7 56bd 2607 d9bd a92e 793e 0b85 c43d
00000330: 5460 bfbd 5410 a93e df23 3a3e 89b9 2dbe
00000340: 634c 563e 9de8 873e 1350 92bd 8e30 b9be
00000350: 8be8 38be 938c a7be 0ce1 98bd eddd c5bd
00000360: f604 793e 1aa2 883d 317f eabc 14bf 46be
00000370: 4127 5bbe c0fd 89be e8fe 3e3e 9747 e0bd
00000380: 9caa 89be 50a1 173e e5a1 013e 328b 08be
00000390: 2d32 8b3e 0e4f 81be 935e 5bbe e4d7 78bd
000003a0: 4d65 bdbd 2988 743e c16b 98bd a5b3 4d3e
000003b0: 473f 293e 84e5 56be 6bc2 b53d 9c2d da3e
000003c0: 7b6d cebd a2a9 993d de87 39be 4280 eabc
000003d0: ab30 823e da89 5fbd 9ecf 1cbe aacd 6bbe
000003e0: 49fe 213e aee4 47bd 2819 093d d3dc 83bc
000003f0: 6df8 403e c886 90be d2c7 7cbe 4a6d 86bd
-0.09914317 0.053706586 0.08937827 -0.048715424 0.16369997 0.10924602 -0.09445979 -0.17858109
-0.096870534 0.2742107 -0.20561898 0.2809656 -0.058979485 -0.066290356 -0.13332057 0.03616127
-0.15784971 -0.23631471 -0.27660763 -0.20203549 0.27833554 -0.0023415438 0.07823368 -0.10015562
0.15334475 0.18179971 -0.027030136 0.11238672 -0.13173056 0.12396535 0.12344192 0.21829197
0.21646269 0.18584426 -0.16169828 -0.066817604 0.14937586 -0.12470761 0.22530314 0.2100574
-0.022214655 -0.18513912 -0.16313209 -0.21407625 0.023989907 -0.19495793 -0.23008431 -0.23797107
0.14485793 -0.11324621 0.22442931 0.25280884 0.25718996 -0.121083684 0.1702858 -0.028745243
0.035865273 0.18652889 0.1828004 -0.14304563 -0.13835043 0.18802564 -0.14365852 -0.0915764
0.11362361 0.20438634 0.25197127 -0.05596697 0.16883855 -0.2444553 -0.041759834 -0.28467405
-0.20715371 0.2881867 -0.09623665 -0.12535273 0.14074245 0.10354194 0.1954981 0.2314205
-0.016444178 0.010994814 -0.4855299 0.30920014 0.04994482 0.10781682 -0.38337407 -0.11869674
-0.3074727 -0.24967411 0.119701736 -0.14958239 -0.38541073 0.29623482 0.09077153 -0.11510157
0.18652101 0.2872371 0.20327403 0.10501904 0.45214084 0.13120148 0.4195322 -0.27218482
-0.012592196 0.16800836 -0.27768016 -0.15692984 -0.06342071 0.40473866 0.31864417 0.022743044
0.095825836 -0.2344649 -0.02236844 -0.09708905 0.11467844 0.35963035 0.1040646 -0.19947605
0.22853993 -0.14595172 -0.06311264 0.15089875 -0.038090356 0.20154141 -0.17934208 -0.0070695984
0.14403115 0.18705496 -0.13353738 0.2001934 -0.079994895 -0.043708205 0.15417911 0.27014527
-0.1575499 -0.06987877 0.13515979 -0.26068103 0.14663707 0.28073335 -0.21798004 0.21084061
-0.2574147 -0.054517034 -0.09012149 0.21658418 -0.06258815 0.023616564 -0.10292696 -0.18763596
0.07843748 -0.23693638 0.11803567 -0.118240364 -0.304104 -0.17627873 0.18457742 -0.14816979
0.028897952 0.19210213 -0.14428829 -0.29774958 -0.026507605 -0.07726949 -0.21923117 0.2272534
0.14335763 -0.0785751 0.11664381 -0.025392996 -0.21270227 -0.1213352 0.22012495 0.082591735
0.0678384 0.2833992 -0.107182354 0.2515594 0.1212709 0.17331082 -0.0022471445 -0.29083306
0.06177375 0.041374423 0.096363224 -0.2981918 0.12087054 -0.019878805 -0.14227359 0.017978694
-0.15535872 -0.20257363 0.2192309 -0.0067517194 0.18332058 -0.11412118 0.17679258 -0.06120219
-0.052436788 -0.105970666 0.24334206 0.095956884 -0.09344545 0.3302027 0.18177746 -0.16965307
0.20927577 0.26544657 -0.07144179 -0.36169857 -0.18057458 -0.32724437 -0.07464799 -0.096614696
0.24318299 0.066715434 -0.028625103 -0.19408828 -0.21401693 -0.26951408 0.18651927 -0.10951155
-0.26887977 0.1480763 0.12659414 -0.13334349 0.2718672 -0.25255626 -0.21422796 -0.060752764
-0.09247837 0.23880066 -0.074424274 0.2008806 0.16528045 -0.20985991 0.08874973 0.42612922
-0.100794755 0.07503058 -0.18118235 -0.028625611 0.25427756 -0.054574825 -0.15313575 -0.23027673
0.15819658 -0.04880207 0.033471256 -0.016096508 0.18844767 -0.2822783 -0.246856 -0.06563814

linears.4.bias f4 [40]
00000000: 6af6 21bc 99f7 68bd 0023 4bbd d015 2abd
00000010: eebc 6d3c 16e7 2dbc e469 99ba 146c fabc
00000020: 795d 3f3d 2093 87bd cf2f 5d3c b57a b838
00000030: 45e7 473d 8e9d 883c 3713 5dbd 336c 153d
00000040: 161f f2bb 92f5 00bd 48f4 98bc 4617 b83c
00000050: 7e3b 083c a5ed 08bd 19d4 a5bb 6dc1 db3c
00000060: 7f32 52bc 589c 5fbd 0fc0 823d 0129 31bc
00000070: b8c5 81bd 7f5e a53b af15 9a3c fac7 653c
00000080: 361e 52bd 5168 713d 37db a63c cb1a c1bc
00000090: 35b4 fbbc 65d1 41bd 8005 4abb 2d1b 4dbd
-0.00988541 -0.056876753 -0.049593925 -0.04152471 0.014510376 -0.010614177 -0.0011704531 -0.030569114
0.04672 -0.06619859 0.013500168 8.79666e-05 0.04880454 0.01667669 -0.053973403 0.03648014
-0.0073889596 -0.031484194 -0.01867117 0.022472035 0.008314965 -0.03342976 -0.0050606844 0.026825631
-0.012829422 -0.05459246 0.063842885 -0.010812999 -0.0633654 0.005046665 0.018809168 0.014024729
-0.051298343 0.058937375 0.020368202 -0.023572346 -0.030725578 -0.047318835 -0.0030826032 -0.050074745

linears.5.weight f4 [3, 40]
00000000: 0749 273d 3a7e 27be b87d c53d 8c78 c2bc
00000010: 5768 4e3e aabb e43e fadb 75bd 5846 83be
00000020: 17e1 d33e bfe1 04be 9062 873c 5037 5d3e
00000030: b38e c73e 74b7 b0be ec80 e6be 08e0 fd3d
00000040: 83b8 53bd 1df1 8fbe 403e d43d 508b cc3e
00000050: e780 993d 7088 52be aca2 4c3c 8e48 cf3e
00000060: 2ddf fe3e c9a2 09bd 1531 8b3d 8ae5 9d3c
00000070: 7c05 d6bd 4d52 afbd deb8 613e 3c80 d93c
00000080: 0da2 1e3e 7915 253e b3c3 8c3e 6db1 9e38
00000090: 980c c23e a46f c73d 00ea 08bf 2a5f 3fbe
000000a0: 8627 783e ab01 c73d 229f cd3e df01 8b3e
000000b0: dad3 84bd d09c 213e cb0d 2dbe 4057 983e
000000c0: e5b1 1d3e 46ef bdbc 73ae 67be 9fc3 4fbd
000000d0: 3ab1 303d 755f a43e 0a7d 823e dcc8 1cbd
000000e0: 502a 4c3e fca0 4e3e 0153 1e3e f397 893d
000000f0: 1033 413e 69d6 073d 646f 0fbe 2266 883e
00000100: 1ffe 973e 8f06 863e efc7 97bd 5c51 943e
00000110: 1fa4 143e 0cc5 2abe a6d5 9c3d 4966 6a3e
00000120: 64a8 9f3d d971 7abe c9d2 6d3c a6b6 4a3e
00000130: 97d0 b1bd 0dae 413e 4edb b73e 607d 963e
00000140: f650 8bbe 773a 54be b068 25be 63e9 21be
00000150: 57ac 9a3e cd76 943e b7ea 243e fb52 83bb
00000160: 52bd b33e dccf 8bbe d37e 483b 85fc f0bd
00000170: 64dc 82be 9c1f a63e 397e 753e 6d87 d4bd
00000180: fbcf 253e c144 8cbe 69f0 0b3e 2a6e 92be
00000190: 244a 4fbe 54c8 4e3e 4d7f 223e 0a7f 37bd
000001a0: 6a04 4dbd f41b 7d3e e5b2 243e 3f7e abbe
000001b0: e63d 5dbe aefc b9be 48e9 4abd 7b83 713e
000001c0: dc49 e93d f5a7 a9be 28c8 423e 1d7f 8bbe
000001d0: e262 9f3e b423 c4bc 8d96 603e 82e6 36be
0.04084113 -0.16356745 0.096431196 -0.023739122 0.2015699 0.44674426 -0.06002424 -0.25639606
0.41382667 -0.1297674 0.01652649 0.21603131 0.38976058 -0.34514964 -0.45020235 0.12396246
-0.051689636 -0.28113642 0.10363436 0.39950037 0.07495289 -0.2055986 0.012489956 0.40485042
0.49779645 -0.03360251 0.06796471 0.019274492 -0.10450265 -0.085606195 0.22043177 0.026550405
0.15491505 0.16121472 0.27493057 7.567075e-05 0.37900233 0.09738091 -0.53482056 -0.18688646
0.24233827 0.09717115 0.4016047 0.27149865 -0.0648572 0.15782475 -0.16899793 0.29754066
0.15399893 -0.023185384 -0.22625141 -0.05072367 0.043137766 0.32104078 0.25486022 -0.038277492
0.19938016 0.20178598 0.15461351 0.06718435 0.18867135 0.03316346 -0.14007336 0.2664042
0.29686067 0.2617688 -0.07411181 0.28968322 0.14515732 -0.1667673 0.07657938 0.22890581
0.0779579 -0.24457492 0.014515587 0.19796237 -0.086823635 0.18914051 0.35909504 0.2939253
-0.27210206 -0.20725428 -0.16153216 -0.15811686 0.3020961 0.28996888 0.16105162 -0.004007695
0.35105377 -0.27307022 0.0030593171 -0.11766914 -0.2555877 0.3244599 0.23973931 -0.10377393
0.1619262 -0.27396205 0.13665928 -0.28599674 -0.20243126 0.20193607 0.15868874 -0.04479889
-0.050053038 0.24717695 0.16083868 -0.33494756 -0.21605644 -0.36325592 -0.04953888 0.23585312
0.11391041 -0.33135954 0.19021666 -0.27245417 0.3113013 -0.023942806 0.2193243 -0.17861369

linears.5.bias f4 [3]
00000000: 0780 1d3d 3ba3 4bbd 0000 0000
0.038452175 -0.049716216 0.0

exp_avg f4 [40, 2]
00000000: fe6b cb3b ef8b 823b 34e8 ac3a 31e1 893a
00000010: a0b8 603b abad 2d3b e7d1 883c 8df1 5f3c
00000020: c434 01bb 40c3 38bb 7dfe 273c 2bae d43b
00000030: 2d8e 2c3c 83fd 143c da4e a53b 045a 5e3b
00000040: b176 1bbc e6da eabb 0d5a febc ec4f bebc
00000050: f9b8 d83a 6a43 663a a87d daba 112f 16b8
00000060: f68d 1d3c ce06 e83b e2a5 2a3b 2ad8 0c3b
00000070: ba40 023c a003 bb3b cc46 103b 2ca4 8e3a
00000080: e1e4 2cbc 6d8e 15bc 1977 febb 82ee b0bb
00000090: 60b2 0ebc e8b2 eabb 03d7 98bb cad8 84bb
000000a0: 7d84 a53c 8ede 753c e4ba a8bc ce2d 65bc
000000b0: 95a1 a2bb ea99 1abb 3fa9 1c39 988c e039
000000c0: 2c92 bf3b 5122 a13b d199 4abb 486c 8abb
000000d0: 3cb0 33bb 22c0 28ba 3236 cc3a b4d7 a13a
000000e0: 57e4 033c ff60 b73b 6aef d53a cf7f 8e38
000000f0: 6ed2 b0bb 8fa9 7fbb f530 5f3c d4a8 313c
00000100: 9802 c13a 2848 3239 ab8c b7bb 0ac2 cabb
00000110: b37c 5b3b d509 0f3b 86d4 983a ddf8 bb38
00000120: 1d45 a6ba 119b e1ba 518c afbb 9532 8abb
00000130: 76ae 643b d09f 7f3b 52d3 27bb a6c0 daba
0.006207942 0.0039839665 0.001319176 0.0010519383 0.0034289733 0.002650122 0.016701652 0.01366843
-0.0019715289 -0.002819255 0.010253546 0.006490489 0.010531944 0.009093645 0.0050448 0.0033928165
-0.009488747 -0.007167208 -0.031048799 -0.02323147 0.0016534618 0.0008783849 -0.0016669529 -3.580662e-05
0.009616366 0.0070808893 0.0026038815 0.0021491149 0.007950002 0.0057072192 0.0022014854 0.0010882667
-0.010552616 -0.009128195 -0.0077656624 -0.005399526 -0.00870952 -0.0071624406 -0.0046643033 -0.0040541636
0.020204777 0.015006674 -0.020596929 -0.0139879715 -0.0049631097 -0.0023590275 0.00014940368 0.0004282936
0.0058462825 0.004917421 -0.0030914436 -0.004224334 -0.0027418276 -0.00064373214 0.0015580116 0.001234761
0.008050046 0.0055962796 0.0016321961 6.794894e-05 -0.005396179 -0.0039010977 0.013622512 0.010843474
0.0014725504 0.00017002283 -0.0056014857 -0.006187682 0.0033491075 0.0021825929 0.0011660017 8.963209e-05
-0.0012685392 -0.0017212351 -0.005357303 -0.0042174556 0.0034894026 0.0039005168 -0.0025608134 -0.0016689494

exp_avg_sq f4 [40, 2]
00000000: 9493 863c 8f1a 613c 2d43 de39 471c c139
00000010: d8cb 403b 2cc1 203b 2a35 a33d dffd 943d
00000020: f9dd 7e39 f210 0a3a 9f45 2d3d c938 0a3d
00000030: eebf f93c 0342 ec3c 2ce1 3f3c 43c8 253c
00000040: bfba db3c ccb9 bd3c 62ff 923e 6268 7b3e
00000050: 1f32 c53a d008 933a a386 233b 635f d03a
00000060: ec62 043d f2de e83c 751d bc3a 0808 bc3a
00000070: 9a80 ac3c efe6 933c 2f7f ad3a c382 6d3a
00000080: cc05 f03c 86ef e03c 1176 a43c d5e3 873c
00000090: a4e8 a73c 8b50 993c e6fb d03b 843d d23b
000000a0: 9491 093e 611b ed3d 7694 293e 047e 0b3e
000000b0: 871b 573c c52a 223c bd5f a537 e6b1 be37
000000c0: 3691 093c 3b27 033c d726 5e3a 7db1 e83a
000000d0: ad3f aa3b bc25 643b 04a9 383a 63e2 253a
000000e0: 9e82 c73c 0f61 a93c 4838 1b3b ae08 cf3a
000000f0: 8e48 083c fb8c e13b 50c3 603d 76e0 483d
00000100: 8933 033b 95e5 b63a 25ab 633b dad4 983b
00000110: 9003 923b 934b 6e3b 5720 ea3a d563 ab3a
00000120: 228d 8b39 edee e839 5330 fd3b ab52 da3b
00000130: 00db ce3a 9b22 0d3b a594 473b b83d 343b
0.016427793 0.013739242 0.0004239319 0.00036832897 0.0029418375 0.0024529202 0.079691246 0.072749846
0.00024306019 0.0005266807 0.042302724 0.03374556 0.030487027 0.02884007 0.0117114 0.010118547
0.026822446 0.023159884 0.28710467 0.24551538 0.0015044844 0.0011217836 0.0024952076 0.0015897568
0.0323209 0.028426621 0.0014352041 0.0014345655 0.021057416 0.018054454 0.0013236756 0.00090603175
0.02929964 0.027457964 0.02007583 0.016588131 0.020496674 0.018715164 0.006377685 0.0064160246
0.1343444 0.11577488 0.1656054 0.1362229 0.013129122 0.009897892 1.9714114e-05 2.2732605e-05
0.008396437 0.008004959 0.00084744155 0.0017753091 0.005195579 0.003481253 0.0007044228 0.0006327985
0.024354275 0.020676164 0.002368467 0.0015795433 0.00831808 0.0068832613 0.054873765 0.049042188
0.002001973 0.0013953919 0.0034739461 0.0046640458 0.004455991 0.0036360964 0.0017862421 0.0013076017
0.00026617298 0.00044428502 0.007726708 0.006662687 0.001578182 0.002153552 0.003045359 0.0027502608

exp_avg f4 [40]
00000000: 3f80 8f3b b8ad 8f3a bb16 303b 6d1c 6a3c
00000010: abde 2fbb 7899 ea3b a2b1 193c 6e08 743b
00000020: 6936 f9bb e171 cabc 4364 853a b79f 88b9
00000030: 44c6 f73b 8df5 153b 915a c83b 0ff4 a53a
00000040: f24c 1bbc 8c28 c0bb 577d f4bb e6d4 86bb
00000050: 8a12 833c 6183 79bc 0094 3abb 3377 ca39
00000060: 1792 a63b c53e 84bb b14e 8bba 3a2f ae3a
00000070: 8dce c63b 28cd a639 8a76 8abb 0c9f 3a3c
00000080: 29ec c339 3cf4 c5bb 1cad 1a3b 6134 a739
00000090: 8522 ddba 5a73 90bb 2b3b 793b 5849 ebba
0.004379302 0.0010961806 0.0026869017 0.014289004 -0.0026835601 0.007159408 0.00938073 0.003723647
-0.007605363 -0.024712505 0.0010176975 -0.00026058938 0.007561477 0.0022881955 0.006114312 0.0012661236
-0.009478794 -0.0058642086 -0.0074612307 -0.004114735 0.016000051 -0.015229077 -0.0028469563 0.00038617253
0.0050833332 -0.004035803 -0.001062831 0.0013289221 0.0060671032 0.0003181484 -0.0042255567 0.011390459
0.0003736925 -0.006041078 0.0023601716 0.00031891747 -0.001687125 -0.004408282 0.0038029652 -0.0017950935

exp_avg_sq f4 [40]
00000000: 9ccc 7c3c d2c2 d339 628c 293b fac2 9e3d
00000010: 6b65 c939 11ff 1d3d 1b2e f83c ead4 3b3c
00000020: 5c91 d03c 5f13 8a3e e387 b13a 46be 033b
00000030: 19ab ff3c 4d25 c43a 6672 a23c c98e 883a
00000040: 9ff1 ec3c 2042 983c ea34 a23c f630 d33b
00000050: 524a 023e 0df4 1d3e 3af0 3f3c 06ec bc37
00000060: 656c 083c 450d af3a ee7f 903b 6f33 383a
00000070: f75c bc3c e4b7 013b b627 fb3b 0c13 583d
00000080: d1d9 e33a 9636 833b 3b95 843b 8825 d73a
00000090: a52c c839 66e9 e93b c101 f03a f2cb 433b
0.015429642 0.0004039021 0.0025871028 0.077520326 0.0003841327 0.03857333 0.030295422 0.011464337
0.025459938 0.26967904 0.0013544526 0.0020102425 0.031209515 0.001496473 0.01982994 0.001041853
0.028923808 0.018586218 0.019800622 0.0064450456 0.12723663 0.15425129 0.011714989 2.2521253e-05
0.0083266245 0.0013355395 0.0044097817 0.0007026707 0.022993548 0.0019793445 0.007664646 0.05275254
0.001738364 0.00400431 0.00404611 0.0016414383 0.00038180235 0.007138419 0.001831107 0.00298762

exp_avg f4 [40, 40]
00000000: fdbc 0b3b d847 533b 367d 443b d7d1 81ba
00000010: a3d6 213a 465d 953a ee8e abb9 d5b7 82ba
00000020: b15b 9eba c3bb e038 ef0a 59bb 8863 51ba
00000030: 7a95 01bb 0dbb 37bb 172d 413b 2b4f 133b
00000040: 9e6c d739 510c 25ba 9518 94ba e8e2 be3a
00000050: 0a3b fb39 60b8 3eba 32a4 c1ba f1e6 0bbb
00000060: 5af5 01bb a868 413a df8f 89ba bbab 36bb
00000070: 9f38 74bb b279 b63a 3c89 bdba 7b15 b5b8
00000080: 1d1f 1eba b8c7 373a ee2a 343b 10c5 a5ba
00000090: 1f48 733a 4490 b0ba c2b3 81ba ee6e 73bb
000000a0: 2269 bc39 da6a 413a 0e0e c439 0220 1538
000000b0: f361 b7b9 92a3 2739 52ed 8337 dcb0 47b9
000000c0: 3dce b1b9 6876 53b8 c0c4 3cba a16d 6cb8
000000d0: 0684 8ab9 33ad 9ab9 2b24 153a 4bee 123a
000000e0: 179f 3eb9 dd4d 40b9 4ce1 8ab9 6422 bf38
000000f0: 3758 2f39 06c1 97b8 c265 7eb8 ff26 82b9
00000100: adf1 15b9 adb6 27b9 2b60 d7b8 8b26 bfb9
00000110: a8de 5fba e0e6 0939 ad54 b5b9 3d68 4139
00000120: f7fe 8bb9 1af4 78b9 60ec a539 cbb8 a2b9
00000130: 62a6 42b8 b005 bdb9 ece6 8c38 5769 2dba
00000140: 9917 8e3a 80d7 ce3a b599 cd3a 241a 15ba
00000150: bd8e ec39 92ff 193a be49 46b9 f57d 03ba
00000160: 9a4f 15ba edcf a338 9370 d6ba 8666 e1b9
00000170: 66f1 86ba 887d c2ba 3099 c13a 7155 8e3a
00000180: 8e2d 9739 2488 9ab9 5356 10ba 5f07 4f3a
00000190: 6f37 6039 a5fe c8b9 8841 54ba 30d4 92ba
000001a0: c12d 8cba 887a f239 1ed0 11ba 8a71 beba
000001b0: d0cd efba 07f1 413a 9006 38ba 68fb e1b8
000001c0: dc8b 86b9 4b84 f439 8088 bd3a 90fa 20ba
000001d0: 4125 0c3a 7667 28ba 7feb 16ba 189b f6ba
000001e0: eafd 82b8 56b3 c4b8 7db7 c3b8 9463 1838
000001f0: 4e3b aeb7 504e fdb7 2b82 4537 d775 0838
00000200: 1e65 fd37 0d1e 0eb7 fec5 d538 8fbc c337
00000210: 3539 8738 b9a5 ba38 3eb8 b6b8 9a12 89b8
00000220: 30ec 94b7 367d 8237 e708 0538 6cd6 45b8
00000230: c835 03b7 f833 9537 6916 3e38 a8cd 8438
00000240: 7497 8538 990c c6b7 ff57 0138 095a b738
00000250: ae56 fa38 a15d 2fb8 5504 2638 6ddb 0c37
00000260: 583e a137 3238 d1b7 eed8 b2b8 33e7 2538
00000270: 4120 f4b7 ba10 1d38 fdf7 0438 a952 ed38
00000280: 0c7f 1bb9 d3fa 9db9 2eca 22b9 2d64 72b7
00000290: e9f6 1239 50b9 8cb8 4fcd d4b6 326a a238
000002a0: e242 1239 b305 b437 73fc 9939 f065 cb37
000002b0: 7f03 e338 759e 0039 bfbe 74b9 3718 70b9
000002c0: 12b6 9a38 037c 9e38 7e37 e438 7b51 20b8
000002d0: 02f0 91b8 d447 0338 6184 e137 885a d938
000002e0: a271 7b38 71ff 8438 be9c 3538 c1fe 1d39
000002f0: b20f b639 7b24 68b8 1402 1539 2b43 9eb8
00000300: dd55 e238 e49a c738 d933 0ab9 4667 0439
00000310: ad43 9237 a1d6 1a39 58d8 d8b7 ff57 8e39
00000320: 7819 6139 3eb8 b639 cc4c 8d39 a986 37b8
00000330: fa94 92b7 100f f638 aaba 7ab7 8ac5 c4b8
00000340: 1e6a 21b9 266b 7db7 2c9a b3b9 80e6 8db8
00000350: 1d15 30b9 19c1 75b9 9f55 a039 a16a 8339
00000360: b471 76b7 1888 adb8 5b4b 06b9 b962 e138
00000370: 6f11 a438 1e01 9bb8 56cf ebb8 3ec3 4cb9
00000380: c87c 1eb9 390a bb37 0c31 c3b8 8a98 82b9
00000390: 8862 c7b9 c9dc fc38 49ef 2eb9 df2f 2338
000003a0: a0c1 abb8 682e ec35 aeca 7e39 7ddd 0cb9
000003b0: 912d 6338 e23b 27b9 9ce2 5eb8 43e1 c3b9
000003c0: ed6e 34b9 1388 83b9 9410 79b9 cd36 9138
000003d0: 4248 60b8 a624 ccb8 dfbc c537 6321 9b38
000003e0: b8c4 d438 0cac 39b5 0bf8 8439 ead0 8938
000003f0: 48ed 1b39 8851 6439 960d 76b9 264d 37b9
0.0021322363 0.0032238867 0.0029981858 -0.0009904456 0.0006173646 0.0011395596 -0.00032722153 -0.0009972999
-0.001208177 0.00010716126 -0.003311809 -0.00079875486 -0.0019772933 -0.0028035075 0.0029476339 0.0022477608
0.00041088922 -0.0006296086 -0.001129883 0.0014563473 0.00047918438 -0.0007275399 -0.0014773665 -0.0021347369
-0.0019830079 0.0007377961 -0.0010495147 -0.0027873355 -0.0037265194 0.0013921766 -0.0014460455 -8.6347536e-05
-0.0006031858 0.00070106564 0.0027491408 -0.001264723 0.0009280461 -0.0013470729 -0.0009895491 -0.0037144977
0.00035936484 0.0007378288 0.00037394505 3.5554178e-05 -0.00034977458 0.00015987296 1.5726928e-05 -0.00019044004
-0.0003391373 -5.0416595e-05 -0.0007200949 -5.6368885e-05 -0.00026419776 -0.00029502212 0.00056892884 0.00056049664
-0.00018179078 -0.00018339553 -0.0002648927 9.1139955e-05 0.00016722163 -7.2361945e-05 -6.065309e-05 -0.00024824587
-0.00014299779 -0.00015994413 -0.000102699116 -0.00036459076 -0.0008539953 0.00013151346 -0.000345861 0.00018444746
-0.0002670211 -0.00023742058 0.00031647366 -0.0003103673 -4.640816e-05 -0.00036053127 6.718733e-05 -0.0006615123
0.0010840773 0.0015780777 0.0015686067 -0.0005687794 0.00045119776 0.000587457 -0.00018910223 -0.00050160225
-0.00056957605 7.811175e-05 -0.0016360454 -0.0004299173 -0.0010295331 -0.0014838437 0.0014770385 0.0010859204
0.00028834905 -0.00029474602 -0.00055060274 0.0007897522 0.00021382955 -0.00038336698 -0.0008096923 -0.0011202153
-0.0010694788 0.0004624913 -0.0005562323 -0.0014529687 -0.001829559 0.00073982816 -0.0007020021 -0.00010775664
-0.00025662675 0.00046637873 0.0014460236 -0.00061408523 0.00053461274 -0.0006424108 -0.00057571376 -0.0018814532
-6.246178e-05 -9.379412e-05 -9.332502e-05 3.6332363e-05 -2.0770032e-05 -3.0196417e-05 1.1772422e-05 3.2534674e-05
3.0207037e-05 -8.470856e-06 0.000101935104 2.3333616e-05 6.447957e-05 8.9000394e-05 -8.712754e-05 -6.536134e-05
-1.7752958e-05 1.5555514e-05 3.1717962e-05 -4.7168156e-05 -7.82073e-06 1.7786384e-05 4.53204e-05 6.332557e-05
6.3701445e-05 -2.3609306e-05 3.083795e-05 8.74289e-05 0.00011937074 -4.181045e-05 3.958152e-05 8.395739e-06
1.9221727e-05 -2.494091e-05 -8.528108e-05 3.9554387e-05 -2.9102086e-05 3.7447295e-05 3.170221e-05 0.00011316437
-0.0001482928 -0.00030132252 -0.00015524842 -1.4447648e-05 0.00014015626 -6.710237e-05 -6.3419934e-06 7.7445424e-05
0.00013948561 2.1460326e-05 0.00029370523 2.4246954e-05 0.00010824855 0.00012266061 -0.00023340712 -0.00022897204
7.3772055e-05 7.557126e-05 0.000108822234 -3.8222857e-05 -6.958844e-05 3.129973e-05 2.6883734e-05 0.00010364229
5.9948892e-05 6.34183e-05 4.329974e-05 0.0001506759 0.0003472544 -5.5347085e-05 0.00014210521 -7.546538e-05
0.00010792513 9.51791e-05 -0.0001318002 0.00012626973 1.743607e-05 0.0001476654 -2.584995e-05 0.00027149913
0.0002146716 0.00034851016 0.00026950834 -4.3756012e-05 -1.7473929e-05 0.00011733 -1.4944622e-05 -9.382803e-05
-0.00015393688 -1.5104923e-05 -0.00034256408 -6.766338e-05 -0.00016792533 -0.00023436955 0.0003058137 0.00025065712
-1.4689216e-05 -8.274632e-05 -0.00012807308 0.000107472246 7.823377e-05 -7.391184e-05 -0.000112442925 -0.0001952769
-0.00015114539 2.2296897e-05 -9.30746e-05 -0.00024909183 -0.0003802965 0.00012057421 -0.00016683074 3.8906812e-05
-8.189981e-05 1.7596876e-06 0.00024298832 -0.00013433951 5.4163454e-05 -0.00015948669 -5.313997e-05 -0.0003736113
-0.00017207461 -0.0002508765 -0.00023752666 6.924346e-05 -5.3473057e-05 -9.734304e-05 2.357218e-05 7.397195e-05
0.000101455895 -6.916823e-07 0.00025361808 6.571582e-05 0.00014870346 0.00021774147 -0.0002346545 -0.0001748098
