Lid_Driven_Re100/saved_models/GA-5000.pt (torch, 94805 bytes, 36 tensors)

linears.0.weight f4 [40, 2]
0	0xbe6c00ba	-0.23047152
1	0xbe3b875b	-0.18313353
2	0xbde5d01f	-0.112213366
3	0xbee04878	-0.4380529
4	0xbed45160	-0.41468334
5	0x3c340c4e	0.010989262
6	0x3e8ebb43	0.27877244
7	0xbeba4688	-0.36381936
8	0xbe8f3e7e	-0.27977365
9	0x3e7d2385	0.24720581
10	0xbe12fd49	-0.14354433
11	0xbe2ec489	-0.1706716
12	0x3db81f2f	0.08990323
13	0xbdc011b1	-0.09378374
14	0x3dd4ed66	0.10396843
15	0x3bb97f34	0.0056609157
16	0xbc7652c2	-0.015034379
17	0x3eb891c1	0.360487
18	0xbd0a8ab4	-0.033823684
19	0x3e660018	0.22460973
20	0x3e15374c	0.14571875
21	0x3e86d375	0.26333204
22	0x3e038d10	0.1284678
23	0x3cb8bc26	0.022550654
24	0x3e6098aa	0.21933237
25	0xbe013630	-0.12618327
26	0x3ecc9c60	0.39963055
27	0xbdd4c67f	-0.103894226
28	0xbe857bb9	-0.26070955
29	0xbe9cdb80	-0.30636215
30	0x3d8434b1	0.064553626
31	0xbeb1ad9f	-0.34702775
32	0xbe8b754c	-0.27237928
33	0x3eb7bf0a	0.3588794
34	0x3cc34d0e	0.023840453
35	0x3e48946b	0.19587867
36	0x3d94e967	0.072710805
37	0x3e3fdb2f	0.18735956
38	0xbe95571d	-0.29168025
39	0x3e1f5cdd	0.15562768
40	0x3bdcd291	0.0067389687
41	0xbe9afd0a	-0.30271178
42	0x3e1335ed	0.1437604
43	0x3df81770	0.12113845
44	0x3ea2b04e	0.31775135
45	0xbdbc65bf	-0.09199094
46	0x3e204ef2	0.15655115
47	0x3e2006cf	0.15627597
48	0x3ec2250d	0.37918893
49	0xbe2b473a	-0.1672639
50	0xbeaa0542	-0.33207136
51	0x3e43ec9b	0.19133227
52	0x3e0d7242	0.13813117
53	0x3bf2d1af	0.00741025
54	0x3ec23685	0.3793222
55	0x3c5829d3	0.013193565
56	0x3d1bec64	0.038067237
57	0x3e463fc6	0.19360265
58	0xbe80add7	-0.2513263
59	0xbc0013ed	-0.007817251
60	0x3daa791c	0.08323881
61	0x3e952497	0.29129478
62	0x3e326071	0.17419602
63	0xbeae6454	-0.3406092
64	0xbd874772	-0.06605424
65	0x3e1aeaef	0.15128683
66	0xbeab5310	-0.3346181
67	0x3ea99d2d	0.33127728
68	0xbecd3933	-0.40082702
69	0x3d03613d	0.032075156
70	0x3dc714bb	0.09720751
71	0x3de01de6	0.10943203
72	0xbe86b7d1	-0.26312116
73	0x3da1b007	0.07894903
74	0x3ca399f0	0.019970864
75	0x3e8ebec7	0.27879927
76	0x3ea9e33c	0.3318118
77	0xbe22015f	-0.15820836
78	0x3ea6062e	0.3242659
79	0x3e8fd3ef	0.2809138

linears.0.bias f4 [40]
0	0x3d8426b1	0.06452692
1	0xbb2edfd5	-0.0026683707
2	0x3b28e571	0.0025771523
3	0x3e379ba7	0.1793047
4	0xbb847ccf	-0.0040431987
5	0x3e3c4d52	0.1838887
6	0x3cc38b1f	0.023870049
7	0x3d340dc2	0.043958433
8	0xbe197646	-0.14986524
9	0xbe4147c7	-0.18875037
10	0x3d9493ea	0.07254775
11	0xbc2ebedd	-0.010665623
12	0x3e208e35	0.15679248
13	0x3e0e2b35	0.1388367
14	0x3d957d45	0.07299284
15	0xbd0f8dee	-0.035047464
16	0xbd9c1409	-0.07621009
17	0xbcb16cc9	-0.021658318
18	0xbd4b564d	-0.04964285
19	0xbd9dbce8	-0.07702047
20	0x3e5ca7c4	0.21548373
21	0xbe4bf15c	-0.1991629
22	0xbd494367	-0.049136546
23	0x3d8ccbd4	0.06874815
24	0x3dc1f159	0.094698615
25	0xbc7593f3	-0.014988887
26	0xbd064c69	-0.032787714
27	0x3dc6012e	0.09668194
28	0x3e98f78a	0.29876357
29	0x3c8675ec	0.016413651
30	0xbd8f0292	-0.06982912
31	0x3dd3f7c4	0.10349992
32	0x3da13b50	0.07872641
33	0xba8fea37	-0.0010979836
34	0x3b762ab9	0.0037562086
35	0x3d9c8f28	0.076444924
36	0xbd0db2b8	-0.034594268
37	0xbd0eaae5	-0.034830946
38	0x3d55617c	0.05209492
39	0xbcf7b90b	-0.030239603

linears.1.weight f4 [40, 40]
0	0xbe8e0711	-0.27739766
1	0xbe8ef6fc	-0.2792281
2	0x3d0d4ee2	0.034499057
3	0xbe054be9	-0.13017239
4	0xbdd24ad2	-0.10268177
5	0xbeb51e6d	-0.35374776
6	0xbe740727	-0.23830853
7	0xbe8f09cb	-0.2793716
8	0x3e457084	0.19281203
9	0x3e2400c2	0.16015914
10	0xbe111521	-0.14168216
11	0x3e49b489	0.19697775
12	0xbea25f42	-0.317133
13	0x3e295f02	0.16540149
14	0xbe8d298c	-0.2757076
15	0xbb4df90f	-0.0031428968
16	0x3cb378f8	0.021908268
17	0xbc982364	-0.018571563
18	0x3e19cfdd	0.150207
19	0x3e507d3d	0.20360275
20	0xbe852370	-0.260036
21	0x3ec1bd5f	0.3783979
22	0x3e8ec536	0.27884835
23	0xbe13daf2	-0.1443899
24	0xbe7487d8	-0.23879945
25	0x3e8f93f6	0.28042573
26	0x3cd6a747	0.02620281
27	0xbe112b70	-0.14176726
28	0xbe8a7c39	-0.270479
29	0xbd7f0af5	-0.06226631
30	0xbe684263	-0.22681575
31	0xbd855fdd	-0.06512425
32	0x3e37e93c	0.17960066
33	0xbe67e86c	-0.22647256
34	0xbd76e963	-0.06028117
35	0xbe445116	-0.19171557
36	0x3d6171a7	0.055040028
37	0xbdf9f2a9	-0.12204487
38	0xbe803598	-0.2504089
39	0x3d00f627	0.03148475
40	0xbd497a1b	-0.049188714
41	0xbcb957bd	-0.022624845
42	0xbda16a80	-0.078816414
43	0x3e396a82	0.18107036
44	0x3b911d90	0.004428573
45	0xbd9cae76	-0.07650463
46	0xbe6df0a3	-0.23236327
47	0xbe98e641	-0.2986317
48	0xbe71291d	-0.2355084
49	0xbd702740	-0.05863118
50	0x3d93d300	0.072179794
51	0xbe931f27	-0.28734705
52	0xbe6acc16	-0.22929415
53	0x3d838815	0.0642244
54	0xbdb2b2d9	-0.08725519
55	0x3e5bc034	0.21460038
56	0xbe13da25	-0.14438684
57	0xbe3235c5	-0.17403324
58	0x3d9a9958	0.07548779
59	0x3eaa0c3d	0.33212462
60	0xbe14acbe	-0.14519021
61	0x3e6640a6	0.22485599
62	0xbc888909	-0.016666906
63	0xbddbfcf7	-0.107416086
64	0x3dda2376	0.10651295
65	0x3e37169c	0.17879719
66	0xbe9c379e	-0.30511183
67	0xbe8bac69	-0.27279976
68	0x3dd5277d	0.104079224
69	0x3b779f73	0.0037784248
70	0x3e6f4a62	0.23368219
71	0xbe241e0d	-0.16027088
72	0x3e02469d	0.1272225
73	0x3dcf49d8	0.101215065
74	0x3d43994b	0.047753613
75	0xbd41efa1	-0.04734767
76	0xbd1269ac	-0.035745308
77	0x3e1cbd6a	0.1530663
78	0xbdd67967	-0.104723744
79	0x3e3f592f	0.18686365
80	0xbc723a89	-0.014784464
81	0xbc49fc09	-0.012328156
82	0xbe5bd248	-0.21466935
83	0xbe9c3114	-0.30506194
84	0x3df72652	0.12067856
85	0xbdb1d7a1	-0.08683706
86	0x3d61374a	0.05498437
87	0x3dc96365	0.09833411
88	0x3c670792	0.014100926
89	0x3f1291ae	0.5725354
90	0xbe2507e8	-0.16116297
91	0xbdeeddfb	-0.11663433
92	0x3e1c9681	0.15291788
93	0x3d8a585b	0.06755134
94	0x3dec60a8	0.11541873
95	0x3cd061d9	0.025437282
96	0xbe0a83f3	-0.13526897
97	0x3d74394f	0.059624966
98	0x3e9c4430	0.30520773
99	0x3de3015d	0.110842444
100	0x3d3b8f56	0.045790993
101	0x3eaedf17	0.3415458
102	0x3e31e925	0.17374094
103	0xbe4c90c4	-0.19977099
104	0x3e2acd6a	0.16679922
105	0x3d6ad67f	0.057333466
106	0xbd080a4c	-0.033212945
107	0xbc607d08	-0.013701685
108	0x3e4fafd5	0.20281918
109	0x3bb213e8	0.005434502
110	0x3e8609cb	0.26179346
111	0xbe18eeb3	-0.14934807
112	0xbe608ccd	-0.21928711
113	0x3e22e40f	0.1590731
114	0xbe4f91ba	-0.20270434
115	0xbe2c3e5d	-0.16820665
116	0xbe4f0bbe	-0.20219323
117	0x3cacfdc8	0.021117106
118	0xbdad1aa6	-0.084523484
119	0x3d2ecb2a	0.04267422
120	0x3d06e246	0.032930635
121	0xbd85b129	-0.06527931
122	0x3e987c92	0.2978254
123	0xbdd4b159	-0.10385389
124	0xbe501b9b	-0.2032303
125	0xbe661784	-0.22469908
126	0xbeadf0b4	-0.33972704
127	0xbdbdcbba	-0.092673734
128	0x3d74f39d	0.05980264
129	0xbd65f002	-0.056137092
130	0xbdddd478	-0.10831541
131	0x3db11ce3	0.08648088
132	0xbe454c8e	-0.19267485
133	0x3dc5e0e4	0.09662035
134	0x3e5391b0	0.20661044
135	0x3e05168d	0.12996884
136	0x3e1588f7	0.14603029
137	0xbe8659e5	-0.2624046
138	0x3ddaa962	0.106768385
139	0x3e01639e	0.12635657
140	0xbe0428e9	-0.12906231
141	0x3e5d73bb	0.21626179
142	0x3d3c04f6	0.04590317
143	0x3cca0931	0.024662586
144	0xbecaf758	-0.39641833
145	0x3eb8423f	0.35988042
146	0xbdfb371a	-0.12266369
147	0xbde777f5	-0.11302177
148	0xba7b36b9	-0.00095830444
149	0x3ea1e116	0.3161704
150	0xbbfc91f4	-0.0077078287
151	0xbdfa5afb	-0.122243844
152	0xbe775a81	-0.24155618
153	0xbe4395f8	-0.19100177
154	0x3e04e3f9	0.1297759
155	0xbe80a4e0	-0.2512579
156	0x3eb79e91	0.35863164
157	0x3c9a56fb	0.018840304
158	0xbd9cdbf8	-0.07659143
159	0x3e74cd6f	0.23906492
160	0xbe3221a7	-0.1739565
161	0xbe03b386	-0.12861452
162	0x3e6d0342	0.23145774
163	0x3e147227	0.1449667
164	0xbe4903de	-0.19630381
165	0x3e23f813	0.16012602
166	0xbde4f66c	-0.11179814
167	0x3c4ce0a3	0.012504729
168	0xbd69170f	-0.056906756
169	0xbe1bd3a0	-0.15217447
170	0xbd98c594	-0.0745956
171	0x3e02fe66	0.12792358
172	0x3e80c674	0.25151408
173	0x3d662f3d	0.056197394
174	0xbd325810	-0.043541014
175	0xbe56f6ec	-0.2099263
176	0xbdacfd5f	-0.08446764
177	0x3e2bea78	0.16788661
178	0xbd6e1e0c	-0.058134124
179	0x3e154182	0.1457577
180	0x3e872b56	0.2640025
181	0xbde4397c	-0.11143777
182	0x3e3e27fa	0.18569937
183	0x3c185f07	0.0093
184	0x3e5f82fa	0.21827307
185	0xbd902c3c	-0.07039687
186	0x3d21e6a9	0.039526615
187	0xbd4e6d64	-0.05039729
188	0xbe780309	-0.24219908
189	0x3d95292b	0.07283243
190	0xbd446d62	-0.047955878
191	0x3e2b00d5	0.16699536
192	0xbbacbd55	-0.0052715936
193	0x3e32c020	0.17456102
194	0xbe462151	-0.19348647
195	0x3e10fd38	0.14159095
196	0xbda458b4	-0.08024731
197	0xbc9cf6d8	-0.019160673
198	0x3e665711	0.2249415
199	0x3e0b77a7	0.13619862
200	0xbdc1a745	-0.09455732
201	0xbdcbdcdd	-0.09954236
202	0xbe9199fc	-0.28437793
203	0x3e64e617	0.22353397
204	0xbca4e788	-0.020129934
205	0x3e22b075	0.15887626
206	0xbe2a1e17	-0.16613041
207	0xbe6e881b	-0.23294108
208	0xbd6dc0f5	-0.058045346
209	0x3e2033d0	0.15644765
210	0x3de7d7ee	0.11320482
211	0x3e6e9322	0.23298314
212	0xbe40bbb8	-0.18821609
213	0xbe636462	-0.22206262
214	0xbca58f84	-0.020210035
215	0x3cab77c4	0.020931132
216	0x3df854ad	0.121255256
217	0xbd726661	-0.059179667
218	0x3de9b5a2	0.11411597
219	0x3d1351f7	0.03596684
220	0xbd8701bc	-0.06592128
221	0x3db4086a	0.08790667
222	0xbe348057	-0.17627083
223	0x3e0d66e7	0.13808785
224	0x3d41a94e	0.047280602
225	0xbd57a523	-0.05264772
226	0x3d50ce9d	0.05097829
227	0xbe4861c3	-0.19568543
228	0x3e50e312	0.2039912
229	0x3e44f3a9	0.19233574
230	0xbe036b17	-0.1283382
231	0xbdda3b6b	-0.10655864
232	0xbddffe21	-0.10937143
233	0x3e84ef3d	0.25963774
234	0x3d241542	0.040059336
235	0x3de67549	0.11252839
236	0xbe852644	-0.26005757
237	0x3d7b9077	0.06141707
238	0x3e4d8266	0.20069274
239	0xbe552577	-0.20815073
240	0xbd535400	-0.05159378
241	0x3dc337c9	0.095321245
242	0x3ea2407d	0.31689826
243	0xbe8ceead	-0.27525845
244	0x3e7fb55a	0.24971524
245	0x3d456213	0.048189234
246	0x3e35fa93	0.17771368
247	0xbe3a9ec6	-0.1822463
248	0x3e137fba	0.14404193
249	0x3e37d47e	0.17952153
250	0x3e37b502	0.17940143
251	0x3b71fe39	0.003692521
252	0xbe0a50d3	-0.13507394
253	0xbea2de19	-0.31810072
254	0x3e2fd485	0.17170914
255	0x3e44048c	0.1914236

linears.1.bias f4 [40]
0	0xbdfd47c9	-0.123672076
1	0xbcf1598f	-0.02946165
2	0xbd86744f	-0.06565153
3	0xbcd2b588	-0.025721326
4	0x3d0b760f	0.034048136
5	0xbc185e3e	-0.009299813
6	0xbce2644b	-0.027635714
7	0xbd852f94	-0.065032154
8	0xbd8d850f	-0.069101445
9	0x3e09e656	0.13466772
10	0x3e365a1b	0.1780781
11	0x3e16d744	0.14730555
12	0xbc925ce0	-0.017866552
13	0x3d287faa	0.041137375
14	0xbbd21182	-0.0064107785
15	0xbd1830dc	-0.03715597
16	0xbd12e6c6	-0.035864614
17	0xbd83734a	-0.06418474
18	0x3d39af98	0.045333475
19	0xbd2b3eae	-0.041807823
20	0xbac998e9	-0.0015380654
21	0x3c9003ce	0.01757994
22	0xbd56c91d	-0.05243789
23	0x3dcfe923	0.10151889
24	0xbd168844	-0.036751047
25	0x3be8aa14	0.007100353
26	0xbd7204f8	-0.05908677
27	0x3d46768c	0.0484529
28	0x3ddc1dac	0.10747847
29	0xbc8b9314	-0.017037906
30	0xbc2bb833	-0.010480928
31	0xbd975bbb	-0.07390543
32	0xbd1571ba	-0.03648541
33	0xbdc96dd8	-0.09835404
34	0x3e3543ed	0.17701693
35	0x3d934a8d	0.07191954
36	0x3c9e0715	0.019290486
37	0x3d037254	0.032091454
38	0x3dae35c6	0.0850635
39	0x3dfc3ba2	0.123160616

linears.2.weight f4 [40, 40]
0	0xbcb94444	-0.02261556
1	0x3e427649	0.18990435
2	0xbca739bd	-0.020413274
3	0x3b5e466d	0.0033916489
4	0x3ba4ef04	0.0050333757
5	0xbd837c8f	-0.06420242
6	0x3dabacc0	0.08382559
7	0x3dd96c95	0.106164135
8	0x3e67b33e	0.22626969
9	0xbeaed088	-0.34143472
10	0x3dda1787	0.10649019
11	0xbd7ecce8	-0.062207133
12	0xbd91f3ad	-0.071265556
13	0xbcdf8576	-0.027285319
14	0x3e504fad	0.20342894
15	0xbcf99f89	-0.03047158
16	0xbe2254a2	-0.15852597
17	0x3e4ad519	0.19807853
18	0x3d9f16fe	0.07768057
19	0x3ea89122	0.32923228
20	0x3c733ac7	0.014845557
21	0x3e248c08	0.16069043
22	0x3e906513	0.28202114
23	0xbe077fd3	-0.13232355
24	0x3e7660b9	0.24060334
25	0x3e2a6b46	0.16642484
26	0x3e420af2	0.18949488
27	0xbe8236e0	-0.2543249
28	0x3c367f10	0.0111386925
29	0x3e515237	0.20441519
30	0xbe1e0def	-0.15435003
31	0x3e171003	0.14752202
32	0xbe54bd07	-0.20775233
33	0x3dcdeb79	0.100546785
34	0x3dd955a2	0.10612036
35	0x3d3d82a4	0.046267167
36	0x3df142da	0.11780329
37	0xbd8dee80	-0.06930256
38	0x3e670a4a	0.22562519
39	0x3d9569c2	0.07295562
40	0xbe4b3fa0	-0.1984849
41	0xbe751e1a	-0.23937264
42	0xbebd2804	-0.36944592
43	0x3db07fda	0.08618136
44	0xbe382248	-0.17981827
45	0xbdbc9115	-0.0920736
46	0xbdc73636	-0.09727137
47	0x3df49cce	0.119439706
48	0xbde8ebf8	-0.113731325
49	0x3e895942	0.2682591
50	0x3e16a726	0.147122
51	0x3dddcfaa	0.108306244
52	0xbd4af0af	-0.04954594
53	0xbe56cb7c	-0.2097606
54	0xbe7a64d6	-0.24452528
55	0xbdddbffa	-0.10827632
56	0x3e1aacd8	0.15104997
57	0xbe5ed55a	-0.21761075
58	0x3eafd92e	0.34345382
59	0xbe3eeaf8	-0.18644321
60	0x3da12de0	0.07870078
61	0x3e9add47	0.30246946
62	0x3dda6317	0.10663431
63	0x3e8ca295	0.2746779
64	0xbe734ebe	-0.23760507
65	0xbe47c081	-0.19507028
66	0xbe05b728	-0.1305815
67	0xbcae1b8f	-0.021253375
68	0x3d0b327f	0.033983704
69	0x3e841ada	0.25801736
70	0xbd05cd89	-0.032666717
71	0xbd896ff1	-0.06710804
72	0x3e70b307	0.23505794
73	0xbeb0eccb	-0.3455566
74	0x3e877cbd	0.26462355
75	0x3e75fea6	0.24022922
76	0x3de81baf	0.11333405
77	0x3d86953f	0.06571435
78	0x3caf78f0	0.021419972
79	0x3e938a5f	0.28816506
80	0xbe860375	-0.26174513
81	0x3b293334	0.0025817873
82	0x3df7ec6d	0.121056415
83	0x3e10ac8b	0.1412832
84	0x3e4a894c	0.19778937
85	0x3dd8bf64	0.1058338
86	0xbde46097	-0.111512356
87	0x3da9f4c9	0.08298642
88	0xbe425b2f	-0.18980096
89	0x3df82a93	0.121174954
90	0x3e461c81	0.19346811
91	0x3d326b37	0.04355928
92	0xbe57486c	-0.2102372
93	0x3db01e6c	0.085995525
94	0x3ca994d6	0.020700853
95	0x3deba4e9	0.115060635
96	0xbc9be626	-0.019030642
97	0x3e5b758e	0.21431562
98	0xbe18909e	-0.14898917
99	0x3d0762cd	0.03305321
100	0xbe2826cd	-0.16421051
101	0x3e7df60a	0.24800888
102	0x3d4364a1	0.04770339
103	0xbcc5fa58	-0.024167225
104	0xbe3b3c26	-0.18284664
105	0x3e0e4f3e	0.13897416
106	0x3df1a80d	0.11799631
107	0xbd2b4672	-0.04181523
108	0x3e0a94b4	0.13533288
109	0x3e927e0c	0.2861179
110	0x3e3f85e7	0.18703423
111	0xbe956980	-0.29182053
112	0x3d81bc45	0.06334738
113	0xbcdf8c37	-0.02728854
114	0x3d36ce75	0.044630487
115	0x3e7321b2	0.23743322
116	0xbde5c329	-0.112188645
117	0x3e801ca2	0.25021845
118	0xbd9d39a7	-0.07677012
119	0x3de0b9ea	0.1097296
120	0x3e913699	0.28361967
121	0xbdf26a38	-0.11836666
122	0xbe0026b7	-0.12514769
123	0x3e63d7a1	0.22250225
124	0x3db68b94	0.08913341
125	0xbe37400d	-0.17895527
126	0xbc864140	-0.016388535
127	0x3e60eac8	0.21964562
128	0x3e5606e1	0.20901062
129	0xbe9dd750	-0.30828333
130	0xbe691d95	-0.22765191
131	0xbe51eb6d	-0.20499964
132	0xbe4efb7f	-0.20213126
133	0x3e3e1608	0.18563092
134	0x3e094882	0.13406566
135	0x3e4cad4f	0.19987987
136	0xbd21d372	-0.03950829
137	0x3e95a771	0.2922931
138	0x3e55da61	0.20884086
139	0xbd8b29c3	-0.06795075
140	0x3e563a34	0.2092064
141	0x3e80cba9	0.2515538
142	0xbdfc6cd3	-0.12325444
143	0xbe5a287d	-0.21304508
144	0x3e544488	0.20729268
145	0xbe348f87	-0.17632876
146	0x3d59f681	0.0532136
147	0xbe8cdef8	-0.27513862
148	0xbe64fb0c	-0.22361392
149	0xbe59e300	-0.21278
150	0x3e7afa2a	0.24509493
151	0xbe1d4bea	-0.1536099
152	0x3e857a99	0.26070097
153	0x3d871e61	0.06597591
154	0x3df9b539	0.121927686
155	0xbe8f879a	-0.28033143
156	0x3e38ab04	0.18033987
157	0xbd8e1b7b	-0.06938835
158	0x3e1a2b12	0.15055493
159	0xbd9765c3	-0.073924564
160	0x3e1151f0	0.14191413
161	0x3e93d445	0.28872886
162	0xbe4719d9	-0.19443454
163	0x3e8e0898	0.27740932
164	0x3c3c76d0	0.0115029365
165	0x3e150381	0.14552118
166	0xbe208bcd	-0.1567833
167	0x3e62541a	0.22102395
168	0xbe696024	-0.22790581
169	0xbd82b552	-0.0638224
170	0x3e72464a	0.23659626
171	0xbe69b60b	-0.2282335
172	0x3da013d2	0.078162804
173	0xbe0cf09e	-0.13763663
174	0x3e546aad	0.20743819
175	0x3df325be	0.11872433
176	0x3d48fc25	0.04906859
177	0xbe8bdb23	-0.27315626
178	0xbe800669	-0.2500489
179	0xbded672a	-0.115919426
180	0x3e6840a9	0.22680916
181	0xbdedec0c	-0.11617288
182	0x3db0069c	0.08595011
183	0x3e29a291	0.1656592
184	0x3e04f33f	0.12983416
185	0xbe0f0f98	-0.13970792
186	0xbe53242d	-0.20619269
187	0xbd12cfab	-0.03584258
188	0x3a083e69	0.0005197288
189	0x3e3aba76	0.18235192
190	0xbceba9f5	-0.028767565
191	0xbe0dd349	-0.1385013
192	0xbe160eec	-0.1465413
193	0xbe3396b3	-0.17537956
194	0xbe848c95	-0.25888506
195	0x3dd416fa	0.10355945
196	0x3c11993c	0.008886632
197	0xbe205f1c	-0.15661281
198	0xbda2eefe	-0.079557404
199	0xbe91c080	-0.28467178
200	0x3ed20711	0.41021016
201	0x3e080524	0.13283211
202	0xbe1c37ce	-0.15255663
203	0x3e225253	0.15851717
204	0x3c5738e9	0.013136127
205	0xbe811f27	-0.2521908
206	0x3e86729b	0.26259312
207	0x3e117ece	0.14208528
208	0x3e075502	0.13216022
209	0xbe4c49be	-0.19950005
210	0xbe200510	-0.15626931
211	0xbe108b70	-0.14115691
212	0xbc8e481a	-0.017368365
213	0xbeb6924a	-0.35658485
214	0x3e0d11d0	0.13776326
215	0x3e87bf82	0.26513296
216	0x3e7992c6	0.24372396
217	0xbe41b701	-0.18917467
218	0x3e1e2e04	0.15447241
219	0xbe2c4d6f	-0.16826414
220	0xbdbc48d6	-0.0919358
221	0xbda303fc	-0.07959744
222	0x3dbfeb9f	0.09371113
223	0xbe68fb31	-0.22752072
224	0x3e2b2380	0.16712761
225	0xbe4df432	-0.20112684
226	0x3eabbfe7	0.33544847
227	0xbe83d2e8	-0.25746846
228	0xbe501c1a	-0.2032322
229	0xbe0768d6	-0.13223585
230	0x3df852f6	0.121251985
231	0x3e802c74	0.25033915
232	0xbc5b177c	-0.013372298
233	0x3c961c32	0.018323991
234	0xbe743823	-0.2384954
235	0x3db2cbbd	0.08730266
236	0xbdd04986	-0.101702735
237	0xbd817143	-0.06320431
238	0xbdc1afb9	-0.094573446
239	0xbdecc6a0	-0.11561322
240	0x3a3d33df	0.0007217507
241	0x3e60b2f3	0.21943264
242	0x3ea80635	0.32817236
243	0xbe2c6052	-0.16833618
244	0x3dbaa352	0.09113182
245	0x3dc150e4	0.09439257
246	0xbd716ed1	-0.058943573
247	0x3e77a8b2	0.24185446
248	0x3c7914e9	0.015202739
249	0xbe7ef976	-0.2489985
250	0xbe86cf7b	-0.2633017
251	0xbbeae72c	-0.007168671
252	0xbe0d7190	-0.13812852
253	0x3e305b85	0.17222412
254	0xbe3a6652	-0.18203095
255	0x3e7bb179	0.24579419

linears.2.bias f4 [40]
0	0xbcb1bf1b	-0.021697572
1	0x3d92cec1	0.071683414
2	0x3d25c595	0.040471632
3	0xbcb54866	-0.022129249
4	0xbc33dde6	-0.010978198
5	0xbd58d319	-0.052935693
6	0xbb5a2912	-0.003328864
7	0x3d349731	0.0440895
8	0x3d0dc96e	0.034615926
9	0x3c490990	0.012270346
10	0x3d81aedf	0.06332182
11	0x3b1de37e	0.0024091895
12	0xbc5a5748	-0.0133264735
13	0x3bdbe3af	0.0067104916
14	0xbc92e145	-0.017929683
15	0xbc916841	-0.017749907
16	0xbd4c436f	-0.049868997
17	0x3cf8c8ea	0.03036924
18	0xbd248f71	-0.04017586
19	0xbd4321a8	-0.04763952
20	0xbc75714c	-0.014980625
21	0x3c03c01c	0.008041408
22	0x3c465095	0.012104173
23	0xbd713573	-0.058888864
24	0x3dd16bbc	0.10225627
25	0x3d8421d0	0.06451762
26	0xbc9f7483	-0.019464737
27	0x3d8ca18a	0.06866749
28	0x3cc10f91	0.023566993
29	0xbd70d692	-0.05879838
30	0x3dba4112	0.090944424
31	0x3d5758b7	0.05257484
32	0x3c2279b0	0.009916708
33	0x3c18983c	0.009313639
34	0x3cda2bcd	0.026632214
35	0xbd049e92	-0.032377787
36	0x3cdf2c46	0.02724279
37	0xbc95f755	-0.018306414
38	0xbda26bee	-0.07930742
39	0x3ce0382b	0.027370533

linears.3.weight f4 [40, 40]
0	0xbe6babeb	-0.230148
1	0x3ea1e7f4	0.3162228
2	0xbd8dcc5f	-0.06923746
3	0xbe9dc774	-0.30816233
4	0xbe8dee06	-0.2772066
5	0xbe8cd4c4	-0.27506077
6	0xbc833001	-0.016014101
7	0x3e352116	0.17688403
8	0x3ddfc995	0.109271206
9	0xbbae1625	-0.0053126984
10	0xbe40112c	-0.1875655
11	0xbdd14767	-0.10218697
12	0xbe2934ea	-0.16524091
13	0xbe0060e3	-0.1253696
14	0x3e5f96c0	0.2183485
15	0x3dd7961b	0.10526677
16	0x3d436c4d	0.047710706
17	0x3e3a8a7e	0.18216893
18	0xbdc8421c	-0.09778234
19	0xbdb5ba1d	-0.08873389
20	0xbea5c1c2	-0.32374388
21	0xbe8099bd	-0.25117293
22	0x3d12d4e4	0.03584756
23	0xbc8cfb19	-0.017209576
24	0xbc983a93	-0.018582618
25	0x3e887412	0.26651055
26	0xbe6d8dc3	-0.23198609
27	0x3e15ec8d	0.14641018
28	0xbe608cb3	-0.21928672
29	0xbe309695	-0.17244942
30	0x3e79dcb9	0.24400605
31	0x3e9f8db9	0.31162813
32	0x3e6274ec	0.22114915
33	0xbe1674d3	-0.14693002
34	0xbe28c5d2	-0.16481712
35	0xbe46ac76	-0.19401726
36	0x3d37be33	0.044859122
37	0xbd9e821e	-0.07739662
38	0xbe39d093	-0.18145971
39	0xbbcff51d	-0.0063463585
40	0xbe5a2db9	-0.21306504
41	0x3ee16624	0.4402324
42	0xbd18157d	-0.037129868
43	0xbec4df65	-0.38451687
44	0xbe2c6fb0	-0.1683948
45	0xbbf6e913	-0.007535109
46	0xbe204c7f	-0.15654181
47	0xbe82a927	-0.25519678
48	0x3e487a70	0.19577956
49	0xbdee6415	-0.11640183
50	0x3eb78e37	0.3585069
51	0xbe5d1c51	-0.21592833
52	0x3ea8890e	0.32917064
53	0x3e856a1d	0.2605752
54	0xbeaae6a8	-0.33379102
55	0xbf02e4af	-0.51130193
56	0x3e247ec0	0.16063976
57	0x3e032eab	0.12810771
58	0xbe8bbbb2	-0.27291638
59	0x3e12643f	0.14296053
60	0xbe99038a	-0.29885513
61	0x3e584ecf	0.21123813
62	0x3e9e2b40	0.30892372
63	0xbef15669	-0.47136238
64	0x3e6f070e	0.23342535
65	0xbe097fa8	-0.13427603
66	0x3e47b316	0.1950191
67	0x3ea15aba	0.3151453
68	0x3de8ac67	0.11361008
69	0xbeb10606	-0.34574908
70	0x3eb04604	0.34428418
71	0xbdca9ee9	-0.09893591
72	0xbde46899	-0.11152763
73	0x3da57edc	0.08080837
74	0x3e81cbb3	0.25350723
75	0xbddf8f6f	-0.1091603
76	0x3d9737fb	0.07383724
77	0xbd009ca6	-0.03139939
78	0xbf20ec50	-0.62860584
79	0x3e962bea	0.2933038
80	0x3e586d5f	0.21135472
81	0xbc1b7576	-0.009488454
82	0x3e6fdfe0	0.23425245
83	0x3e48168b	0.1953985
84	0x3e2b62a3	0.16736846
85	0x3d9fc293	0.07800784
86	0x3e9273ee	0.28604072
87	0x3e7dce7f	0.24785803
88	0x3e5b0991	0.21390368
89	0x3dbba7d5	0.09162871
90	0xbe7d6fac	-0.2474963
91	0x3c20fec3	0.009826365
92	0x3cac7f9c	0.021056943
93	0x3e0bf9f5	0.1366957
94	0x3e7725ee	0.24135563
95	0x3e11ec5a	0.14250317
96	0x3e163d9e	0.14671943
97	0xbe5c388f	-0.2150595
98	0xbdf5812b	-0.119875275
99	0xbe822b3a	-0.25423604
100	0x3ccad935	0.024761776
101	0x3df9cc4b	0.12197169
102	0xbda41874	-0.080124766
103	0xbe63cef2	-0.22246912
104	0x3cad3cb9	0.021147119
105	0x3c80f65f	0.015742479
106	0x3d6ab149	0.05729798
107	0x3e7eccff	0.24882887
108	0x3e402de1	0.18767501
109	0xbc089384	-0.008335952
110	0xbe31e724	-0.1737333
111	0x3e7ab017	0.24481235
112	0x3e67dd3c	0.22642988
113	0xbcd4d2b4	-0.025979377
114	0xbd4b25ab	-0.04959647
115	0x3c5b8650	0.013398722
116	0xbcaa8691	-0.02081612
117	0xbd5a244a	-0.053257264
118	0x3e9c0fa9	0.30480698
119	0x3d88428e	0.06653319
120	0x3d57a53d	0.052647818
121	0xbe21852f	-0.15773462
122	0xbda3bb50	-0.079947114
123	0x3e49eecf	0.19720004
124	0xbdf70d17	-0.120630436
125	0xbe15aa1c	-0.14615673
126	0x3e761985	0.24033172
127	0x3dcdf7be	0.10057019
128	0x3d721f2c	0.05911176
129	0xbe80dbba	-0.25167638
130	0xbe5b35fc	-0.21407312
131	0x3e32de3a	0.17467585
132	0x3ce8cda5	0.028418371
133	0x3e44b13e	0.19208238
134	0x3c82510d	0.015907789
135	0xbd9d92ed	-0.076940395
136	0x3deb866b	0.115002476
137	0xbcf3324b	-0.029687067
138	0xbe8fedfb	-0.28111252
139	0x3b349da6	0.0027559786
140	0x3d9505d2	0.07276501
141	0x3e4f31c6	0.20233831
142	0x3e6d60a5	0.23181398
143	0x3e48e2c3	0.19617753
144	0x3d8bf7cc	0.06834373
145	0xbe58f308	-0.21186459
146	0x3d81fcd7	0.063470535
147	0xbe60059b	-0.21877138
148	0xbd222b5c	-0.039592132
149	0x3e235a1d	0.15952344
150	0x3de21ada	0.11040278
151	0xbd813235	-0.06308404
152	0x3daf98f1	0.08574093
153	0x3e8fbd16	0.2807395
154	0x3dff723c	0.1247296
155	0x3e4d9f69	0.20080341
156	0x3c94f8db	0.01818507
157	0x3ded04dc	0.115731925
158	0x3e582366	0.21107253
159	0x3db4b774	0.088240534
160	0x3ecc87fc	0.39947498
161	0x3e6f5fac	0.2337634
162	0xbd9aec3d	-0.0756459
163	0xbe4b81f0	-0.19873786
164	0xbe4e85c7	-0.2016822
165	0x3e413116	0.18866381
166	0xbe83205e	-0.25610632
167	0xbe3a75b9	-0.1820897
168	0xbe15f5b7	-0.14644514
169	0xbd210ac5	-0.03931691
170	0x3cd005b9	0.025393354
171	0x3e6617a8	0.22469962
172	0xbc2356de	-0.009969441
173	0xbe386cb9	-0.18010224
174	0xbe57faa2	-0.21091703
175	0xbdee9465	-0.11649398
176	0xbdf90f38	-0.12161106
177	0x3e988d7c	0.29795444
178	0xbbbbe45d	-0.00573401
179	0x3e9b5206	0.30336016
180	0x3d060ac1	0.0327251
181	0xbccae67d	-0.024768109
182	0x3e27cc39	0.16386499
183	0x3db6d6a7	0.089276604
184	0x3d70b0ec	0.058762476
185	0x3def37af	0.11680543
186	0xbd77057e	-0.060307972
187	0x3db8a1e2	0.09015252
188	0xbe1bfb3f	-0.15232562
189	0xbe6d87d2	-0.23196343
190	0x3d973f58	0.07385129
191	0x3ce6d9a3	0.02817995
192	0x3e9a058e	0.30082363
193	0xbd6cf89a	-0.057854272
194	0xbe4d7e9b	-0.20067827
195	0x3c5d945f	0.013524144
196	0xbd8953b6	-0.0670542
197	0xbe9180c9	-0.28418568
198	0xbecbbc15	-0.39791933
199	0xbd1f082a	-0.038826145
200	0xbe3cf706	-0.18453607
201	0x3e07c37f	0.1325817
202	0xbbdc81a4	-0.0067293216
203	0x3dd49f97	0.10382002
204	0xbe740dc4	-0.23833376
205	0xbd34294b	-0.043984693
206	0xbdb660f5	-0.08905212
207	0xbdb4925a	-0.08816977
208	0x3e21c7f5	0.15798934
209	0xbe62614a	-0.22107425
210	0xbe78314a	-0.24237552
211	0xbe602f55	-0.21893056
212	0x3bdc1412	0.0067162598
213	0xbda51262	-0.08060147
214	0x3e58f4ce	0.21187136
215	0x3df84721	0.12122942
216	0x3e677eaa	0.22606912
217	0xbde9076f	-0.11378371
218	0x3e1a5d1d	0.15074582
219	0x3db54bbe	0.08852337
220	0xbe712289	-0.2354833
221	0xbd7ab943	-0.061211836
222	0x3e8b34b3	0.27188644
223	0x3e049196	0.12946162
224	0xbe17df61	-0.14831306
225	0x3db82f0e	0.0899335
226	0x3e35eb86	0.17765626
227	0x3daa9839	0.083298154
228	0x3e35797d	0.17722125
229	0x3dd60124	0.10449436
230	0x3d136e13	0.035993647
231	0x3e075b46	0.13218412
232	0x3e62f50c	0.2216379
233	0x3e6083ef	0.21925329
234	0xbe37b28b	-0.17939202
235	0xbd18977b	-0.037253838
236	0xbdc59a88	-0.09648615
237	0x3e6393a5	0.2222429
238	0x3e36f295	0.17865975
239	0x3d5bfa63	0.053705584
240	0x3e8ca1fb	0.2746733
241	0xbe059c86	-0.1304799
242	0xbe2b643b	-0.16737454
243	0x3dc444d2	0.09583439
244	0xbd8a3eae	-0.067502365
245	0xbe5ca7d0	-0.2154839
246	0xbe4753fc	-0.19465631
247	0x3e752eb2	0.23943594
248	0xbd6ce485	-0.05783512
249	0xbde1e90a	-0.11030777
250	0x3e14af4d	0.14519997
251	0xbc294e34	-0.0103335865
252	0x3e66ac37	0.22526632
253	0x3e8501a5	0.25977817
254	0xbe3cd322	-0.18439916
255	0x3df84383	0.12122252

linears.3.bias f4 [40]
0	0x3df1487c	0.117814034
1	0x3d233309	0.039843593
2	0x3c62483e	0.013811169
3	0xbbbe839a	-0.005814028
4	0x3ce4fcfa	0.02795266
5	0xbcb83390	-0.022485524
6	0x3bb9308b	0.0056515387
7	0xbd01c04b	-0.031677525
8	0x3c95a77e	0.018268343
9	0x39b88594	0.00035194738
10	0x3c90194a	0.017590184
11	0x3bf16658	0.0073669367
12	0xbc1f2ecf	-0.00971575
13	0x3c2ed26a	0.010670284
14	0xbcb09190	-0.021553785
15	0x3d2512e5	0.040301222
16	0x3cc16287	0.023606552
17	0xbb62f9ae	-0.0034633684
18	0xbd13ae2f	-0.036054786
19	0x3c6f05b3	0.014588761
20	0xbc92dc6c	-0.017927371
21	0x3cc62fd5	0.02419273
22	0xbd6d0aa2	-0.05787147
23	0x3d7ec922	0.062203534
24	0x3d49ba87	0.049250152
25	0xbd1af595	-0.03783186
26	0x3ce051df	0.02738279
27	0xbbee10fe	-0.007265209
28	0x3cea73fb	0.028619757
29	0xbda15f13	-0.07879462
30	0x3b739075	0.003716496
31	0x3cfac447	0.03061117
32	0x3c98d187	0.018654598
33	0xbcd314b6	-0.025766712
34	0x3c8becc5	0.017080674
35	0xbc06da94	-0.008230824
36	0x3bf20fd2	0.00738714
37	0x3ccdfe8e	0.025145795
38	0xbc943da0	-0.018095791
39	0xbd92dae9	-0.0717066

linears.4.weight f4 [40, 40]
0	0xbdd847ba	-0.10560556
1	0x3e17e6fd	0.14834209
2	0x3e1450db	0.14483969
3	0xbd0ddb79	-0.034633134
4	0x3e152b45	0.14567287
5	0x3e1d3723	0.15353064
6	0xbdba0984	-0.09083846
7	0xbe1b9b85	-0.15196045
8	0xbda92f96	-0.082610294
9	0x3e934435	0.28762975
10	0xbe67f9fa	-0.22653952
11	0x3e899c3f	0.2687702
12	0xbd76059a	-0.060063936
13	0xbdd1f03a	-0.10250898
14	0xbe5d4dad	-0.21611662
15	0x3d160357	0.03662428
16	0xbe3ea3cf	-0.18617176
17	0xbe7c190c	-0.2461893
18	0xbe992907	-0.29914114
19	0xbe61d988	-0.22055638
20	0x3e880eb6	0.26573724
21	0xbc37b9d3	-0.011213738
22	0x3d6b86c5	0.057501573
23	0xbdc93fab	-0.09826597
24	0x3e027b47	0.12742339
25	0x3e30e18f	0.17273544
26	0xbd1838de	-0.037163608
27	0x3e12ba33	0.14328842
28	0xbdd98178	-0.10620397
29	0x3e2de9be	0.16983697
30	0x3decf1e6	0.11569576
31	0x3e5ac343	0.21363549
32	0x3e7bbd5a	0.2458395
33	0x3e20b82b	0.15695255
34	0xbe38d098	-0.18048322
35	0xbd81aa30	-0.06331289
36	0x3e1eb3a6	0.15498218
37	0xbdf739cc	-0.12071571
38	0x3e4eadcb	0.20183484
39	0x3e654588	0.22389805
40	0xbdb29f50	-0.08721793
41	0xbe3eb893	-0.18625097
42	0xbdc0fc04	-0.09423068
43	0xbe52c396	-0.20582423
44	0x3bdca518	0.006733548
45	0xbe2d1be9	-0.16905178
46	0xbe5962e2	-0.21229127
47	0xbe7d2bbc	-0.24723715
48	0x3e2a00fd	0.1660194
49	0xbdb22ea0	-0.08700299
50	0x3e6256bb	0.22103398
51	0x3e6b3538	0.2296952
52	0x3e8da304	0.27663434
53	0xbe036ecf	-0.12835239
54	0x3dc14166	0.09436302
55	0xbc912c84	-0.017721422
56	0xbd1facae	-0.03898304
57	0x3e71c3dd	0.23609872
58	0x3e1b1aab	0.15146892
59	0xbddf7de2	-0.10912682
60	0xbe034465	-0.12819059
61	0x3e1c11e9	0.15241207
62	0xbde9253f	-0.11384057
63	0xbda9d68e	-0.08292876
64	0x3e09e902	0.13467792
65	0x3e4b948e	0.19880888
66	0x3e807620	0.25090122
67	0xbc440e5c	-0.011966314
68	0x3e6c4853	0.23074464
69	0xbe6a5c2b	-0.22886722
70	0xbd13994b	-0.036034863
71	0xbe8e8768	-0.27837682
72	0xbe1fc2e6	-0.15601692
73	0x3e656f54	0.2240575
74	0xbe052a8b	-0.1300451
75	0xbe19c974	-0.15018255
76	0x3e1973cb	0.14985578
77	0x3df99d45	0.121882
78	0x3e52c1e4	0.20581776
79	0x3e7f44c9	0.24928583
80	0xbc9e00ae	-0.019287433
81	0x3ca71993	0.020397937
82	0xbecbdc18	-0.39816356
83	0x3e9ae1c4	0.3025037
84	0x3cfad84e	0.03062072
85	0x3e81c841	0.25348094
86	0xbea27d3b	-0.31736168
87	0xbdf8b106	-0.121431395
88	0xbeaa70db	-0.33289227
89	0xbe86329b	-0.26210484
90	0x3e3e3ad1	0.18577124
91	0xbe370918	-0.17874563
92	0xbeb9c04c	-0.36279523
93	0x3e54483a	0.20730677
94	0x3e21f9fe	0.1581802
95	0xbe299b43	-0.16563134
96	0xbe171241	-0.14753057
97	0x3eb7e318	0.35915446
98	0x3e62b3e6	0.22138938
99	0x3dcce100	0.10003853
100	0x3ed29f15	0.41136995
101	0x3e04d673	0.12972431
102	0x3ea36d14	0.31919158
103	0xbe8502b8	-0.25978637
104	0x3d917843	0.07103016
105	0x3e3d85dc	0.18508095
106	0xbe9f977b	-0.31170258
107	0xbe02154e	-0.1270344
108	0xbd6be83f	-0.057594534
109	0x3ea330de	0.3187322
110	0x3e5fab07	0.21842586
111	0x3d8dc4a9	0.069222756
112	0x3dc10364	0.09424475
113	0xbe490526	-0.1963087
114	0xbd985e1f	-0.07439827
115	0xbe7145f0	-0.23561835
116	0x3dc3798f	0.0954467
117	0x3e839986	0.25703067
118	0x3d4338d4	0.047661617
119	0xbdf9efec	-0.122039646
120	0x3e6aacf7	0.22917543
121	0xbd9b57d1	-0.07585109
122	0xbcc104a3	-0.023561781
123	0x3e159498	0.14607465
124	0xbd6c7604	-0.057729736
125	0x3e7c1665	0.24617918
126	0xbe21dd38	-0.15807045
127	0x3c88767e	0.016658064
128	0x3e21cd9a	0.15801087
129	0x3e4f7c84	0.20262343
130	0xbe0f8c4d	-0.14018364
131	0x3e3ec063	0.18628077
132	0xbdcb0477	-0.09912961
133	0xbd333a0f	-0.04375654
134	0x3dbd9afc	0.092580765
135	0x3e81f043	0.25378618
136	0xbe2c4964	-0.16824871
137	0xbdb36f71	-0.0876149
138	0x3dcc6062	0.09979321
139	0xbe80cf11	-0.2515798
140	0x3e064680	0.13112831
141	0x3e8580fd	0.26074973
142	0xbe840f17	-0.25792763
143	0x3e620aeb	0.22074477
144	0xbe758758	-0.23977411
145	0xbd9c9edb	-0.07647487
146	0xbdbfefdd	-0.09371922
147	0x3e833e24	0.25633347
148	0xbce8a6a5	-0.028399775
149	0x3b61cab3	0.0034453094
150	0xbdd8816d	-0.10571561
151	0xbe49d6b4	-0.19710809
152	0x3de41ac6	0.11137919
153	0xbe86d87b	-0.26337036
154	0x3dfc18eb	0.1230944
155	0xbe0955da	-0.13411656
156	0xbe87f19a	-0.26551515
157	0xbe22ee68	-0.15911257
158	0x3e3fd1fe	0.1873245
159	0xbe1f64b1	-0.15565754
160	0xbc4b99d6	-0.012426814
161	0x3e0c076d	0.13674708
162	0xbe2a1fb3	-0.16613655
163	0xbe8ca880	-0.27472305
164	0xbd6a8e35	-0.057264525
165	0xbdbb3834	-0.09141579
166	0xbe6435ff	-0.22286223
167	0x3e7578b7	0.2397183
168	0x3e0562a1	0.13025905
169	0xbd1a19d4	-0.037622288
170	0x3df0e0cb	0.11761626
171	0xbd6dd21c	-0.058061704
172	0xbe7d5825	-0.24740656
173	0xbe142306	-0.14466485
174	0x3e83695c	0.2566632
175	0x3d9b7de0	0.07592368
176	0x3e0e325f	0.13886403
177	0x3e8759b2	0.2643562
178	0xbdcfef51	-0.10153068
179	0x3e856c16	0.26059026
180	0x3dffe998	0.12495726
181	0x3e10240b	0.1407625
182	0xbbbec094	-0.005821297
183	0xbe934ae8	-0.28768086
184	0x3e33e48b	0.17567651
185	0x3b2b4d0d	0.0026138455
186	0x3dc54d0a	0.09633835
187	0xbe99a356	-0.30007428
188	0x3e3a0085	0.1816426
189	0xbd72342d	-0.05913179
190	0xbe0cfca8	-0.13768256
191	0x3da12d38	0.07869953
192	0xbe303798	-0.17208707
193	0xbe210eae	-0.15728256
194	0x3e5aabed	0.21354647
195	0xbd0c8916	-0.034310423
196	0x3e3652c7	0.17805015
197	0xbe0c7c10	-0.13719201
198	0x3dff6947	0.12471252
199	0xbd4e5960	-0.050378203
200	0x3d044175	0.032288987
201	0xbdee77c6	-0.11643939
202	0x3e2a8905	0.16653831
203	0x3d306164	0.04306163
204	0xbd964a47	-0.07338386
205	0x3e95dbc0	0.29269218
206	0x3e39a2eb	0.18128555
207	0xbe168298	-0.14698255
208	0x3e4d6e5b	0.20061629
209	0x3e7e1898	0.2481407
210	0xbd04a780	-0.032386303
211	0xbea43f0e	-0.32079357
212	0xbe4e6692	-0.20156315
213	0xbe3b92c8	-0.18317711
214	0xbcbcbcea	-0.0230393
215	0xbe12931e	-0.14313933
216	0x3e91049d	0.28323832
217	0xbc6981e5	-0.014252161
218	0xbcc53f02	-0.024077896
219	0xbe408dff	-0.18804167
220	0xbe82b392	-0.25527626
221	0xbea16a17	-0.31526253
222	0x3e62a126	0.22131786
223	0xbe0048a3	-0.12527709
224	0xbe7240cf	-0.23657535
225	0x3e0d0d2b	0.13774554
226	0x3e047502	0.1293526
227	0xbe3b1124	-0.18268257
228	0x3e897cfd	0.2685317
229	0xbe221a5e	-0.15830371
230	0xbe6b15c8	-0.22957528
231	0xbdfcb392	-0.12338938
232	0xbda08c0e	-0.07839213
233	0x3e80159d	0.2501649
234	0xbca7f3f7	-0.020502074
235	0x3e506e14	0.20354491
236	0x3e52edab	0.20598476
237	0xbe13077c	-0.14358324
238	0x3be30b1f	0.006928816
239	0x3ea4a0e1	0.3215399
240	0xbdb4564c	-0.08805522
241	0x3d243690	0.040091097
242	0xbe65d3c3	-0.22444062
243	0xbd0cdebb	-0.0343921
244	0x3e9317a5	0.28728977
245	0xbdd8cfc0	-0.105865
246	0xbe2f728c	-0.1713354
247	0xbe5e933a	-0.2173585
248	0x3e0d9321	0.13825656
249	0xbd89d4b1	-0.06730021
250	0x3d7ebee4	0.062193766
251	0xbc239a44	-0.00998551
252	0x3e2d9608	0.16951764
253	0xbe83d028	-0.25744748
254	0xbe563d33	-0.20921783
255	0xbd93b630	-0.07212484

linears.4.bias f4 [40]
0	0xbc053955	-0.008131345
1	0xbd39e8ae	-0.045387916
2	0xbd31cad7	-0.043406334
3	0xbc8507fe	-0.016239163
4	0x3d008d88	0.031384975
5	0xbb3c64db	-0.0028746638
6	0x3a5962fa	0.0008292642
7	0xbc924724	-0.017856188
8	0x3c96a87c	0.018390886
9	0xbcc4f2e0	-0.024041593
10	0x3c6b791b	0.0143721355
11	0x3d0204b7	0.031742778
12	0x3cb6685e	0.022266563
13	0xbb8bf1f3	-0.004270786
14	0xbd12446c	-0.035709783
15	0x3d17e3ab	0.037082355
16	0xbc05ec48	-0.00817401
17	0xbd192da4	-0.037397042
18	0xbbc94723	-0.0061425134
19	0x3ca95056	0.02066819
20	0x3c76ee60	0.0150714815
21	0xbcdc61e0	-0.02690214
22	0xbb8d90a9	-0.0043202234
23	0x3c75c571	0.015000687
24	0xbceed897	-0.029156012
25	0xbd29069f	-0.04126608
26	0x3ce25f58	0.027633354
27	0x3aeff79e	0.0018308049
28	0xbd4483b6	-0.04797717
29	0x36da95da	6.5143513e-06
30	0x3cb91aa3	0.02259571
31	0x3c566664	0.013085935
32	0xbd504721	-0.050849084
33	0x3d5283e9	0.05139533
34	0x3bb6c97c	0.005578218
35	0xbc19aba7	-0.009379304
36	0x3c252693	0.010079998
37	0xbd6cf810	-0.05785376
38	0xbc73c921	-0.014879496
39	0xbd399960	-0.045312285

linears.5.weight f4 [3, 40]
0	0x3d9f201d	0.07769797
1	0xbdc25f8e	-0.09490882
2	0x3de2a24e	0.110661134
3	0xbc1d3fd8	-0.009597741
4	0x3e9899e4	0.2980491
5	0x3ea5de46	0.32396144
6	0xbd61a36d	-0.055087496
7	0xbeb69e04	-0.3566743
8	0x3ec263e1	0.37966827
9	0xbdef172f	-0.11674344
10	0xbd85b22b	-0.065281235
11	0x3e95b076	0.29236192
12	0x3ed40060	0.41406536
13	0xbe825b42	-0.2546025
14	0xbf0023cc	-0.5005462
15	0x3e06f329	0.13178696
16	0x3cdfefbf	0.027336
17	0xbe8c0564	-0.27347863
18	0x3d9f62fb	0.07782551
19	0x3eb84509	0.3599017
20	0x3ddbdb2b	0.10735162
21	0xbe121edc	-0.14269584
22	0xbe4094d3	-0.18806772
23	0x3ed79f85	0.4211389
24	0x3eeb78d8	0.45990634
25	0x3c3aba92	0.011397021
26	0x3de83ac8	0.11339337
27	0x3d705dcf	0.058683213
28	0xbdd98230	-0.106205344
29	0xbdb72b4c	-0.08943805
30	0x3e8a9fcb	0.27075037
31	0x3c4ff99f	0.012693792
32	0x3d6203c4	0.055179372
33	0x3df70f3b	0.12063452
34	0x3e9c6142	0.30542952
35	0x3cf5e366	0.030015659
36	0x3eb1b036	0.3470475
37	0xbc506b07	-0.01272083
38	0xbee948ef	-0.45563456
39	0xbe7a5781	-0.24447443
40	0x3e9e063a	0.30864125
41	0x3df897fc	0.12138364
42	0x3ebf5347	0.37368223
43	0x3ea82276	0.32838792
44	0xbd15216a	-0.03640882
45	0x3e0aa6b9	0.13540162
46	0xbe44f570	-0.19234252
47	0x3e8550b6	0.2603814
48	0x3e478266	0.19483337
49	0xbcff0404	-0.031129844
50	0xbe95eca4	-0.29282105
51	0xbd9e8a4e	-0.07741223
52	0x3d6fd280	0.058550358
53	0x3ea6a677	0.32548878
54	0x3e85c6b2	0.26128155
55	0xbd67de73	-0.05660863
56	0x3dbed1a9	0.09317333
57	0x3e42fecb	0.19042508
58	0x3e2acbd5	0.16679318
59	0x3da0e5ee	0.078563556
60	0x3e585e45	0.21129711
61	0x3d378ac4	0.04481007
62	0xbdf87102	-0.121309295
63	0x3e7ca678	0.24672878
64	0x3e893259	0.26796225
65	0x3e886316	0.26638097
66	0xbd582eea	-0.052779116
67	0x3ea4602a	0.32104617
68	0x3e13e3a2	0.14442304
69	0xbe05a18a	-0.13049904
70	0x3d56d30f	0.052447375
71	0x3e897593	0.26847515
72	0x3e81a51a	0.25321275
73	0xbe94a505	-0.2903215
74	0x3d0960a2	0.03353942
75	0x3e49e274	0.19715291
76	0xbdd977c3	-0.10618546
77	0x3e241ac5	0.16025837
78	0x3ec996d4	0.39372885
79	0x3ea361dc	0.31910598
80	0xbe902efd	-0.2816085
81	0x3e08953c	0.13338178
82	0xbe3948f6	-0.18094239
83	0xbe321ccf	-0.17393802
84	0x3ed0eb34	0.40804446
85	0x3ea616c3	0.3243924
86	0x3e2828da	0.16421834
87	0x3d7672f9	0.06016824
88	0x3ebe4e42	0.3716908
89	0xbe874142	-0.26416975
90	0x3d1e25d4	0.038610294
91	0xbe16342b	-0.14668338
92	0xbe8c10d4	-0.2735659
93	0x3e98ee29	0.29869202
94	0x3e47d820	0.19516039
95	0xbe90c8d9	-0.28278235
96	0x3dfacea6	0.12246446
97	0xbe632670	-0.22182631
98	0x3e5f716f	0.21820615
99	0xbeabe79c	-0.3357514
100	0xbe6ee6bb	-0.23330204
101	0x3e7a7478	0.24458492
102	0x3e6569ba	0.22403613
103	0xbd3768b0	-0.044777572
104	0x3bf276f3	0.0073994338
105	0x3e555060	0.20831442
106	0x3dca8797	0.09889143
107	0xbe8ea559	-0.27860525
108	0xbe07d398	-0.1326431
109	0xbe9d4c2e	-0.30722183
110	0xbd9fff27	-0.07812338
111	0x3e8bd120	0.27307987
112	0x3e862b79	0.26205042
113	0xbe904c26	-0.28183097
114	0x3e77214c	0.24133795
115	0xbe69db11	-0.22837473
116	0x3eb458b7	0.35223934
117	0xbd1e0e4c	-0.038587853
118	0x3e467932	0.1938217
119	0xbe4b1011	-0.19830348

linears.5.bias f4 [3]
0	0x3cf3cd89	0.029761093
1	0xbd34108e	-0.0439611
2	0x00000000	0.0

exp_avg f4 [40, 2]
0	0x3b15cd87	0.00228581
1	0x3b1746ab	0.0023082893
2	0xb9327687	-0.00017019558
3	0xb9d78f5c	-0.00041114807
4	0x3b5adfcf	0.003339756
5	0x3b801fad	0.003910026
6	0x3be86003	0.0070915236
7	0x3c02933a	0.007969672
8	0x39ef2d7a	0.00045619515
9	0x3a01d136	0.00049521343
10	0x3bbb2305	0.0057109618
11	0x3bdf5d88	0.0068165697
12	0x3b326406	0.0027220263
13	0x3b323004	0.0027189264
14	0x3a1fa7bd	0.00060903636
15	0x3a2076f3	0.00061212404
16	0xbb80daa8	-0.003932316
17	0xbb918387	-0.004440728
18	0xbc6a8025	-0.014312779
19	0xbc85b717	-0.016322656
20	0x3a97b605	0.0011574632
21	0x3abee037	0.0014562671
22	0xbac98796	-0.0015375491
23	0xbac90edd	-0.0015339513
24	0x3b96abbf	0.0045981104
25	0x3ba02e17	0.004888307
26	0x3ab29787	0.0013625481
27	0x3ab6e0ce	0.0013952495
28	0x3b785134	0.0037890198
29	0x3b88c517	0.0041738856
30	0x396a1a33	0.00022325739
31	0x3991252a	0.00027684245
32	0xbb904447	-0.0044026705
33	0xbbafa855	-0.005360643
34	0xbad309f5	-0.001610099
35	0xbaed5588	-0.0018107155
36	0xbb887fc1	-0.00416562
37	0xbb8d56e2	-0.0043133358
38	0xbb1f96ff	-0.0024351475
39	0xbb364864	-0.0027814144
40	0x3c0ba9bb	0.008524354
41	0x3c1f84dd	0.009736267
42	0xbc41fefd	-0.011840579
43	0xbc66bf12	-0.014083641
44	0xbb6e2d4f	-0.0036342924
45	0xbb796383	-0.0038053698
46	0x3a2dcef0	0.00066302624
47	0x3a81cf72	0.0009903742
48	0x3b020bf7	0.0019843557
49	0x3b024608	0.0019878168
50	0x390cd7d0	0.00013431837
51	0x399e9bdd	0.00030252236
52	0xbad046b8	-0.0015890216
53	0xbaf68f90	-0.0018811096
54	0x3a3dc2fc	0.0007238833
55	0x3a85565d	0.0010172833
56	0x3b5cee6d	0.0033711449
57	0x3b7a18d2	0.0038161767
58	0x3ae66742	0.0017578381
59	0x3af54a04	0.0018714075
60	0xbb36cdcb	-0.0027893658
61	0xbb5361c0	-0.0032254308
62	0x3b9fc31e	0.0048755547
63	0x3bb04e35	0.0053804168
64	0x3b15c7c9	0.0022854677
65	0x3b27ffc5	0.0025634628
66	0xba98cd6c	-0.00116579
67	0xba947ed4	-0.0011329302
68	0x3b3e0c91	0.002899919
69	0x3b5217be	0.0032057608
70	0x3ac67dca	0.0015143689
71	0x3b0a062b	0.0021060805
72	0x376edca7	1.423728e-05
73	0xb8a95a87	-8.07541e-05
74	0xbb04f1eb	-0.0020285796
75	0xbb29c0b5	-0.0025902216
76	0x3a2e4e45	0.00066492363
77	0x3a620105	0.0008621368
78	0xbaa44625	-0.0012533112
79	0xba906a39	-0.0011017985

exp_avg_sq f4 [40, 2]
0	0x3af5a071	0.0018739832
1	0x3a6cb9a2	0.0009030347
2	0x377fa8e5	1.5238508e-05
3	0x38208c0f	3.8277412e-05
4	0x3bcc3353	0.0062317043
5	0x3bbdb1c6	0.0057890145
6	0x3cc0432a	0.023469526
7	0x3c8b4181	0.016999008
8	0x389f3816	7.5921576e-05
9	0x3885b73d	6.376065e-05
10	0x3c57e236	0.0131764915
11	0x3c0a13fe	0.008427618
12	0x3b570083	0.0032806701
13	0x3b0917da	0.0020918758
14	0x38d158f3	9.982465e-05
15	0x3a6aa947	0.0008951616
16	0x3c036dc8	0.008021779
17	0x3bce9eac	0.0063055363
18	0x3db02468	0.08600694
19	0x3d57fc79	0.05273101
20	0x3a592e2f	0.0008284775
21	0x3a1162c5	0.0005546029
22	0x3a85722f	0.0010181124
23	0x3a0cc354	0.00053696823
24	0x3c0ddc4b	0.008658479
25	0x3b8991c4	0.004198285
26	0x3a80c751	0.0009825026
27	0x3a4d91f8	0.00078418804
28	0x3bcbec0b	0.006223207
29	0x3b5da23b	0.003381862
30	0x3915226f	0.00014222575
31	0x38f34093	0.00011599171
32	0x3c0d790d	0.008634818
33	0x3bf7ab41	0.007558257
34	0x3a8ac484	0.0010587131
35	0x3a1eabfc	0.00060528493
36	0x3c15d5ce	0.009145213
37	0x3bcaa60f	0.0061843465
38	0x3b0264a9	0.0019896424
39	0x3ab1d64d	0.0013567895
40	0x3cefde7a	0.02928089
41	0x3c8df813	0.017330205
42	0x3d7ebc6e	0.06219142
43	0x3d22def9	0.039763425
44	0x3be0601e	0.0068473956
45	0x3b9307b4	0.0044870023
46	0x3990241b	0.0002749272
47	0x39978618	0.00028900872
48	0x3acf2ea9	0.0015806752
49	0x3a3c99b0	0.0007194532
50	0x388ec1cb	6.8071844e-05
51	0x39242bf6	0.00015656636
52	0x3aac52d6	0.0013147246
53	0x3a34ce9d	0.0006897243
54	0x3989ea80	0.00026305392
55	0x391c16f9	0.00014885877
56	0x3ba8b404	0.0051484127
57	0x3b42690d	0.0029664666
58	0x3a9b008c	0.0011825725
59	0x3a14297a	0.00056519324
60	0x3b8ee533	0.004360819
61	0x3b71e672	0.0036911038
62	0x3c310c38	0.010806136
63	0x3bd14c0f	0.0063872407
64	0x3b212fbd	0.0024595105
65	0x3aad6c3e	0.0013231111
66	0x3af9b081	0.0019049795
67	0x3b43418b	0.0029793705
68	0x3b83035c	0.003998203
69	0x3b62c33b	0.003460123
70	0x3a63ad7a	0.0008685213
71	0x3a1e3011	0.0006034384
72	0x3954bf79	0.00020289225
73	0x3a26aded	0.00063583144
74	0x3b16211b	0.0022907916
75	0x3b0c87a8	0.0021443162
76	0x3917ac0a	0.00014464572
77	0x38db7c8c	0.000104659324
78	0x39cdae78	0.00039230636
79	0x3aa837a3	0.0012833964

exp_avg f4 [40]
0	0x3b02481e	0.001987941
1	0xb9f64fa2	-0.00046980107
2	0x3b64786a	0.0034861811
3	0x3be7e873	0.0070772707
4	0x39a3c03d	0.0003123301
5	0x3bc4df8a	0.0060080932
6	0x3b1c5479	0.002385406
7	0x3a385c8a	0.00070328324
8	0xbb759ec0	-0.0037478656
9	0xbc68f062	-0.014217468
10	0x3aa96fcd	0.0012926996
11	0xbaa2d091	-0.0012421777
12	0x3b8c70e8	0.0042859204
13	0x3a9e3e5b	0.0012073027
14	0x3b6d3470	0.0036194585
15	0x384ff4a5	4.958049e-05
16	0xbb9f6b9b	-0.0048651225
17	0xbace22c6	-0.0015726916
18	0xbb6f9a97	-0.0036560649
19	0xbb28b247	-0.0025741027
20	0x3c0a9b58	0.008459888
21	0xbc4b0594	-0.012391467
22	0xbb5141a1	-0.0031929987
23	0x3a698c75	0.00089091744
24	0x3adcd3fc	0.0016847844
25	0x390fb84e	0.00013706202
26	0xbad12796	-0.0015957232
27	0x3a6d99c5	0.0009063746
28	0x3b574001	0.0032844546
29	0x3ac62178	0.0015116176
30	0xbb365d48	-0.0027826596
31	0x3b9959f4	0.0046799127
32	0x3b0e1152	0.0021677804
33	0xba6e2be7	-0.00090855215
34	0x3b36ea25	0.0027910557
35	0x3b00fc4f	0.0019681638
36	0xb936dd1d	-0.00017439244
37	0xbb14bb27	-0.002269456
38	0x3a5f2a52	0.0008513081
39	0xba7be1d7	-0.0009608543

exp_avg_sq f4 [40]
0	0x3a7db203	0.000967771
1	0x382c1564	4.1027917e-05
2	0x3bc81814	0.006106386
3	0x3c9af59c	0.018915944
4	0x387ce546	6.029501e-05
5	0x3c1ace01	0.009448529
6	0x3b176c79	0.0023105426
7	0x3a413622	0.0007370432
8	0x3bdb8a96	0.0066998703
9	0x3d6f2417	0.058384027
10	0x3a224790	0.0006190473
11	0x3a12f913	0.0005606573
12	0x3b999762	0.0046872357
13	0x3a644f67	0.00087093416
14	0x3b74795f	0.0037303788
15	0x38b9fa7e	8.868145e-05
16	0x3c09679c	0.008386519
17	0x3a278b2f	0.00063912844
18	0x3bdb7b96	0.006698082
19	0x3abb3b75	0.0014284687
20	0x3c9ece2e	0.019385424
21	0x3d34e1d3	0.044160675
22	0x3b9ef215	0.004850636
23	0x39a3fbb9	0.0003127733
24	0x3a539137	0.000807065
25	0x38ff2191	0.000121656
26	0x3a3c746c	0.0007188979
27	0x392a0f75	0.00016218222
28	0x3b5a1abe	0.00332801
29	0x3a1c9889	0.0005973657
30	0x3b80939f	0.003923848
31	0x3bea45b4	0.0071494225
32	0x3abccaa0	0.0014403649
33	0x3b4525c7	0.0030082332
34	0x3b72a011	0.0037021677
35	0x3a3e6897	0.000726351
36	0x3a1485c2	0.00056656834
37	0x3b185504	0.0023244033
38	0x39099eaa	0.00013124445
39	0x3a8cb647	0.0010735475
