Lid_Driven_Re100/saved_models/PA-10000.pt (torch, 95111 bytes, 36 tensors)

linears.0.weight f4 [40, 2]
0.18343465 0.07747484 0.15173669 0.24179392 0.040461257 0.0015109685 -0.0037368245 0.25593328
0.13750114 0.058620896 0.30503872 0.02873983 -0.37882304 -0.40467143 0.0736096 -0.03849878
-0.06728011 -0.17921008 -0.25844896 -0.17600018 0.034317505 -0.25224966 0.12786968 -0.18457082
-0.30195144 0.044332206 -0.06731747 -0.24438347 0.11413217 0.14395231 -0.28215355 -0.22693166
-0.31194785 0.3844993 -0.048176248 0.21240172 0.35582933 0.053224556 0.14764574 -0.37758365
-0.12038453 0.1578353 -0.24988215 0.1541578 -0.06262746 -0.4676841 0.23882313 -0.17049386
0.15660186 0.36252615 0.20179774 0.14954205 -0.40417564 -0.104330525 -0.41813865 -0.16838366
0.17409784 0.20393836 0.079546496 0.16629691 0.12408861 0.13891438 -0.09391747 -0.32287788
0.062713616 -0.2018315 0.34051207 -0.17230983 0.33904505 -0.2986625 -0.16493268 -0.32036334
-0.35833892 -0.007385049 -0.23007068 0.011213242 -0.16773291 0.24870159 0.17584193 0.20812412
00000000: 4bd6 3b3e 21ab 9e3d dd60 1b3e d398 773e
00000010: b4ba 253d b10b c63a 83e5 74bb b009 833e
00000020: 19cd 0c3e 771c 703d 092e 9c3e cb6f eb3c
00000030: 18f5 c1be 1831 cfbe a1c0 963d e6b0 1dbd
00000040: 28ca 89bd d982 37be 6c53 84be 6439 34be
00000050: 8390 0c3d de26 81be 45f0 023e 2200 3dbe
00000060: 6199 9abe b095 353d bedd 89bd a93f 7abe
00000070: 21be e93d 3c68 133e 6e76 90be c660 68be
00000080: a1b7 9fbe 18dd c43e 7554 45bd d67f 593e
00000090: 432f b63e fe01 5a3d 7230 173e a552 c1be
000000a0: 2a8c f6bd 949f 213e 1be1 7fbe 8bdb 1d3e
000000b0: d342 80bd 4a74 efbe 0d8e 743e f195 2ebe
000000c0: 3d5c 203e 079d b93e 11a4 4e3e 8d21 193e
000000d0: 1cf0 cebe 3eab d5bd 4516 d6be c46c 2cbe
000000e0: b446 323e 38d5 503e 46e9 a23d bd49 2a3e
000000f0: 2b22 fe3d 923f 0e3e cd57 c0bd 4050 a5be
00000100: ff6f 803d ebac 4ebe 9957 ae3e fd71 30be
00000110: 5097 ad3e 4bea 98be 1de4 28be aa06 a4be
00000120: 3378 b7be 48fe f1bb a697 6bbe bfb7 373c
00000130: 2dc2 2bbe a1ab 7e3e e80f 343e 7d1e 553e

linears.0.bias f4 [40]
-0.0191449 -0.1118743 -0.07146694 -0.14495757 -0.10845588 0.044285245 -0.15502928 -0.17969406
0.055709276 0.051578067 0.19783698 0.06074676 0.047547843 0.13009427 0.15086521 0.03893942
-0.09453811 -0.14006087 -0.07849378 0.14149682 -0.11906282 -0.09667008 -0.18171588 0.094220094
-0.11380974 -0.071307965 0.10409809 0.09553086 -0.06151673 -0.067103565 0.12261129 -0.0704
0.103733644 0.06235296 0.04587971 0.074736595 -0.01533273 0.046782643 -0.011137445 -0.09559157
00000000: c4d5 9cbc 5a1e e5bd 425d 92bd c26f 14be
00000010: 1e1e debd 7264 353d ffbf 1ebe b801 38be
00000020: 692f 643d 8643 533d c795 4a3e 98d1 783d
00000030: 87c1 423d 6f37 053e 697c 1a3e f17e 1f3d
00000040: 329d c1bd 1e6c 0fbe 59c1 a0bd 8be4 103e
00000050: 35d7 f3bd f7fa c5bd ba13 3abe 77f6 c03d
00000060: 1515 e9bd e909 92bd 6131 d53d afa5 c33d
00000070: f7f8 7bbd 986d 89bd a11b fb3d e02d 90bd
00000080: 4e72 d43d d165 7f3d 5dec 3b3d 800f 993d
00000090: 2136 7bbc 289f 3f3d d579 36bc 83c5 c3bd

linears.1.weight f4 [40, 40]
-0.2887295 -0.2558966 0.29987705 0.07191027 -0.4024327 -0.24728656 0.18578114 0.16818094
-0.10990771 0.063957825 -0.20297208 0.16306154 -0.036768228 0.14974032 -0.27349487 0.17727472
0.21809264 0.12493988 -0.093506455 -0.30382136 0.21833238 0.11129832 0.03140596 -0.23197271
0.15462081 -0.19543621 0.2555138 0.28600892 0.035252117 -0.040181726 -0.12373916 -0.14320815
0.04069248 -0.16962874 -0.22188568 0.044990323 -0.18687034 0.32511926 0.036652572 -0.0030163093
-0.27111903 -0.11685856 0.03500444 0.003552967 -0.26181534 0.16689631 -0.16794883 -0.06860931
0.011088093 0.14026259 0.38193136 0.19008027 0.036455706 0.23221669 0.24973992 0.22033666
0.0871647 -0.39447403 -0.19038689 0.29942873 -0.29367942 0.12987635 0.0024672796 0.19408998
-0.15006423 -0.13785459 0.051246 -0.16609743 -0.276816 0.1794582 0.12847324 -0.019572193
0.0046580974 -0.19799405 0.06789 0.00877694 -0.01936485 -0.079135835 0.0702693 -0.15800987
-0.18875836 0.032098446 -0.0017918755 0.20966302 0.11962356 -0.21924387 0.22641838 0.13669342
-0.07151954 0.003889077 -0.27149433 -0.21375722 0.2740052 0.15354763 -0.11049144 -0.28857064
0.36277473 -0.017797163 -0.0036946132 -0.052971315 0.33499962 -0.1016923 0.19166626 0.040722374
0.0934917 0.2162928 -0.1397007 -0.16926642 0.06208932 -0.029240748 -0.12663385 0.12781675
0.120905615 0.027304715 -0.2528824 0.04404541 0.26298723 -0.22386508 0.22843239 -0.050657485
0.2995708 0.07639036 -0.21982947 -0.18508825 0.02191755 -0.05089901 -0.10419903 -0.24905916
0.059103206 0.08899437 -0.03756784 0.3428012 -0.17849585 -0.051652092 0.06720217 -0.088789284
-0.072090074 -0.083854824 -0.16743186 -0.036796454 -0.26851454 -0.30993664 -0.1676034 0.332497
-0.26097333 0.2747336 -0.033661462 -0.17446676 -0.1696531 0.24375106 0.2661624 0.034664553
0.28908342 0.066463746 0.3342774 0.054987315 0.21296772 0.12979293 0.10196287 -0.21176709
-0.23388685 0.034530308 -0.10743448 0.27403474 0.22922616 0.10324596 0.11635108 0.2421872
0.17952935 -0.056206677 -0.4628741 -0.14254156 -0.15277068 0.15786229 -0.05554908 -0.10552555
-0.17180346 0.33178994 -0.07069221 0.06191414 0.31869403 0.3026117 -0.15226921 -0.34381637
-0.19882311 0.0050861547 -0.3124075 -0.21101685 0.26016405 0.31271812 -0.22694612 0.2325252
-0.23759295 -0.2440734 -0.106569335 -0.104573034 -0.021519206 0.124155425 0.22038873 0.31239593
0.123870775 -0.081278525 -0.17213091 -0.21273951 0.039173067 -0.14168403 0.21292222 -0.21745646
-0.2417161 0.14602551 0.05258288 -0.06357871 0.0941802 0.1397638 0.047732715 0.16574197
-0.10337108 -0.022663957 -0.37387085 0.22744103 -0.22890615 -0.13797648 0.1934458 0.17625424
-0.24436373 -0.0082663 0.24417542 0.25852978 0.009016583 0.13477965 0.26421404 0.15595937
-0.046126913 -0.31109387 -0.2469555 0.052640762 0.18642204 0.33393833 -0.19070983 0.1664515
0.08944689 -0.0059755663 0.25886834 0.23091581 0.32495382 -0.010653308 -0.055123914 -0.1375586
0.19475892 -0.24532731 0.31804517 0.035305243 -0.33645085 0.004883415 -0.013190882 -0.2780247
00000000: 5ad4 93be e104 83be 7c89 993e b145 933d
00000010: a90b cebe b038 7dbe 693d 3e3e a037 2c3e
00000020: 4b17 e1bd 52fc 823d ead7 4fbe 9bf9 263e
00000030: 489a 16bd 8755 193e 8507 8cbe 8187 353e
00000040: ad53 5f3e 7be0 ff3d 5080 bfbd 798e 9bbe
00000050: 8692 5f3e 60f0 e33d 89a3 003d 418a 6dbe
00000060: eb54 1e3e 6e20 48be b4d2 823e c36f 923e
00000070: 8664 103d 9895 24bd f56a fdbd 28a5 12be
00000080: 28ad 263d 28b3 2dbe 0036 63be c647 383d
00000090: f05a 3fbe 0876 a63e 0221 163d 46ad 45bb
000000a0: 1dd0 8abe 8a53 efbd d160 0f3d e5d8 683b
000000b0: a90c 86be dee6 2a3e c7fa 2bbe 0a83 8cbd
000000c0: d5aa 353c ffa0 0f3e 828c c33e 67a4 423e
000000d0: 9452 153d 36ca 6d3e d2bb 7f3e ef9f 613e
000000e0: 6883 b23d 80f8 c9be c8f4 42be b94e 993e
000000f0: 265d 96be 4efe 043e 15b2 213b 86bf 463e
00000100: 70aa 19be c129 0dbe 53e7 513d 7215 2abe
00000110: d4ba 8dbe e4c3 373e 7d8e 033e dd55 a0bc
00000120: f4a2 983b f4be 4abe ea09 8b3d 28cd 0f3c
00000130: 09a3 9ebc f811 a2bd 5ae9 8f3d 57cd 21be
00000140: df49 41be a979 033d 5ddd eaba e7b1 563e
00000150: 32fd f43d 7781 60be 38da 673e 5cf9 0b3e
00000160: d678 92bd e3df 7e3b 4e01 8bbe 2ce3 5abe
00000170: 694a 8c3e 973b 1d3e 5649 e2bd 88bf 93be
00000180: 9cbd b93e 5bcb 91bc 5321 72bb 73f8 58bd
00000190: 1285 ab3e 0d44 d0bd 2944 443e 81cc 263d
000001a0: 9478 bf3d dc7b 5d3e b30d 0fbe 2d54 2dbe
000001b0: 5f51 7e3d 4b8a efbc 4eac 01be 65e2 023e
000001c0: 5d9d f73d 23ae df3c cd79 81be f668 343d
000001d0: 43a6 863e e33c 65be 2eea 693e 397e 4fbd
000001e0: 5861 993e 8d72 9c3d fa1a 61be c687 3dbe
000001f0: 6f8c b33c 7b7b 50bd 4d66 d5bd 5d09 7fbe
00000200: 3416 723d ae42 b63d bce0 19bd a483 af3e
00000210: 9ec7 36be 2591 53bd 4ba1 893d 28d7 b5bd
00000220: f6a3 93bd 14bc abbd 4273 2bbe e1b7 16bd
00000230: bd7a 89be 04b0 9ebe 3aa0 2bbe 0c3d aa3e
00000240: 4c9e 85be e2a9 8c3e 9ae0 09bd 6aa7 32be
00000250: 8bb9 2dbe e199 793e 7046 883e 6bfc 0d3d
00000260: be02 943e 251e 883d 6826 ab3e 613a 613d
00000270: 3614 5a3e 70e8 043e e9d1 d03d 79d9 58be
00000280: 0980 6fbe a76f 0d3d 9c06 dcbd 484e 8c3e
00000290: 43ba 6a3e 9e72 d33d 7a49 ee3d ecff 773e
000002a0: 8bd6 373e f938 66bd d6fd ecbe 6af6 11be
000002b0: eb6f 1cbe a7a6 213e 6f87 63bd c81d d8bd
000002c0: 3fed 2fbe 5fe0 a93e 14c7 90bd ae99 7d3d
000002d0: dd2b a33e ecef 9a3e 76ec 1bbe b308 b0be
000002e0: 4998 4bbe c2a9 a63b e0f3 9fbe cd14 58be
000002f0: 3934 853e 971c a03e 9064 68be 161b 6e3e
00000300: 914b 73be 61ee 79be 0641 dabd 632a d6bd
00000310: 0c49 b0bc 3345 fe3d 95ad 613e 5cf2 9f3e
00000320: f6af fd3d 5b75 a6bd 1643 30be 63d8 59be
00000330: f073 203d 9e15 11be 4808 5a3e e8ac 5ebe
00000340: 6d84 77be b687 153e 2561 573d 8e35 82bd
00000350: 8ce1 c03d 3e1e 0f3e 6183 433d 43b8 293e
00000360: 37b4 d3bd c3a9 b9bc 006c bfbe 4de6 683e
00000370: 6066 6abe b549 0dbe a816 463e fe7b 343e
00000380: 7c3a 7abe 606f 07bc 1f09 7a3e 045e 843e
00000390: 4aba 133c ad03 0a3e 1047 873e d0b3 1f3e
000003a0: 93ef 3cbd b247 9fbe e7e1 7cbe d79d 573d
000003b0: 6be5 3e3e f7f9 aa3e 7049 43be 4372 2a3e
000003c0: ee2f b73d afce c3bb 648a 843e 3275 6c3e
000003d0: 5960 a63e 368b 2ebc 9dc9 61bd 29dc 0cbe
000003e0: e26e 473e 1537 7bbe d1d6 a23e 3b9c 103d
000003f0: 4943 acbe 0e05 a03b 921e 58bc 4159 8ebe

linears.1.bias f4 [40]
-0.034753796 0.08366178 -0.04698825 0.02835566 -0.16086702 0.1126457 0.004125798 -0.030878983
0.072837256 0.023030674 0.008493468 -0.16056441 0.025583796 -0.079554744 0.03334454 0.014833389
0.055564288 -0.00630537 0.03153375 -0.131413 0.10407983 0.01663062 -0.11560392 0.039020825
0.040844176 0.09000432 -0.056415603 0.04443931 -0.048849583 0.0019900505 0.09101318 -0.018402511
-0.022440318 -0.027508773 -0.0020663077 -0.060507864 -0.03768981 0.10742394 -0.1524801 -0.12477033
00000000: ff59 0ebd de56 ab3d c076 40bd 214a e83c
00000010: 53ba 24be cab2 e63d b431 873b ecf5 fcbc
00000020: b32b 953d d3aa bc3c 3028 0b3c ff6a 24be
00000030: 1c95 d13c 99ed a2bd 4994 083d be07 733c
00000040: 6197 633d 479d cebb 8929 013d 2191 06be
00000050: ce27 d53d f03c 883c bfc1 ecbd 4dd4 1f3d
00000060: 394c 273d 2f54 b83d 0c14 67bd fe05 363d
00000070: 8016 48bd 826b 023b 1e65 ba3d ddc0 96bc
00000080: c2d4 b7bc 145a e1bc e46a 07bb 18d7 77bd
00000090: a160 1abd 1501 dc3d be23 1cbe 9687 ffbd

linears.2.weight f4 [40, 40]
0.14627302 -0.16697796 -0.1718662 0.05605965 0.011809272 0.15270692 -0.10136444 0.053643696
-0.13638617 0.35285363 0.12370107 -0.18727398 0.083202876 -0.29238957 -0.045000803 0.14523627
-0.13845344 0.30044615 -0.1178638 -0.20392838 0.09874525 0.14871298 -0.1557972 -0.13531838
0.12715979 -0.053058468 -0.18673357 -0.13197647 0.0008243538 -0.45728922 0.015593865 -0.018053323
0.28299302 -0.058114536 -0.2747649 0.024254305 -0.36662668 0.17114003 -0.06642841 0.020729981
-0.07506194 0.43627506 -0.33157507 0.070519276 -0.09659544 -0.13139682 -0.22029392 0.20443954
0.22975275 0.050756875 -0.11465758 0.02423214 -0.11766329 -0.1921694 0.1793819 -0.14945225
-0.06568733 -0.19209059 0.112928815 -0.11068537 -0.0054150852 0.053499375 -0.4951321 0.20362474
-0.16168502 0.076165706 -0.28064108 -0.1625454 0.26558837 0.03613806 0.015854128 -0.10278515
-0.10099628 0.023331922 -0.2649593 0.06800459 -0.32260028 -0.076869145 0.1973796 -0.21395864
-0.007813766 -0.47938004 -0.19313174 -0.11323629 0.53043324 -0.19014181 -0.061236173 -0.15770389
-0.28007948 -0.15844955 -0.24879809 0.032166854 -0.038778048 0.14953084 -0.22746682 -0.13152555
-0.14832135 -0.0114405565 -0.06796252 0.039951805 -0.24439356 -0.1835461 0.69073147 -0.20708092
-0.2241345 -0.019600237 0.012138434 -0.10372659 0.15380695 -0.03462343 -0.20638396 0.069017515
0.05526287 -0.0005941381 0.305002 0.25500727 0.39942944 -0.4472337 -0.0871294 0.34185386
-0.09015967 0.35874134 -0.10356232 0.020017976 -0.11417209 -0.17437278 -0.09443818 -0.16706118
0.0772048 -0.17218679 0.111869015 0.12278175 0.124022424 -0.22352125 0.32550564 0.19085237
-0.2470611 -0.030379461 -0.1703768 -0.15613437 0.30662036 -0.16979231 -0.18384506 -0.19796962
0.36706322 0.22508979 -0.1749367 -0.17321102 -0.14193851 0.14572461 0.19306001 0.3604044
0.12285611 -0.08141788 -0.04121473 0.09299256 0.1834954 0.08630911 -0.097065575 -0.08520119
-0.020067172 0.24277377 -0.19204351 -0.23209432 -0.21974586 -0.0262385 0.23931363 0.18496892
0.1791133 -0.21516828 0.2832356 0.08234299 -0.16831791 -0.043127496 0.07942302 -0.02586405
0.07953013 0.11731776 0.16658483 0.100066915 0.13432792 0.13929996 -0.009886524 -0.1133696
0.033488873 0.035054684 -0.322097 -0.10337206 0.188437 -0.071287535 0.28227824 0.10324181
-0.36974823 -0.19763727 0.18992847 -0.041894194 0.13360849 0.08709668 -0.017816892 -0.31949094
0.16720343 0.020495428 -0.24045026 0.0498571 0.039428473 -0.0068467897 0.15322173 -0.2841675
-0.13018341 0.14339639 -0.34663975 -0.26608112 -0.30948538 -0.2088776 -0.4372572 0.0973649
-0.058323372 -0.15991099 0.30626115 0.20797558 0.045405652 -0.012248958 0.015112546 0.24405451
0.0718086 0.1426118 0.24174722 0.033898227 -0.16289021 -0.10052483 0.0064676222 -0.18984888
0.15053308 0.14947623 0.21796171 0.11936263 -0.3780456 -0.23634373 -0.3379747 0.22558644
0.17940477 0.07747277 -0.048270233 0.10959219 0.2920826 -0.12359028 -0.06908786 -0.13214189
-0.49449506 -0.13900691 -0.22006352 -0.027718114 -0.22094646 -0.10562659 -0.29672796 -0.3596022
00000000: 98c8 153e 45fc 2abe b1fd 2fbe ce9e 653d
00000010: ad7b 413c 345f 1c3e 2998 cfbd 7eb9 5b3d
00000020: d1a8 0bbe 3ba9 b43e fd56 fd3d c0c4 3fbe
00000030: 4566 aa3d 16b4 95be c352 38bd d1b8 143e
00000040: bdc6 0dbe 14d4 993e 9362 f1bd 9ad2 50be
00000050: f33a ca3d 3748 183e 4d89 1fbe e790 0abe
00000060: 2d36 023e d653 59bd 1637 3fbe d724 07be
00000070: 7219 583a d021 eabe 697d 7f3c 90e4 93bc
00000080: 76e4 903e 8209 6ebd fcad 8cbe f7b0 c63c
00000090: 7eb6 bbbe 553f 2f3e 9e0b 88bd ecd1 a93c
000000a0: 13ba 99bd 725f df3e 35c4 a9be 696c 903d
000000b0: d4d3 c5bd e38c 06be bb94 61be 9958 513e
000000c0: 4e44 6b3e 71e6 4f3d 98d1 eabd 7b82 c63c
000000d0: 73f9 f0bd 0ec8 44be e4af 373e 030a 19be
000000e0: 1487 86bd 65b3 44be 3947 e73d 03af e2bd
000000f0: 0771 b1bb 2922 5b3d f481 fdbe 0183 503e
00000100: c290 25be c4fc 9b3d 30b0 8fbe 4d72 26be
00000110: 33fb 873e 8105 143d 84e0 813c 0581 d2bd
00000120: 23d7 cebd 9622 bf3c bfa8 87be fe45 8b3d
00000130: dd2b a5be 926d 9dbd e11d 4a3e f917 5bbe
00000140: 4f05 00bc 4d71 f5be 54c4 45be 6ee8 e7bd
00000150: 79ca 073f 89b4 42be c8d2 7abd 217d 21be
00000160: 9466 8fbe 9940 22be edc4 7ebe 64c1 033d
00000170: bbd5 1ebd 9d1e 193e 10ed 68be a2ae 06be
00000180: 8de1 17be 2c71 3bbc ef2f 8bbd 81a4 233d
00000190: 4e42 7abe 82f3 3bbe c7d3 303f 050d 54be
000001a0: 8483 65be ad90 a0bc 48e0 463c 9b6e d4bd
000001b0: 927f 1d3e 4cd1 0dbd 5156 53be 0e59 8d3d
000001c0: 525b 623d efbf 1bba 3929 9c3e 5090 823e
000001d0: 0482 cc3e d1fb e4be e670 b2bd 7807 af3e
000001e0: a2a5 b8bd f2ac b73e 7b18 d4bd bdfc a33c
000001f0: 0fd3 e9bd c78e 32be ce68 c1bd 1612 2bbe
00000200: 8d1d 9e3d bc51 30be 951b e53d 0075 fb3d
00000210: 78ff fd3d c1e2 64be ada8 a63e ce6e 433e
00000220: 96fd 7cbe 59de f8bc 4177 2ebe b0e1 1fbe
00000230: 58fd 9c3e 09de 2dbe e141 3cbe 8cb8 4abe
00000240: b6ef bb3e f07d 663e 9b22 33be 3b5e 31be
00000250: 5458 11be d538 153e 86b1 453e ed86 b83e
00000260: fc9b fb3d 6bbe a6bd c7d0 28bd e272 be3d
00000270: 38e6 3b3e d5c2 b03d 51ca c6bd f67d aebd
00000280: e963 a4bc b099 783e 0ea7 44be 22aa 6dbe
00000290: 0f05 61be 1ff2 d6bc a20e 753e 7e68 3d3e
000002a0: 7a69 373e 1355 5cbe 4204 913e 71a3 a83d
000002b0: 885b 2cbe 75a6 30bd 89a8 a23d d8e0 d3bc
000002c0: b1e0 a23d 4b44 f03d 3795 2a3e e2ef cc3d
000002d0: 428d 093e a6a4 0e3e 16fb 21bc 522e e8bd
000002e0: a12b 093d 8095 0f3d e6e9 a4be bbb4 d3bd
000002f0: a1f5 403e 33ff 91bd c686 903e 7170 d33d
00000300: a44f bdbe 6d61 4abe 9c7c 423e 3f99 2bbd
00000310: aad0 083e bf5f b23d bbf4 91bc 5194 a3be
00000320: 6037 2b3e 07e6 a73c 9838 76be f536 4c3d
00000330: c07f 213d 095b e0bb 28e6 1c3e 677e 91be
00000340: cd4e 05be 81d6 123e c47a b1be c93b 88be
00000350: de74 9ebe 02e4 55be 2de0 dfbe 4067 c73d
00000360: 7de4 6ebd b5bf 23be 43ce 9c3e 8df7 543e
00000370: 47fb 393d dbaf 48bc 9d9a 773c 6de9 793e
00000380: 6310 933d d408 123e 958c 773e ded8 0a3d
00000390: b1cc 26be f6df cdbd 59ee d33b bf67 42be
000003a0: 5825 1a3e 4c10 193e 5b31 5f3e 6574 f43d
000003b0: 318f c1be 1704 72be 050b adbe 2200 673e
000003c0: e2b5 373e 0baa 9e3d 02b7 45bd df71 e03d
000003d0: da8b 953e e71c fdbd f07d 8dbd 3450 07be
000003e0: 752e fdbe d457 0ebe 5558 61be 1911 e3bc
000003f0: ca3f 62be c152 d8bd baec 97be c81d b8be

linears.2.bias f4 [40]
-0.011912775 0.057920683 -0.102133535 0.011925485 0.044173274 -0.009948715 -0.06600636 0.02974246
0.015437257 0.084296666 0.06022376 0.060020126 0.064873144 -0.100013584 -0.027261572 0.0006390172
0.0018058184 0.009984648 -0.04594271 -0.0154546695 0.00083383697 -0.059447937 -0.00077709695 0.021182004
-0.12807389 -0.03587461 -0.10809028 -0.0105008455 -0.11086068 0.04371037 -0.026678804 0.18331824
-0.028141806 0.011877424 -0.050845798 -0.028019024 0.078151554 -0.056896277 -0.0032718203 0.07111371
00000000: cd2d 43bc 3d3e 6d3d 632b d1bd 1c63 433c
00000010: 09ef 343d efff 22bc 582e 87bd 76a6 f33c
00000020: 8cec 7c3c bba3 ac3d 30ad 763d aad7 753d
00000030: 36dc 843d ecd3 ccbd a953 dfbc b883 273a
00000040: 36b1 ec3a a696 233c 6c2e 3cbd 9535 7dbc
00000050: da95 5a3a ae7f 73bd 18b6 4bba e285 ad3c
00000060: cd25 03be 41f1 12bd 705e ddbd bd0b 2cbc
00000070: ed0a e3bd a509 333d 828d dabc c7b7 3b3e
00000080: a589 e6bc 8799 423c af43 50bd 2788 e5bc
00000090: ec0d a03d 120c 69bd 096c 56bb 11a4 913d

linears.3.weight f4 [40, 40]
-0.29414743 -0.25570625 0.11789349 0.086950734 -0.09239465 0.08087353 0.25166714 0.016008597
0.060797784 -0.043644976 -0.247079 0.065879956 -0.22371112 0.15949075 0.08671377 -0.12729801
-0.12572941 -0.09615778 -0.0069254804 0.2610194 0.033915605 -0.18110889 0.06785126 -0.2273039
0.21151924 0.2267413 0.21895447 -0.23356332 -0.078758664 -0.2805401 -0.19601654 -0.08942677
0.117394656 0.20123993 -0.24778688 -0.016567383 0.28601053 -0.025884205 0.13722865 -0.19393921
-0.20244177 -0.22928387 0.18052551 0.160173 -0.30002978 0.1906319 0.045624208 -0.16168854
0.0858777 -0.15520336 -0.33908695 -0.11499142 -0.30095622 0.3233679 0.3258467 -0.10556122
0.14196001 0.09860173 0.19870289 0.14500244 -0.14001526 0.051950265 0.033292245 -0.22214094
0.23901848 0.029174672 -0.07862549 0.019155921 0.20747703 0.1266747 -0.02525114 -0.3152932
-0.093959935 -0.23436157 0.046108723 -0.3306417 -0.004688124 0.31518772 -0.10283557 0.009207476
0.23653658 0.01213559 -0.3083452 -0.20290644 -0.0018811009 0.001283734 -0.14431378 -0.2099092
0.26630455 -0.24197033 -0.09869787 -0.28459024 -0.12293357 -0.068640895 -0.25960636 0.0902777
-0.06648389 0.015768785 0.08922237 -0.16570637 0.23602048 0.16177018 0.15260257 -0.1641659
-0.23797081 0.26690477 -0.082385525 -0.1652669 -0.14866813 0.27145833 -0.07134861 -0.2712121
0.080078624 0.028301682 -0.09551584 0.268832 -0.005103701 -0.064989105 -0.07571421 -0.34056732
-0.2604667 -0.30029184 0.24064259 -0.1844877 -0.117206484 0.1287457 -0.26848885 -0.11278597
-0.10086284 -0.27923465 0.051786527 0.077263646 -0.20513856 0.12630375 -0.22330622 0.23964652
-0.18715557 -0.17518269 0.28901517 -0.10525732 -0.018594155 0.18357493 0.15513146 -0.12533575
-0.059879012 -0.09403186 0.033027086 -0.053399775 -0.13690524 0.1335668 -0.174136 0.17604212
-0.05981917 -0.054087665 0.07824974 0.29744127 0.12972529 0.13609034 0.004755176 0.15365262
0.1779603 -0.15755157 -0.059318222 0.009012769 0.20855111 0.10519972 0.18810095 -0.2384598
-0.08039127 0.16238374 -0.1978599 -0.2173675 -0.09551174 0.16757014 0.29471004 0.09505843
-0.048366178 -0.13550608 -0.047683295 0.16859028 -0.09527165 0.3103332 0.15477838 -0.1171743
0.05716337 0.12119907 0.15837131 0.15164717 0.4219894 0.18178818 0.24765381 -0.0027986302
-0.066362046 -0.16026035 0.058773972 0.16454682 -0.015235013 -0.07676507 0.113881074 0.21894422
-0.124782465 -0.34424245 0.18897064 -0.18264022 -0.33032724 -0.06777867 0.04290443 -0.21189238
-0.20367575 -0.19526358 -0.26665422 -0.1281986 0.023739234 0.23394136 0.053124133 0.14919542
-0.0869632 -0.08273251 0.33873934 0.084432796 0.04772811 0.12837307 0.2566377 -0.2707738
0.29883823 0.34077647 0.10881685 0.010643954 3.9886778e-05 0.055793867 0.26958215 0.045675617
0.039898403 -0.14132415 -0.032172754 -0.02498002 0.12681608 0.20800495 -0.17711583 0.21219815
0.028200185 -0.08476039 0.14695561 -0.30088082 0.04469316 -0.07964275 0.25491926 0.21293513
-0.15778603 0.08914834 0.22865254 -0.046526026 -0.21727087 -0.3032105 0.11814884 -0.17332922
00000000: 7e9a 96be eeeb 82be 2472 f13d 3a13 b23d
00000010: 6839 bdbd 05a1 a53d 84da 803e 7624 833c
00000020: 1907 793d 13c5 32bd 4702 7dbe 12ec 863d
00000030: 8714 65be 8b51 233e fd96 b13d 695a 02be
00000040: 36bf 00be 5fee c4bd 24ef e2bb 56a4 853e
00000050: 17eb 0a3d 9c74 39be 9af5 8a3d 5bc2 68be
00000060: 8098 583e df2e 683e 9a35 603e 392b 6fbe
00000070: 394c a1bd f4a2 8fbe 8fb8 48be 6225 b7bd
00000080: 9c6c f03d d711 4e3e d8bb 7dbe 52b8 87bc
00000090: f96f 923e 1d0b d4bc ab85 0c3e 0098 46be
000000a0: e54c 4fbe 64c9 6abe aedb 383e 6404 243e
000000b0: 819d 99be 0235 433e 73e0 3a3d ae91 25be
000000c0: a6e0 af3d a1ed 1ebe ce9c adbe 9f80 ebbd
000000d0: ef16 9abe 7a90 a53e 61d5 a63e 7b30 d8bd
000000e0: f75d 113e b4ef c93d c578 4b3e 857b 143e
000000f0: 2960 0fbe cdc9 543d 735d 083d ea78 63be
00000100: 43c1 743e b9ff ee3c 6706 a1bd e1ec 9c3c
00000110: dc74 543e 03b7 013e 7bdb cebc 1c6e a1be
00000120: 116e c0bd 7bfc 6fbe 80dc 3c3d de49 a9be
00000130: d69e 99bb 4960 a13e 759b d2bd f4da 163c
00000140: a536 723e 5bd4 463c 6cdf 9dbe b5c6 4fbe
00000150: 468f f6ba f742 a83a fec6 13be 70f2 56be
00000160: 1259 883e 12c7 77be 1c22 cabd d0b5 91be
00000170: 98c4 fbbd 9993 8cbd 20eb 84be 84e3 b83d
00000180: b528 88bd 8a2d 813c 38ba b63d eeae 29be
00000190: 5aaf 713e 15a7 253e d943 1c3e 1b1b 28be
000001a0: 9fae 73be bea7 883e beb9 a8bd ba3b 29be
000001b0: 753c 18be 96fc 8a3e 381f 92bd 50dc 8abe
000001c0: 4300 a43d eed8 e73c cf9d c3bd 59a4 893e
000001d0: f23c a7bb 0219 85bd 0d10 9bbd d75e aebe
000001e0: e45b 85be dabf 99be 036b 763e 58ea 3cbe
000001f0: f409 f0bd ead5 033e 5f77 89be 55fc e6bd
00000200: 2d91 cebd d8f7 8ebe 1c1e 543d 673c 9e3d
00000210: d80f 52be c555 013e 63aa 64be e665 753e
00000220: b6a5 3fbe 1763 33be ccf9 933e 2691 d7bd
00000230: c552 98bc 11fb 3b3e c8da 1e3e 0458 00be
00000240: b243 75bd c793 c0bd 6947 073d b9b9 5abd
00000250: e330 0cbe bcc5 083e b550 32be 6344 343e
00000260: f204 75bd 078b 5dbd 6641 a03d 394a 983e
00000270: b5d6 043e 445b 0b3e 4fd1 9b3b 1d57 1d3e
00000280: 3a3b 363e 3355 21be aaf7 72bd 4baa 133c
00000290: 6c8e 553e f372 d73d 899d 403e ce2e 74be
000002a0: 2ea4 a4bd ec47 263e c99b 4abe 9695 5ebe
000002b0: a99b c3bd 8297 2b3e 3ce4 963e ffad c23d
000002c0: 9d1b 46bd 1bc2 0abe 8f4f 43bd eea2 2c3e
000002d0: c81d c3bd fee3 9e3e 397e 1e3e 14f9 efbd
000002e0: 2324 6a3d 3837 f83d 172c 223e 6549 1b3e
000002f0: ff0e d83e ae26 3a3e f698 7d3e 3969 37bb
00000300: d3e8 87bd 4a1b 24be fabc 703d f67e 283e
00000310: 479c 79bc 0137 9dbd 7b3a e93d ea32 603e
00000320: f38d ffbd 8c40 b0be 8581 413e 0a06 3bbe
00000330: a720 a9be 8bcf 8abd 8ebc 2f3d 51fa 58be
00000340: 6090 50be 2df3 47be e786 88be 7e46 03be
00000350: c878 c23c 538e 6f3e b198 593d afc6 183e
00000360: c319 b2bd aa6f a9bd 3e6f ad3e 1aeb ac3d
00000370: 8d7e 433d 3b74 033e 0466 833e dda2 8abe
00000380: 5301 993e 417a ae3e 5edb de3d fb63 2e3c
00000390: 1a4c 2738 1c88 643d ac06 8a3e 5b16 3b3d
000003a0: 826c 233d 47b7 10be 94c7 03bd e6a2 ccbc
000003b0: 13dc 013e 40ff 543e da5d 35be 794a 593e
000003c0: 1304 e73c db96 adbd 887b 163e 0d0d 9abe
000003d0: 2d10 373d bd1b a3bd c784 823e ab0b 5a3e
000003e0: a992 21be 6893 b63d e423 6a3e 1392 3ebd
000003f0: 417c 5ebe 683e 9bbe 05f8 f13d 377d 31be

linears.3.bias f4 [40]
-0.00871149 -0.032341037 -0.08392766 -0.0031608206 -0.002498426 -0.026756788 -0.0060501117 0.027340539
0.034566026 0.007110953 0.0011550119 0.124334686 -0.035885345 0.0034127382 -0.0056202495 -0.024720702
0.004661743 0.009979783 0.020146802 -0.026231365 0.026811706 -0.061189435 0.016267037 0.00921939
0.036755316 -0.040102903 -0.0071084984 0.0055855466 0.002637384 0.047454637 -0.062038466 0.024187991
0.06580958 -0.112411335 -5.488827e-05 -0.005011607 -0.019795654 -0.04283203 0.0051523163 -0.11814076
00000000: a3ba 0ebc 0978 04bd 44e2 abbd c525 4fbb
00000010: a2bc 23bb 0d31 dbbc 0440 c6bb 44f9 df3c
00000020: 1b95 0d3d ff02 e93b c563 973a 2fa3 fe3d
00000030: 83fc 12bd 3fa8 5f3b 122a b8bb 1283 cabc
00000040: 89c1 983b 3e82 233c e80a a53c 29e3 d6bc
00000050: 39a4 db3c c6a1 7abd 7342 853c ed0c 173c
00000060: be8c 163d f142 24bd 68ee e8bb f606 b73b
00000070: f6d7 2c3b cb5f 423d 0c1c 7ebd e525 c63c
00000080: 2cc7 863d ea37 e6bd d537 66b8 6838 a4bb
00000090: 7f2a a2bc a470 2fbd c3d4 a83b c8f3 f1bd

linears.4.weight f4 [40, 40]
0.16782668 0.13552345 -0.21084839 0.029451096 -0.12826853 0.1697841 -0.049637783 -0.06691434
0.040705338 -0.03213246 0.02030004 -0.030121142 -0.043707423 -0.021739524 0.25214103 -0.15841097
-0.016754549 -0.11639206 0.01650157 -0.220492 0.2935904 0.12941088 0.12459096 0.017562158
0.3042528 -0.09296737 -0.26049554 0.16516656 0.0118930135 -0.0125513375 -0.32976985 -0.20732196
0.29893246 -0.10583772 0.046556734 -0.28856757 -0.058441807 -0.355104 0.12487239 -0.24169336
0.2115317 -0.060796198 0.077696845 -0.24958125 0.17659183 0.024855016 0.23229448 -0.2123767
0.08048714 -0.026990915 -0.14468147 -0.24169436 0.00629119 0.23947115 -0.24781685 -0.14503789
0.014006001 0.15833415 -0.033988863 0.10729225 -0.20907632 -0.034822237 -0.24865618 -0.2554052
-0.21821949 0.0860807 -0.1926905 -0.022851445 -0.226392 0.1344414 -0.21592188 0.17097007
0.10135353 0.31129858 -0.21211827 -0.011682674 0.23242868 0.10174463 0.19050698 -0.25698742
0.07406206 -0.24750544 0.26530826 0.14994536 -0.21155573 -0.018067151 0.1913431 -0.0016932891
-0.17400855 -0.08313963 -0.20144124 -0.15353969 -0.08984994 0.11736328 -0.040469192 0.114564046
-0.19910209 -0.025298899 -0.117987625 0.10719683 -0.17311503 0.20280117 -0.008861748 0.16271713
-0.20383626 0.17464721 -0.103946075 0.046981562 0.0025824006 -0.14563519 0.21122043 0.14306366
-0.096744634 -0.051944766 -0.16279384 -0.08394949 -0.059827354 -0.09137602 -0.2675479 -0.037279885
-0.25140116 0.19147745 0.28729954 -0.20713258 0.020471305 -0.12500776 -0.03163804 -0.29508185
-0.22800738 -0.2102382 0.11269065 -0.18761852 0.06474388 -0.13376789 -0.21718422 -0.08056797
0.049928613 0.21370819 -0.1849579 0.23176432 0.043626875 0.14115995 0.24821052 -0.23136055
0.057013422 0.02483726 -0.102422826 -0.11182461 -0.2202173 0.11834505 0.252499 0.26106325
0.2942606 -0.16236436 -0.018344156 0.114445716 -0.0189107 0.009468545 0.1609834 0.2538732
0.11943725 0.118439876 0.08875585 0.1872734 -0.10782409 0.21123931 -0.048507717 -0.027842347
-0.054151528 -0.24520287 -0.30395508 -0.2052228 0.083922885 -0.21584673 -0.0023628986 -0.028328525
-0.068670735 -0.0739953 0.1300715 0.160767 -0.1219744 -0.10198629 -0.21380386 -0.15830602
0.25566146 0.09304919 0.28826997 0.23317452 -0.16662055 -0.25358534 0.023384666 -0.0481624
-0.0942232 -0.17649932 0.0023377337 -0.014801964 0.121157184 -0.20587678 -0.17499977 0.13846317
-0.11064592 -0.20977668 0.05365261 -0.06500687 -0.04811876 0.09853492 0.009447751 -0.048434906
0.2064518 0.17800951 -0.0519856 -0.15123719 0.0496879 0.1486353 -0.047200248 0.18741459
-0.04292404 -0.067784496 0.002265207 -0.19347446 0.24945568 -0.05819996 -0.19035527 -0.17915165
-0.020224469 0.09060427 -0.0041511054 0.012519679 -0.031031745 -0.12406093 -0.07447255 0.043813083
0.28401193 -0.16146567 -0.058839127 -0.10963098 -0.100207485 0.03197391 0.19881798 0.2323321
0.15935807 -0.18661755 -0.22340369 0.110345714 -0.19138213 0.16383232 -0.0677024 -0.036320504
0.26965663 0.27466395 -0.078490786 -0.14055717 -0.22837047 -0.034827907 -0.011684431 -0.056548968
00000000: c2da 2b3e a9c6 0a3e a4e8 57be 6d43 f13c
00000010: d358 03be e2db 2d3e fd50 4bbd 630a 89bd
00000020: a4ba 263d 549d 03bd 454c a63c 9dc0 f6bc
00000030: 8e06 33bd 1617 b2bc a118 813e 7c36 22be
00000040: d640 89bc f65e eebd 4d2e 873c a8c8 61be
00000050: 7b51 963e 4984 043e 8c29 ff3d 84de 8f3c
00000060: 06c7 9b3e ad65 bebd ac5f 85be 6c21 293e
00000070: eada 423c 20a4 4dbc 98d7 a8be 354c 54be
00000080: ad0d 993e 72c1 d8bd 46b2 3e3d 21bf 93be
00000090: ad60 6fbd 31d0 b5be 18bd ff3d 777e 77be
000000a0: c49b 583e 6f05 79bd 861f 9f3d 3a92 7fbe
000000b0: 7dd4 343e bf9c cb3c 9bde 6d3e 4779 59be
000000c0: 71d6 a43d 0d1c ddbc 6127 14be ba7e 77be
000000d0: 5426 ce3b ed37 753e b3c3 7dbe d084 14be
000000e0: 6d79 653c 5922 223e e837 0bbd 0abc db3d
000000f0: 1a18 56be c3a1 0ebd ba9f 7ebe 78c4 82be
00000100: ee74 5fbe 144b b03d a950 45be f432 bbbc
00000110: 4ed3 67be 02ab 093e a01a 5dbe c712 2f3e
00000120: 7192 cf3d 8762 9f3e 8835 59be b068 3fbc
00000130: c901 6e3e 7d5f d03d 4314 433e db93 83be
00000140: d9ad 973d 1172 7dbe 7cd6 873e 478b 193e
00000150: 11a2 58be 9001 94bc 72ef 433e 5bf1 ddba
00000160: 4c2f 32be 1c45 aabd 9d46 4ebe 8239 1dbe
00000170: 3f03 b8bd 295c f03d 06c3 25bd 8ea0 ea3d
00000180: 6be1 4bbe a33f cfbc 7fa3 f1bd 038a db3d
00000190: 1145 31be 1cab 4f3e dd30 11bc 529f 263e
000001a0: 74ba 50be b8d6 323e aee1 d4bd bd6f 403d
000001b0: 7e3d 293b 6421 15be 2b4a 583e 487f 123e
000001c0: 0d22 c6bd 09c4 54bd 6eb3 26be b6ed abbd
000001d0: 870d 75bd 5a23 bbbd 0afc 88be cbb2 18bd
000001e0: a7b7 80be aa12 443e ed18 933e 901a 54be
000001f0: 70b3 a73c 0902 00be e496 01bd f814 97be
00000200: c47a 69be af48 57be 5bca e63d 121f 40be
00000210: 7098 843d 73fa 08be 8a65 5ebe d200 a5bd
00000220: f281 4c3d 52d6 5a3e 9b65 3dbe a053 6d3e
00000230: 18b2 323d 3c8c 103e e62a 7e3e c8e9 6cbe
00000240: e886 693d 8277 cb3c 0fc3 d1bd 4d04 e5bd
00000250: a580 61be e45e f23d 8d47 813e 15aa 853e
00000260: 53a9 963e d842 26be 7c46 96bc 8462 ea3d
00000270: 9dea 9abc f521 1b3c d5d8 243e abfb 813e
00000280: 849b f43d 9b90 f23d a1c5 b53d 99c4 3f3e
00000290: e0d2 dcbd 1e4f 583e 07b0 46bd a215 e4bc
000002a0: fecd 5dbd 7616 7bbe 00a0 9bbe ed25 52be
000002b0: c3df ab3d ed06 5dbe dcda 1abb 3911 e8bc
000002c0: 3ea3 8cbd d98a 97bd 7731 053e 1ba0 243e
000002d0: b7cd f9bd 30de d0bd 66ef 5abe f91a 22be
000002e0: 0fe6 823e 9390 be3d 1f98 933e 4dc5 6e3e
000002f0: 949e 2abe f0d5 81be 3391 bf3c f045 45bd
00000300: 18f8 c0bd 3dbc 34be aa34 193b f083 72bc
00000310: 4221 f83d 5dd1 52be 2433 33be 4ac9 0d3e
00000320: 549a e2bd b3cf 56be d7c2 5b3d 5222 85bd
00000330: 2d18 45bd adcc c93d bdca 1a3c ae63 46bd
00000340: 1a68 533e 2048 363e daee 54bd ecdd 1abe
00000350: 8a85 4b3d da33 183e 0c55 41bd 9ce9 3f3e
00000360: 1ed1 2fbd 99d2 8abd de73 143b 2b1e 46be
00000370: 4f71 7f3e 1563 6ebd 7eec 42be 8873 37be
00000380: c9ad a5bc bb8e b93d ff05 88bb 571f 4d3c
00000390: 4936 febc a813 febd 1085 98bd 5975 333d
000003a0: 036a 913e 4257 25be 4c01 71bd 3586 e0bd
000003b0: 9539 cdbd 13f7 023d f196 4b3e 77e8 6d3e
000003c0: c32e 233e ac18 3fbe f0c3 64be effc e13d
000003d0: adf9 43be a9c3 273e 8ea7 8abd cfc4 14bd
000003e0: 6f10 8a3e c1a0 8c3e c7bf a0bd 38ee 0fbe
000003f0: f3d9 69be b5a7 0ebd 0e70 3fbc e49f 67bd

linears.4.bias f4 [40]
0.02842511 -0.0053979126 -0.027628727 -0.031086428 -0.00847198 -0.0030510582 0.021000978 0.026254054
0.020050798 0.10358425 -0.007709715 0.02116348 -0.036725458 -0.029578943 0.040784348 -0.018202588
0.009825875 0.022593958 -0.01355475 0.012610094 -0.016712045 -0.09995233 0.02111665 0.036130417
-0.006952245 -0.0034808966 0.01176757 -0.017836126 0.0072382777 -0.026123596 -0.007554756 0.01542607
-0.0139931375 -0.04989002 0.027700862 -0.009281892 0.022149384 0.00987309 -0.015167701 0.004378103
00000000: c7db e83c f9e0 b0bb a455 e2bc f7a8 febc
00000010: 0fce 0abc 43f4 47bb 3e0a ac3c be12 d73c
00000020: 9241 a43c fb23 d43d c7a1 fcbb 095f ad3c
00000030: 6f6d 16bd 8a4f f2bc 7d0d 273d 981d 95bc
00000040: b5fc 203c f716 b93c be14 5ebc 919a 4e3c
00000050: b3e7 88bc cfb3 ccbd d3fc ac3c 7dfd 133d
00000060: a8cf e3bb c11f 64bb c4cc 403c 111d 92bc
00000070: 132f ed3b 2701 d6bc e38d f7bb a1bd 7c3c
00000080: 7943 65bc 7a59 4cbd ebec e23c 1413 18bc
00000090: a072 b53c bec2 213c f381 78bc 3176 8f3b

linears.5.weight f4 [3, 40]
-0.41881135 -0.07002306 -0.36700547 -0.22248195 -0.0017297537 -0.32649434 0.20015687 0.21670716
-0.32491812 0.35421446 -0.21096925 0.20822918 -0.30541906 -0.31454203 0.13369283 -0.2880592
0.38969135 0.29682526 -0.25050047 0.23033065 -0.32616478 -0.32552758 0.04628177 0.3912816
-0.5011653 -0.0068980237 0.3320534 -0.3908967 0.31177405 -0.16531074 -0.055651322 -0.41759643
-0.32280484 -0.15649317 0.30207965 -0.005422708 0.03187754 -0.47557107 -0.13607834 -0.043113112
0.067271344 0.2588324 -0.3418135 -0.16034931 0.18084005 0.07693405 -0.11880796 -0.015191056
0.020584675 0.2129755 0.17191318 -0.22324114 -0.16076732 0.23525809 0.20544298 0.23045169
0.118064225 -0.1609128 0.29755324 -0.3125933 0.19736455 -0.07243458 -0.2917576 -0.055427264
-0.3322769 0.07285408 0.09380307 0.18307254 -0.008097576 -0.15739939 0.10899364 0.11696488
0.099675894 0.029143367 0.28136137 0.100244805 0.05127277 0.22543919 0.10393905 0.115767926
-0.31673 0.044789825 0.2118761 0.15136121 0.24635197 -0.16169688 0.007763969 -0.07251342
0.059969287 -0.11919616 0.12442201 -0.15605243 -0.13564208 0.06726386 0.07239787 0.34837714
0.24550378 -0.2949016 -0.3650651 -0.158525 0.07844814 -0.40093404 0.35920897 -0.4351157
0.12016431 -0.21523596 0.05046252 -0.012398032 0.3456619 0.07194253 -0.17781189 0.2520077
-0.13245788 0.025856756 -0.18745762 0.39486876 -0.10727543 -0.27407232 0.13008793 -0.13739586
00000000: 716e d6be 4068 8fbd 24e8 bbbe 4fd2 63be
00000010: e7b8 e2ba 442a a7be ecf5 4c3e 7be8 5d3e
00000020: ab5b a6be 995b b53e 5308 58be 083a 553e
00000030: e35f 9cbe a70b a1be c6e6 083e 7f7c 93be
00000040: a085 c73e 7bf9 973e 9941 80be ccdb 6b3e
00000050: 12ff a6be 8dab a6be f491 3d3d 1056 c83e
00000060: 5e4c 00bf d108 e2bb e702 aa3e 9d23 c8be
00000070: d9a0 9f3e 3847 29be a4f2 63bd 33cf d5be
00000080: ad46 a5be bf3f 20be 2faa 9a3e f9b0 b1bb
00000090: 0692 023d 0d7e f3be 1f58 0bbe 6097 30bd
000000a0: 8fc5 893d ae85 843e 2e02 afbe 9c32 24be
000000b0: 222e 393e 998f 9d3d 9651 f3bd e8e3 78bc
000000c0: 31a1 a83c 4016 5a3e 020a 303e 5399 64be
000000d0: 30a0 24be 7fe7 703e a55f 523e 87fb 6b3e
000000e0: a8cb f13d 53c6 24be e658 983e 3b0c a0be
000000f0: ef19 4a3e 9558 94bd 4161 95be b307 63bd
00000100: 3320 aabe 8534 953d d31b c03d 5e77 3b3e
00000110: b2ab 04bc 4e2d 21be 0f38 df3d 488b ef3d
00000120: e022 cc3d 12be ee3c 990e 903e 264d cd3d
00000130: 6503 523d 88d9 663e ffdd d43d bc17 ed3d
00000140: 6f2a a2be 8975 373d 0cf6 583e 6ffe 1a3e
00000150: b143 7c3e de93 25be e468 fe3b ea81 94bd
00000160: 5ba2 753d 1e1d f4bd f7d0 fe3d 35cc 1fbe
00000170: c2e5 0abe a2c1 893d 5645 943d 7d5e b23e
00000180: 5865 7b3e 58fd 96be d0e9 babe 6154 22be
00000190: 6ba9 a03d 3a47 cdbe 3dea b73e 7cc7 debe
000001a0: b518 f63d d166 5cbe cab1 4e3d 1d21 4bbc
000001b0: 99fa b03e 9b56 933d 5214 36be 2707 813e
000001c0: 0aa3 07be 8cd1 d33c e4f4 3fbe 3d2c ca3e
000001d0: 38b3 dbbd 3553 8cbe c535 053e 80b1 0cbe

linears.5.bias f4 [3]
0.026221424 0.0007883288 0.0
00000000: 50ce d63c daa7 4e3a 0000 0000

exp_avg f4 [40, 2]
-0.0006390411 -0.00060292345 -0.0009477381 -0.00102494 -0.0005382996 -0.00063885306 -0.0019243053 -0.0020949678
-0.0026599888 -0.002418521 0.00043072115 0.0006935968 -0.0005720075 -0.0008485665 -0.0015294824 -0.001753946
0.00037334985 0.00040225458 0.00056540495 0.00029496325 0.0038725345 0.004521758 0.00023710866 0.00019184272
0.00061281305 0.00019133135 0.0015295699 0.001589478 0.0007008985 0.0008254548 0.00033108064 0.00010344144
-0.0015781339 -0.001992433 -0.0021010686 -0.0023352772 -0.0012606365 -0.0009912781 0.0014257992 0.0017432325
-0.0020383638 -0.002459321 -0.0013285137 -0.0017707266 -0.00059169973 -0.00077522284 0.00197426 0.0024283216
-0.00047015445 -0.000632068 -0.0005217563 -0.00032159587 0.0014299982 0.0010934841 0.0005646704 8.517852e-05
-0.000496067 -0.000246706 -0.0016261762 -0.001546994 0.0009288178 0.00096700207 -0.00018227 -0.00015764128
0.0018486938 0.0018479807 0.00030939517 0.0005780112 0.0005292246 0.0009424381 0.0006711702 0.00055865274
8.4472385e-06 -0.0003818982 0.0006523034 0.00033068578 0.00034189734 0.00039660875 -0.0013555987 -0.0013823691
00000000: 5385 27ba 820d 1eba a171 78ba 4857 86ba
00000010: ad1c 0dba b478 27ba f938 fcba ba4b 09bb
00000020: 3553 2ebb 0d80 1ebb 6ad2 e139 7ed2 353a
00000030: c6f2 15ba 5572 5eba ea78 c8ba a9e4 e5ba
00000040: 2bbe c339 b2e5 d239 af37 143a 4ca5 9a39
00000050: 59ca 7d3b 412b 943b 5fa0 7839 6329 4939
00000060: 30a5 203a 1ea0 4839 d97b c83a 0856 d03a
00000070: 81bc 373a 5563 583a e494 ad39 b3ee d838
00000080: 63d9 ceba 7b93 02bb 15b2 09bb 730b 19bb
00000090: f13b a5ba c6ed 81ba e2e1 ba3a 2d7d e43a
000000a0: 1296 05bb 8f2c 21bb 8621 aeba ba17 e8ba
000000b0: 4c1c 1bba 5338 4bba 9662 013b 7a24 1f3b
000000c0: 107f f6b9 5eb1 25ba 79c6 08ba de9b a8b9
000000d0: c76e bb3a 3d53 8f3a 6406 143a dfa1 b238
000000e0: 7e0a 02ba 5258 81b9 6b25 d5ba 81c4 caba
000000f0: e87b 733a 697e 7d3a bb1f 3fb9 824c 25b9
00000100: df4f f23a f137 f23a 5136 a239 ad85 173a
00000110: a9bb 0a3a f30d 773a 78f1 2f3a 8d72 123a
00000120: 9db8 0d37 8239 c8b9 57ff 2a3a e55f ad39
00000130: af40 b339 edef cf39 58ae b1ba 9c30 b5ba

exp_avg_sq f4 [40, 2]
0.00031509055 0.0010910552 0.0011311667 0.006452267 0.00021547788 0.0015160962 0.0045306394 0.030045964
0.0067970348 0.035765372 0.0003489617 0.0034935935 0.00057206285 0.004880408 0.0031669855 0.021221256
0.000106981555 0.00044077486 0.00034138907 0.0017586913 0.016801601 0.107763894 0.0003347937 0.0025388356
0.00026947234 0.0016433091 0.0026327642 0.013687518 0.0005972336 0.004571303 0.00020824072 0.0011797053
0.0028971648 0.017845677 0.005283403 0.034715984 0.0018030622 0.008848247 0.002306863 0.015280014
0.006133788 0.046491146 0.0024342772 0.022029728 0.00040845692 0.0021349888 0.0042857 0.03426958
0.0003697964 0.0025089618 0.0002090328 0.0008716122 0.0021219093 0.012238712 0.00062579854 0.0046734144
0.00029421947 0.001440332 0.0025564197 0.0148608275 0.0007111637 0.005064541 9.905894e-05 0.0009899331
0.004666512 0.031766806 0.00014697804 0.0023173708 0.0007108213 0.006083239 0.0007525062 0.004197051
7.9796055e-06 0.00050670607 9.8765166e-05 0.0009055562 1.8774512e-05 2.5872292e-05 0.0023422793 0.013655879
00000000: bd32 a539 bd01 8f3a a843 943a 8a6d d33b
00000010: e7f1 6139 bfb7 c63a c275 943b f422 f63c
00000020: a9b9 de3b b67e 123d d9f4 b639 c6f4 643b
00000030: 7df6 153a d4eb 9f3b 338d 4f3b 33d8 ad3c
00000040: 495b e038 cd17 e739 77fc b239 e383 e63a
00000050: 83a3 893c 51b3 dc3d 4087 af39 9862 263b
00000060: f747 8d39 4e64 d73a 748a 2c3b 9d41 603c
00000070: ab8f 1c3a deca 953b 315b 5a39 57a0 9a3a
00000080: 5cde 3d3b 1931 923c 6620 ad3b 5932 0e3d
00000090: ba54 ec3a 3df8 103c bd2e 173b 0659 7a3c
000000a0: f1fd c83b 806d 3e3d 6588 1f3b b077 b43c
000000b0: 2926 d639 2beb 0b3b 0f6f 8c3b 425e 0c3d
000000c0: 3ce1 c139 656d 243b d12f 5b39 e87c 643a
000000d0: bb0f 0b3b e184 483c a10c 243a 7123 993b
000000e0: 7841 9a39 86c9 bc3a 9b89 273b d47a 733c
000000f0: 636d 3a3a 73f4 a53b ddbd cf38 a5c0 813a
00000100: 8ae9 983b e91d 023d 1e1e 1a39 08df 173b
00000110: 6956 3a3a e855 c73b d643 453a 6a87 893b
00000120: 25e0 0537 78d4 043a 2520 cf38 d962 6d3a
00000130: f57d 9d37 5308 d937 ed80 193b e8bc 5f3c

exp_avg f4 [40]
-0.0005203989 -0.0009489412 -0.00057594804 -0.0019635146 -0.0021412952 0.00071151665 -0.0008320569 -0.0016482159
0.00031336374 0.00024082835 0.0042115804 0.00018343938 6.281491e-05 0.0014805419 0.00076705293 0.00013169216
-0.0019234793 -0.002144489 -0.0009067548 0.0016485559 -0.0023611258 -0.001736435 -0.000702018 0.0023553518
-0.0005723564 -0.00023711956 0.000991934 0.00015017024 -0.00019130015 -0.0014106027 0.0008763579 -8.2874816e-05
0.0017090096 0.00056689914 0.0010117871 0.00054066855 -0.00042731574 0.00019453072 0.0003167276 -0.001316679
00000000: 616b 08ba 5ec2 78ba 38fb 16ba 4fae 00bb
00000010: f954 0cbb 1385 3a3a 651e 5aba f308 d8ba
00000020: f84a a439 de86 7c39 4c01 8a3b a259 4039
00000030: 7fbb 8338 be0e c23a 0d14 493a d816 0a39
00000040: 411d fcba 8e8a 0cbb 49b3 6dba 5b14 d83a
00000050: 1ebd 1abb 1799 e3ba a107 38ba 3f5c 1a3b
00000060: 300a 16ba 4ca3 78b9 c803 823a 0477 1d39
00000070: be97 48b9 f9e3 b8ba 62bb 653a 14cd adb8
00000080: d900 e03a f59b 143a f19d 843a a7bb 0d3a
00000090: 5909 e0b9 f1fa 4b39 750e a639 6a94 acba

exp_avg_sq f4 [40]
0.0010543484 0.0064732735 0.0015421074 0.03051783 0.035952635 0.0036360256 0.0049786973 0.021556612
0.00044973506 0.0017166227 0.109767854 0.002606708 0.0015842841 0.013783174 0.004655003 0.001155449
0.018243736 0.035403498 0.008698146 0.0156113645 0.047672857 0.02284193 0.0021629445 0.03515356
0.0025340298 0.00085825403 0.012210815 0.004683961 0.0014499667 0.014945096 0.005158429 0.0010186315
0.032290585 0.0024468307 0.0062462734 0.004221816 0.0005432613 0.0008764702 2.5051582e-05 0.013743694
00000000: 1032 8a3a c11d d43b 8a20 ca3a 8700 fa3c
00000010: 1243 133d 634a 6e3b 5724 a33b 7e97 b03c
00000020: 6bca eb39 4d00 e13a f8cd e03d 4ed5 2a3b
00000030: c1a7 cf3a d2d2 613c ff88 983b 6f72 973a
00000040: e373 953c 4203 113d ab82 0e3c cfc6 7f3c
00000050: 9d44 433d 001f bb3c 30c0 0d3b 2efd 0f3d
00000060: f711 263b 74fc 603a df0f 483c ea7b 993b
00000070: cf0c be3a 47dc 743c 0a08 a93b 9a83 853a
00000080: 2243 043d 025b 203b 8aad cc3b 2957 8a3b
00000090: a669 0e3a ebc2 653a dd25 d237 3b2d 613c

exp_avg f4 [40, 40]
-2.3283063e-05 -5.063255e-05 2.4235953e-05 -4.3366905e-05 1.5448157e-05 -2.8257567e-05 0.0001844165 7.5904085e-05
4.6923997e-05 4.824101e-05 2.3220502e-05 4.579801e-05 -3.0770687e-05 4.479735e-05 -0.000104078965 7.076545e-05
-0.000104112725 -2.8784538e-05 5.5468045e-06 8.721942e-05 -1.5468775e-05 -2.0986035e-05 0.0002073645 2.796035e-05
-9.2532595e-05 -3.1504675e-05 4.359599e-06 3.0742474e-05 -5.4493576e-05 -3.8362272e-05 -9.321206e-05 0.00013714594
3.755116e-05 3.9091567e-05 9.024028e-05 9.095733e-05 1.05420995e-05 -1.8872923e-05 -8.555381e-05 -4.4224027e-05
0.00023912764 0.00029199256 -3.5916346e-05 0.00012899407 8.785319e-05 0.0003732648 -0.0007496423 -0.0001524063
-0.00020026587 -0.00037533743 -4.2977397e-05 -8.445021e-06 -0.0001997289 -0.0001995904 0.00040447596 -0.00045046626
1.25723045e-05 4.1658543e-05 0.00032066737 -0.00012439968 -7.100773e-05 -0.00018307405 -0.0006430107 0.00015165887
0.00041006305 0.00028243312 -0.0003905042 -0.00046530121 0.00031885033 0.00018756269 0.00038483532 -0.00048358866
-5.1134095e-05 0.0002207396 6.36157e-05 -0.00040990752 -0.00037437017 -0.00016967731 8.943868e-05 0.00029449785
-8.338588e-05 -0.00010868882 2.7092272e-05 -5.2721098e-05 -1.3780402e-05 -0.00013394418 0.00033626286 9.201973e-05
8.041732e-05 0.00013714343 1.4292526e-05 1.9954276e-05 4.497186e-05 7.604747e-05 -0.00018262547 0.00017258669
-4.763625e-05 -1.8955867e-05 -9.3809365e-05 7.246115e-05 2.1341099e-05 5.286255e-05 0.00030944622 -3.958535e-05
-0.00016618455 -9.8731136e-05 0.000120275785 0.00015752495 -0.00012114951 -7.192023e-05 -0.00017024204 0.00022052038
2.7578408e-05 -5.510691e-05 1.9080544e-05 0.00016692409 0.00012501354 4.1777548e-05 -6.598636e-05 -0.00010717216
6.1276287e-06 8.571806e-07 3.888025e-07 -7.2967664e-06 4.767759e-06 1.8388339e-05 -6.1515384e-06 4.4631074e-06
2.7495025e-06 -7.831368e-06 8.173023e-06 1.3701772e-05 -1.6917289e-05 3.3760557e-06 2.708534e-06 -7.2448e-06
-2.7473749e-05 -8.759804e-06 1.7376187e-05 1.7508499e-05 -1.1784748e-05 -1.9508285e-05 7.337831e-06 1.9168276e-05
-1.9689492e-06 5.929842e-06 -1.9223758e-05 -1.773603e-05 2.2881534e-06 -1.6402493e-06 3.7649713e-06 1.462098e-06
9.762607e-06 2.5975856e-05 2.8359775e-05 1.0829762e-06 -2.2291197e-05 -1.3391858e-05 -1.7783517e-05 2.7627439e-06
-0.00020771408 -0.00023566444 2.2653709e-05 -8.510966e-05 -8.619836e-05 -0.0003364169 0.00060127326 0.000103241684
0.00015388723 0.00031901474 1.5004889e-05 -2.6092777e-05 0.00020452817 0.00015135042 -0.00032096665 0.00037650377
6.094174e-05 -1.2699134e-05 -0.0003007766 5.2743842e-05 8.3485116e-05 0.0001911944 0.0004822177 -0.00016604667
-0.00032069365 -0.00024101391 0.00035967567 0.0004143858 -0.00026073988 -0.00014696117 -0.0003083122 0.00037153976
1.7528517e-05 -0.0002367797 -0.00012151156 0.0003231211 0.0003475461 0.00016939844 -2.6320267e-05 -0.00024287484
2.5272811e-06 -1.0476301e-05 1.0491626e-05 -1.7739532e-05 1.3766118e-05 1.0048759e-05 5.4546297e-05 3.150765e-05
1.414918e-05 3.1101476e-06 1.2524329e-05 2.700614e-05 -3.0965984e-05 1.3538735e-05 -3.0511374e-05 1.1091777e-05
-6.0649727e-05 -1.5398e-05 2.3968589e-05 4.3293152e-05 -1.5434876e-05 -2.6239146e-05 7.297463e-05 2.8083079e-05
-2.6563988e-05 2.7148693e-07 -2.2439397e-05 -1.1958135e-05 -1.0502287e-05 -1.0170038e-05 -2.5815963e-05 4.464302e-05
1.9528405e-05 3.8996004e-05 5.767822e-05 2.5399457e-05 -1.9893569e-05 -2.2320755e-05 -4.3978962e-05 -6.51354e-06
-5.309741e-06 1.0570576e-05 -1.5471785e-05 2.0829311e-05 -2.0257827e-05 -1.3397381e-05 -6.558908e-05 -4.3538654e-05
-1.6460233e-05 -3.8559625e-07 -1.3726463e-05 -3.3619373e-05 4.2529464e-05 -1.5160122e-05 4.1056363e-05 -9.8942855e-06
00000000: ff4f c3b7 495e 54b8 504e cb37 dce4 35b8
00000010: aa96 8137 aa0a edb7 ed5f 4139 b22e 9f38
00000020: 42d0 4438 6456 4a38 a6c9 c237 3d17 4038
00000030: c60f 01b8 cae4 3b38 f844 dab8 e967 9438
00000040: 1857 dab8 5376 f1b7 b01e ba36 92e9 b638
00000050: f1c2 81b7 2b0b b0b7 fc6f 5939 658c ea37
00000060: 0f0e c2b8 e323 04b8 ac48 9236 7bf1 0038
00000070: 0890 64b8 2de7 20b8 d87a c3b8 d5ce 0f39
00000080: 4080 1d38 40f6 2338 623f bd38 58c0 be38
00000090: f9dd 3037 4b51 9eb7 5a6b b3b8 307d 39b8
000000a0: 56be 7a39 9416 9939 e2a4 16b8 9542 0739
000000b0: d23d b838 c1b2 c339 a583 44ba 41cf 1fb9
000000c0: 76fe 51b9 f0c8 c4b9 a142 34b8 17af 0db7
000000d0: 516e 51b9 2449 51b9 d80f d439 8f2c ecb9
000000e0: a3ed 5237 85ba 2e38 3f1f a839 4971 02b9
000000f0: fce9 94b8 91f7 3fb9 b88f 28ba 9e06 1f39
00000100: bbfd d639 8813 9439 96bc ccb9 acf3 f3b9
00000110: 5e2b a739 7aac 4439 b9c3 c939 2c8a fdb9
00000120: d178 56b8 5676 6739 6b69 8538 dbe8 d6b9
00000130: 1d47 c4b9 68eb 31b9 0791 bb38 d566 9a39
00000140: 74df aeb8 deef e3b8 3644 e337 d920 5db8
00000150: 6032 67b7 5e73 0cb9 704c b039 b7fa c038
00000160: b8a5 a838 29ce 0f39 efc9 6f37 7b63 a737
00000170: 2ba0 3c38 ad7b 9f38 277f 3fb9 63f8 3439
00000180: 09cd 47b8 6a03 9fb7 85bb c4b8 49f6 9738
00000190: a905 b337 bbb8 5d38 2b3d a239 7208 26b8
000001a0: d341 2eb9 e00d cfb8 923c fc38 482d 2539
000001b0: a611 feb8 e1d3 96b8 0083 32b9 7d3b 6739
000001c0: 2e58 e737 9822 67b8 280f a037 5808 2f39
000001d0: 1116 0339 4d3a 2f38 2862 8ab8 9ec1 e0b8
000001e0: ee9b cd36 0119 6635 9cbc d034 bfd6 f4b6
000001f0: bdfa 9f36 a840 9a37 5069 ceb6 cdc1 9536
00000200: 1884 3836 7863 03b7 de1e 0937 aae0 6537
00000210: 9ae9 8db7 3290 6236 43c4 3536 5c18 f3b6
00000220: 6d77 e6b7 12f7 12b7 14c3 9137 37df 9237
00000230: 1bb7 45b7 b9a5 a3b7 7d37 f636 8fcb a037
00000240: 4a22 04b6 f4f8 c636 b542 a1b7 d6c7 94b7
00000250: 2d8e 1936 8926 dcb5 b7a9 7c36 4e3d c435
00000260: 14ca 2337 bae6 d937 27e6 ed37 c75a 9135
00000270: fbfd bab7 98ad 60b7 d02d 95b7 9467 3936
00000280: d3cd 59b9 b11c 77b9 7808 be37 e77c b2b8
00000290: 64c5 b4b8 1d61 b0b9 c49e 1d3a 7583 d838
000002a0: ca5c 2139 6f41 a739 82bd 7b37 d0e1 dab7
000002b0: 9d76 5639 d2b3 1e39 6a47 a8b9 7b65 c539
000002c0: b29b 7f38 5d0e 55b7 8db1 9db9 4539 5d38
000002d0: bb14 af38 5b7b 4839 2ad2 fc39 d01c 2eb9
000002e0: c622 a8b9 aeb8 7cb9 da92 bc39 ec41 d939
000002f0: eab3 88b9 9719 1ab9 f7a4 a1b9 39cb c239
00000300: 340a 9337 1148 78b9 06d4 feb8 9468 a939
00000310: d936 b639 8ca0 3139 58ca dcb7 38ac 7eb9
00000320: 5c9a 2936 5fc3 2fb7 3105 3037 5bcf 94b7
00000330: 07f5 6637 1797 2837 a4c8 6438 1527 0438
00000340: 4462 6d37 eeb7 5036 951f 5237 3e8b e237
00000350: 79e1 01b8 6d24 6337 adf2 ffb7 d216 3a37
00000360: 2662 7eb8 f42a 81b7 2710 c937 ab95 3538
00000370: 257a 81b7 231c dcb7 f509 9938 f493 eb37
00000380: bbd5 deb7 e1c0 9134 3d3c bcb7 cc9f 48b7
00000390: fb32 30b7 fb9f 2ab7 5c8f d8b7 143f 3b38
000003a0: eed0 a337 a48f 2338 84eb 7138 eb10 d537
000003b0: 1de1 a6b7 753d bbb7 0d76 38b8 e28e dab6
000003c0: 542a b2b6 4758 3137 68c9 81b7 9bba ae37
000003d0: 5aef a9b7 50c5 60b7 df8c 89b8 469d 36b8
000003e0: 1514 8ab7 f203 cfb4 b64a 66b7 8702 0db8
000003f0: aa61 3238 3a58 7eb7 ef33 2c38 a2ff 25b7
