Lid_Driven_Re100/saved_models/PA-5000.pt (torch, 94805 bytes, 36 tensors)

linears.0.weight f4 [40, 2]
0	0x3e2f9ee4	0.17150456
1	0x3d9896ff	0.07450675
2	0x3e17409c	0.1477074
3	0x3e77ce15	0.24199708
4	0x3ce89207	0.028389944
5	0xbc1d3500	-0.009595156
6	0xb91d4a3b	-0.0001500034
7	0x3e81832d	0.25295392
8	0x3e0339d4	0.12815028
9	0x3d584444	0.05279948
10	0x3e98fbbc	0.29879558
11	0x3d2fdd2f	0.042935546
12	0xbebfd2e5	-0.37465587
13	0xbece211e	-0.4025964
14	0x3da0621f	0.07831215
15	0xbd33b514	-0.04387386
16	0xbd8a2ff1	-0.06747425
17	0xbe421b3c	-0.18955702
18	0xbe76af51	-0.24090315
19	0xbe39944c	-0.18122977
20	0x3d02e555	0.03195699
21	0xbe7d9353	-0.24763231
22	0x3df65145	0.1202722
23	0xbe3e466d	-0.18581553
24	0xbe8d44c1	-0.27591518
25	0x3d2bfce8	0.041989237
26	0xbd850389	-0.06494815
27	0xbe752efc	-0.23943704
28	0x3ddd8731	0.10816801
29	0x3e16aa7b	0.1471347
30	0xbe863310	-0.26210833
31	0xbe6939af	-0.22775911
32	0xbe9f7316	-0.3114249
33	0x3ec154fe	0.37760156
34	0xbd3bacd9	-0.045819137
35	0x3e549261	0.20758964
36	0x3eae8b87	0.34090826
37	0x3d4d0a18	0.050058454
38	0x3e107cc3	0.14110093
39	0xbebeb48c	-0.3724712
40	0xbded29d2	-0.11580242
41	0x3e1bd027	0.15216123
42	0xbe715b40	-0.23569965
43	0x3e16d009	0.14727797
44	0xbd58e97d	-0.052957047
45	0xbeef98f6	-0.46796387
46	0x3e711986	0.23544893
47	0xbe294357	-0.16529594
48	0x3e2cb39d	0.16865392
49	0x3ebb98bf	0.36639974
50	0x3e3c00c6	0.1835967
51	0x3e21cf30	0.15801692
52	0xbec93cdf	-0.39304253
53	0xbdd34146	-0.10315184
54	0xbecd18e2	-0.40058047
55	0xbe2a0822	-0.16604665
56	0x3e241c65	0.16026457
57	0x3e58f26f	0.21186231
58	0x3d9f1a31	0.077686675
59	0x3e272884	0.16324049
60	0x3dfe3589	0.12412555
61	0x3e121ab3	0.14267997
62	0xbdc15e3d	-0.09441803
63	0xbea2db5d	-0.31807986
64	0x3d6fce49	0.05854634
65	0xbe4b920b	-0.1987993
66	0x3e99f1df	0.30067345
67	0xbe2e40bb	-0.1701688
68	0x3ea86db7	0.32896206
69	0xbe947093	-0.28992137
70	0xbe27bbc4	-0.1638022
71	0xbea3cb68	-0.31991124
72	0xbe981d92	-0.2971006
73	0xbcf6cf55	-0.03012816
74	0xbe35f9e6	-0.1777111
75	0xbbd55176	-0.006509955
76	0xbde874b6	-0.11350386
77	0x3e8a4220	0.27003574
78	0x3e344a72	0.17606524
79	0x3e50e5e1	0.20400192

linears.0.bias f4 [40]
0	0xbc3d05bd	-0.011537013
1	0xbdcc231c	-0.09967634
2	0xbd8d64a4	-0.06903961
3	0xbe09deb4	-0.13463861
4	0xbdcf9a24	-0.10136822
5	0x3d3bc0fa	0.045838334
6	0xbe10c65c	-0.14138168
7	0xbe2ff5ce	-0.17183611
8	0x3cfd6f78	0.030936942
9	0x3d153a6c	0.03643267
10	0x3e40f135	0.18842013
11	0x3d3fa5d2	0.046788998
12	0x3d0e200e	0.03469854
13	0x3dfb4ff6	0.12271111
14	0x3e11a52b	0.14223163
15	0x3cf2f19c	0.029656224
16	0xbdb5dcbe	-0.08879994
17	0xbe05be3a	-0.13060847
18	0xbd920519	-0.071298786
19	0x3e08eb94	0.13371116
20	0xbde3a407	-0.1111527
21	0xbdb60417	-0.08887499
22	0xbe2da141	-0.16956045
23	0x3db12bb1	0.086509116
24	0xbdc5c6a1	-0.09657026
25	0xbd4e5851	-0.050377194
26	0x3dc2024f	0.094730966
27	0x3db69a78	0.08916181
28	0xbd29802b	-0.041381996
29	0xbd6bc182	-0.05755759
30	0x3de672d5	0.11252371
31	0xbd52a090	-0.051422656
32	0x3dbf7928	0.093492806
33	0x3d3d08c7	0.04615095
34	0x3d31395e	0.0432676
35	0x3d8180fc	0.0632343
36	0xbcb408ba	-0.021976817
37	0x3c9d1a9e	0.019177731
38	0xbc12e20f	-0.008965029
39	0xbdb31d46	-0.08745818

linears.1.weight f4 [40, 40]
0	0xbe849967	-0.25898287
1	0xbe7709b0	-0.24124789
2	0x3e9fe74e	0.3123116
3	0x3d8bc0a5	0.068238534
4	0xbe813cc3	-0.2524167
5	0xbe5b0709	-0.21389402
6	0x3e3768a5	0.17911012
7	0x3e377288	0.17914784
8	0xbdecbf1f	-0.11559891
9	0x3d2c8429	0.042118225
10	0xbe3b6041	-0.18298437
11	0x3e45586c	0.19272012
12	0xbe1892a8	-0.14899695
13	0x3e117e03	0.14208226
14	0xbe89cb66	-0.26912993
15	0x3e23309d	0.15936513
16	0x3e3931bc	0.18085378
17	0x3dd55597	0.104167156
18	0xbcc73a50	-0.024319798
19	0xbe91e6ad	-0.28496304
20	0x3de38bac	0.11110625
21	0x3c37bbcd	0.011214209
22	0x3d078074	0.033081487
23	0xbded8c1c	-0.11598989
24	0x3e265d42	0.16246513
25	0xbe309814	-0.17245513
26	0x3e4a92bf	0.19782542
27	0x3e7b43dc	0.24537605
28	0x3d48271f	0.048865434
29	0xbcf586c5	-0.02997149
30	0xbdf0bdd7	-0.11754959
31	0xbe1482c8	-0.14503014
32	0x3d750b67	0.059825327
33	0xbd404cab	-0.046948116
34	0xbe303a54	-0.1720975
35	0x3d15eea7	0.03660455
36	0xbe6e9b4d	-0.2330143
37	0x3e823878	0.25433707
38	0x3cad8c9c	0.021185212
39	0x3c863ff1	0.016387912
40	0xbe8a4308	-0.27004266
41	0xbde213a0	-0.110388994
42	0x3d24d580	0.040242672
43	0x3c9e72ee	0.019341912
44	0xbe6f911e	-0.23395202
45	0x3e2be004	0.16784674
46	0xbe29e839	-0.16592492
47	0xbd7f51ed	-0.06233399
48	0x3bef5b93	0.0073046177
49	0x3e0d129e	0.13776633
50	0x3ea7d31f	0.3277826
51	0x3e36def1	0.17858483
52	0x3d0bd201	0.034135822
53	0x3e626e40	0.2211237
54	0x3e7dbcdd	0.24779077
55	0x3e5fb64b	0.21846883
56	0x3dcb1577	0.099162035
57	0xbeba17dc	-0.36346328
58	0xbe3dd6d6	-0.18538985
59	0x3e928b23	0.28621778
60	0xbe848fcf	-0.25890967
61	0x3e0efcfe	0.13963696
62	0x3b8b96f8	0.0042599402
63	0x3e3a1d3f	0.18175219
64	0xbe1557a7	-0.14584218
65	0xbe092210	-0.133919
66	0x3d3b41ac	0.045716926
67	0xbe2e66d7	-0.17031418
68	0xbe8c1832	-0.2736221
69	0x3e3d8f17	0.18511616
70	0x3e024816	0.12722811
71	0xbca69852	-0.020336304
72	0xbc5345ce	-0.012895061
73	0xbe4f41e4	-0.20239979
74	0x3d716aaa	0.058939613
75	0x3bb53f4f	0.0055312286
76	0xbcaf97e1	-0.021434726
77	0xbda8bef9	-0.0823955
78	0x3d9a693d	0.07539604
79	0xbe1c0a00	-0.1523819
80	0xbe4193fa	-0.18904105
81	0x3cd3a5ae	0.025835838
82	0xbba4583c	-0.005015401
83	0x3e46268f	0.19350646
84	0x3dd07989	0.10179431
85	0xbe60eafe	-0.21964642
86	0x3e66a2f7	0.22523104
87	0x3e06f7a4	0.13180405
88	0xbd8a9ba9	-0.06767971
89	0x3bc6cb6c	0.0060667302
90	0xbe5f903c	-0.21832365
91	0xbe4e4e03	-0.20146947
92	0x3e8b9fea	0.27270442
93	0x3e288b9c	0.16459507
94	0xbddf6827	-0.10908537
95	0xbe92cc41	-0.28671458
96	0x3eb3cfbc	0.35119426
97	0xbd474638	-0.04865095
98	0xbbdf35ab	-0.0068118176
99	0xbd1f9d11	-0.03896815
100	0x3e9b7e12	0.30369622
101	0xbde56204	-0.112003356
102	0x3e4358d9	0.19076861
103	0x3d5c3ee5	0.05377092
104	0x3db62864	0.08894423
105	0x3e5a10b7	0.21295439
106	0xbe0acfcc	-0.1355583
107	0xbe29c171	-0.16577698
108	0x3d71a9d5	0.058999855
109	0xbd0de85e	-0.03464543
110	0xbe00e0df	-0.12585782
111	0x3e04697c	0.12930864
112	0x3e0e35cb	0.13887708
113	0x3d06a0c5	0.032868166
114	0xbe79bbbd	-0.24388023
115	0x3d42fd8f	0.047605094
116	0x3e874076	0.26416367
117	0xbe64e229	-0.22351898
118	0x3e639f83	0.22228818
119	0xbd64e04d	-0.055877972
120	0x3e943268	0.28944707
121	0x3d96c276	0.07361309
122	0xbe59e427	-0.2127844
123	0xbe346df8	-0.17620075
124	0x3cd7a698	0.026324555
125	0xbd7814cc	-0.06056671
126	0xbdc3c709	-0.09559447
127	0xbe75758b	-0.2397062
128	0x3d8117db	0.06303378
129	0x3dc507d3	0.09620633
130	0xbda8f66a	-0.08250125
131	0x3ea9a99a	0.33137208
132	0xbe292cdb	-0.16521017
133	0xbd5d76b5	-0.054068286
134	0x3d6e71e6	0.05821409
135	0xbda75bc3	-0.08171799
136	0xbd7214a9	-0.059101734
137	0xbd6f56fa	-0.058432557
138	0xbe3423e1	-0.17591812
139	0xbd416307	-0.04721358
140	0xbe68a3ee	-0.22718784
141	0xbe93527b	-0.28773865
142	0xbe241edf	-0.16027401
143	0x3e9e4063	0.30908498
144	0xbe8761f7	-0.2644193
145	0x3e89650c	0.26834905
146	0xbcdd159f	-0.026987849
147	0xbe2beadb	-0.16788809
148	0xbe337b05	-0.17527397
149	0x3e7620e9	0.24035992
150	0x3e83d9db	0.25752148
151	0x3d2558ca	0.04036788
152	0x3e8d2ad9	0.27571753
153	0x3d51f49f	0.05125868
154	0x3ea46a2f	0.32112262
155	0x3d73c85c	0.05951725
156	0x3e646cdd	0.22307153
157	0x3e11dc36	0.1424416
158	0x3dd4e8c3	0.10395958
159	0xbe5d3b74	-0.21604711
160	0xbe713312	-0.23554638
161	0x3ce1f56b	0.027582845
162	0xbdeab39a	-0.114600375
163	0x3e8437b8	0.2582376
164	0x3e4b95bd	0.1988134
165	0x3dcfac99	0.10140342
166	0x3de9ba7a	0.11412521
167	0x3e6f56ff	0.2337303
168	0x3e3b6c8e	0.18303129
169	0xbd59b439	-0.05315039
170	0xbed12e67	-0.40855715
171	0xbe09e234	-0.13465196
172	0xbe177162	-0.14789346
173	0x3e2d68f3	0.16934566
174	0xbd588990	-0.052865565
175	0xbdd36466	-0.10321884
176	0xbe36cb64	-0.17851025
177	0x3e9ac0fa	0.30225354
178	0xbd9f3260	-0.0777328
179	0x3d959951	0.073046334
180	0x3e93dadc	0.28877914
181	0x3e974c1f	0.29550263
182	0xbe1eef82	-0.15521052
183	0xbeab5a2e	-0.3346724
184	0xbe4ffd53	-0.2031148
185	0x3a1ed752	0.0006059307
186	0xbe9c18cc	-0.3048767
187	0xbe52251e	-0.20521972
188	0x3e837cda	0.25681192
189	0x3e9d357c	0.30704868
190	0xbe669138	-0.22516334
191	0x3e6e3958	0.23264062
192	0xbe634fb6	-0.22198376
193	0xbe79c242	-0.2439051
194	0xbdd444da	-0.10364695
195	0xbdcf8985	-0.10133652
196	0xbc942241	-0.01808274
197	0x3e04274c	0.12905616
198	0x3e5e44e7	0.21705972
199	0x3e9cbe13	0.30613765
200	0x3e021ecc	0.1270706
201	0xbda783ca	-0.08179434
202	0xbe1ccc02	-0.15312198
203	0xbe5e1619	-0.21688117
204	0x3db979b3	0.090564154
205	0xbe0b3f0f	-0.13598274
206	0x3e63c1c8	0.2224189
207	0xbe4980e3	-0.19678073
208	0xbe702f7d	-0.23455615
209	0x3e1561f7	0.14588152
210	0x3d38dc7f	0.045132156
211	0xbd3f39be	-0.046685927
212	0x3d78477d	0.06061505
213	0x3e1080cd	0.14111634
214	0x3d127aab	0.035761517
215	0x3e2bf3b7	0.16792189
216	0xbdfbe1e9	-0.12298948
217	0xbcdd6a00	-0.027028084
218	0xbeb2720e	-0.34852642
219	0x3e761332	0.2403076
220	0xbe746f3f	-0.23870562
221	0xbe2203f5	-0.15821822
222	0x3e555094	0.2083152
223	0x3e4ba31a	0.19886437
224	0xbe7fc1d3	-0.24976282
225	0xbbdfc95f	-0.006829425
226	0x3e639dd0	0.2222817
227	0x3e7b7409	0.24555983
228	0x3bad3478	0.005285796
229	0x3e05f586	0.13081941
230	0x3e81e9f8	0.25373816
231	0x3e2b2a52	0.16715363
232	0xbd12740a	-0.035755195
233	0xbe91599b	-0.28388676
234	0xbe65526b	-0.22394721
235	0x3d70493a	0.058663584
236	0x3e328465	0.17433317
237	0x3e99e265	0.30055538
238	0xbe528ca6	-0.20561466
239	0x3e2c3552	0.16817215
240	0x3d48e7d3	0.04904921
241	0xbcdfbeba	-0.027312625
242	0x3e7c7235	0.24652942
243	0x3e72a345	0.23695095
244	0x3e751e5a	0.2393736
245	0xbd6d24f0	-0.057896554
246	0xbd2a6488	-0.04159978
247	0xbe17d3f7	-0.14826952
248	0x3e51a058	0.20471323
249	0xbe5aa146	-0.21350583
250	0x3e8e4592	0.27787453
251	0xbc681b02	-0.014166595
252	0xbe7a3aff	-0.24436568
253	0x3c82e868	0.01597996
254	0xbcc3d6e9	-0.023906188
255	0xbe807f3c	-0.25097072

linears.1.bias f4 [40]
0	0xbd18ada7	-0.037274983
1	0x3d995017	0.07485979
2	0xbd2000b4	-0.03906317
3	0x3c6915f6	0.014226427
4	0xbe19ed09	-0.15031828
5	0x3dbed295	0.09317509
6	0x3b4568af	0.003012221
7	0x3a69628c	0.0008902929
8	0x3d7fc093	0.062439512
9	0x3d18bd4a	0.037289895
10	0x3b31c681	0.0027126374
11	0xbe14f98d	-0.14548321
12	0x3c05e49c	0.0081721805
13	0xbd910d2f	-0.07082593
14	0x3cc8050e	0.024416473
15	0x3c1970d4	0.009365279
16	0x3d2c56f7	0.042075124
17	0xbc4d99b7	-0.0125488555
18	0x3cecefde	0.028922971
19	0xbdfbf03f	-0.12301683
20	0x3dc2c40c	0.09510049
21	0x3cce097e	0.02515101
22	0xbdde28ba	-0.10847612
23	0x3d060c00	0.032726288
24	0x3c92cd1b	0.017920068
25	0x3da35d12	0.07976736
26	0xbd45e549	-0.048314366
27	0x3d23fc4c	0.04003553
28	0xbd11e357	-0.0356172
29	0xbc861efb	-0.016372195
30	0x3dab769d	0.08372233
31	0xbca07da3	-0.019591158
32	0xbc162e04	-0.009166244
33	0xbc14a5e5	-0.009072755
34	0xb982c029	-0.00024938703
35	0xbd6112df	-0.054949638
36	0xbd013f4c	-0.031554505
37	0x3dc3a1eb	0.09552368
38	0xbdf70ac6	-0.12062602
39	0xbdf6fc95	-0.12059895

linears.2.weight f4 [40, 40]
0	0x3e192639	0.14955987
1	0xbdfa6b23	-0.12227466
2	0xbe13e49d	-0.14442678
3	0x3cd4e28a	0.025986928
4	0x3d365656	0.04451593
5	0x3e226f7f	0.15862845
6	0xbdd98007	-0.106201224
7	0x3d4653d2	0.04841978
8	0xbd5897df	-0.05287921
9	0x3e5f2f79	0.21795453
10	0x3e123bff	0.14280699
11	0xbe380996	-0.17972407
12	0x3e600cfb	0.21879952
13	0xbe8ff782	-0.2811852
14	0x3d1939cc	0.037408635
15	0x3e5f2194	0.21790153
16	0xbe0becd9	-0.13664569
17	0x3e925577	0.2858083
18	0xbe1e4f36	-0.15459904
19	0xbe4385d8	-0.19094026
20	0x3e00e5ba	0.12587634
21	0x3de2ec62	0.11080243
22	0xbdd82584	-0.105540305
23	0xbe0777c1	-0.13229276
24	0x3e44bda8	0.19212973
25	0xbd92956e	-0.07157408
26	0xbe80b229	-0.25135925
27	0xbdc718bd	-0.09721515
28	0x3c48c1ee	0.012253268
29	0xbe8c580d	-0.27410927
30	0x3cbb8099	0.022888469
31	0x3daf229b	0.08551522
32	0x3e859f02	0.26097876
33	0xbd520a1e	-0.05127918
34	0xbe7775a1	-0.24165966
35	0x3d5c9d4a	0.05386094
36	0xbe8d8919	-0.2764366
37	0x3e34ef66	0.17669448
38	0xbd98c0bb	-0.074586354
39	0x3d08e367	0.033419993
40	0xbdab52f0	-0.083654284
41	0x3ecbbc11	0.3979192
42	0xbea8a09d	-0.32935038
43	0x3d93d92b	0.07219156
44	0xbd676329	-0.05649105
45	0xbe0c8de5	-0.13726003
46	0xbe5b299e	-0.21402594
47	0x3e4738bb	0.19455235
48	0x3e5e4ac5	0.2170821
49	0x3d532e79	0.05155799
50	0xbdfff00e	-0.12496959
51	0x3c923bbc	0.01785075
52	0xbdf85651	-0.121258385
53	0xbe3ec371	-0.18629242
54	0x3e066c60	0.1312728
55	0xbe50b4a7	-0.20381413
56	0xbd94fd9b	-0.07274934
57	0xbe4c926f	-0.19977735
58	0x3e001e85	0.12511642
59	0xbddf1871	-0.10893334
60	0xbc920b06	-0.017827522
61	0x3d4bdb7d	0.049769867
62	0xbed77bc0	-0.420866
63	0x3e434174	0.19067937
64	0xbe3b173f	-0.18270586
65	0x3ba23595	0.004950235
66	0xbe632a6a	-0.22184148
67	0xbe3f7a16	-0.18698916
68	0x3e855c3a	0.26046926
69	0x3d24c142	0.040223368
70	0x3c1aec6b	0.0094557805
71	0xbdebfeb4	-0.1152319
72	0xbdb373c7	-0.08762317
73	0x3c82dafc	0.01597356
74	0xbe8257b6	-0.25457543
75	0x3da610d1	0.08108676
76	0xbea177cd	-0.31536713
77	0xbda9ced4	-0.082914025
78	0x3e2e6874	0.17032033
79	0xbe4caf04	-0.19988638
80	0xbc682b38	-0.01417046
81	0xbea11b58	-0.31466174
82	0xbe389a4d	-0.18027611
83	0xbe0158ce	-0.12631533
84	0x3eeeaa52	0.4661432
85	0xbe3c97d3	-0.18417291
86	0xbd6f5fda	-0.05844102
87	0xbe302b5d	-0.17204042
88	0xbe75f76f	-0.2402017
89	0xbe1ffcf3	-0.15623836
90	0xbe7d3ba4	-0.24729782
91	0x3d29ee47	0.041487005
92	0xbcff39f4	-0.031155564
93	0x3e12bf21	0.14330722
94	0xbe5d70a4	-0.21625
95	0xbdae09c3	-0.08497956
96	0xbde45f15	-0.11150948
97	0xbd34fc34	-0.044185832
98	0xbd9a6c21	-0.07540155
99	0x3d4a49c5	0.04938676
100	0xbe46f5fb	-0.19429772
101	0xbe28c4cf	-0.16481327
102	0x3f16b074	0.58862996
103	0xbe153403	-0.14570622
104	0xbe553b7f	-0.20823477
105	0x3dd08800	0.1018219
106	0xbdb16186	-0.08661179
107	0x3c761378	0.01501929
108	0x3e26b441	0.16279699
109	0xbd0c1bce	-0.034206204
110	0xbe4f9f9c	-0.2027573
111	0x3d8e778e	0.06956397
112	0x3d5e3334	0.05424805
113	0x3c6f6a3e	0.014612732
114	0x3e84cd4d	0.25937882
115	0x3e7b130a	0.24518982
116	0x3ec5e84a	0.38653785
117	0xbedf810d	-0.43653145
118	0xbdd59443	-0.10428669
119	0x3e8dbe63	0.27684316
120	0xbdb1efec	-0.086883396
121	0x3e5dd75f	0.21664189
122	0xbdf85d1d	-0.12127135
123	0x3d2d77da	0.042350627
124	0xbdb95ce1	-0.09050918
125	0xbe3b9dc1	-0.18321897
126	0xbdbf2b65	-0.09334449
127	0xbe1baeed	-0.15203448
128	0x3c4abc39	0.012373977
129	0xbdf9b8ce	-0.12193452
130	0x3db7176c	0.08940014
131	0x3dfbb4f8	0.122903764
132	0x3d8cdc6e	0.06877981
133	0xbe634bff	-0.22196959
134	0x3e3ec81f	0.18631028
135	0xbc8fdbdb	-0.01756089
136	0xbe878c7c	-0.2647437
137	0xbbb38c9a	-0.0054794075
138	0xbe09a328	-0.13441145
139	0xbe27d260	-0.16388845
140	0x3e8195f4	0.25309718
141	0xbe17fde9	-0.14842953
142	0xbe108c29	-0.14115967
143	0xbe6d3dce	-0.23168108
144	0x3e844c6a	0.2583955
145	0x3e190fe6	0.14947471
146	0x3e41964a	0.18904987
147	0xbe8d7da1	-0.2763491
148	0xbe1c884c	-0.15286368
149	0x3d1cf6ee	0.038321428
150	0x3e3a0cac	0.18168896
151	0x3e80dc24	0.25167954
152	0x3e156ef3	0.14593105
153	0xbdabd402	-0.08390047
154	0xbd3bdf70	-0.045867383
155	0x3db08bd4	0.0862042
156	0x3df13c79	0.11779112
157	0x3d9511d5	0.07278792
158	0xbd7dc823	-0.061958443
159	0xbd8c6016	-0.068542644
160	0x3a760630	0.0009385077
161	0x3e6f063c	0.23342222
162	0xbe3a5d48	-0.18199646
163	0xbe7b3ecb	-0.24535672
164	0xbe5769af	-0.21036409
165	0xbca6e327	-0.020371987
166	0x3e6505e7	0.22365533
167	0x3e56aaa4	0.20963532
168	0x3e3abc2d	0.18235846
169	0xbe65cb86	-0.2244092
170	0x3e9b9b0d	0.30391732
171	0x3dc5289e	0.09626888
172	0xbe234a0e	-0.15946218
173	0xbd1f2c50	-0.03886062
174	0x3de8bcc8	0.11364132
175	0x3cb6c213	0.022309339
176	0x3d9deb5c	0.07710907
177	0x3e113ed8	0.14184129
178	0x3e0bd845	0.13656719
179	0x3dd3e512	0.10346426
180	0x3e0e72c7	0.13910972
181	0x3e08029a	0.13282242
182	0x3c840853	0.01611725
183	0xbdecc62d	-0.115612365
184	0x3e0b7a39	0.13620843
185	0x3c5964ce	0.013268663
186	0xbea52189	-0.32252148
187	0xbdd6d5c8	-0.10489994
188	0x3e4b6849	0.19864
189	0xbd6ccdf9	-0.05781362
190	0x3e936410	0.2878728
191	0x3dfc62b2	0.12323512
192	0xbecc0dcd	-0.3985428
193	0xbe5a6861	-0.2132888
194	0x3e49887e	0.19680974
195	0xbd05ca7a	-0.0326638
196	0x3e25be09	0.16185774
197	0x3db140e0	0.08654952
198	0x3d0ce19b	0.03439484
199	0xbe9fb9d2	-0.31196457
200	0x3e395e90	0.18102479
201	0x39017b6b	0.00012348375
202	0xbe61359d	-0.21993108
203	0x3c9715e7	0.018443061
204	0x3dbc6c36	0.09200327
205	0xbbd7e188	-0.0065881647
206	0x3e151620	0.14559221
207	0xbe898668	-0.26860356
208	0xbde5c03d	-0.11218307
209	0x3d6c881b	0.057746988
210	0xbea990fd	-0.3311843
211	0xbe80060c	-0.25004613
212	0xbe8dcc74	-0.27695048
213	0xbe4f5f84	-0.2025128
214	0xbeaa2ffe	-0.3323974
215	0x3e126c37	0.14299093
216	0xbda1b9cf	-0.07896768
217	0xbe182501	-0.14857866
218	0x3e8461ac	0.25855768
219	0x3e547dc8	0.20751107
220	0x3d2e165e	0.0425018
221	0xbd2172c0	-0.039416075
222	0x3e2233ce	0.15840074
223	0x3e60c6ca	0.21950832
224	0x3dee1f8a	0.11627109
225	0x3d998f86	0.07498078
226	0x3e6c6ed7	0.23089157
227	0x3cb07ecd	0.021544838
228	0xbe2188c6	-0.15774831
229	0xbc3f864c	-0.011689734
230	0x3c0be2b1	0.008537934
231	0xbd994ec3	-0.07485726
232	0x3df68432	0.12036933
233	0x3e2bd456	0.16780218
234	0x3e83d883	0.25751123
235	0x3e14d0d2	0.14532784
236	0xbe729396	-0.23689112
237	0xbe6b978e	-0.23007032
238	0xbe96a113	-0.29419765
239	0x3e83ec7d	0.25766364
240	0x3e203938	0.15646827
241	0x3e51fa66	0.20505676
242	0xbd698fae	-0.05702179
243	0x3dea1cb6	0.114312574
244	0x3e761db0	0.24034762
245	0xbe0bda52	-0.13657501
246	0xbd47ce85	-0.048780937
247	0xbe2249f4	-0.15848523
248	0xbed0820c	-0.40724218
249	0xbe40f280	-0.18842506
250	0xbe66557a	-0.22493544
251	0xbd3c9214	-0.04603775
252	0xbe24607e	-0.16052434
253	0xbe085327	-0.1331297
254	0xbe8605ad	-0.26176205
255	0xbe9b4a58	-0.30330157

linears.2.bias f4 [40]
0	0xbc5bbc4b	-0.013411592
1	0x3d5ed2ee	0.054400377
2	0xbdda101d	-0.106476046
3	0x3c1c9c9d	0.009558824
4	0x3d31e2a1	0.04342902
5	0x3b1210cf	0.002228785
6	0xbd11e264	-0.035616294
7	0x3c1fadd0	0.00974603
8	0x3ced9ed4	0.0290064
9	0x3daa3429	0.0831073
10	0x3d487ba7	0.04894605
11	0x3d11478f	0.035468634
12	0x3d0e871e	0.034796827
13	0xbdd11197	-0.10208433
14	0xbc8d2013	-0.017227208
15	0x3b0a7a50	0.0021130033
16	0x3c9fd5dc	0.019511156
17	0xbbcecbd2	-0.0063109184
18	0xbd19a228	-0.03750816
19	0xbc45edd4	-0.012080628
20	0x3ba52c0a	0.0050406503
21	0xbd76ca6a	-0.06025163
22	0xb84a98a4	-4.830271e-05
23	0x3c6bd881	0.01439488
24	0xbd8971cf	-0.067111604
25	0xbc91c309	-0.017793195
26	0xbdcd3b9f	-0.100211374
27	0x3b734ecf	0.003712583
28	0xbdb0615d	-0.086123206
29	0x3d7293c7	0.059222963
30	0x3b0346c5	0.0020031196
31	0xbaa52a6e	-0.0012601146
32	0xbd250201	-0.040285114
33	0xbc6df552	-0.014523821
34	0xbc89ddf7	-0.016829474
35	0xbd0e405f	-0.034729358
36	0x3d9953e8	0.07486707
37	0xbd5b1036	-0.053482257
38	0xbbc314ed	-0.0059534223
39	0x3d868155	0.06567637

linears.3.weight f4 [40, 40]
0	0xbe55407b	-0.20825379
1	0xbe4746da	-0.19460621
2	0xbb9b3bea	-0.004737367
3	0x3d73ddee	0.05953782
4	0xbd7216af	-0.059103664
5	0x3d83e939	0.06440968
6	0x3e7ce62c	0.24697179
7	0x3c9be33a	0.019029249
8	0x3d9bf191	0.076144345
9	0xbd258e62	-0.04041899
10	0xbde8afa7	-0.11361628
11	0x3d8262b0	0.063664794
12	0xbe6b0719	-0.22951926
13	0x3e1ada9b	0.15122454
14	0x3d02628a	0.031832255
15	0xbe7ab41f	-0.24482773
16	0xbe08ce5e	-0.13359973
17	0xbdb72f38	-0.08944553
18	0xbcc3af48	-0.023887292
19	0x3e1ce097	0.15320049
20	0x3cd57d52	0.026060734
21	0xbe80a251	-0.25123838
22	0x3c860798	0.016361043
23	0xbe6875bb	-0.2270116
24	0x3e2f6794	0.17129356
25	0x3e7ace5d	0.24492784
26	0x3e33649d	0.1751885
27	0xbe68064f	-0.22658657
28	0xbdae267c	-0.08503434
29	0xbe6dfa0b	-0.23239915
30	0xbe579c70	-0.2105577
31	0xbdec7662	-0.11546017
32	0x3de755c4	0.11295655
33	0x3e511367	0.20417558
34	0xbe7bcd4f	-0.24590038
35	0x3c07ad63	0.008281085
36	0x3e938816	0.28814763
37	0xbd59c23c	-0.053163752
38	0x3e14a8b4	0.1451748
39	0xbe48de3e	-0.19616029
40	0xbe83a750	-0.25713587
41	0xbe611d57	-0.21983849
42	0x3e19c80e	0.15017721
43	0x3e6554b8	0.22395599
44	0xbe93dd42	-0.28879744
45	0x3e52912e	0.20563194
46	0x3c504be6	0.012713408
47	0xbe2cceeb	-0.16875808
48	0x3daf2a2a	0.08552964
49	0xbde06f88	-0.10958773
50	0xbead02d3	-0.33791217
51	0xbdc27a40	-0.094959736
52	0xbe91f361	-0.28505996
53	0x3e9227f5	0.2854611
54	0x3ea4a8f1	0.32160142
55	0xbce67c63	-0.028135484
56	0x3e30b8b0	0.17257953
57	0x3da6a516	0.081369564
58	0x3e2a13ac	0.16609067
59	0x3e01f83d	0.12692352
60	0xbe33b4c6	-0.17549428
61	0x3d13ab9c	0.03605233
62	0x3dce7c36	0.10082285
63	0xbe528725	-0.20559366
64	0x3e684d35	0.22685702
65	0xbdafcf12	-0.085844174
66	0xbdc34422	-0.0953448
67	0xbc3c5851	-0.011495666
68	0x3e158380	0.14600945
69	0x3e11832a	0.14210191
70	0xbd436301	-0.04770184
71	0xbe6f536c	-0.23371667
72	0xbd7a522a	-0.061113514
73	0xbe68ed6e	-0.22746822
74	0x3ced462c	0.028964125
75	0xbea36bb7	-0.31918117
76	0x3c2d1c07	0.010565764
77	0x3e82dd41	0.25559428
78	0xbdf24b24	-0.11830738
79	0x3d0fe7c3	0.035133135
80	0x3e7aee5c	0.2450499
81	0x3bf6dbdf	0.007533535
82	0xbe88e435	-0.26736608
83	0xbe515339	-0.20441903
84	0xbbc66d76	-0.006055529
85	0x3d2abcd3	0.041683983
86	0xbdf27cc4	-0.118402034
87	0xbe488369	-0.19581379
88	0x3e5fac93	0.21843176
89	0xbe8bfa44	-0.27339375
90	0xbded8514	-0.11597648
91	0xbe8c9dd2	-0.27464157
92	0xbdbdc73b	-0.09266516
93	0xbd7923db	-0.06082521
94	0xbe3fc732	-0.1872833
95	0x3dbc2fbf	0.09188794
96	0xbd9b7106	-0.07589917
97	0x3d146491	0.03622872
98	0x3df073ac	0.11740813
99	0xbdf2fd2b	-0.11864694
100	0x3e725594	0.23665458
101	0x3e492950	0.19644666
102	0x3dbc4522	0.091928735
103	0xbe1aa610	-0.1510241
104	0xbe7699bb	-0.24082081
105	0x3e870c3d	0.26376525
106	0xbd65fe93	-0.056150984
107	0xbe3b44e8	-0.18288004
108	0xbe043402	-0.12910464
109	0x3e67844a	0.22609058
110	0xbd7cdd05	-0.06173422
111	0xbea16c4c	-0.31527936
112	0x3daae666	0.08344726
113	0x3c16d36c	0.00920568
114	0xbdd9442b	-0.10608705
115	0x3e6647c8	0.2248832
116	0xb7c09c29	-2.2960901e-05
117	0xbd663562	-0.056203254
118	0xbdbbd315	-0.0917112
119	0xbeac1de4	-0.33616555
120	0xbe849679	-0.25896052
121	0xbe8b95e7	-0.27262804
122	0x3e593861	0.21212913
123	0xbe5bdcbb	-0.2147092
124	0xbe0b5bb5	-0.13609202
125	0x3e0ff6fd	0.14059062
126	0xbe8a4da1	-0.2701235
127	0xbdd04831	-0.101700194
128	0xbdfb88b1	-0.12281931
129	0xbe9b16ec	-0.30290926
130	0x3dbc23c6	0.09186511
131	0x3d95384a	0.07286127
132	0xbe5a644d	-0.21327324
133	0x3e054516	0.13014635
134	0xbe79a3ba	-0.24378863
135	0x3e3d7836	0.18502888
136	0xbe449bb5	-0.19200023
137	0xbe1b6cad	-0.15178175
138	0x3e776dd3	0.24162988
139	0xbe201766	-0.15633926
140	0xbbaa5a2d	-0.005198738
141	0x3e117ed1	0.14208533
142	0x3da83058	0.08212346
143	0xbe0247f4	-0.1272276
144	0xbd2bde9a	-0.041960336
145	0xbd0602d1	-0.03271753
146	0xbcf0e74b	-0.029407164
147	0xbd5fd018	-0.054641813
148	0xbe3e3d9e	-0.18578193
149	0x3dff4783	0.12464812
150	0xbe3356d6	-0.17513594
151	0x3e1e40c5	0.15454395
152	0xbd6494a2	-0.05580581
153	0xbd66dd05	-0.056363124
154	0x3da01fdd	0.078185774
155	0x3e904681	0.2817879
156	0x3e0d81d1	0.13819052
157	0x3e0fcf7f	0.14043997
158	0xbc646e09	-0.01394225
159	0x3e130517	0.1435741
160	0x3e26f4d5	0.16304334
161	0xbe14bfc1	-0.14526273
162	0xbdb044ad	-0.08606849
163	0x3cfa91fa	0.030587185
164	0x3e645469	0.22297825
165	0x3db71036	0.08938639
166	0x3e2d581e	0.16928145
167	0xbe7fc73e	-0.24978349
168	0xbd7b699d	-0.061380018
169	0x3e1fc437	0.15602194
170	0xbe2f58cb	-0.17123716
171	0xbe63526c	-0.2219941
172	0xbdcbb4f9	-0.09946627
173	0x3e2f5938	0.17123878
174	0x3e91d4ff	0.28482816
175	0x3e197f24	0.14989907
176	0xbd8a5842	-0.06755115
177	0xbe2127c9	-0.15737833
178	0xbd8117de	-0.063033804
179	0x3e1eb1f9	0.15497579
180	0xbde3b9d9	-0.11119432
181	0x3e93f04f	0.28894278
182	0x3e5a636b	0.21326987
183	0xbdf8061e	-0.12110542
184	0x3d58a5f4	0.05289264
185	0x3d876da1	0.06612707
186	0x3df0eef5	0.117643274
187	0x3e25643e	0.1615152
188	0x3ea99bee	0.33126777
189	0x3e48b068	0.19598544
190	0x3e6e22fb	0.23255531
191	0x3cac1f8c	0.021011136
192	0xbda3cbbb	-0.07997843
193	0xbe1e5d40	-0.1546526
194	0x3d81c673	0.06336679
195	0x3e36f191	0.17865588
196	0xbcbd2a9e	-0.02309161
197	0xbe210cb9	-0.1572751
198	0x3dfb185f	0.12260508
199	0x3e64ede9	0.2235638
200	0xbde9f9a3	-0.114245676
201	0xbe9cd21d	-0.30629054
202	0x3e08dc8b	0.1336538
203	0xbe27cd85	-0.16386993
204	0xbea66b37	-0.32503673
205	0xbd446ace	-0.04795342
206	0x3ca08f60	0.019599617
207	0xbe496b4a	-0.19669834
208	0xbe54d6ee	-0.20785114
209	0xbe2ccfe1	-0.16876175
210	0xbe631ad3	-0.22178201
211	0xbde47142	-0.11154415
212	0x3d31e2a2	0.043429025
213	0x3e533164	0.2062431
214	0x3d11d1c3	0.035600435
215	0x3e1cbae3	0.15305667
216	0xbd859127	-0.06521826
217	0xbd7602bc	-0.0600612
218	0x3e945506	0.28971118
219	0x3d25713c	0.04039119
220	0x3cd64563	0.026156133
221	0x3da58025	0.08081082
222	0x3e880186	0.26563662
223	0xbe7737b7	-0.24142347
224	0x3e818fd2	0.2530504
225	0x3e8dd786	0.27703494
226	0x3d88ca82	0.0667925
227	0xbae1fbbf	-0.0017241164
228	0xbd85d1c4	-0.0653415
229	0x3dac8101	0.08423043
230	0x3e896400	0.26834106
231	0x3db7c410	0.08972943
232	0x3d292300	0.041293144
233	0xbe230079	-0.15918149
234	0xbd3e3ce9	-0.046444807
235	0xbce6fc06	-0.028196346
236	0x3e1e7bfa	0.15476981
237	0x3e103023	0.14080863
238	0xbe5f8a8f	-0.218302
239	0x3e7172dc	0.23578972
240	0xbb15e2e8	-0.0022870842
241	0xbdce7b49	-0.100821085
242	0x3e1b56ac	0.15169781
243	0xbe89da69	-0.26924446
244	0x3d0970d1	0.033554856
245	0xbd5ec517	-0.05438718
246	0x3e695285	0.22785385
247	0x3e5fa5d0	0.21840596
248	0xbe4073e6	-0.18794212
249	0x3dbff260	0.09372401
250	0x3e5108ee	0.20413563
251	0xbd2c5306	-0.042071365
252	0xbe57b59c	-0.21065372
253	0xbe9b09ea	-0.30281
254	0x3df3b998	0.119006336
255	0xbe26a08b	-0.1627218

linears.3.bias f4 [40]
0	0xbc5d7878	-0.0135174915
1	0xbc3b02b4	-0.011414219
2	0xbd8ff147	-0.07028442
3	0xbcdd0f10	-0.026984721
4	0x3bbc622f	0.005749009
5	0xbc14eacf	-0.009089186
6	0xbc05d115	-0.008167525
7	0x3c9461aa	0.018112976
8	0x3cc70cf2	0.024298165
9	0xb9ba0087	-0.00035477077
10	0x3bee0c07	0.0072646174
11	0x3df26017	0.11834734
12	0xbc548c57	-0.012972913
13	0xbc6cdac8	-0.014456458
14	0x3b181b38	0.0023209583
15	0xbc685fcd	-0.014182997
16	0x3cab3ee4	0.020904012
17	0xbc26861f	-0.010163813
18	0x3ce8552d	0.028360927
19	0xbc76ce22	-0.015063794
20	0x3d2cdacd	0.042200852
21	0xbd41b0d5	-0.04728778
22	0x3cd80ca1	0.02637321
23	0x3b256640	0.0025237948
24	0x3cae150e	0.021250274
25	0xbd241ce6	-0.040066622
26	0x3bb5a4d2	0.0055433298
27	0x3b9b6388	0.0047420897
28	0x3bb91675	0.005648429
29	0x3cf8c433	0.030366993
30	0xbd2cc922	-0.042184003
31	0x3ccf8087	0.025329841
32	0x3d5ad46c	0.053425238
33	0xbdf14fd9	-0.11782808
34	0x3aa8b471	0.0012871159
35	0xbccbe605	-0.024889955
36	0xbcb7dca0	-0.02244407
37	0xbd12f36e	-0.035876684
38	0xbc85d990	-0.016339093
39	0xbdd34664	-0.1031616

linears.4.weight f4 [40, 40]
0	0x3e3b6152	0.18298844
1	0x3e1032f7	0.14081942
2	0xbe469998	-0.19394529
3	0x3d1f6e58	0.03892359
4	0xbe026edb	-0.127376
5	0x3e160101	0.1464882
6	0xbce78ed1	-0.028266342
7	0xbdd6512d	-0.10464702
8	0x3da09bc1	0.07842208
9	0xbce7cae7	-0.028294994
10	0x3ca4228b	0.020036003
11	0xbca0e140	-0.019638658
12	0xbde4b689	-0.11167628
13	0xbbdf3e44	-0.0068128426
14	0x3e83af88	0.25719857
15	0xbe1f6003	-0.1556397
16	0xbd107a3f	-0.035272833
17	0xbe07fa04	-0.13278967
18	0x3d8cf9f4	0.06883612
19	0xbe5629e9	-0.20914425
20	0x3e9363b6	0.2878701
21	0x3e019625	0.12654932
22	0x3dd19175	0.10232822
23	0x3b958e76	0.004564102
24	0x3e8e05a9	0.27738693
25	0xbd947459	-0.07248754
26	0xbe69cf8e	-0.22833082
27	0x3e153394	0.14570457
28	0x3d89ced8	0.067289054
29	0x3b3a4f71	0.0028428698
30	0xbea5a7c0	-0.32354546
31	0xbe697bb8	-0.22801101
32	0x3e893fbc	0.26806438
33	0xbe1441d4	-0.14478236
34	0x3ce77730	0.028255075
35	0xbe512b2f	-0.2042663
36	0xbd0bcdd2	-0.034131832
37	0xbe9a8b45	-0.3018438
38	0x3e163e40	0.14672184
39	0xbe691b83	-0.22764401
40	0x3e5fb199	0.21845092
41	0xbd90e261	-0.07074428
42	0x3dafdb50	0.085867524
43	0xbe844614	-0.25834715
44	0x3e30a2e4	0.17249638
45	0x3ccf05de	0.025271352
46	0x3e8205fa	0.25395185
47	0xbe5c224a	-0.21497455
48	0x3dc11d37	0.094294004
49	0xbcc527bc	-0.024066798
50	0xbe0a6f66	-0.13519058
51	0xbe823d46	-0.25437373
52	0x3d12d81c	0.03585063
53	0x3e6b5cb6	0.22984585
54	0xbe7d7c7a	-0.24754515
55	0xbe09ed7e	-0.13469502
56	0xbc180558	-0.009278618
57	0x3e22f724	0.15914589
58	0xbd631bba	-0.055446364
59	0x3dd5d971	0.10441864
60	0xbe59df00	-0.21276474
61	0xbcf2a5f4	-0.029620148
62	0xbe7fd0ed	-0.24982043
63	0xbe880275	-0.26564375
64	0xbe64edaa	-0.22356287
65	0x3dbdaf49	0.092619486
66	0xbe567c11	-0.20945765
67	0xbc25490c	-0.0100882165
68	0xbe75f01c	-0.24017376
69	0x3e16dc5a	0.14732495
70	0xbe55d734	-0.20882875
71	0x3e19875e	0.14993045
72	0x3dab29f5	0.08357612
73	0x3e9608ac	0.2930349
74	0xbe4ce40b	-0.20008866
75	0x3b4ae20a	0.0030957484
76	0x3e74ce1f	0.23906754
77	0x3dddf573	0.10837831
78	0x3e3cb0c5	0.18426807
79	0xbe7fc5b4	-0.24977762
80	0x3db6b956	0.08922069
81	0xbe6472e4	-0.22309452
82	0x3e84d760	0.25945568
83	0x3e268a20	0.16263628
84	0xbe51cae8	-0.20487559
85	0x3af2f580	0.00185363
86	0x3e40a37b	0.18812363
87	0xbcb63d39	-0.02224599
88	0xbe3d4a94	-0.1848548
89	0xbda820d9	-0.0820939
90	0xbe5986bf	-0.21242808
91	0xbddd671f	-0.108106844
92	0xbdc9943e	-0.09842728
93	0x3dffc936	0.1248955
94	0xbcac1393	-0.021005427
95	0x3de646fa	0.112440065
96	0xbe33f5e3	-0.17574267
97	0xbd0da0d2	-0.0345772
98	0xbddeb10c	-0.10873613
99	0x3def078e	0.11671363
100	0xbe2c528a	-0.16828361
101	0x3e42b7b6	0.19015393
102	0xbc2bd439	-0.01048761
103	0x3e1ea524	0.15492684
104	0xbe5b6ea3	-0.21428923
105	0x3e37cca1	0.17949153
106	0xbdadbe2b	-0.08483537
107	0x3d49e1bb	0.04928754
108	0x3c65dfd4	0.014030416
109	0xbe1bc9b7	-0.15213667
110	0x3e605cd0	0.21910405
111	0x3e163f87	0.14672671
112	0xbdd67ae1	-0.10472656
113	0xbd16ba43	-0.036798727
114	0xbe375712	-0.17904308
115	0xbd9c2657	-0.076245
116	0xbcaec969	-0.021336274
117	0xbd5e7241	-0.05430818
118	0xbe89f28d	-0.26942864
119	0xbcf3d98e	-0.029766824
120	0xbe574c9d	-0.2102532
121	0x3e5585e0	0.2085185
122	0x3e905df4	0.2819668
123	0xbe458f8d	-0.19293042
124	0x3b023c69	0.0019872433
125	0xbdd3d9a6	-0.103442475
126	0xbca1f871	-0.019771786
127	0xbe9c8832	-0.3057266
128	0xbe773808	-0.24142468
129	0xbe531aad	-0.20615645
130	0x3dc72fc5	0.09725908
131	0xbe30a13f	-0.1724901
132	0x3b9065a8	0.0044066496
133	0xbe04ad18	-0.12956655
134	0xbe570f92	-0.21002033
135	0xbd8ec6d5	-0.06971518
136	0x3d878d52	0.066187516
137	0x3e57032d	0.20997305
138	0xbe3d6a14	-0.18497497
139	0x3e7394df	0.23787259
140	0x3d362078	0.04446456
141	0x3e0c9237	0.13727652
142	0x3e7b667e	0.24550816
143	0xbe7bf68d	-0.2460577
144	0x3d1a0499	0.03760204
145	0x3cff858c	0.03119161
146	0xbd9beb9d	-0.07613299
147	0xbdff7909	-0.124742575
148	0xbe3a9e9f	-0.18224572
149	0x3dc67d23	0.09691837
150	0x3e810c98	0.2520492
151	0x3e867dd2	0.26267868
152	0x3e958bc5	0.29208198
153	0xbe11cd9e	-0.14238593
154	0xbcca072f	-0.024661629
155	0x3dda85fe	0.10670088
156	0xbc2a1714	-0.010381479
157	0x3cce4cf5	0.02518318
158	0x3e3c9364	0.184156
159	0x3e867b2a	0.26265842
160	0x3d92d160	0.07168841
161	0x3dc16c36	0.09444468
162	0x3db89b9e	0.090140566
163	0x3e332c24	0.17497307
164	0xbdea4267	-0.114384465
165	0x3e4096a1	0.1880746
166	0xbd87a7b8	-0.06623787
167	0x3c7149bf	0.014727055
168	0xbd210c5b	-0.039318424
169	0xbe77c50e	-0.24196264
170	0xbe9aa092	-0.3020063
171	0xbe5ac94a	-0.21365848
172	0x3e116a46	0.14200696
173	0xbe59f06b	-0.21283118
174	0xbc186820	-0.009302169
175	0xbd49d7cf	-0.049278077
176	0xbdb0c114	-0.08630577
177	0xbda17455	-0.07883517
178	0x3e13148b	0.14363305
179	0x3e1611fc	0.14655298
180	0xbdefbed4	-0.117063195
181	0xbdd770d9	-0.10519571
182	0xbe51425e	-0.20435473
183	0xbe0f226e	-0.13977978
184	0x3e86b22e	0.26307815
185	0x3da25709	0.07926757
186	0x3e8eca64	0.27888787
187	0x3e7b6091	0.24548556
188	0xbe47fb36	-0.19529423
189	0xbe807822	-0.25091654
190	0x3ce7932c	0.02826842
191	0xbd10da79	-0.0353646
192	0xbda51e36	-0.08062403
193	0xbe4b323a	-0.19843379
194	0xbbebfa81	-0.0072014933
195	0xbc034469	-0.008011916
196	0x3dbe7d3c	0.0930123
197	0xbe72f8c6	-0.23727712
198	0xbe4eef22	-0.2020841
199	0x3e0042a1	0.12525417
200	0xbdd7088e	-0.104996786
201	0xbe6249ec	-0.22098511
202	0x3d5377b7	0.05162784
203	0xbd9ba4a5	-0.07599763
204	0xbd862f7f	-0.06552028
205	0x3da32503	0.07966044
206	0x3d1888d4	0.037239864
207	0xbd4f92d5	-0.05067714
208	0x3e6097a8	0.21932852
209	0x3e3dd45c	0.1853804
210	0xbd167ff5	-0.036743123
211	0xbe2159f3	-0.15756969
212	0x3b353711	0.002765123
213	0x3e392b67	0.18082963
214	0xbd1a3599	-0.03764877
215	0x3e4c3a1d	0.19944043
216	0xbd45fc13	-0.0483361
217	0xbd934348	-0.07190567
218	0xbb9a9ba0	-0.004718259
219	0xbe44dd00	-0.1922493
220	0x3e7afa9c	0.24509662
221	0xbd559856	-0.052147232
222	0xbe45d282	-0.19318584
223	0xbe377784	-0.17916685
224	0xbce1a422	-0.027544085
225	0x3dc35aac	0.09538779
226	0x3b8d22b2	0.0043071145
227	0x3c862bd0	0.016378313
228	0xbcd0557f	-0.025431393
229	0xbdd0e26d	-0.10199437
230	0xbd934e7d	-0.07192705
231	0x3d13385e	0.035942428
232	0x3e8ed0e6	0.27893752
233	0xbe449a0a	-0.19199386
234	0xbd581fbd	-0.052764643
235	0xbdf7b3f3	-0.120948695
236	0xbdd4d9bc	-0.10393092
237	0x3d21f701	0.039542202
238	0x3e5fa9e4	0.21842152
239	0x3e6c93cf	0.2310326
240	0x3e1d3a62	0.15354303
241	0xbe36db24	-0.17857033
242	0xbe61c1aa	-0.22046533
243	0x3e07ad57	0.13249718
244	0xbe3e72dd	-0.18598504
245	0x3e2c8908	0.16849148
246	0xbdae2683	-0.08503439
247	0xbcc9eebc	-0.02464997
248	0x3e76d116	0.24103197
249	0x3e889697	0.2667739
250	0xbdad502f	-0.084625594
251	0xbe0f8381	-0.14015009
252	0xbe5b0a34	-0.21390611
253	0xbd406c75	-0.046978433
254	0xbc833d8a	-0.016020555
255	0xbd706408	-0.058689147

linears.4.bias f4 [40]
0	0x3c0f4f06	0.008746868
1	0xbc509307	-0.012730367
2	0xbcce42bb	-0.025178304
3	0xbd019eda	-0.031645633
4	0x3a63da67	0.0008691907
5	0xbc2e8ab8	-0.01065319
6	0x3cc7ca83	0.024388557
7	0x3cb152ac	0.021645866
8	0xbcd7f515	-0.026361981
9	0x3cbc2ad1	0.022969635
10	0xbc9b8153	-0.018982565
11	0x3cc1b855	0.023647467
12	0xbca8eb0f	-0.020619897
13	0xbcb5aa58	-0.022175953
14	0x3d1b0ee1	0.037855987
15	0xbc936cb6	-0.017996173
16	0x3c8a4e4d	0.01688304
17	0x3cfc2ee5	0.03078408
18	0xbcb44205	-0.022004137
19	0x3ca2cf33	0.01987419
20	0xbcaa3958	-0.020779297
21	0xbd751743	-0.059836637
22	0x3c7d711e	0.015468864
23	0x3cd476cb	0.025935551
24	0x3c31ef6d	0.010860306
25	0xbc323da7	-0.010878957
26	0x3a14a470	0.0005670255
27	0xbca27c20	-0.019834578
28	0x3cb47ae9	0.022031264
29	0xbd2050fd	-0.039139736
30	0xbcae0e2b	-0.02124699
31	0xbc53f4a1	-0.012936742
32	0xbc2584ba	-0.010102445
33	0xbcfad876	-0.030620795
34	0x3cedb8e7	0.029018832
35	0xbc93cd18	-0.018042132
36	0x3c90dfef	0.017684905
37	0xbc1b421d	-0.009476212
38	0xbcb8a5a2	-0.022539917
39	0xbb614875	-0.0034375463

linears.5.weight f4 [3, 40]
0	0xbec9254b	-0.39286265
1	0xbd845905	-0.06462292
2	0xbeb9b7f4	-0.36273158
3	0xbe44f699	-0.19234695
4	0x3b5f9a04	0.00341189
5	0xbeb41262	-0.35170275
6	0x3e4648b1	0.19363667
7	0x3e80270c	0.2502979
8	0xbe9c9bb8	-0.30587554
9	0x3eaf15b8	0.34196258
10	0xbe03133f	-0.1280031
11	0x3e522be6	0.20524558
12	0xbe9800a4	-0.2968799
13	0xbea360a9	-0.31909683
14	0x3e038f15	0.1284755
15	0xbe7cbf8d	-0.24682446
16	0x3ebd1bd6	0.369353
17	0x3e95119d	0.29115
18	0xbe77513a	-0.24152079
19	0x3ead0665	0.3379394
20	0xbe8c5f3e	-0.27416414
21	0xbe5f4515	-0.21803696
22	0x3d0af2f0	0.03392309
23	0x3ebc9f7e	0.36840433
24	0xbefb8019	-0.49121168
25	0xbb01e149	-0.0019818118
26	0x3e49f73c	0.19723219
27	0xbec660d9	-0.38745764
28	0x3e9d61cf	0.30738685
29	0xbe1adabf	-0.15122508
30	0xbc497760	-0.012296528
31	0xbec6e576	-0.3884694
32	0xbea39596	-0.31950063
33	0xbe1766df	-0.14785336
34	0x3e8fbbdb	0.2807301
35	0xbd1fa161	-0.038972262
36	0x3c0811b6	0.008305004
37	0xbef07e07	-0.4697115
38	0xbe1eef5e	-0.15520999
39	0xbd5ca141	-0.05386472
40	0x3d599257	0.053118076
41	0x3e890413	0.2676092
42	0xbeaca5b1	-0.33720163
43	0xbe1f4202	-0.15552524
44	0x3e411e03	0.18859105
45	0x3db252bf	0.08707189
46	0xbe0e6a45	-0.13907726
47	0xbbc1df07	-0.0059164795
48	0xbc36a04e	-0.011146618
49	0x3e5e762d	0.21724768
50	0x3e2fc171	0.17163636
51	0xbe729557	-0.23689781
52	0xbe27bcb6	-0.16380581
53	0x3e6466ee	0.2230489
54	0x3e5d237e	0.2159557
55	0x3e8a47aa	0.270078
56	0x3de0477b	0.10951134
57	0xbe28c45a	-0.16481152
58	0x3e9947af	0.29937503
59	0xbea0d625	-0.3141338
60	0x3e636ffc	0.22210687
61	0xbe0ca48f	-0.13734649
62	0xbe97c38a	-0.29641372
63	0xbd8d8890	-0.06910813
64	0xbea72a98	-0.32649684
65	0x3d9ce2db	0.07660457
66	0x3da4a160	0.08038592
67	0x3e3c6d50	0.18401074
68	0xbbf0fa50	-0.0073540583
69	0xbe1da108	-0.1539346
70	0x3dbd3535	0.09238664
71	0x3e01e341	0.12684347
72	0x3db66c47	0.08907371
73	0x3d1d9b47	0.038478162
74	0x3e8dc840	0.2769184
75	0x3de70b4c	0.112814516
76	0x3d584112	0.05279643
77	0x3e5ea850	0.21743894
78	0x3dc494f7	0.09598725
79	0x3e0c06de	0.13674495
80	0xbea3ce8e	-0.31993526
81	0x3da61f62	0.081114545
82	0x3e713487	0.23555194
83	0x3dae12ad	0.08499656
84	0x3e92f5b1	0.28703073
85	0xbe2a55e8	-0.16634333
86	0x3c78bf25	0.015182291
87	0x3baefa0e	0.0053398674
88	0x3db0098d	0.08595572
89	0xbe0e119d	-0.13873906
90	0x3e10cb2a	0.14140001
91	0xbe570405	-0.20997627
92	0xbdd7c4b1	-0.10535563
93	0x3de02964	0.10945395
94	0x3dafe71c	0.085890025
95	0x3ec21a16	0.37910527
96	0x3e3bdaa6	0.18345127
97	0xbe8decf3	-0.2771984
98	0xbebfcbee	-0.37460274
99	0xbe075a96	-0.1321815
100	0x3dc00bdc	0.09377262
101	0xbed2e722	-0.41191965
102	0x3ea07709	0.31340817
103	0xbedf329e	-0.43593305
104	0x3e2e8216	0.17041811
105	0xbe2553b0	-0.16145205
106	0x3b83fe74	0.004028136
107	0x3cf1efd5	0.029533306
108	0x3ea88074	0.32910502
109	0x3d88031a	0.066412166
110	0xbe43436a	-0.19068685
111	0x3e85e4b0	0.26151037
112	0xbe17efae	-0.14837524
113	0xbc8e3249	-0.017357962
114	0xbe652aea	-0.22379652
115	0x3ead0cad	0.33798733
116	0xbd9e9647	-0.07743507
117	0xbe9252a5	-0.28578678
118	0x3dc35805	0.09538273
119	0xbde86f7e	-0.113493904

linears.5.bias f4 [3]
0	0x3cbde62e	0.023181047
1	0xbb696572	-0.0035613445
2	0x00000000	0.0

exp_avg f4 [40, 2]
0	0xbb01532e	-0.0019733417
1	0xbb0391df	-0.002007596
2	0xbb40e375	-0.002943245
3	0xbb0f255a	-0.0021842332
4	0xbabf3b9c	-0.0014589909
5	0xba8cd4fc	-0.0010744627
6	0xbbba7294	-0.0056899283
7	0xbb543633	-0.0032380938
8	0xbbef89b3	-0.007310116
9	0xbbaec83d	-0.005333929
10	0x3ad4bf41	0.0016231315
11	0x3a7ab423	0.00095635856
12	0xbb0f2015	-0.002183919
13	0xbabe38d0	-0.0014512781
14	0xbba2e563	-0.0049711927
15	0xbb68b5df	-0.0035508794
16	0x3a9a4e57	0.0011772615
17	0x3aeb7bac	0.0017965934
18	0x3ac7e7b7	0.0015251552
19	0x39f27d4f	0.000462512
20	0x3c2d4a2f	0.010576769
21	0x3bfd4e9b	0.007730318
22	0x3a982aa4	0.0011609388
23	0x39857e09	0.0002546164
24	0x3b03bc37	0.0020101198
25	0x3ac9bab6	0.0015390727
26	0x3b9347de	0.004494651
27	0x3b6cda58	0.0036140885
28	0x3b2e3012	0.0026578945
29	0x3b0618f3	0.0020461648
30	0x3a83e65c	0.0010063159
31	0xb98cf419	-0.00026884748
32	0xbb972913	-0.0046130507
33	0xbb4c32b7	-0.0031158158
34	0xbbbdd431	-0.0057931175
35	0xbb86303c	-0.0040951055
36	0xbb81c014	-0.003959665
37	0xbb1f47b3	-0.002430421
38	0x3b89133a	0.0041832
39	0x3b545aa9	0.003240267
40	0xbbc5908b	-0.0060291938
41	0xbb529695	-0.003213321
42	0xbb80a9de	-0.0039264997
43	0xbb1f7afe	-0.0024334784
44	0xbb00c0cc	-0.0019646166
45	0xbabc9f55	-0.0014390746
46	0x3bc070ee	0.0058728373
47	0x3b48f2f8	0.0030662399
48	0xbae229b9	-0.0017254866
49	0xba956170	-0.0011396836
50	0xbac0f8a3	-0.0014722537
51	0xba9daf51	-0.0012030398
52	0x3b8ce580	0.0042998195
53	0x3b1a5acc	0.0023552654
54	0x3ad4f98b	0.0016248686
55	0xba49de14	-0.0007700634
56	0xbac78a2a	-0.0015223671
57	0xba99a463	-0.0011721965
58	0xbb95a922	-0.0045672813
59	0xbb34260c	-0.0027488498
60	0x3b2f3bc5	0.0026738506
61	0x3ae2d830	0.001730686
62	0xbab18d1c	-0.0013546082
63	0xba996dff	-0.0011705755
64	0x3bbd0b90	0.0057692006
65	0x3b505539	0.0031789078
66	0x3a3610c5	0.0006945248
67	0x38adb638	8.283224e-05
68	0x3af624bd	0.0018779259
69	0x3a800813	0.0009768031
70	0x3afa5952	0.0019100106
71	0x3a23aa34	0.0006243319
72	0x3878ba1c	5.9301135e-05
73	0x39b9dccc	0.00035450456
74	0x3a758283	0.0009365456
75	0x39c3d407	0.0003735127
76	0x3a3134d5	0.0006759887
77	0x3aa92881	0.0012905748
78	0xbb818809	-0.003952984
79	0xbb00be0c	-0.0019644527

exp_avg_sq f4 [40, 2]
0	0x3ad969d2	0.0016587323
1	0x3b42096b	0.0029607664
2	0x3b88eb66	0.0041784523
3	0x3bbbd911	0.0057326634
4	0x3a6f7f94	0.0009136137
5	0x3a7a60d3	0.0009551171
6	0x3c84fcd6	0.016233843
7	0x3c9df379	0.019281136
8	0x3cd041ea	0.025422055
9	0x3cedcc5d	0.029028112
10	0x3af1146d	0.0018392928
11	0x3b1a69c5	0.0023561579
12	0x3b3dd701	0.0028967264
13	0x3b907e53	0.0044095903
14	0x3c5dea4f	0.013544633
15	0x3c8f9a05	0.017529497
16	0x3a1bd6fc	0.0005944816
17	0x3a9f5020	0.0012154616
18	0x3a94c496	0.0011350091
19	0x3a9beef5	0.0011896776
20	0x3d4007d7	0.046882477
21	0x3d5eaff7	0.054367032
22	0x3a7560d9	0.000936044
23	0x3ab94ffa	0.0014138215
24	0x3ada704f	0.0016665551
25	0x3ac48b66	0.0014995157
26	0x3c236d5b	0.009974803
27	0x3c57898e	0.013155354
28	0x3b6c80c3	0.003608749
29	0x3b98ff20	0.004669085
30	0x3a42e074	0.0007433959
31	0x3a96dafa	0.0011509352
32	0x3c2e0223	0.010620627
33	0x3c5a9cdd	0.013343063
34	0x3c71e1ab	0.014763276
35	0x3c8a0ca8	0.016851738
36	0x3bfcac84	0.007710995
37	0x3c2c72a0	0.010525376
38	0x3c0e5c47	0.008688993
39	0x3c2cf8f6	0.010557404
40	0x3c999f06	0.018752586
41	0x3cb4f6ec	0.022090398
42	0x3c02df14	0.007987756
43	0x3c0a7dc1	0.008452834
44	0x3b14a975	0.0022684012
45	0x3b30c815	0.0026974727
46	0x3c98c74c	0.01864972
47	0x3cafba1e	0.021451052
48	0x3aad79d7	0.0013235164
49	0x3ace0101	0.0015716852
50	0x3a6959c0	0.00089016184
51	0x3a806adc	0.0009797472
52	0x3c12e761	0.008966298
53	0x3c297519	0.01034286
54	0x3b04ff6a	0.002029384
55	0x3b94810b	0.0045319847
56	0x3ab83a08	0.0014055381
57	0x3ae2095d	0.0017245222
58	0x3c2c9abb	0.0105349375
59	0x3c4b40de	0.012405602
60	0x3b6a6032	0.0035762903
61	0x3b6e233a	0.0036336915
62	0x3a6281ce	0.0008640558
63	0x3a93bd5c	0.0011271643
64	0x3c891f1a	0.016738463
65	0x3ca16304	0.019700535
66	0x3991b257	0.0002778943
67	0x39bc53d9	0.00035920626
68	0x3b19c836	0.0023465282
69	0x3b4a7ae1	0.0030895995
70	0x3b08bc3b	0.0020864147
71	0x3b1de01e	0.0024089883
72	0x38015ba9	3.0841362e-05
73	0x38f78885	0.000118033066
74	0x39d111ce	0.00039876852
75	0x398ce8e6	0.00026876404
76	0x392dd325	0.00016577223
77	0x3a36fcf3	0.00069804414
78	0x3c1355aa	0.008992592
79	0x3c343a51	0.011000232

exp_avg f4 [40]
0	0xbafa82b3	-0.0019112438
1	0xbafd8f6e	-0.0019345114
2	0xba80d238	-0.0009828275
3	0xbb3864d2	-0.0028136265
4	0xbb9a0361	-0.00470011
5	0x3a43b616	0.00074657926
6	0xba9d37e5	-0.0011994807
7	0xbb4a0fcf	-0.0030832177
8	0x3adb0458	0.0016709669
9	0x39df6a28	0.00042612967
10	0x3bdd4c68	0.006753493
11	0x39167510	0.00014348724
12	0x3ac1428e	0.0014744566
13	0x3b5391d2	0.003228296
14	0x3af09de2	0.00183576
15	0xb9b6fa87	-0.00034900403
16	0xbb3298ce	-0.0027251723
17	0xbb67d905	-0.0035377156
18	0xbb1096db	-0.0022062573
19	0x3b3540bf	0.0027657
20	0xbb30783c	-0.0026927134
21	0xbb02e47b	-0.001997261
22	0xbaa3550d	-0.001246126
23	0x3b2c3031	0.0026273842
24	0xba83f3ca	-0.0010067162
25	0xba939eb1	-0.0011262504
26	0x3b0bd781	0.0021338167
27	0xba631db4	-0.0008663789
28	0xba882190	-0.0010385979
29	0xbb1cfad2	-0.0023953211
30	0x3ac7159b	0.0015188934
31	0xba90646f	-0.001101626
32	0x3b33a1a1	0.002740957
33	0xb6e4ced3	-6.819007e-06
34	0x3a3edd56	0.00072809064
35	0x39ecf8be	0.00045198755
36	0x39b8d9c6	0.0003525747
37	0x39bee706	0.0003641175
38	0x3a9dcad7	0.00120386
39	0xbad44cb2	-0.0016197173

exp_avg_sq f4 [40]
0	0x3b447b81	0.002998084
1	0x3bc1f9ff	0.0059196944
2	0x3a88100c	0.0010380759
3	0x3ca65bf5	0.02030752
4	0x3cf8da51	0.030377539
5	0x3b23bed5	0.002498557
6	0x3b94d16c	0.0045415666
7	0x3c964ace	0.018346217
8	0x3aa54062	0.0012607689
9	0x3a9e19cb	0.001206213
10	0x3d6b0269	0.057375345
11	0x3abd151c	0.0014425847
12	0x3ad0be78	0.0015925905
13	0x3c5fdad3	0.013663012
14	0x3ba0e772	0.004910403
15	0x3a9729f7	0.0011532892
16	0x3c6551db	0.013996567
17	0x3c920b10	0.01782754
18	0x3c2fc52f	0.010728165
19	0x3c368f82	0.011142613
20	0x3cbf488a	0.023350019
21	0x3c14bdda	0.009078467
22	0x3b3772d8	0.0027992036
23	0x3cba545c	0.022745304
24	0x3add0eef	0.0016865412
25	0x3a845b35	0.0010097983
26	0x3c307c13	0.010771769
27	0x3b94b524	0.004538195
28	0x3aea978a	0.0017897945
29	0x3c53f73d	0.012937364
30	0x3b803087	0.003912035
31	0x3aa197eb	0.00123286
32	0x3ca90480	0.020632029
33	0x39c4f186	0.00037563982
34	0x3b530521	0.0032199102
35	0x3b21e39f	0.0024702323
36	0x38e18b5e	0.00010754795
37	0x3990dc2d	0.00027629864
38	0x3a384037	0.0007028612
39	0x3c3a1904	0.011358503
