Lid_Driven_Re100/saved_models/RA-14000.pt (torch, 95111 bytes, 36 tensors)

linears.0.weight f4 [40, 2]
000000 9f db 3f be ba a2 46 bd b4 48 60 3e 0e 63 19 be
       -0.18736123 -0.048495032 0.21902734 -0.14979193
000010 f3 4a a8 be 26 7c 94 3e be 30 92 3e a1 4c 15 3e
       -0.32869682 0.29000968 0.28552812 0.14580013
000020 a4 a0 da 3e 8f 4c 94 3e 70 36 49 be 4b 9b 91 3e
       0.42700684 0.2896466 -0.19649673 0.28438792
000030 ca f2 45 be 3f c5 b9 be 15 02 02 3f 57 c0 36 be
       -0.19330898 -0.362833 0.50784427 -0.1784681
000040 ad 43 1d bd ca 77 ea bc 8b 65 cc 3d e8 cf 31 be
       -0.03839462 -0.028621573 0.09980305 -0.17364466
000050 54 6c 0d bd 55 a1 b0 3d ae 35 a3 bc 59 0b a1 3e
       -0.034527138 0.08624522 -0.019923057 0.3145397
000060 2e 5f 0d 3e 02 39 a8 be b6 29 4e 3e 5f be 72 be
       0.1380584 -0.32855994 0.20133099 -0.23705433
000070 42 8c 8f 3e 5f ce 22 3e e0 4f 76 3e 68 50 55 be
       0.28036696 0.15899037 0.24053907 -0.20831454
000080 23 cd 66 3e e1 90 d4 be 93 6e 9b bd 83 5d 28 3e
       0.22539191 -0.41516784 -0.0758945 0.16441922
000090 83 74 30 3e c7 4a a7 be 91 76 14 bd f0 a9 96 be
       0.17231946 -0.32674238 -0.036245886 -0.29426527
0000a0 8f 37 cf 3e ce f6 23 3f e3 55 6f 3e a4 01 8d be
       0.40472075 0.6404847 0.23372607 -0.27540314
0000b0 07 26 3f 3e 45 7b a0 3e 69 db 67 be 89 3e 51 be
       0.1866685 0.31344047 -0.22642292 -0.20434012
0000c0 f2 9a 78 3e 72 f6 09 3e 4d e6 60 3e ad bb 89 be
       0.24277857 0.13472918 0.21962853 -0.26900998
0000d0 f9 13 6b 3e 95 fb 99 be b7 2d 8a 3e c0 20 72 3e
       0.22956838 -0.30074754 0.26988003 0.23645306
0000e0 dd 75 ca 3e b2 46 bb 3e 6f ed a1 bd 95 37 62 be
       0.39543048 0.36577374 -0.07906615 -0.22091515
0000f0 e8 61 4d bd 72 a0 e2 bd 10 17 99 3d f8 e5 8f 3a
       -0.0501422 -0.11065759 0.07475102 0.001097857
000100 a8 8b 9b bd 95 8f 35 3e 81 78 8a 3d fa 4b 27 be
       -0.07594997 0.17730553 0.067612655 -0.16337577
000110 79 c5 54 b9 27 50 b9 be 0e 33 7e 3c 22 c8 4f be
       -0.0002029146 -0.36193964 0.015515102 -0.20291188
000120 be 00 05 be 26 72 41 be bb a2 9d be e1 93 88 3d
       -0.12988564 -0.188912 -0.30788216 0.06668831
000130 95 30 99 3e cf 0a b9 bc 98 bf 5d be 27 52 ae be
       0.29919878 -0.022588162 -0.21655118 -0.34047052

linears.0.bias f4 [40]
000000 b8 30 da 3c 62 ff 9b 3d 82 bd f0 bd 05 fe e5 bd
       0.026634559 0.0761707 -0.11754896 -0.11230091
000010 ae d3 1f be c8 ed 54 bd b7 a8 42 3d cc 27 4c bd
       -0.15608093 -0.05198458 0.04752418 -0.04984264
000020 12 eb ed bc 6b 26 80 3d 0f dd ad 3d 74 7b 11 be
       -0.029042754 0.06257328 0.08489429 -0.1420725
000030 76 f0 36 3e b4 51 38 3d 1c 3d 80 bc fd 9c 0f bd
       0.17865166 0.044999793 -0.01565414 -0.035061825
000040 b2 57 10 bd 69 d2 8f bd 20 62 36 3e 7f 7e 84 3e
       -0.035239883 -0.070225544 0.17810869 0.2587776
000050 50 dd e4 3d ca 90 cd 3d 9c 44 78 be 3d a7 16 3c
       0.111750245 0.10037382 -0.24244922 0.009195146
000060 6d fe 5d 3c 2f 5d 77 3d 77 af c6 3d 53 c7 a7 bd
       0.013549429 0.0603916 0.09701436 -0.08192315
000070 9d 99 2e 3e 78 4a cb 3d 24 d9 88 bd b1 fe 1e 3d
       0.17050786 0.09926313 -0.06682041 0.03881711
000080 1a 1e 6c be 2e 86 85 3d 1d 20 f5 3d e1 20 0b 3e
       -0.23058358 0.06519733 0.11969016 0.13586761
000090 89 82 20 3d 02 56 ac bc d8 4e cf bd 6f 5a 78 3e
       0.039186988 -0.021037105 -0.1012246 0.24253248

linears.1.weight f4 [40, 40]
000000 c5 c8 10 be 95 99 35 bc c6 b6 8b 3e 5d fd 3e be
       -0.14139087 -0.01108398 0.27287883 -0.18651338
000010 85 9f 0f be 1a 1e fa 3d 8b 55 2f 3c 4b 46 ea be
       -0.14025696 0.12212773 0.010701547 -0.45756754
000020 21 82 59 be eb 56 25 bd d6 b5 0c bd 4b fe 49 3e
       -0.21241046 -0.040366095 -0.0343531 0.19725911
000030 9c f9 25 3e 84 2f be bd 84 1f b5 bd 01 76 64 bc
       0.162085 -0.09286407 -0.08843902 -0.01394415
000040 59 5b 90 be 48 8f 73 3e ad a2 13 3d eb 3c 72 3d
       -0.28194693 0.23785126 0.03604381 0.059140127
000050 a6 15 5d 3e e7 eb 6c 3d a4 f1 2c be c7 c1 6c 3e
       0.2159029 0.05784216 -0.16889054 0.23120795
000060 55 78 3c be 30 c9 2f be 76 f1 29 bd 95 be 0b be
       -0.18405278 -0.1716659 -0.04149004 -0.1364692
000070 83 f3 6a be c7 b4 dd 3d 1c 15 1e 3d 4e 45 a8 3d
       -0.22944455 0.10825496 0.03859435 0.08216344
000080 31 ce d0 3d 43 17 a4 bd 33 f6 a0 3c 2a 88 39 be
       0.10195578 -0.08012249 0.019648647 -0.18118349
000090 f8 02 96 3d 36 79 14 3e 48 0a 90 be 38 70 c3 bd
       0.07324785 0.14499363 -0.28132844 -0.095428884
0000a0 85 4b 77 3d 8d 94 55 be a2 8c 5e be 55 e7 b9 3c
       0.060374755 -0.20857449 -0.21733335 0.022693316
0000b0 80 4d 3c 3e 08 1a 0d 3e f6 c9 84 3d ab dc 52 be
       0.18388939 0.13779461 0.064838335 -0.2059199
0000c0 58 ab 7a be 7f 92 6c be d5 46 3f 3e 93 c9 82 be
       -0.24479425 -0.23102759 0.18679364 -0.25544414
0000d0 fe cc d8 bd 7b b2 3f 3e 4b 3d 5d bd 70 86 0d be
       -0.10585974 0.18720429 -0.05401353 -0.13820815
0000e0 b6 0c 17 bd ec e1 ab bd d1 6e a5 bd e7 86 07 be
       -0.036877356 -0.083927006 -0.08077777 -0.13235055
0000f0 17 3b cc bd 8a 33 57 3e b3 ca 11 bd e8 ff 14 3e
       -0.09972208 0.21015754 -0.0355937 0.14550745
000100 05 6e 59 3d e2 50 84 be 8f 4e 3f 3e 16 dd 48 3e
       0.05308344 -0.2584296 0.18682311 0.19615588
000110 a9 e3 00 bd ea 32 8f be b1 d6 70 be 65 78 61 be
       -0.031467114 -0.27968532 -0.23519398 -0.22018583
000120 da 3b 30 be 73 7a 3d be 65 04 80 be e7 f3 af 3c
       -0.17210332 -0.18503742 -0.25003353 0.021478606
000130 84 3a 11 be b1 13 6c be ed ba 13 3e 2b 29 7b be
       -0.14182478 -0.23054387 0.14426775 -0.24527423
000140 bd 4e 57 be 67 c6 49 bd 97 0e 7f 3d ac fa 0f 3e
       -0.2102613 -0.049261477 0.062269773 0.14060467
000150 29 3d ea bb bf 7c a4 3e c6 26 82 3e 88 eb ea 3d
       -0.007148404 0.32126424 0.25420207 0.11470705
000160 a4 e8 93 bd 96 1c e0 bd 74 2d a1 3d cf 00 89 3c
       -0.07222107 -0.10942952 0.078699976 0.016724018
000170 08 de 94 bd 72 b9 94 be fb 8f 2a 3e aa ee f0 3d
       -0.072689116 -0.29047734 0.16656487 0.117642716
000180 23 24 7a 3e e2 1f 53 bd 8e 88 9a be 12 6c 1f be
       0.24427848 -0.051544078 -0.30182308 -0.1556857
000190 3a c5 a9 be 83 dd 6c be b2 52 11 3e c7 5d 06 be
       -0.33158284 -0.23131375 0.14191702 -0.1312171
0001a0 25 de 04 3e 15 48 89 be 53 b6 21 be c7 02 7f 3e
       0.12975366 -0.26812807 -0.15792207 0.24903403
0001b0 5b 3c c0 bd 00 73 2b be b4 17 92 be 56 36 c8 3d
       -0.09386512 -0.16743088 -0.2853371 0.09775989
0001c0 08 75 83 3d 83 87 ba be e6 ae 2d be 7c a5 ae be
       0.06418806 -0.36431512 -0.1696125 -0.3411063
0001d0 07 54 3a 3e 10 68 e9 3b d9 3a 3b 3e 9e 8f 1c bc
       0.18196116 0.007123001 0.18284167 -0.009555725
0001e0 44 29 57 3d 60 91 89 3e 70 b0 bc 3b e1 8b 70 bd
       0.05252959 0.26868725 0.0057583377 -0.05872715
0001f0 5b 00 a3 bd cf 57 23 be 43 0a 83 bd 06 48 05 be
       -0.07959052 -0.15951465 -0.06398442 -0.13015756
000200 06 c5 3d bd 8f 7d 8d be ce 6c 5e 3e 46 2c 9b 3e
       -0.046330474 -0.27634856 0.21721193 0.30307215
000210 c5 67 ac 3d 4c fb 9a bb 56 60 4a 3e 1c ee 9c 3e
       0.0841823 -0.004729664 0.19763312 0.30650413
000220 82 45 15 3e 88 6b 20 3e be 88 63 3c 2d 73 e9 be
       0.14577296 0.1566602 0.013887582 -0.45595685
000230 05 d4 21 bd 73 00 a7 bd 2c 13 9a 3e c6 24 06 be
       -0.03950884 -0.081543826 0.30092752 -0.13099965
000240 48 58 88 3d ae 5b 50 be ee f9 73 3c 0c 5c fa 3d
       0.06657463 -0.20347473 0.014891131 0.12224588
000250 fb 20 1f be 7c ea 4e bb f5 62 16 3e 24 e6 71 3e
       -0.15539925 -0.003157287 0.14686187 0.23622948
000260 c8 ca 9e 3b b5 c3 10 be 12 6c 05 be 93 30 2a be
       0.0048459508 -0.14137156 -0.13029507 -0.16620092
000270 48 91 82 3d ec 0a 96 3d e4 18 b5 3e db 14 95 be
       0.063753664 0.07326302 0.35370553 -0.29117474
000280 81 b7 2d be 8d d4 e5 3d 94 74 48 3d 99 07 82 be
       -0.16964532 0.112221815 0.048939303 -0.25396422
000290 52 f1 32 3d 69 19 07 bd 1d c2 64 3e 26 0f b4 3d
       0.043687172 -0.032983217 0.22339673 0.08791952
0002a0 07 f6 3d 3c 00 34 c5 bd d8 3d 65 be 25 f5 36 be
       0.011594302 -0.09629059 -0.22386873 -0.17866953
0002b0 db cf 79 3e 55 39 fc bd be 21 64 be aa c6 d6 3d
       0.24395697 -0.12315623 -0.22278497 0.10487111
0002c0 13 38 1f be 4d 67 8c be 5a 60 90 3e c0 c3 a0 3e
       -0.15548734 -0.27422562 0.2819851 0.31399345
0002d0 f4 7e 34 3e 98 88 e9 bd 90 e7 ae bd 25 a5 27 3d
       0.17626554 -0.11403006 -0.08540261 0.04092898
0002e0 3e 18 28 be 2b 39 76 3c 9d 4a 02 3e 9e bd e3 3d
       -0.16415498 0.015028278 0.12723775 0.11120151
0002f0 4f 5e fe bc 69 ed 33 bc d8 eb 22 3d ef d5 87 3c
       -0.03105083 -0.010981896 0.0397757 0.016581504
000300 29 57 3e be 8f b8 30 be 26 33 74 be bd 73 88 3e
       -0.18587936 -0.17257904 -0.23847637 0.266508
000310 aa 5e 5d 3e f8 06 bd bd 88 00 b8 3c 3b d2 86 3d
       0.21618143 -0.09229845 0.02246119 0.06583067
000320 2c b4 a4 3d 46 77 3c 3e 7a 15 6e be 18 55 92 be
       0.080421776 0.18404874 -0.2325038 -0.28580546
000330 ce 08 26 bc b3 09 6f 3e 75 4d 9d bd 77 af 8c be
       -0.010133935 0.23343544 -0.076807894 -0.2747762
000340 e7 71 9b 3d 79 c5 85 3e 6c c3 57 3e c2 f1 1a bd
       0.075900845 0.26127222 0.21070641 -0.037828214
000350 43 8c d6 bd 80 2b a6 bd 25 a3 5f 3e 8b 27 a9 bd
       -0.104759715 -0.08113766 0.21839578 -0.08259495
000360 ba ab 5c be f7 94 7f 3c fd ad 2a 3e 50 f7 87 3e
       -0.21549883 0.015599481 0.16667934 0.26555872
000370 26 72 13 be bb 72 62 3e d0 ab 0b 3e 54 a0 27 be
       -0.14399013 0.22114079 0.1363976 -0.16369754
000380 b6 88 fe bd 05 d6 71 be c2 4d 27 3d c5 22 09 3e
       -0.12428419 -0.23616798 0.04084564 0.1339217
000390 d5 60 b0 bd f0 da 2a be 3d e2 12 be a2 d5 0b be
       -0.08612219 -0.1668508 -0.14344116 -0.13655713
0003a0 8d 1c a4 3d 95 55 c3 bc ed 5d 4e 3e 88 17 d9 3d
       0.08013258 -0.02384452 0.20153017 0.10600191
0003b0 af 1f 01 3e 4a 35 38 be 57 3b 43 be c8 48 26 3e
       0.12609743 -0.17989078 -0.19065605 0.16238701
0003c0 ab e1 09 bd c6 b2 a2 bc 16 81 bb 3e 72 cf aa be
       -0.03366248 -0.019860636 0.36621922 -0.33361393
0003d0 d1 c4 7b bd ff 83 36 be 69 56 c8 bc 1b a2 a3 be
       -0.061466996 -0.1782379 -0.024455266 -0.31959614
0003e0 3f 16 58 bd bc 8e 32 3e 11 c8 c7 bd 29 33 62 3e
       -0.05275559 0.17437261 -0.097549565 0.22089829
0003f0 8f f1 7e 3e 8b d3 54 3e 02 31 8b bd 2a e7 27 bd
       0.24896835 0.20783822 -0.06796457 -0.04099194

linears.1.bias f4 [40]
000000 b6 3c d6 bb fb 7d ee bb 3a 42 3a bd 0b dd 88 bd
       -0.006537999 -0.0072782016 -0.045473315 -0.066827856
000010 64 2e 15 3d b1 a8 9d 3b d3 6b b8 3c 7a 69 83 bd
       0.036421195 0.0048113693 0.022512352 -0.064166024
000020 70 d0 a4 3d aa fe 29 3e 43 61 9d 3c 86 0b ef bb
       0.08047569 0.16601053 0.019211417 -0.007295075
000030 2d 99 3d bb 26 92 97 3c bd 10 21 be 2c 97 1a bd
       -0.0028930411 0.018502306 -0.15729041 -0.037741825
000040 43 17 17 3c ce 4f ad 3d b6 bb fc bd 92 33 14 3d
       0.009221855 0.08462487 -0.123404905 0.036181994
000050 7a d0 3a bc 2b 29 92 bb 1e 76 5c 3d 45 ef 57 bc
       -0.011402244 -0.004460474 0.053823583 -0.013179605
000060 04 98 11 3e ef 3c d4 bc db a1 2b 3c 76 b2 a4 bc
       0.14218146 -0.025907962 0.010475601 -0.020104628
000070 c6 88 f7 bb 22 46 8b 3d 15 6b 22 be 36 7a ae 3d
       -0.0075541465 0.06800486 -0.15861161 0.08519404
000080 c2 8f c0 bc 2c 75 0a be 81 7b 37 bd eb 42 30 bd
       -0.023506049 -0.1352126 -0.044795517 -0.043032568
000090 2e 95 e6 3c 7b 9a 9e 3c b9 42 6a bd 93 bf b5 3b
       0.028147306 0.019360771 -0.057192538 0.005546519

linears.2.weight f4 [40, 40]
000000 3f e7 c6 be 54 2e 77 be 8e 07 8a 3d 01 73 1f 3e
       -0.38848302 -0.24138767 0.06739722 0.15571214
000010 6e 76 07 3e df d1 a2 3d 1a c8 58 3d 5f 41 f0 be
       0.13228771 0.07950186 0.052925207 -0.46924874
000020 45 45 5c 3e d6 f7 a2 3e e0 3f 15 be 70 37 31 3e
       0.21510799 0.3182971 -0.14575148 0.17306304
000030 88 87 ff 3c 2c 6d 1f be 7f 07 87 bd 06 a6 17 be
       0.031192556 -0.1556899 -0.06593227 -0.14809427
000040 24 6a 86 3e 4d 44 49 bd 42 f8 f0 bd c1 ad 25 bd
       0.26252854 -0.049137402 -0.117661014 -0.040448908
000050 dc a9 2d 3e d3 00 b9 3e 1b 32 49 3e c5 1a 68 be
       0.16959327 0.3613344 0.1964802 -0.22666462
000060 82 01 9f bd a5 1d 88 3b 1d 82 84 3e d2 d9 28 be
       -0.077639595 0.0041539245 0.2588052 -0.16489342
000070 23 0d 7e 3e a4 ba 2b be 7f 69 8b be fa 35 07 be
       0.24809699 -0.16770416 -0.27228925 -0.13204184
000080 95 62 df be 8f be cf bd 68 b4 24 bf 64 38 23 bf
       -0.436299 -0.10143768 -0.6433778 -0.6375792
000090 97 a1 af 3e 67 4b c2 bd 71 c1 8f be 47 50 f8 bd
       0.3430297 -0.09487038 -0.28077272 -0.12124687
0000a0 58 ef cb 3e ad 28 76 be c7 0a 96 bd 4f f3 23 3e
       0.39831042 -0.24038954 -0.07326274 0.16010784
0000b0 3a 7c 09 3d c7 b2 85 bd ab ec 82 3e e5 93 8b 3b
       0.033565737 -0.0652824 0.25571188 0.0042595738
0000c0 7c e1 89 3e e5 e3 4f be d4 a0 42 3d 14 4c 42 be
       0.26929843 -0.20301779 0.04751666 -0.18974334
0000d0 3d d3 06 be 5e 90 a6 ba 48 0e 48 3e ae 9b a7 3e
       -0.13166519 -0.001270782 0.19536698 0.32735962
0000e0 84 33 67 be b2 41 47 3e 11 01 e8 bd ba 37 63 3e
       -0.22578245 0.19458655 -0.113283284 0.22189227
0000f0 e4 20 ff 3d 55 be f5 be 5a 22 7c be 82 9c dc bc
       0.12457445 -0.47996774 -0.24622479 -0.026930097
000100 ea 7a 8f bd 89 f9 f4 3c e0 a7 3b be 0d 10 35 3c
       -0.07005866 0.029904144 -0.18325758 0.01105119
000110 77 64 7a be 58 6c 0b be 33 29 c6 bd 0b d2 87 3e
       -0.24452387 -0.13615549 -0.09675827 0.26527438
000120 51 dd 3c 3e 1c 30 84 3a 5a de 0e bd 33 66 cc 3e
       0.184438 0.0010085138 -0.03488002 0.39921722
000130 d2 34 da bd 9f ed 47 3e ca 74 78 bd 50 4c 4d be
       -0.10654606 0.19524239 -0.060658254 -0.20048642
000140 71 57 a4 be e4 be d1 3d cc 77 69 3e c4 cd 3d 3e
       -0.32097962 0.102414876 0.22799605 0.18535525
000150 91 af 5b be 8c 69 46 be 68 3a 51 be 6a b8 5e be
       -0.21453692 -0.193762 -0.20432436 -0.21750036
000160 e7 0c 6e be 3f 8a 13 3e 42 3c 5b be a0 46 c2 3d
       -0.2324711 0.14408205 -0.21409705 0.09486127
000170 16 af f2 3d 8a 73 84 3d af 7f b5 bd c2 a3 8d be
       0.11849801 0.0646735 -0.08862244 -0.27664
000180 cd 8f 21 be cf d9 5a be 84 24 7b bd 4d ad 69 bd
       -0.15777512 -0.2137215 -0.06131412 -0.057050038
000190 97 5b 1f 3c c4 b9 40 bd 70 cc 2a be f8 24 4a be
       0.009726427 -0.04705216 -0.16679549 -0.19740665
0001a0 45 f6 32 3e b4 4e 33 3d 30 19 f6 bd cd 8b 2c 3e
       0.17476757 0.04377623 -0.12016523 0.16850205
0001b0 dd f0 6a bd 51 17 5f bd dd 59 98 be 0f 35 dc bd
       -0.05735861 -0.054465596 -0.2975606 -0.107523076
0001c0 e0 18 2f be 30 b9 a4 bd 6e 64 62 bd c9 2f 9b be
       -0.17099333 -0.08043134 -0.05527156 -0.30309895
0001d0 e3 f9 63 bd c0 87 16 3e 32 f0 d9 bd 55 2f 9d b8
       -0.055658232 0.14700222 -0.10641517 -7.49516e-05
0001e0 8d ea 2e bd c1 ac 22 3e 04 09 dc 3e 0c 84 64 bc
       -0.042704154 0.15886213 0.42975628 -0.013947498
0001f0 76 1d 7c be 3b 60 1f bd 32 86 8d bd 51 1f b7 3e
       -0.24620613 -0.038910132 -0.06910361 0.3576608
000200 f0 0a 62 be c5 00 ab bd 5b cc d7 3d 6c c3 22 3e
       -0.22074485 -0.08349756 0.105370246 0.1589486
000210 fc 1b 91 bd 12 4e 96 bd 0e 71 48 3e 8b ad ec 3c
       -0.07085416 -0.073391095 0.19574377 0.028891345
000220 29 30 b9 3d 2d db b8 bd fd 4d 1d 3e 57 77 a0 bc
       0.09042389 -0.090261795 0.15361781 -0.019588156
000230 5d 03 ed bd 81 88 9d be fc d4 eb bd 6b 38 44 3e
       -0.11572907 -0.30768207 -0.11515233 0.19162147
000240 40 68 97 bc bd 3e 75 bd 80 99 85 be 56 1d 0e 3e
       -0.018482327 -0.059874285 -0.26093674 0.13878378
000250 06 a8 b9 bc c9 54 16 be 73 f7 aa 3e aa 49 50 bd
       -0.022663128 -0.1468078 0.33391914 -0.0508515
000260 2b 67 8e 3e d4 5a a0 3e 7e 9d f7 bb 8f 9b 54 3e
       0.27813086 0.31319296 -0.0075566163 0.20762466
000270 27 07 1d be e5 af ca 3d 0f f8 26 3f ed a5 f6 bd
       -0.1533476 0.098968305 0.6522226 -0.120433666
000280 45 79 41 be 1b 36 57 be 7a fb 31 3c 80 0d 3b 3b
       -0.18893917 -0.21016733 0.010863179 0.0028541982
000290 3a d6 00 be d6 74 26 3e 83 99 8f bc cb 32 eb 3c
       -0.12581721 0.16255507 -0.017529255 0.028710743
0002a0 3f dc 3c 3e 5f fe 3c bd 50 ac 7e be 6c 19 6b bd
       0.18443392 -0.046141025 -0.2487042 -0.05739729
0002b0 64 6f 62 bd 23 ec 51 3e 08 f1 9b be f6 b8 19 be
       -0.05528201 0.20500235 -0.3045733 -0.15011963
0002c0 39 59 95 3e 15 00 1e bd b5 5e 70 3d f7 cc 52 be
       0.29169634 -0.038574297 0.05868407 -0.20586
0002d0 d0 ff 87 3e 94 4e 4f be a5 0e 5e 3d 59 7a c4 3c
       0.26562357 -0.20244819 0.054213185 0.023984121
0002e0 b7 86 1a 3e 72 9e b6 3d 15 63 e2 bd 97 4c a3 3d
       0.15090452 0.0891694 -0.11054055 0.07973593
0002f0 84 ee 4c 3e 8e ba b5 3d f0 f0 e9 3d 3d 52 5d bd
       0.20012861 0.08873473 0.11422908 -0.054033507
000300 a3 96 f4 bd bf b5 aa be a1 c3 79 be 54 13 8c bd
       -0.11942794 -0.33341786 -0.24391033 -0.06839624
000310 b3 1e 86 3d 7a 73 8f be 50 20 d6 be 77 88 82 bd
       0.06548824 -0.2801779 -0.41821527 -0.06373685
000320 90 c6 cd 3d 55 8b 4e be 18 70 83 3d d3 4e c7 bd
       0.100476384 -0.20170338 0.064178646 -0.097318314
000330 8d 5a bf bd bc e4 30 bb ee d2 0c 3e 8e 57 9a 3c
       -0.09343443 -0.0026991805 0.13752338 0.018840577
000340 1a 4c 06 be 50 7f 83 be 66 55 36 3e f1 09 0d 3e
       -0.13114968 -0.2568307 0.17806014 0.13773324
000350 e7 38 17 be e3 a6 1d bd 1f 35 aa bd 37 cf 91 3e
       -0.147678 -0.038489234 -0.08310913 0.28478405
000360 a1 5f 02 be ce a6 87 3e 05 37 34 3e fa 35 ce 3d
       -0.12731792 0.2649445 0.17599113 0.10068889
000370 a9 be d4 bd 9c c2 73 3d 96 f4 7c be 5c fd 7c 3d
       -0.10387928 0.059511766 -0.24702677 0.06176506
000380 50 10 ac 3e f3 01 03 bc c0 cc bb bb 22 32 65 be
       0.33606195 -0.00799607 -0.005731195 -0.22382405
000390 39 c0 67 bd 1a c1 80 be 35 3b 59 be ef 95 44 3e
       -0.056579802 -0.25147325 -0.21213992 0.1919782
0003a0 b4 fc 8c 3e 71 12 0d be 95 51 98 bd ff 2f 06 3d
       0.27536547 -0.13776566 -0.074374355 0.032760616
0003b0 84 08 56 3e e2 33 3c be 7e e1 f3 bc 35 fa 21 be
       0.20901686 -0.18379167 -0.029770609 -0.15818103
0003c0 60 a6 56 3d f9 58 45 3e 78 08 ca 3d 39 c7 50 3c
       0.05240476 0.19272222 0.098648965 0.012742811
0003d0 ec 8e 80 be a8 6a 9e 3d a0 5e 13 be 53 9f ff bd
       -0.2510904 0.07735187 -0.14391565 -0.124815606
0003e0 79 9e 79 bb f4 83 72 3e b5 df c6 3d f5 20 04 be
       -0.0038088842 0.23683149 0.097106375 -0.12903197
0003f0 64 ca 2c 3e 7b f9 b6 bd 1a 89 1c be 8b 23 82 be
       0.16874081 -0.089343034 -0.15286675 -0.25417742

linears.2.bias f4 [40]
000000 52 9d 8c 3c b7 2c f4 bc 0a 58 7e bc 3b 97 f4 bc
       0.01716486 -0.029806478 -0.01552392 -0.029857269
000010 35 24 9e 3d 4f d2 1d bc 70 22 1e 3d 30 0e 81 bd
       0.0772175 -0.009632661 0.03860706 -0.06301534
000020 41 69 a5 bc 13 35 d7 bc b9 e8 c3 3b 1d ac a9 3b
       -0.02019179 -0.026270425 0.0059786704 0.005177988
000030 8d 82 f1 bc 8e 4e c3 bc c6 36 2c 3c 92 da 8b bd
       -0.029481197 -0.023841169 0.010511106 -0.06828798
000040 0d 48 b8 3d 26 53 03 bd 32 a0 88 3c c2 bd 76 3d
       0.089981176 -0.03206172 0.01667795 0.06023956
000050 1d e7 e2 3c af 12 ba bd f9 ff 8a bd 20 92 a7 3d
       0.027698094 -0.09085595 -0.06787104 0.08182168
000060 e9 d9 95 3b de e7 28 3b 98 34 40 3d 3d 6f 93 3d
       0.004573096 0.002577297 0.046925157 0.071989514
000070 24 0f 72 bc f2 07 02 3e dc 0e e8 3c a7 02 bc bd
       -0.014774118 0.12698343 0.028327398 -0.091801934
000080 d5 66 4f 3d fe 7a 71 bd 0e 18 e0 3c b9 52 06 3c
       0.050635178 -0.058955185 0.02735522 0.008198434
000090 4b 8a cf 3c 30 c9 00 bd fb 67 ca bc 72 8c 38 bc
       0.025334498 -0.031441867 -0.024707785 -0.0112639535

linears.3.weight f4 [40, 40]
000000 05 54 47 be dd 1f 9f 3e 0c b8 87 3d 97 36 08 3e
       -0.19465645 0.31078997 0.06626901 0.13302074
000010 c2 8f 85 be 02 66 c0 3e 5e 58 97 bd b5 ba eb 3d
       -0.2608624 0.37577826 -0.073899016 0.11510221
000020 a2 cd 0c 3e ff d5 bc bb 57 aa b0 3d d8 3d 7b bc
       0.13750318 -0.005762815 0.0862624 -0.015334569
000030 ca e0 00 3f 1a 13 59 3e f8 ba b8 3d c6 07 a0 be
       0.50343 0.21198693 0.090200365 -0.3125593
000040 eb b1 7e be 04 c7 53 3d 20 34 44 be ef 91 ad 3d
       -0.24872558 0.051703468 -0.19160509 0.084751
000050 9a f1 8d bd a9 5b 4e be 61 6f 78 3e f1 5c ac be
       -0.069308475 -0.20152153 0.24261238 -0.3366466
000060 a6 12 c3 3d 7f 05 d0 3d b5 69 f6 bd c5 9d 2f 3e
       0.09525041 0.10157298 -0.12031881 0.17150028
000070 32 d0 8f be 9c e0 bd 3d dc 32 01 3e 21 59 c2 3d
       -0.28088528 0.092713565 0.12617058 0.09489656
000080 83 07 f2 3d 45 3a 93 be 4c 91 c5 be c7 23 b6 3e
       0.11817839 -0.28755394 -0.38587415 0.3557417
000090 d2 c6 3c be 0d ca df 3d 0d c7 98 be d0 35 cb be
       -0.18435219 0.1092721 -0.29839364 -0.39689493
0000a0 5b d9 b0 bd b7 0e f9 bb d1 bd 5a 3d c2 57 dd bd
       -0.08635207 -0.007600631 0.05340368 -0.10807754
0000b0 af b6 03 3d 9a cf 11 3e 61 ad b1 bc 92 f1 14 be
       0.032156643 0.1423935 -0.021689119 -0.14545277
0000c0 a5 15 ad 3d cb e5 da 3d 23 dc 03 3e 61 23 4f bb
       0.08451394 0.10688361 0.12876944 -0.003160678
0000d0 de c2 90 bd 2f 18 c8 3e 85 8c 1d be b3 98 08 3e
       -0.07068418 0.3908095 -0.15385635 0.133395
0000e0 9a 3f 26 3e 91 65 1b be 16 d1 0d 3e d3 64 54 3e
       0.162352 -0.15175463 0.13849291 0.20741586
0000f0 80 01 df bd 46 3f 40 be 50 7c 8a 3d c7 ef d9 3d
       -0.10888958 -0.18774137 0.06761992 0.10641437
000100 28 5a 57 be ca 18 a9 3e 49 56 4f bd 9f ff 39 3e
       -0.21030486 0.33026725 -0.050619397 0.18163918
000110 cd ca 8e be 85 e0 01 b9 02 e5 72 3e a4 0f 92 be
       -0.278891 -0.00012386039 0.23720172 -0.28527558
000120 1a 4b 0b 3e b3 21 5a bd 6e cf 2b 3d 1f 07 b0 3d
       0.13602868 -0.053254794 0.041945867 0.08595108
000130 b6 dc 54 3e 42 f3 79 3e 6b 81 20 3e 11 7b 74 3e
       0.2078732 0.24409202 0.15674369 0.23875071
000140 6f 1d 1a 3c 02 33 3b be ed 26 24 be ac 35 6d be
       0.009406432 -0.18281177 -0.16030474 -0.23165005
000150 e5 e6 5b bc 7c 24 2e 3d fe 67 8a be 4e b4 0a be
       -0.013421749 0.042515263 -0.27032465 -0.13545343
000160 cd 5d 18 be 39 28 43 3b 59 58 30 3e e9 d1 15 be
       -0.14879532 0.0029778613 0.17221202 -0.14630856
000170 08 cd 77 3e 51 97 98 3e 75 ba 51 3e 77 26 1f be
       0.24199307 0.29802945 0.20481284 -0.15542017
000180 a4 0b 08 be c8 e3 87 3d d7 81 07 be 89 9b 9b 3d
       -0.1328569 0.06635243 -0.13233124 0.07598025
000190 cd aa 47 be 08 bb d6 be 3f 91 42 be fe 5a 59 3e
       -0.19498749 -0.4193957 -0.1900072 0.21226117
0001a0 3d d2 06 be 54 3c de 3e 9a 6f 48 bd e8 61 3e be
       -0.13166137 0.43405402 -0.048934557 -0.18592036
0001b0 5b ba f1 bd f0 94 21 3e 92 69 63 be 2e cd 2f be
       -0.118031226 0.15779471 -0.2220824 -0.17168114
0001c0 96 1e b3 bd 52 ed 2e be 87 be 77 bc 3a c8 b7 bd
       -0.08746068 -0.17082718 -0.015121109 -0.08973737
0001d0 f5 49 cd 3e 48 a9 2d 3e 28 88 89 3e d6 04 88 3d
       0.40095487 0.16959107 0.2686169 0.066415474
0001e0 f0 a2 d0 3e fd de 94 3d c0 dd f9 3e 6a 15 50 be
       0.4074931 0.07269094 0.48801994 -0.20320669
0001f0 82 4d ec bd 6c 18 2a bd fe 3d 00 bd 72 4b 4c 3d
       -0.11538221 -0.041527197 -0.03130912 0.049876638
000200 42 06 a4 3d 97 17 17 be 40 49 8a be 16 92 0d 3d
       0.08009006 -0.14755093 -0.2700901 0.034563147
000210 2b 4c db 3d 15 44 42 be c5 79 42 bf 4e 4a 08 be
       0.10707887 -0.18971284 -0.75967056 -0.13309595
000220 27 7e 06 3e 47 c3 50 be f1 5c 9e 3e 71 26 b8 3d
       0.13134061 -0.20386992 0.30930284 0.08991707
000230 48 b5 cc 3d 9e db 11 3e 6e 06 df bd b1 e3 c5 3d
       0.09995514 0.14243934 -0.10889898 0.09662569
000240 64 ac bd bd 6f fa 4c be fe c6 4b 3e 95 e4 be 3e
       -0.092613965 -0.20017408 0.19900128 0.3728377
000250 ae 26 97 3e 5b 8f 3e be 87 f4 8e 3e 19 9c 8a bd
       0.29521698 -0.18609373 0.27920935 -0.067680545
000260 63 1e e4 3d 3c 49 1c 3e b2 3e 1e 3e ed 69 c3 3d
       0.11138608 0.15262312 0.15453604 0.09541688
000270 ec 0d 53 be 09 2a 49 3d 0d c0 8e 3e 2e 15 6b 3e
       -0.2061078 0.049112353 0.27880898 0.22957298
000280 19 00 d5 bd 4c 63 a8 3d 1a a4 72 3e 43 b9 6e 3e
       -0.10400409 0.082220644 0.23695412 0.23312859
000290 1e a9 d3 3c a3 ce 3d 3e cd 0a 37 be f6 92 cd 3e
       0.025837477 0.18535857 -0.17875214 0.40151185
0002a0 48 f3 6b 3e 3b f4 cd bd be c7 13 be 96 f0 f9 3d
       0.23042023 -0.10056349 -0.14431664 0.12204091
0002b0 50 de 46 be 4a 00 4e 3e e2 52 a6 3d 89 47 04 3f
       -0.19420743 0.20117298 0.081212774 0.51671654
0002c0 b4 a8 e9 bd f7 7e 10 3e 33 ab 9a be fc 87 04 3e
       -0.11409131 0.14110933 -0.3020874 0.12942499
0002d0 b2 09 ae be 4f 4f 17 3f e1 ec b5 3e 86 b5 18 be
       -0.33991772 0.5910539 0.35532287 -0.14912996
0002e0 be 4d 9a 3d 32 14 c1 bd c2 de c9 bd 3d b6 ea bd
       0.075343594 -0.0942768 -0.09856941 -0.114605404
0002f0 5c 76 54 3e 71 91 04 3d 73 a7 87 be 83 cf 57 3e
       0.20748276 0.032365266 -0.2649494 0.21075253
000300 0a c3 ce 3b 63 30 a7 3d f3 52 2a bd 2a 5c 5d be
       0.0063098716 0.08163526 -0.041583013 -0.21617189
000310 59 97 81 bc 60 53 11 3d 6e 0b e8 3e 74 d2 f9 3e
       -0.015819238 0.035479903 0.4532122 0.48793375
000320 9b bb 8c 3d 0e 8c 19 3d c7 3f ca bd 45 b9 27 be
       0.068717204 0.037487082 -0.09875446 -0.16379268
000330 99 d6 8f 3d cd bf dc bd 81 9d 07 3e 6b ea af bc
       0.07023353 -0.107787706 0.13243677 -0.021474084
000340 b4 94 23 3e 88 86 5e be 77 11 f5 3c 1d ff 33 3d
       0.15974694 -0.21731007 0.029915554 0.043944467
000350 fa 5c 72 bd 19 4e db 3d e0 02 05 be 55 70 a5 3c
       -0.0591707 0.10708255 -0.12989378 0.020195166
000360 3f 02 f4 3d 33 07 21 bd 53 3f 77 be 76 1b 9a 3b
       0.11914491 -0.039313506 -0.2414525 0.0047029806
000370 b7 1d 55 3e aa 5f 16 3e cf f6 c8 bd b3 a9 01 be
       0.20812117 0.1468493 -0.098127 -0.12662391
000380 01 02 04 be 4a 32 95 3e 90 4e 3c 3e 5e 48 be bd
       -0.1289139 0.2913993 0.18389344 -0.09291147
000390 55 cc aa 3d 25 1a 2a 3e a8 1c 80 be d9 7c 2a 3e
       0.083397545 0.16611536 -0.25021863 0.16649188
0003a0 e8 dc 79 3e 8f b8 96 be 1d 77 ab 3d ec da 84 3e
       0.24400675 -0.29437682 0.083723284 0.25948274
0003b0 12 a8 3b 3d 5e 28 de 3d 20 04 91 be 03 e3 75 be
       0.04581458 0.10847543 -0.2832346 -0.2401238
0003c0 1e 8e 29 be 41 a8 1d be 49 78 f7 bb d1 56 d6 3c
       -0.1655812 -0.15396215 -0.007552181 0.026164444
0003d0 90 36 43 3c 01 61 5f be c6 aa 6c be af 8c 7d 3d
       0.011914864 -0.21814348 -0.2311202 0.061901744
0003e0 92 c5 9c bd 09 e7 7e 3e 94 34 bd 3c aa 83 2f 3e
       -0.07654871 0.2489282 0.02309636 0.1714007
0003f0 8a a5 4b be 2d 04 5c 3d 5a 6f ac 3c ea 13 ab 3e
       -0.19887367 0.05371492 0.02104919 0.3341363

linears.3.bias f4 [40]
000000 ba 58 be bd 63 05 a5 ba 27 f9 f9 bc c0 1f 21 3d
       -0.09294267 -0.0012590106 -0.030514313 0.03933692
000010 bf 7a 8d bc ea cb d0 bc b0 57 18 bd 5e 7f 26 38
       -0.017270444 -0.025487859 -0.037193 3.9696104e-05
000020 28 13 f9 3c c1 d0 d6 bb 4f de a2 bc 59 a4 46 bd
       0.030404642 -0.006555647 -0.019881396 -0.048496578
000030 e4 cc bc bd 37 b1 62 bd cf ed 76 bb f1 91 a5 bd
       -0.09218767 -0.055344786 -0.0037678366 -0.08084477
000040 00 97 83 bc 2c 30 d9 3c 13 9b 9d 3c 20 18 48 3d
       -0.016063213 0.026512228 0.019238984 0.048851132
000050 f5 80 69 3d e6 10 38 bd e7 f7 50 bd 49 f8 1a bd
       0.05700775 -0.04493799 -0.051017668 -0.03783444
000060 18 d6 e1 bc 65 13 f2 3c 28 7b d3 bd 01 80 f3 3c
       -0.027567908 0.029550264 -0.103262246 0.029724123
000070 7b de f5 bc af 4a 2d bd 5c b1 4a bd 28 a2 d4 bd
       -0.030013314 -0.042307552 -0.04948555 -0.10382491
000080 ef 3f 76 bd 68 c8 0c bd 4d 72 80 3d f7 54 dd 3b
       -0.060119566 -0.03437081 0.06271801 0.0067545134
000090 e7 01 64 bd e6 4e fa 3b f8 4e b9 bb 42 5c 75 3c
       -0.055665877 0.0076388 -0.0056551658 0.014975609

linears.4.weight f4 [40, 40]
000000 90 a5 c6 3d 15 99 1d be 40 c4 f2 be ae f4 6e be
       0.09699547 -0.15390427 -0.47415352 -0.23335525
000010 7b c5 58 bd 22 39 58 3e 8e c1 83 be 29 7e 14 3e
       -0.052922707 0.21115544 -0.25733608 0.14501251
000020 ff 01 9e 3e bb 26 0a 3d 8b 21 f4 3b 07 76 13 be
       0.30860898 0.033728343 0.0074502877 -0.14400493
000030 3f e7 77 3c 0d 8c 0e bb 11 d7 76 3d b7 64 39 3c
       0.015130817 -0.0021750957 0.060263697 0.011315516
000040 47 45 0d be 44 0a 42 3d c5 18 9f be b4 a2 58 3e
       -0.13795958 0.04737307 -0.31073585 0.21155816
000050 ea 9d 7e 3e bf 88 61 be 23 2d e6 bd 2a 3d a0 3d
       0.24864927 -0.2202482 -0.11239078 0.07824166
000060 50 1c 43 bd 82 90 ed 3d 9e c2 75 3d d3 38 02 bd
       -0.047634423 0.11599828 0.060000055 -0.031792473
000070 ae 01 8c be 5a 36 43 be 4c ea 85 be 31 80 e2 bd
       -0.27345031 -0.19063702 -0.26155317 -0.11059607
000080 d7 5f 51 be 51 71 6c be dd a4 52 3e 5c b6 6e 3c
       -0.20446716 -0.23090102 0.20570703 0.014569845
000090 1a 56 82 3d 2b 35 7c 3e 24 1c c1 3e f7 75 33 3e
       0.06364079 0.24629657 0.37716782 0.17525469
0000a0 7e a3 42 3e 74 26 3d bd 2c 31 5f bc ff cd 1e bd
       0.1900768 -0.04617925 -0.013622563 -0.038770672
0000b0 c1 ff 8b 3e 7c 27 cf 3d d9 58 a1 3d 3e 20 5d 3e
       0.27343562 0.10114953 0.078782745 0.2159433
0000c0 e5 8b a3 bd 0a 8e 87 3e 66 9a d3 3d 9b 98 0a be
       -0.07985667 0.26475555 0.103321835 -0.13534777
0000d0 3e 0a 54 be 99 2f 92 3e 90 a6 69 be 26 44 72 be
       -0.20707032 0.2855194 -0.22817445 -0.23658809
0000e0 af fe e0 3d 62 15 19 3e ce e9 58 3e d8 2c fa bd
       0.10986077 0.14949563 0.2118294 -0.122155845
0000f0 ea e3 44 3e 64 05 46 3b af c0 53 be 8b b1 45 be
       0.19227567 0.0030215615 -0.20678972 -0.19306009
000100 32 a0 7c bc b5 52 0c be 2d f2 73 3e 1e 6f 22 3e
       -0.015419053 -0.13703425 0.23822851 0.158627
000110 bc 7e 33 bc 18 ad 45 bd 26 43 3a be e7 98 4a bd
       -0.010955509 -0.04826078 -0.18189678 -0.049462225
000120 17 90 b8 3d ac ef 6a 3e 49 42 62 3c 5c 69 1c 3e
       0.09011858 0.2294299 0.013809749 0.15274566
000130 8f 19 49 3e d3 1b c6 3d 10 81 55 be 2f 75 3e 3d
       0.19638656 0.09673276 -0.20850015 0.046498474
000140 0f 0d e5 bd 65 54 cc bd 4a 7d 89 be cf 5c d1 3d
       -0.11184131 -0.099770345 -0.268534 0.1022278
000150 0b 65 ed 3d e3 0f 2b be b3 cc c5 3e 27 f7 f5 bb
       0.11591538 -0.16705279 0.38632736 -0.0075062695
000160 9d 92 25 3d 7b 99 91 3e 4e 48 cc 3e 34 c9 af 3d
       0.040423024 0.2843741 0.39898914 0.08583298
000170 21 0e 3d be 76 b6 1e 3e 1d b8 fd 3d 96 15 48 3e
       -0.18462421 0.15499291 0.123886324 0.19539484
000180 33 e4 31 be 2b fa 6e bd 84 8b 77 3d 06 4e 61 be
       -0.17372207 -0.058344048 0.060435787 -0.2200242
000190 d1 22 86 3e 1e 00 9b 3e 95 42 26 be e1 18 67 3e
       0.26198438 0.30273527 -0.16236337 0.22568084
0001a0 88 89 67 3e d8 b1 0f 3e 09 79 b0 3e 38 4c d5 3c
       0.22611058 0.14032686 0.34467342 0.02603732
0001b0 63 9a 4e be 97 34 07 3e b2 6d 84 bc 3d 67 fa bd
       -0.20176081 0.13203655 -0.016165588 -0.122267224
0001c0 68 0a 7b be 1d 42 aa bd 7c 22 1e be 89 36 48 3e
       -0.24515688 -0.08313391 -0.15442842 0.19552054
0001d0 34 49 62 bd 8a 6f 36 3e 3f 06 c6 3e b5 96 f7 bd
       -0.055245593 0.17815986 0.3867664 -0.12089292
0001e0 d8 16 6c 3e 1b 4c 86 bd a7 13 49 bc 29 63 9d 3d
       0.23055589 -0.06557485 -0.012272752 0.07684929
0001f0 81 67 53 bd 07 08 34 3e a2 70 9b 3e d3 b2 0f 3e
       -0.05161238 0.17581187 0.3035937 0.1403306
000200 0e 89 9c bd bd dd bd bd 6a 39 64 3e c5 ab c5 bc
       -0.076433286 -0.09270809 0.22287527 -0.024129758
000210 80 87 bd bd 41 ff 0c be 6a e4 2a 3e 74 cf 5a 3d
       -0.0925436 -0.13769247 0.16688696 0.0534205
000220 a2 1f 41 be f4 e9 4c 3e 44 bf 77 bd 51 c2 c1 3d
       -0.18859723 0.20011121 -0.06048514 0.09460891
000230 04 f1 c2 bc de d1 2b be f0 83 7e be fd 32 ba 3d
       -0.023796566 -0.16779277 -0.24855018 0.090917565
000240 1b 17 34 3d 87 80 fb 3d 1d 23 30 3d b0 a8 24 bd
       0.043967348 0.12280374 0.043002237 -0.040199935
000250 21 98 53 3e 62 27 c5 bd 3b e7 a9 3c 6a 98 3a 3e
       0.20663501 -0.09626652 0.020740142 0.18222204
000260 9d d8 ac 3c f9 13 99 3e 4b 2b 7e 3e cf c1 29 bc
       0.021099383 0.2989805 0.24821202 -0.010361149
000270 24 a6 5c 3e 6f f0 6e 3e 68 41 49 3e 3f 48 0f be
       0.21547753 0.23333906 0.19653857 -0.13992403
000280 08 c4 d4 3d b5 b7 5b bd e2 5d 31 bd 45 43 dd 3c
       0.103889525 -0.053641994 -0.043302424 0.027009616
000290 00 d3 94 bd 18 62 82 3d 8d 5a 30 3d 20 72 85 3e
       -0.072668076 0.06366366 0.043055106 0.26063633
0002a0 89 de 64 be 49 7e a9 3d 2e 8f 80 3e 12 b7 38 3e
       -0.22350515 0.0827604 0.25109237 0.18038586
0002b0 9b 55 2c be fc 0f da bd 04 0a 92 bd ca ae 5f 3e
       -0.16829531 -0.1064758 -0.071308166 0.2184402
0002c0 c1 84 db 3d cb 8b 37 3d fd 54 33 be 68 35 f3 bb
       0.1071868 0.04481105 -0.17512889 -0.007422138
0002d0 27 ae 9d be 68 50 29 3d cb 88 45 3e 54 a5 fb bd
       -0.3079693 0.041336447 0.19290464 -0.12287393
0002e0 f3 17 9a 3e ac b5 c5 3c 20 fa 42 3e c1 1d 1c 3d
       0.30096397 0.02413448 0.19040728 0.038114313
0002f0 93 2c 54 bd 41 68 03 3e 9d 2e 6d 3e 5a b9 bb bc
       -0.05180032 0.12832738 0.23162313 -0.022915531
000300 71 37 a3 bd a7 24 2b 3c d8 d8 75 be 93 2d 2d be
       -0.07969559 0.01044575 -0.240085 -0.16911916
000310 5d 6d cd bd f1 e3 52 3e 83 85 f0 bd 73 c5 08 3e
       -0.10030625 0.20594765 -0.11744215 0.13356571
000320 17 d9 07 bd 85 8b e7 bc e4 a7 61 be d7 a7 b3 3e
       -0.033166017 -0.02826477 -0.22036701 0.3508899
000330 81 6a ea 3d b1 9f 2d 3d 97 ab 0b be 63 73 31 3e
       0.11446095 0.04238862 -0.13639675 0.17329173
000340 4e ed b8 3d 3b be 6c 3e 6b 4d 0a 3d ce 1c b1 bd
       0.09029637 0.23119442 0.033765238 -0.08648072
000350 a5 a4 06 3d 5d 76 b6 be b6 05 65 3e 60 ac 81 be
       0.03287186 -0.3563718 0.2236546 -0.25326824
000360 79 c3 49 3e 72 a7 7d 3d 7b 52 06 be 5d 47 88 bb
       0.19703473 0.061927266 -0.13117401 -0.004158898
000370 29 ae d6 3e 5b a2 88 3e 71 50 a2 ba ed b0 4b bc
       0.4192975 0.26686367 -0.0012383593 -0.012432319
000380 dd 4c 52 bb 81 93 22 be 25 75 65 3e 0d ee a4 be
       -0.003208927 -0.15876581 0.22407968 -0.32212868
000390 40 79 4b 3e da 75 20 3e 32 18 de bd d2 cb 1d 3e
       0.19870472 0.15669957 -0.10844459 0.15409783
0003a0 4c af 62 be 5c 89 bb 3d 1a 04 5b 3e e7 3e 6b 3e
       -0.22137183 0.091570586 0.21388283 0.22973214
0003b0 9d 5e 06 bd f7 2d 70 3d 6a 9f d0 3d ad 55 f8 bd
       -0.032805074 0.058637585 0.10186656 -0.12125716
0003c0 2f 41 fb bd f5 ee 0e 3d 2a 5b 13 bd cb 8e 47 be
       -0.12268292 0.034895856 -0.035975613 -0.19488065
0003d0 e3 4a d9 3d 44 ff 2e bc 72 f0 1a 3e 44 7f 8e be
       0.10609987 -0.010680977 0.15130785 -0.2783147
0003e0 9e de 3a 3d 2c 23 6e 3e b0 d5 b4 bd 9e 8b 8e 3e
       0.04562246 0.23255605 -0.0882982 0.27840894
0003f0 83 db 62 3e 0a a7 16 3d 5e bc 3f 3d ac 61 4d 3e
       0.2215405 0.036780395 0.0468105 0.2005679

linears.4.bias f4 [40]
000000 c4 62 67 3d d2 fd f5 bc f1 a2 d3 3c 41 c7 af bc
       0.056490675 -0.030028258 0.025834532 -0.021457316
000010 ca 4b 53 bd dc dd 86 3c e5 ec ef 3c c6 1c d8 bc
       -0.05158595 0.016463213 0.029287765 -0.026380908
000020 ee b8 ab bc 30 bb 00 bc b9 e7 3b 3d 73 a6 f1 3b
       -0.020962205 -0.007857129 0.045875285 0.0073745786
000030 8d 33 21 3d 1c 5a c4 3c 28 37 28 3d f8 a0 9c bc
       0.039355803 0.023968749 0.041068226 -0.019119725
000040 21 73 4d bc dd c4 ea 3c b0 5a 07 3d 0b 06 3a bd
       -0.012539656 0.028658325 0.03304547 -0.04541592
000050 02 28 70 bd 9c b5 41 3c a8 88 0b bc bc 06 54 bd
       -0.058631904 0.011823084 -0.008516468 -0.051764235
000060 20 bc be bc 02 88 b2 bc bc 2c 4d 3c 2a 89 64 3d
       -0.023283064 -0.02179337 0.012522873 0.055794872
000070 31 da d3 3c 8c 61 9c bc 79 fe bd 3c 4a 15 25 bd
       0.025860878 -0.019089483 0.023192631 -0.040303506
000080 ac 57 3c bb e2 2a 04 3d b8 a2 07 3d 10 26 ae bc
       -0.002873878 0.03226746 0.033114165 -0.021258384
000090 33 16 ed 3c 4a a7 3e bd 62 00 10 3d 09 71 5b bd
       0.02894125 -0.046546258 0.035156615 -0.053574596

linears.5.weight f4 [3, 40]
000000 8f 30 c3 3e e2 a9 c0 bd ad 61 1e 3d 07 a0 a7 bd
       0.38122985 -0.094074026 0.03866737 -0.0818482
000010 ce 77 9d be 7b 48 51 3e af 21 f8 3d 66 07 28 be
       -0.30755466 0.20437805 0.121158 -0.16409072
000020 c2 b4 fd bd 38 92 ac 3e d6 bf f4 be fe f9 81 bd
       -0.123879924 0.33705306 -0.4780261 -0.0634651
000030 b1 36 37 3d be 7e 16 3e 1b 77 6a 3e 71 31 1c be
       0.044729892 0.14696786 0.22896998 -0.15253235
000040 7c b3 66 be 77 7f 86 3e be 90 77 3e 97 22 62 be
       -0.22529405 0.26269123 0.24176309 -0.22083507
000050 40 48 ab 3e d6 47 63 3c 6d 94 52 be bc ad 9a be
       0.3345356 0.0138721075 -0.20564432 -0.30210674
000060 4a c3 8b be e0 ba b6 be ec f9 78 3e 14 cf bd 3e
       -0.2729743 -0.3568945 0.24314088 0.3707205
000070 84 1d bc 3e 38 1f 87 be 26 6d ab 3d 29 a4 76 3e
       0.3674127 -0.26391006 0.08370428 0.2408606
000080 79 f9 34 3e c9 aa 6b 3d ab 10 bd 3e 21 b0 c3 be
       0.17673291 0.05753592 0.3692678 -0.38220313
000090 1d 25 14 3e 63 1d 19 bd e3 08 b6 3e f2 de a3 be
       0.14467283 -0.03738154 0.35553655 -0.3200603
0000a0 8d 5a 72 bd fc f1 66 3e 49 44 8d 3e fe 24 90 bd
       -0.059168387 0.22553247 0.2759116 -0.07038306
0000b0 92 eb e8 3d e3 02 aa 3e f6 e4 af 3c 2b 8a 85 3e
       0.113730565 0.33205327 0.021471482 0.26081976
0000c0 3c b0 b8 bd f0 49 6d 3e 19 bb 8e 3d 7d 99 31 be
       -0.09017989 0.23172736 0.0696928 -0.17343707
0000d0 a7 11 5f 3d b5 fa 9b 3d e7 d6 1f 3d 55 1b 27 be
       0.054460194 0.07616178 0.039023306 -0.1631902
0000e0 8e 39 95 3d ba 90 b7 be 7c b3 97 3e bc fe 9b 3d
       0.07286368 -0.35852605 0.29629123 0.07616946
0000f0 2e 12 84 3e 46 91 5a 3d 02 54 9d be 6a c2 26 be
       0.2579512 0.0533612 -0.30728155 -0.162851
000100 d7 c9 16 3e e3 05 a2 3e 27 dd 6d 3e cc a4 1c be
       0.14725433 0.31645116 0.23228894 -0.1529724
000110 11 c7 0c 3e 88 99 7f be 98 38 69 be 42 b3 71 be
       0.13747813 -0.24960911 -0.22775495 -0.23603538
000120 f3 47 ad be 30 56 90 be de f9 98 3d 27 23 8a be
       -0.33843955 -0.28190756 0.074695334 -0.26979944
000130 53 6f 48 be 42 13 5d 3d 8d 01 b4 3d 8a a6 a5 3e
       -0.19573717 0.053973444 0.08789358 0.32353622
000140 de 80 88 3e 3e 85 ce 3b 3f bb 94 3e 69 9f 34 3c
       0.26660818 0.006302505 0.29049107 0.0110243345
000150 9e 53 ba be 79 a5 cf bd d6 14 6c 3e 7e cf b9 be
       -0.3639192 -0.10138983 0.23054823 -0.36291116
000160 3f 2d c2 3d 62 1d 97 be 15 44 9e 3e 91 c3 f9 bd
       0.09481286 -0.29514605 0.30911317 -0.121955045
000170 b0 66 24 3e 94 5d 94 be ff 45 8b 3e 03 c1 93 3e
       0.16054797 -0.28977644 0.2720184 0.28858194
000180 48 aa 9e 3e 1d f6 35 3d e7 22 aa be 8b 04 21 3d
       0.3098929 0.044424165 -0.33229753 0.039310973
000190 87 e4 00 3e 26 1f 80 be ed 43 0a 3e 75 7f 4c be
       0.12587176 -0.25023764 0.13502474 -0.19970496
0001a0 68 5b d6 be c3 5c 7a 3e 02 5e 46 be db 47 04 3f
       -0.41866612 0.24449448 -0.19371799 0.5167214
0001b0 b4 49 cb 3e 51 bc 96 be 91 30 88 be c7 e3 af 3e
       0.3970467 -0.2944055 -0.26599553 0.34353468
0001c0 1a 65 94 3d d5 ea a5 3d 87 2b 90 bd ed e2 11 3e
       0.07245846 0.08101431 -0.07039552 0.14246722
0001d0 a4 cf 62 3d 86 4c 52 3c 72 b2 88 3e 58 93 21 be
       0.055373803 0.012835627 0.26698643 -0.15778863

linears.5.bias f4 [3]
000000 66 a5 17 3d 81 85 33 bc 00 00 00 00
       0.03702297 -0.010957123 0.0

exp_avg f4 [40, 2]
000000 01 37 5c bc ca ee ab bc 45 ad af bb a3 f1 fc bb
       -0.013440848 -0.020987887 -0.0053612315 -0.007719235
000010 a0 5f 2f 3c 35 5a 8f 3c 67 5f 74 3c b9 50 b8 3c
       0.010703951 0.017499069 0.014915324 0.022499429
000020 05 56 1f 3c 89 b0 76 3c 8b 5a 1f 3c 1c e3 86 3c
       0.0097250985 0.015056738 0.009726177 0.016465716
000030 fd 5f 26 bb 44 b9 2c bb 92 50 fc 3b 28 b5 38 3c
       -0.0025386803 -0.0026355544 0.0077000344 0.01127366
000040 f4 57 57 3a a6 37 8e 38 31 af d2 bc 05 43 24 bd
       0.0008214705 6.781453e-05 -0.025718303 -0.040102977
000050 24 30 4c bb 1b f9 60 bb f4 31 14 3c ec 3c 5c 3c
       -0.0031156624 -0.0034328166 0.009045113 0.013442259
000060 62 42 e4 bc 20 b4 27 bd 61 4e 15 bc 1f 4d 65 bc
       -0.027863685 -0.040943265 -0.009112925 -0.013995438
000070 fc 5b 10 3c 1b f1 75 3c 28 75 cb 3b f0 af 15 3c
       0.008810993 0.015011097 0.0062090345 0.009136185
000080 20 b7 15 3c b6 5d 6d 3c db 8b 62 3c c4 5f aa 3c
       0.009137899 0.014487674 0.013827289 0.020797618
000090 1b cd e1 bc 35 39 28 bd a7 1f 32 bd 43 95 82 bd
       -0.027563622 -0.041070182 -0.043487217 -0.06376126
0000a0 88 94 d5 bb 1b 43 3d bc 4b 66 9c bc 32 63 ec bc
       -0.0065179504 -0.011551644 -0.019091746 -0.028855894
0000b0 ad 1c bc 3c db 40 0e 3d e0 20 8c b8 7a 5f 98 ba
       0.022962892 0.03472982 -6.681844e-05 -0.0011625134
0000c0 6d 3e 38 ba 18 35 be b9 a3 98 93 bb 15 d8 d6 bb
       -0.0007028345 -0.00036279182 -0.0045042797 -0.0065565207
0000d0 09 1f 89 bc 83 d6 cb bc 08 6c 5a 3c 86 05 b0 3c
       -0.016738432 -0.02488256 0.013331421 0.021487009
0000e0 f3 54 2c bc d3 bd 8c bc a4 ba f4 bb 33 a5 38 bc
       -0.0105183 -0.017180359 -0.0074685384 -0.011269855
0000f0 7b 02 8c bb a9 32 fa bb 51 9c cb 39 cf eb 0e 3b
       -0.0042727566 -0.0076354337 0.00038835642 0.0021808033
000100 e1 f7 23 3d 1a 45 74 3d fa af b7 bc c1 07 0e bd
       0.040031318 0.059636213 -0.02242278 -0.034675363
000110 dc 56 5f bc cb 78 9e bc 37 1b ed bc 8a ec 2f bd
       -0.013631549 -0.019344708 -0.028943641 -0.04295019
000120 09 18 8b bb b8 5b e0 bb 5c 76 30 3b a0 69 48 3b
       -0.0042448086 -0.006846871 0.0026926016 0.0030580536
000130 5e 1b ab 3c d2 0e fe 3c 76 76 9e bc bc e4 ec bc
       0.020887073 0.031012926 -0.019343596 -0.028917663

exp_avg_sq f4 [40, 2]
000000 10 b4 bc 3c bb 72 6c 3d c1 3a 62 3b e4 d3 03 3c
       0.02303508 0.057726603 0.0034519883 0.008046124
000010 00 8d 81 3c 95 54 28 3d c0 ea d7 3c 30 3d 82 3d
       0.015814304 0.04109629 0.026357055 0.06359327
000020 8e bd 3c 3c 55 9c ea 3c e4 34 7d 3c c1 e4 2a 3d
       0.011519803 0.028638998 0.015454505 0.041722063
000030 3d 6a e2 39 db 62 32 3a cf c9 c2 3b c2 47 55 3c
       0.00043185233 0.0006804892 0.0059444676 0.013017597
000040 70 27 9d 38 a4 14 89 39 2f db b9 3d 63 bd 64 3e
       7.493689e-05 0.00026146055 0.09075009 0.2233787
000050 0b c1 82 3a e7 2a d7 3a a7 9e 08 3c 7c 6e 9d 3c
       0.0009975744 0.0016415984 0.008338607 0.019217722
000060 a5 3b b7 3d 59 77 52 3e 6b d1 1c 3c ef 33 c0 3c
       0.08946923 0.2055334 0.0095714135 0.023462264
000070 d1 a0 36 3c 9c f7 00 3d 2b 8d af 3b 12 02 41 3c
       0.01114674 0.03148614 0.0053574047 0.011780279
000080 1c 3a 60 3c 97 45 09 3d 81 66 d0 3c c1 0a 77 3d
       0.013685729 0.03351363 0.025439503 0.06031299
000090 16 97 b2 3d 70 da 51 3e bb b2 62 3e db 6e 00 3f
       0.087202236 0.20493484 0.22138493 0.5016915
0000a0 f8 8f c6 3b 79 c8 96 3c 85 de 28 3d bf 45 c7 3d
       0.006059643 0.01840614 0.041227836 0.097301
0000b0 b9 0b 7f 3d 12 03 15 3e 24 5d 35 38 ac 1a 39 39
       0.06226704 0.14551952 4.3240507e-05 0.00017652911
0000c0 73 bd 12 38 8e bd 88 38 7f 88 c4 3a a6 f9 6f 3b
       3.498555e-05 6.520293e-05 0.0014994292 0.0036617308
0000d0 f1 ef 05 3d fb b5 9e 3d 43 85 cc 3c 0d 3a 84 3d
       0.03269953 0.07749554 0.024965888 0.06456385
0000e0 ce b7 6d 3c 6c 2a 22 3d ab 37 c2 3b 10 a9 67 3c
       0.0145091545 0.039591238 0.0059270463 0.014139429
0000f0 2e 84 50 3b f0 5f 16 3c b1 7f 9b 39 5c ad a7 3a
       0.0031817066 0.009178147 0.0002965904 0.0012792754
000100 83 c5 4b 3e cb d0 ee 3e f0 36 82 3d 5f 66 1c 3e
       0.19899563 0.4664367 0.06358135 0.15273426
000110 36 30 a8 3c c3 d9 34 3d 18 a6 c6 3d 61 d8 63 3e
       0.020530801 0.044152986 0.096996486 0.22250511
000120 75 14 2b 3b cb be f0 3b 8f 6c 1b 3a 22 3d 8a 3a
       0.0026104723 0.007346963 0.0005928957 0.0010546783
000130 d4 28 53 3d 6e d2 f0 3d 82 e8 3e 3d ef 95 e2 3d
       0.05155261 0.11758886 0.046608455 0.11063754

exp_avg f4 [40]
000000 99 d2 b1 bc 37 b1 01 bc 62 51 94 3c bf 82 bd 3c
       -0.021706866 -0.0079157865 0.018105213 0.023133634
000010 62 d9 7c 3c 3d af 8a 3c 3e 7e 34 bb be 6e 3a 3c
       0.0154326875 0.016929263 -0.0027541067 0.011378942
000020 2c 43 db 38 4d 04 29 bd d0 2b 6d bb f6 e7 63 3c
       0.000104552455 -0.041263867 -0.0036189444 0.013910284
000030 d7 f4 2c bd c8 be 6c bc cc a3 7c 3c c6 35 1a 3c
       -0.042225685 -0.014449783 0.015419912 0.009412235
000040 9d d8 74 3c 74 89 b0 3c a5 8b 2d bd 22 f3 86 bd
       0.014944223 0.021549918 -0.042369504 -0.06589343
000050 06 8d 42 bc cc f4 f3 bc 23 c1 12 3d 65 d7 90 ba
       -0.011874443 -0.029779814 0.03582872 -0.0011050521
000060 29 e3 00 ba ca c2 df bb b7 f9 d2 bc 6b 5c b5 3c
       -0.0004916662 -0.0068286406 -0.025753839 0.022138795
000070 6e f5 91 bc 53 70 3d bc 0d 2e fd bb 59 40 12 3b
       -0.017817225 -0.011562425 -0.007726437 0.0022316186
000080 61 9f 7c 3d 32 68 12 bd 50 a5 a3 bc 7a a7 35 bd
       0.061675433 -0.0357439 -0.019976288 -0.04434917
000090 67 51 e6 bb f0 8c 52 3b fa b1 02 3d fb 6f f4 bc
       -0.007028747 0.0032127462 0.031908013 -0.029838553

exp_avg_sq f4 [40]
000000 dc 3f 6e 3d 93 d4 01 3c 90 f8 29 3d 64 5d 83 3d
       0.05816637 0.007924217 0.041496813 0.06414297
000010 79 e7 ec 3c 38 a4 2c 3d 5d 47 35 3a 65 c2 54 3c
       0.028918969 0.0421488 0.0006915236 0.0129858
000020 d8 2f 93 39 c3 eb 66 3e 49 c5 d4 3a 6e 90 9e 3c
       0.0002807367 0.22550873 0.0016233112 0.019355979
000030 b8 f8 53 3e 34 51 c1 3c 60 8e 02 3d fb d2 43 3c
       0.20700347 0.023598291 0.03187406 0.011952157
000040 3d d0 0a 3d 14 69 79 3d ea fa 52 3e 74 6f 01 3f
       0.033889998 0.060891226 0.20603529 0.5056069
000050 e6 bd 98 3c cc c3 c7 3d 6a 6f 16 3e 25 ae 36 39
       0.018645238 0.09754142 0.14690939 0.00017421746
000060 1f 86 8b 38 8b b9 70 3b d9 cf 9f 3d cd c2 85 3d
       6.6530185e-05 0.0036731686 0.07803316 0.06531296
000070 2a bb 23 3d 74 6d 69 3c 95 b9 18 3c 53 98 b1 3a
       0.039973415 0.014247287 0.00932159 0.0013549424
000080 a0 6a f0 3e 93 b9 1d 3e 3f c3 36 3d 4a be 65 3e
       0.46956348 0.15402822 0.044619795 0.22435871
000090 70 ad f3 3b 17 0a 8a 3a cf f7 f2 3d f0 c4 e4 3d
       0.007436447 0.0010531571 0.11863672 0.11170375
