Lid_Driven_Re100/saved_models/RA-15000.pt (torch, 95111 bytes, 36 tensors)

linears.0.weight f4 [40, 2]
0	0xbe4e99bf	-0.20175837
1	0xbd449423	-0.047992837
2	0x3ed0a0d2	0.40747696
3	0xbe2777c0	-0.16354275
4	0xbebbfcfa	-0.36716443
5	0x3e9aff45	0.3027288
6	0x3ebd7107	0.37000296
7	0x3dfe1108	0.12405592
8	0x3eeb16f2	0.45915943
9	0x3e8f5d50	0.2800088
10	0xbe61dcca	-0.2205688
11	0x3e97d25d	0.29652682
12	0xbe468f0f	-0.1939051
13	0xbeb3408a	-0.35010177
14	0x3ef6dbe1	0.4821463
15	0xbe37633e	-0.17908952
16	0xbe1e9513	-0.15486555
17	0x39ccde4c	0.00039075536
18	0x3dacfd84	0.08446792
19	0xbe331928	-0.17490065
20	0xbc8fd465	-0.017557332
21	0x3dc4dbe6	0.09612255
22	0x3c60abdd	0.01371285
23	0x3ea2196e	0.31660026
24	0x3e29822d	0.16553564
25	0xbeb280be	-0.34863847
26	0x3e84de4c	0.2595085
27	0xbe764270	-0.24048781
28	0x3e9c714d	0.30555192
29	0x3e19e2aa	0.15027872
30	0x3ebd47c5	0.36968818
31	0xbe646628	-0.22304595
32	0x3e87ffcd	0.26562348
33	0xbed1a024	-0.4094249
34	0xbdbc9181	-0.0920744
35	0x3e21ccb3	0.15800743
36	0x3e4b6997	0.19864498
37	0xbeb30888	-0.34967446
38	0xbd40339c	-0.04692422
39	0xbe98bff1	-0.2983394
40	0x3ed87d8e	0.4228329
41	0x3f0df9c3	0.5545923
42	0x3e892568	0.2678635
43	0xbe8d21f9	-0.27564982
44	0x3e591239	0.21198358
45	0x3ea475e2	0.32121187
46	0xbe85661c	-0.26054466
47	0xbe5fef8f	-0.21868728
48	0x3e9db06b	0.3079866
49	0x3da67a82	0.08128835
50	0x3e91ed02	0.28501135
51	0xbe948879	-0.2901037
52	0x3e8a4aa3	0.27010068
53	0xbe9a762c	-0.30168283
54	0x3e9e8ed5	0.30968347
55	0x3e79707f	0.2435932
56	0x3ec5b569	0.38614967
57	0x3eabbefb	0.33544144
58	0xbda2baeb	-0.07945808
59	0xbe62ebd7	-0.22160278
60	0xbd67056d	-0.05640166
61	0xbdf1aca0	-0.11800504
62	0x3e58be2a	0.21166292
63	0xbd924c83	-0.071435
64	0xbd9681c9	-0.07348973
65	0x3e3caeeb	0.18426101
66	0x3db9efe0	0.09078956
67	0xbe1fc46c	-0.15602273
68	0x3c7877a7	0.015165246
69	0xbec1e896	-0.3787276
70	0x3cd11056	0.025520485
71	0xbe38ad8f	-0.18034957
72	0xbe3c60ef	-0.18396352
73	0xbe3d8b71	-0.18510224
74	0xbecf4774	-0.40484202
75	0x3d88d054	0.066803604
76	0x3eaf32f9	0.34218577
77	0xbd527d85	-0.051389236
78	0xbe7eb6bc	-0.24874395
79	0xbea44973	-0.32087287

linears.0.bias f4 [40]
0	0x3d55a22c	0.052156612
1	0xbdad0a5a	-0.0844924
2	0xbe1c7cd3	-0.15281992
3	0xbdd0c709	-0.10194213
4	0xbddae924	-0.10688999
5	0xbd427108	-0.047471076
6	0x3d4c0e30	0.049818218
7	0xbdd0abf7	-0.1018905
8	0xbc96b39c	-0.018396191
9	0x3ddf172b	0.10893091
10	0x3dd69638	0.10477871
11	0xbe18ec46	-0.14933881
12	0x3e3dcf7e	0.18536183
13	0x3d0e07a2	0.034675248
14	0xbd3bfe39	-0.045896742
15	0xbdc38c36	-0.095482275
16	0xbd222428	-0.039585263
17	0xbda65948	-0.08122498
18	0x3e786dca	0.24260631
19	0x3e94c0fb	0.29053482
20	0x3e15a4c4	0.14613634
21	0x3df13e73	0.11779489
22	0xbe89b521	-0.26896003
23	0xbcb5ba54	-0.022183575
24	0xbd2ecf78	-0.042678326
25	0xbcff7e42	-0.031188134
26	0x3d769710	0.06020266
27	0xbdc69a38	-0.09697384
28	0x3e64b33a	0.22333995
29	0x3d8ec507	0.06971174
30	0xbdd636b6	-0.10459654
31	0xbd0dbb74	-0.034602597
32	0xbe88e2dc	-0.2673558
33	0x3daaf6ae	0.08347832
34	0x3d4485c9	0.04797915
35	0x3db32b33	0.08748474
36	0x3d8f6f37	0.070036344
37	0x3c8207fb	0.015872946
38	0xbd7c39fe	-0.061578743
39	0x3e666e3d	0.2250299

linears.1.weight f4 [40, 40]
0	0xbe052216	-0.13001284
1	0xbc95e78e	-0.01829889
2	0x3e493aa5	0.19651277
3	0xbe42fc1d	-0.19041486
4	0xbe08414f	-0.13306163
5	0x3e0f4eff	0.13994978
6	0x3bd1022f	0.006378434
7	0xbea04cb9	-0.31308535
8	0xbe56402e	-0.2092292
9	0xbcecbcce	-0.028898623
10	0xbc88fbf7	-0.016721709
11	0x3e46a892	0.19400242
12	0x3e21a948	0.15787232
13	0xbe02e65a	-0.12783185
14	0xbdb68545	-0.08912138
15	0xbdadf1a5	-0.08493356
16	0xbe9ac00b	-0.30224642
17	0x3e815c01	0.25265506
18	0x3da0adc0	0.0784564
19	0x3e3918bb	0.1807584
20	0x3e5d28b1	0.21597554
21	0x3d7b039a	0.06128273
22	0xbe41e38a	-0.18934456
23	0x3e6678f5	0.22507079
24	0xbe3bcf39	-0.18340768
25	0xbe4dc78a	-0.2009565
26	0xbd8d8828	-0.06910735
27	0xbe0cd297	-0.13752209
28	0xbe604967	-0.21903001
29	0x3dd2a9c8	0.102862895
30	0x3d311e5e	0.04324185
31	0x3d73d3f7	0.059528317
32	0x3d701b40	0.058619738
33	0xbdb6781d	-0.089096285
34	0x3bf84d7f	0.0075775976
35	0xbe493102	-0.19647601
36	0x3d9716d4	0.07377401
37	0x3e138322	0.14405492
38	0xbe70e2d1	-0.23524024
39	0xbdb3d671	-0.08781136
40	0x3c659f5a	0.014015043
41	0xbe1eb460	-0.15498495
42	0xbe8f1526	-0.27945822
43	0x3d89a277	0.06720441
44	0x3e640282	0.22266582
45	0x3e0bdcf8	0.13658512
46	0x3d0c6cd4	0.034283474
47	0xbe1f6b75	-0.15568335
48	0xbe8d2740	-0.27569008
49	0xbe6c1aeb	-0.23057143
50	0x3e4ec00f	0.20190452
51	0xbe76290b	-0.24039094
52	0xbdc08a9c	-0.09401438
53	0x3e47df5f	0.19518803
54	0xbc674d09	-0.014117488
55	0xbe026c67	-0.12736665
56	0xbd500ceb	-0.05079357
57	0xbdbd3d24	-0.09240177
58	0xbd83f1de	-0.06442617
59	0xbe207725	-0.1567045
60	0xbd4b5ee4	-0.04965104
61	0x3e6f247c	0.23353761
62	0xbb6ceeea	-0.0036153146
63	0x3de69840	0.11259508
64	0x3db38321	0.08765245
65	0xbe81b433	-0.25332794
66	0x3e4ed991	0.20200182
67	0x3e6f39b4	0.23361856
68	0x3bca9b04	0.00618303
69	0xbe97bbb0	-0.29635382
70	0xbe84b64a	-0.25920326
71	0xbe37101e	-0.17877242
72	0xbe6203ee	-0.22071812
73	0xbe38b32a	-0.18037096
74	0xbe8608fd	-0.26178733
75	0x3d13fb65	0.03612842
76	0xbe2c89d8	-0.16849458
77	0xbe9400c3	-0.2890683
78	0x3e4c0664	0.19924313
79	0xbe8c4e0c	-0.27403295
80	0xbe6378db	-0.22214071
81	0xbd06af74	-0.03288217
82	0x3d69b232	0.057054706
83	0x3e198360	0.14991522
84	0xbb5a9470	-0.0033352636
85	0x3e9f893e	0.31159395
86	0x3e7cd33f	0.24689959
87	0x3e14f6c5	0.1454726
88	0xbd8f8214	-0.07007232
89	0xbe4312f4	-0.19050199
90	0x3d720a42	0.059091814
91	0x3d0bdb03	0.034144413
92	0xbdbf98ef	-0.09355342
93	0xbe93d074	-0.28869975
94	0x3e31df1a	0.17370263
95	0x3e1555ee	0.14583561
96	0x3e66c529	0.22536148
97	0xbd2c5ea5	-0.042082448
98	0xbece3ba9	-0.40279892
99	0xbe8bdb13	-0.27315578
100	0xbea00515	-0.31253877
101	0xbe798f62	-0.24371102
102	0x3e2c2e57	0.16814552
103	0xbe088bd2	-0.13334587
104	0x3e04b0e4	0.12958103
105	0xbe7ba747	-0.2457553
106	0xbe16bf68	-0.14721453
107	0x3e85347b	0.26016602
108	0xbdc6ba7a	-0.09703536
109	0xbe2c8d83	-0.16850857
110	0xbe7ad2ff	-0.24494551
111	0x3dab6cb5	0.083703436
112	0x3e027d94	0.12743217
113	0xbeca3e31	-0.39500573
114	0xbe2f933d	-0.1714601
115	0xbea3c0d9	-0.3198307
116	0x3e355363	0.17707591
117	0xba54c408	-0.0008116369
118	0x3e2a67cd	0.1664116
119	0xbcd66d58	-0.026175186
120	0xbd31b263	-0.043383013
121	0x3ef17ef5	0.47167173
122	0xbdc716ae	-0.09721123
123	0xbd490168	-0.049073607
124	0xbe1661d4	-0.14685756
125	0xbe79964f	-0.24373744
126	0xbc946441	-0.018114211
127	0xbca70b65	-0.020391176
128	0xbdb98029	-0.09057648
129	0xbe8dbc75	-0.27682844
130	0x3e2c5753	0.16830187
131	0x3e859548	0.26090455
132	0x3e35a715	0.17739518
133	0x3dc44144	0.09582761
134	0x3e4a1fe1	0.19738723
135	0x3ef4b154	0.4779154
136	0x3e5e44d6	0.21705946
137	0x3d98fc35	0.0746998
138	0x3dd07438	0.10178417
139	0xbf183c24	-0.5946677
140	0xbddf3484	-0.108986884
141	0x3c9b4cfa	0.018957604
142	0x3e9f2683	0.3108407
143	0xbdcd2b46	-0.100180194
144	0x3d84747b	0.064675294
145	0xbda2d5ed	-0.07950959
146	0x3e0a7353	0.13520555
147	0x3dc944f3	0.09827604
148	0xbe63fdba	-0.22264758
149	0x3d2abbfe	0.04168319
150	0x3e34a0d8	0.17639482
151	0x3ead9a87	0.33906958
152	0xbd24027c	-0.04004143
153	0xbd93b3cd	-0.07212029
154	0xbd87da2a	-0.06633408
155	0xbcf817d2	-0.030284796
156	0x3d94d9ce	0.072681054
157	0x3c7911bd	0.015201983
158	0x3ecca0e5	0.39966503
159	0xbe83236f	-0.2561297
160	0xbe13d594	-0.14436942
161	0x3d617e4f	0.055052098
162	0x3dffd675	0.12492076
163	0xbe88dc34	-0.26730502
164	0x3d437a12	0.047723837
165	0x3b6b8812	0.0035939259
166	0x3e5ca4a0	0.21547174
167	0xbb780aad	-0.003784816
168	0x3c2b94ee	0.010472519
169	0xbda664ec	-0.08124718
170	0xbe4e0532	-0.2011917
171	0xbe33b6a6	-0.17550144
172	0x3e6128c1	0.21988203
173	0xbe30337c	-0.1720714
174	0xbe6a43d1	-0.22877432
175	0x3d31dca1	0.0434233
176	0xbe370010	-0.17871118
177	0xbe828186	-0.25489444
178	0x3e987dcf	0.29783484
179	0x3ee43589	0.44572094
180	0x3e3b1a16	0.1827167
181	0xbe233d02	-0.15941241
182	0xbde03a3a	-0.10948606
183	0x3d15a669	0.036535654
184	0xbe2a5889	-0.16635336
185	0xbcfa00bc	-0.030517928
186	0x3d972d0c	0.07381639
187	0x3ddc9be1	0.10771919
188	0xbc870b1f	-0.016484795
189	0xbc7c9ea7	-0.015418685
190	0x3c9c5b64	0.019086547
191	0xbb8d2d72	-0.004308396
192	0xbe6134f7	-0.2199286
193	0xbe38aacb	-0.18033902
194	0xbe83ce76	-0.25743455
195	0x3e6efaec	0.23337907
196	0x3e5f08a2	0.21780637
197	0xbd953cf2	-0.07287015
198	0xbcd23663	-0.0256607
199	0x3d96d401	0.07364655
200	0x3e251704	0.16122061
201	0xbd38cc45	-0.04511668
202	0x3c925311	0.017861875
203	0xbea4f069	-0.32214668
204	0x3c50550a	0.012715587
205	0x3f03dfde	0.5151347
206	0xbdfe0074	-0.1240243
207	0xbf184a11	-0.59488016
208	0x3dcc026b	0.09961399
209	0xbd3d4636	-0.046209536
210	0x3e9b43eb	0.30325255
211	0x3cfa2f70	0.030540198
212	0xbedc2124	-0.42994034
213	0xbf05c1ea	-0.52249014
214	0x3e569964	0.20956951
215	0xbf1242fe	-0.5713347
216	0xbedae1ff	-0.42750546
217	0x3ea79cce	0.3273682
218	0xbe47221e	-0.19446608
219	0x3ea11e54	0.3146845
220	0xbd887280	-0.06662464
221	0xbe43d64b	-0.19124715
222	0x3ddbb77d	0.10728357
223	0xbe3d3d37	-0.18480383
224	0xbe0b71d3	-0.13617639
225	0xbf096a88	-0.5367818
226	0xbec62c9d	-0.38705912
227	0x3e0e18c5	0.13876636
228	0xbcbb15ef	-0.022837607
229	0xbe4e493e	-0.20145127
230	0xbe3b4363	-0.18287425
231	0xbe83e11e	-0.25757688
232	0x3d8f2c10	0.06990826
233	0xbeb4ebb9	-0.35336092
234	0x3dd83fd9	0.10559053
235	0xbcdf2eec	-0.027244054
236	0x3df94743	0.12171795
237	0xbde97acf	-0.11400377
238	0xbeb46e69	-0.35240486
239	0x3e2c0844	0.16800028
240	0x3eae3a8a	0.34029037
241	0xbefb103d	-0.49035826
242	0x3f5baa66	0.8580688
243	0xbf29c9b5	-0.66323406
244	0xbe8fa6ad	-0.2805685
245	0x3d79d36a	0.060992636
246	0x3db19d40	0.08672571
247	0xbf554a6f	-0.833167
248	0x3e4f7682	0.20260051
249	0xbe31be5d	-0.17357774
250	0xbe0fb23a	-0.14032832
251	0x3e39540f	0.18098472
252	0xbdf7c640	-0.1209836
253	0xbe78609e	-0.24255607
254	0xbe9d4898	-0.30719447
255	0xbf046a58	-0.5172477

linears.1.bias f4 [40]
0	0x3c9f0c42	0.019415025
1	0x3ca08348	0.01959385
2	0xbdcaea80	-0.099080086
3	0xbd9ba929	-0.07600624
4	0x3d8091a2	0.06277777
5	0x3da14af2	0.07875623
6	0xbd79113f	-0.060807463
7	0xbdbe8960	-0.09303546
8	0x3dc7005b	0.09716865
9	0x3e710b47	0.23539458
10	0xbc88cc0b	-0.016698858
11	0xbd92b531	-0.07163466
12	0xbd1052b3	-0.035235118
13	0x3cf3d4ca	0.029764552
14	0xbe3927f8	-0.18081653
15	0xbceb9045	-0.028755317
16	0x3d09aa57	0.033609714
17	0x3d7a7066	0.061142348
18	0xbe0f1794	-0.13973838
19	0x3d925437	0.07144969
20	0x3bd5329e	0.006506278
21	0x3c50394d	0.012708974
22	0x3d96a82c	0.07356295
23	0x3d08c239	0.03338835
24	0x3d89e94f	0.06733953
25	0x3caabd85	0.020842323
26	0x3d7b780e	0.06139379
27	0xbc489a4f	-0.012243821
28	0xbd4931ea	-0.049119867
29	0x3cecb217	0.028893514
30	0xbe0ec3b9	-0.1394185
31	0x3d8d4f52	0.06899895
32	0xbd028fb0	-0.031875312
33	0xbe11d72f	-0.14242242
34	0xbd922b32	-0.07137145
35	0xbc39b83d	-0.01133543
36	0x3d61a429	0.055088196
37	0xbde05fb6	-0.109557554
38	0xbe1ae7f4	-0.15127546
39	0xbcd3111a	-0.02576499

linears.2.weight f4 [40, 40]
0	0xbe95751c	-0.2919091
1	0xbe52e718	-0.20595968
2	0x3e4a91b2	0.19782141
3	0x3ea569c8	0.32307267
4	0x3d496266	0.049166106
5	0x3d97d978	0.07414526
6	0xbcf5097a	-0.029911745
7	0xbea0ea32	-0.31428677
8	0x3e38b5c1	0.18038084
9	0x3eab508f	0.334599
10	0xbe331634	-0.17488939
11	0x3eb4c97b	0.35309967
12	0x3da3b75b	0.07993957
13	0xbe615367	-0.22004472
14	0xbde2bd40	-0.11071253
15	0xbe36a495	-0.1783622
16	0x3e4a8364	0.19776684
17	0xbd4d35b4	-0.050100043
18	0xbdd9fff5	-0.10644523
19	0xbe0f5647	-0.13997756
20	0x3daa089b	0.083024226
21	0x3eed8f8d	0.46398583
22	0x3e5eb5da	0.21749058
23	0xbe6965f8	-0.22792804
24	0xbe4fcfa5	-0.20294054
25	0x3d101b04	0.035182014
26	0x3e8491ce	0.2589249
27	0xbe30c9e8	-0.17264521
28	0x3e938862	0.2881499
29	0xbe37bf34	-0.17944032
30	0xbe8bfef7	-0.2734296
31	0xbcf17d86	-0.0294788
32	0xbebc2654	-0.36747992
33	0xbd0d9a63	-0.034571063
34	0xbe96b017	-0.2943122
35	0xbef95585	-0.4869806
36	0x3e58cb7f	0.21171378
37	0xbddb2c8c	-0.10701856
38	0xbe037837	-0.12838827
39	0xbd22d1d0	-0.039750874
40	0x3eb9a6b4	0.36259997
41	0xbe7b6ef0	-0.24554038
42	0xbec04498	-0.37552333
43	0x3da945f4	0.082652956
44	0x3da3fc12	0.08007063
45	0x3d141ab2	0.03615827
46	0x3e846f0d	0.25865975
47	0xbea5928b	-0.32338366
48	0x3e7556c5	0.23958881
49	0xbe2e327c	-0.17011446
50	0x3d93a2e0	0.072088
51	0xbe8866e4	-0.26641
52	0xbe16db11	-0.14732005
53	0x3e1a3dc1	0.1506262
54	0x3d6c5cd8	0.05770573
55	0x3eab9522	0.33512217
56	0xbe34bbb4	-0.17649728
57	0x3eb0d46a	0.3453706
58	0xbe4f660c	-0.20253772
59	0x3ea2d32f	0.31801745
60	0x3e4b73a8	0.19868338
61	0xbed32ce2	-0.4124518
62	0xbe175567	-0.14778672
63	0xbb22a10b	-0.0024815227
64	0x3d326389	0.043551955
65	0x3dd1ef99	0.10250778
66	0xbe3d98f4	-0.18515378
67	0xbd180975	-0.037118394
68	0xbe7a6984	-0.24454314
69	0xbe904093	-0.28174266
70	0xbe84b9e7	-0.25923082
71	0x3eb037a0	0.34417439
72	0x3dbbf545	0.09177641
73	0xbe973325	-0.29531208
74	0xbe04a3aa	-0.12953058
75	0x3ec388e2	0.3819037
76	0x3e9a63dd	0.30154315
77	0x3e3983d9	0.18116702
78	0xbed85042	-0.42248732
79	0xbe5c7fe7	-0.21533166
80	0xbed264a2	-0.41092402
81	0x3df6143e	0.1201558
82	0x3eae0a68	0.33992314
83	0x3ec3a759	0.38213614
84	0xbeb24a98	-0.34822536
85	0xbebc8350	-0.36818933
86	0xbe15f2ab	-0.14643352
87	0xbd4ef8be	-0.050530188
88	0xbe4ab35e	-0.19794986
89	0x3da1398a	0.07872303
90	0xbe5f0258	-0.21778238
91	0x3e77520a	0.24152389
92	0x3e2ebf50	0.17065167
93	0xbd143c94	-0.036190584
94	0xbdb60d6d	-0.088892795
95	0xbe89b9d1	-0.2689958
96	0xbe5d2882	-0.21597484
97	0xbed637bf	-0.41839406
98	0xbc9172b9	-0.0177549
99	0xbe289b02	-0.16465381
100	0xbda5c94c	-0.08095035
101	0x3a26c1bb	0.00063612656
102	0xbe99da8f	-0.3004956
103	0xbea58d46	-0.32334346
104	0x3d671d3a	0.056424357
105	0xbc1baa78	-0.009501092
106	0xbdfb89d4	-0.12282148
107	0x3e8209af	0.25398013
108	0xbcc2c9f3	-0.023777938
109	0x3dbe4000	0.09289551
110	0xbe9054b1	-0.28189614
111	0xbd8031dd	-0.06259511
112	0xbe4bc6b4	-0.19900018
113	0xbd372fbf	-0.04472327
114	0xbdadd4cd	-0.08487854
115	0xbeb953de	-0.36196798
116	0xbe03cb28	-0.12870467
117	0x3e8d54ff	0.2760391
118	0x3dffe75e	0.12495302
119	0x3d78b4f4	0.060719445
120	0xbd5148a4	-0.051094666
121	0x3e18d7d7	0.14926086
122	0x3e91dc2f	0.284883
123	0xbd46b2b2	-0.04851026
124	0xbe6791bf	-0.22614191
125	0xbceb83aa	-0.028749306
126	0xbdd11d0b	-0.10210618
127	0x3eb17737	0.34661266
128	0xbe489f09	-0.19591917
129	0xbd599043	-0.053116094
130	0x3dc0513f	0.093904965
131	0x3e45f548	0.19331849
132	0xbd70dcf8	-0.058804482
133	0xbc7f4e37	-0.015582613
134	0x3e839c0f	0.25705
135	0x38b6de42	8.719835e-05
136	0x3dd9ada9	0.10628826
137	0xba08c559	-0.00052173954
138	0x3e2ecee7	0.17071114
139	0xbe05407f	-0.13012885
140	0xbddbdc42	-0.1073537
141	0xbe6b3e08	-0.22972882
142	0xbdc1656e	-0.09443174
143	0x3e4ae286	0.19812974
144	0x3dd042de	0.10169004
145	0xbd41975a	-0.04726348
146	0xbe80b556	-0.25138348
147	0x3e24c5ef	0.1609113
148	0xbcbaca41	-0.02280152
149	0xbe17f5f4	-0.14839917
150	0x3ebb403a	0.36572438
151	0xbdc8f81c	-0.09812948
152	0x3e82b1e1	0.25526336
153	0x3e840458	0.25784564
154	0x3c2d43ef	0.010575279
155	0x3e26e1c7	0.16297065
156	0xbdb2599e	-0.08708499
157	0x3da6da18	0.08147067
158	0x3efb63d8	0.49099612
159	0xbdba3b82	-0.090933815
160	0x3d9f86de	0.07789396
161	0xbeed1962	-0.46308428
162	0x3e67a1c3	0.22620301
163	0xbddea318	-0.108709514
164	0xbe0854e7	-0.13313638
165	0x3db1fa99	0.08690376
166	0x3ed40d18	0.4141624
167	0x3ee61167	0.44935152
168	0x3e86d729	0.2633603
169	0xbef3acfc	-0.47592914
170	0x3a713729	0.000920164
171	0xbeaf5bc3	-0.34249696
172	0xbe848997	-0.25886223
173	0x3e3dd88f	0.18539642
174	0x3dbd6fad	0.09249816
175	0x3e1f3fb2	0.15551642
176	0x3ea9d118	0.33167338
177	0xbe0a5f69	-0.13512959
178	0x3f01200f	0.5043954
179	0xbea7ecc1	-0.32797816
180	0x3ee50756	0.4473216
181	0xbf6a9b12	-0.9164287
182	0xbe068d94	-0.13139945
183	0xbda0316d	-0.07821927
184	0x3dc9f14d	0.098604776
185	0xbcd41620	-0.025889456
186	0xbf005621	-0.5013142
187	0x3e838973	0.25690803
188	0x3df898f4	0.121385485
189	0xbd140fd8	-0.036147922
190	0x3e9acbae	0.3023352
191	0xbdb85ae5	-0.09001712
192	0x3ecfeb73	0.4060932
193	0xbe833e99	-0.25633696
194	0x3d24b38b	0.040210288
195	0x3ebb3ae2	0.36568362
196	0xbecb3f75	-0.3969685
197	0xbe3e3876	-0.18576226
198	0xbea20158	-0.3164165
199	0xbe1d4596	-0.15358576
200	0x3d4f702d	0.05064409
201	0xbe8b1086	-0.27161044
202	0x3e4083e1	0.18800308
203	0x3c77d51b	0.015126492
204	0xbe2164dd	-0.15761133
205	0xbdd4a160	-0.10382342
206	0x3e612dfa	0.21990195
207	0x3e8218e3	0.25409612
208	0xbd9e7e7e	-0.0773897
209	0xbe9f2e04	-0.31089795
210	0x3e79f588	0.24410069
211	0x3e2dcca7	0.169726
212	0xbe288166	-0.16455612
213	0xbdc5d869	-0.096604176
214	0x3d78b87e	0.06072282
215	0x3e9ed561	0.3102217
216	0xbe0c839f	-0.13722084
217	0x3dae6f7d	0.085173585
218	0x3eb13544	0.3461095
219	0xbd2bc9b4	-0.041940406
220	0xbdd757f0	-0.105148196
221	0xbe090e4f	-0.13384365
222	0xbeb481de	-0.3525533
223	0xbc89becd	-0.016814614
224	0x3e8215bd	0.2540721
225	0xbd9abb9a	-0.075553134
226	0xbdc50843	-0.096207164
227	0xbe0e44b9	-0.13893403
228	0xbd91c317	-0.071172886
229	0xbe2f40a6	-0.17114505
230	0xbde5394a	-0.11192568
231	0x3e491134	0.19635469
232	0x3ed5f0be	0.41785234
233	0xbd23d27b	-0.03999565
234	0xbd9aa066	-0.07550125
235	0x3d78a7ad	0.060706783
236	0xbe3725aa	-0.17885461
237	0xbde458d4	-0.11149755
238	0x3ede2465	0.43387142
239	0xbe2765cb	-0.16347425
240	0x3a6410c4	0.0008700008
241	0x3e4239cc	0.1896736
242	0x3e2d35f7	0.16915117
243	0x3db61b11	0.08891881
244	0xbe93e980	-0.28889084
245	0x3cd4c33f	0.025972007
246	0xbe4e430b	-0.20142762
247	0xbda81e27	-0.08208876
248	0x3cbe4fe3	0.023231452
249	0x3e82a1e5	0.2551414
250	0x3dc98c8c	0.0984126
251	0xbd80036c	-0.06250653
252	0x3e3e1112	0.185612
253	0xbe054a14	-0.1301654
254	0xbdd8ad18	-0.1057989
255	0xbe8e35ea	-0.27775508

linears.2.bias f4 [40]
0	0x3c471819	0.012151741
1	0x3d519024	0.051162854
2	0xbd788c4d	-0.060680676
3	0xbd252f36	-0.040328227
4	0xbe0b3f3a	-0.13598338
5	0xbdf1158e	-0.11771689
6	0xbac64d69	-0.0015129271
7	0xbd4a7f27	-0.04943767
8	0xbcb71f1a	-0.022353698
9	0xbcc422e4	-0.023942418
10	0xbca7f66d	-0.020503247
11	0xbe5d5ad5	-0.21616681
12	0xbcdf8a45	-0.027287612
13	0xbc0223cf	-0.007943108
14	0xbd904ffd	-0.070465066
15	0xbcfa2101	-0.030533316
16	0x3dd44fdd	0.10366795
17	0xbcda63d6	-0.026658934
18	0x3e450d11	0.19243266
19	0x3bd39085	0.006456437
20	0x3cb25faa	0.021774132
21	0xbdc5ffa7	-0.096679024
22	0xbd08d8dc	-0.03340994
23	0x3e1b4327	0.15162335
24	0x3a81ae1a	0.0009893805
25	0x3cb1823b	0.021668544
26	0x3d0200e3	0.031739127
27	0x3d01516c	0.03157179
28	0x3c6e1814	0.014532108
29	0x3e2b7812	0.16745022
30	0x3c32c72f	0.010911747
31	0xbdcadeef	-0.099058025
32	0x3e077441	0.13227941
33	0x3b8775f9	0.0041339365
34	0x3d50afb4	0.050948814
35	0xbd877e25	-0.06615857
36	0x3d9e5ecc	0.07732925
37	0x3b0efc2d	0.002181779
38	0xbb85a29e	-0.0040782234
39	0x3957b706	0.0002057218

linears.3.weight f4 [40, 40]
0	0xbdc4fa35	-0.09618036
1	0x3d4d99aa	0.050195374
2	0x3e7f4d58	0.24931848
3	0x3e3423a2	0.17591718
4	0xbdf5862e	-0.11988483
5	0x3ddbe24b	0.10736521
6	0x3dc2fd56	0.09520976
7	0x3e5ae8e8	0.21377909
8	0x3f1229c3	0.57094973
9	0x3d0a9705	0.03383543
10	0x3e465772	0.19369295
11	0x3e569488	0.20955098
12	0x3eeabce1	0.45847228
13	0x3e0dfecf	0.13866733
14	0xbdcf85a0	-0.10132909
15	0xbd6675c2	-0.056264646
16	0xbd16efcd	-0.036849786
17	0x3d2937d0	0.041312993
18	0xbe9b8104	-0.3037187
19	0x3e696778	0.22793376
20	0xbeb0a5ab	-0.34501395
21	0x3f167df2	0.5878593
22	0x3f38218e	0.719262
23	0xbeb66f5a	-0.3563183
24	0x3e57ada6	0.21062335
25	0xbef5f12c	-0.48035562
26	0xbeac9c2c	-0.337129
27	0x3e57bea9	0.21068825
28	0x3c6f60c6	0.014610475
29	0xbdf4e22b	-0.119572006
30	0xbc839894	-0.016063966
31	0x3eeaf8fa	0.4589308
32	0xbe198b89	-0.14994635
33	0xbe5bb893	-0.21457128
34	0xbe11b51d	-0.14229245
35	0x3ea3dc0f	0.3200383
36	0xbf367271	-0.71268374
37	0xbe0c2e4b	-0.13689534
38	0xbe32c934	-0.17459565
39	0xbdc7bf1b	-0.09753247
40	0xbdbdd2f5	-0.092687525
41	0x3c4f3871	0.012647734
42	0x3d1bb1b2	0.03801126
43	0xbd5f37d7	-0.054496612
44	0xbb89a672	-0.00420075
45	0x3e1a3559	0.15059413
46	0xbcd58bb7	-0.026067598
47	0xbd25e54d	-0.04050188
48	0x3df00e18	0.11721438
49	0x3df1e4e5	0.11811236
50	0x3cdc987d	0.02692818
51	0x3d824a0f	0.06361782
52	0xbddbb21e	-0.107273325
53	0x3e9fc17c	0.31202304
54	0xbe0f04e6	-0.13966712
55	0x3e52a808	0.20571911
56	0x3e1d3730	0.15353084
57	0xbd536df5	-0.051618535
58	0x3da562dd	0.08075497
59	0x3e5099eb	0.20371215
60	0xbe84a64b	-0.2590812
61	0xbe278faf	-0.16363405
62	0x3e483a50	0.19553494
63	0x3db4bd4b	0.08825167
64	0xbe852a07	-0.26008627
65	0x3e9a5ce5	0.30148998
66	0xbcb0c5b2	-0.021578643
67	0x3e007b44	0.12547022
68	0xbe92a01b	-0.28637776
69	0xbdd3ee60	-0.10348201
70	0x3e3f563e	0.18685243
71	0xbe758f7a	-0.23980513
72	0x3e25a11f	0.16174744
73	0xbccdfff6	-0.025146466
74	0x3d1a1a21	0.037622575
75	0x3e14a4cd	0.14515992
76	0x3dca0c3b	0.09865614
77	0x3e610ad1	0.21976782
78	0x3dd8f9b4	0.10594502
79	0x3e9ee1f7	0.31031772
80	0x3ce44cd5	0.027868668
81	0xbe5e3797	-0.21700893
82	0xbe0c578b	-0.1370527
83	0xbe902da4	-0.2815982
84	0xbcf6a0d8	-0.030105993
85	0xbc652ebb	-0.013988192
86	0xbe7bb4b5	-0.24580653
87	0xbe437a82	-0.19089702
88	0xbe9d19a1	-0.30683616
89	0xbca6d569	-0.020365434
90	0x3d890dd2	0.06692089
91	0x3d0a4acd	0.03376274
92	0x3dceccb5	0.100976385
93	0x3e8f00af	0.2793021
94	0x3e2211dc	0.15827125
95	0xbe947f8f	-0.2900357
96	0xbdccfce2	-0.10009171
97	0x3e18d8dd	0.14926477
98	0xbe0b0483	-0.1357594
99	0x3dd606c2	0.10450508
100	0xbe5e4f8f	-0.21710037
101	0xbf0b917a	-0.54518855
102	0xbe862b1e	-0.2620477
103	0x3e8b44b6	0.2720086
104	0xbe1c0f73	-0.15240268
105	0x3ebededd	0.37279406
106	0xbcf2fd61	-0.029661836
107	0xbe25243e	-0.16127107
108	0xbdcf4d73	-0.10122194
109	0x3ea4f10f	0.32215163
110	0xbe6d0540	-0.23146534
111	0xbe391971	-0.18076111
112	0xbd0d2a11	-0.034463946
113	0xbdae49ca	-0.08510168
114	0x3b1d8e19	0.0024040996
115	0xbd868f5b	-0.06570312
116	0x3f01a72a	0.506457
117	0x3e012f43	0.12615685
118	0x3e7da26f	0.24768995
119	0x3e4b199b	0.19833986
120	0x3e9708c5	0.29498878
121	0x3d392928	0.045205265
122	0x3e2e58cb	0.1702606
123	0xbe634f79	-0.22198285
124	0xbf0b60d9	-0.5444465
125	0xbe150efb	-0.14556496
126	0xbd4b1196	-0.049577318
127	0x3c987ea9	0.018615084
128	0x3e888740	0.26665688
129	0xbe86a528	-0.2629788
130	0xbe52a15d	-0.20569368
131	0xbe7c039a	-0.24610749
132	0x3f2f736e	0.68535507
133	0xbe872dd0	-0.2640214
134	0xbeacb110	-0.33728838
135	0xbd933317	-0.07187479
136	0x3e390156	0.18066916
137	0xbdd929ef	-0.10603701
138	0x3f22c503	0.63581866
139	0xbc557686	-0.0130287465
140	0xbdb351a5	-0.08755807
141	0x3e821e32	0.25413662
142	0xbe058724	-0.13039833
143	0x3e2f19e2	0.17099717
144	0xbc70793e	-0.014677344
145	0xbf25527f	-0.64579004
146	0x3d8c64ec	0.06855187
147	0x3e5dd225	0.21662195
148	0x3ebd324b	0.36952433
149	0xbf0823d7	-0.5317969
150	0x3e4e02a2	0.20118192
151	0xbd978cfb	-0.07399937
152	0x3d361bb4	0.044460014
153	0xbc78087c	-0.015138742
154	0x3d13b30f	0.036059435
155	0x3c9a41b8	0.018830165
156	0xbf2d100c	-0.6760261
157	0x3e35c0a7	0.17749272
158	0x3ea56015	0.32299867
159	0x3ec7a774	0.38994944
160	0xbdd42cc2	-0.103600994
161	0x3e043392	0.12910298
162	0x3e37f8cc	0.17966002
163	0x3dcd757f	0.10032176
164	0x3d9649be	0.07338284
165	0x3e589e8a	0.21154228
166	0xbe531ac2	-0.20615676
167	0x3e570f3d	0.21001907
168	0xbd4f8df5	-0.05067249
169	0xbdbddbe2	-0.09270455
170	0xbe1bf9f0	-0.15232062
171	0x3dd5f1ef	0.10446536
172	0xbe8acb8e	-0.27108425
173	0x3e975bae	0.29562134
174	0x3db8284f	0.08992063
175	0x3e69a074	0.22815114
176	0xbe096a1c	-0.13419384
177	0x3dc59a79	0.09648604
178	0xbe7b73b7	-0.2455586
179	0x3e1022fb	0.14075844
180	0xbe2b5db2	-0.1673496
181	0x3e8233d1	0.25430158
182	0x3e345b23	0.17612891
183	0xbe012134	-0.12610322
184	0x3da16d79	0.078822084
185	0x3e579a42	0.21054938
186	0xbd4d49da	-0.05011926
187	0xbd6c1048	-0.057632715
188	0x3e2052ec	0.15656632
189	0x3eab14fa	0.3341444
190	0xbe50a8f8	-0.20376956
191	0x3d12a2b0	0.035799682
192	0x3df26839	0.11836285
193	0x3d58a58c	0.052892253
194	0xbd98e4ee	-0.0746554
195	0xbdf6e3a7	-0.1205514
196	0x3e96b8dd	0.29437914
197	0x3da4ee07	0.080532126
198	0x3e8bd9f5	0.27314726
199	0x3e86c6fc	0.26323688
200	0x3daf1e94	0.08550754
201	0x3d0fd52a	0.0351154
202	0xbe03118a	-0.1279966
203	0xbe2c4c79	-0.16826047
204	0x3d8c487f	0.06849765
205	0xbe06a87d	-0.1315021
206	0x3e207531	0.15669705
207	0x3c152d0f	0.009104981
208	0x3e409d91	0.18810107
209	0xbe7f5398	-0.24934232
210	0x3d958e24	0.07302502
211	0x3e564877	0.2092608
212	0xbda62437	-0.08112376
213	0x3e2d8877	0.16946588
214	0xbe2c423c	-0.16822141
215	0x3dbb4531	0.091440566
216	0x3e157a52	0.14597443
217	0xbcde9d22	-0.027174536
218	0xbe7d33f9	-0.24726857
219	0x3d1b9eb5	0.03799315
220	0x3e62fb71	0.2216623
221	0x3e803777	0.25042316
222	0xbda93b3a	-0.0826325
223	0xbdec833c	-0.115484685
224	0xbe10ae25	-0.14128931
225	0x3e3d25c7	0.18471442
226	0x3e3ff009	0.1874391
227	0xbda701e6	-0.08154659
228	0x3db872a5	0.09006242
229	0x3df72889	0.12068278
230	0xbe4edf83	-0.2020245
231	0x3e4bc845	0.19900616
232	0x3e4acade	0.1980395
233	0xbe715693	-0.23568182
234	0x3df1c680	0.11805439
235	0x3e89102a	0.26770145
236	0xbcc8b0c7	-0.024498357
237	0x3d9accf4	0.07558623
238	0xbea0d1b1	-0.31409982
239	0xbe50d926	-0.20395336
240	0xbe16024a	-0.1464931
241	0xbe3c635c	-0.18397278
242	0xbd1f2908	-0.03885749
243	0xbd185e22	-0.037199147
244	0xbc51b5ce	-0.012799693
245	0xbe644858	-0.22293222
246	0xbe4a2762	-0.19741586
247	0xbc978d62	-0.018500034
248	0xbe3bfd90	-0.18358445
249	0x3e43068b	0.19045465
250	0xbd3fad5d	-0.04679619
251	0x3e180331	0.14844967
252	0xbe7c3271	-0.24628617
253	0x3dd41999	0.10356445
254	0xbc8853dd	-0.016641552
255	0x3e284d72	0.16435793

linears.3.bias f4 [40]
0	0xbbf3c2d0	-0.007438995
1	0xb9ebbc67	-0.00044963064
2	0xba9cab2b	-0.0011952867
3	0x3d0133c0	0.031543493
4	0xbb5d3d70	-0.0033758543
5	0xbb4f2733	-0.0031609058
6	0xbc97d139	-0.018532382
7	0xbcf590e9	-0.029976325
8	0x3c1093cb	0.008824299
9	0xbbe5b0f0	-0.007009618
10	0xbcd8fdae	-0.026488151
11	0xbd1f2337	-0.038851943
12	0xbce06c92	-0.02739552
13	0xbd922eba	-0.07137819
14	0xbcc1b1e3	-0.023644393
15	0xbd09827e	-0.033571713
16	0xbc1bb9c0	-0.0095047355
17	0x3c191878	0.009344213
18	0x3d27d588	0.040975124
19	0xbcc5019f	-0.024048625
20	0x3d198d37	0.03748819
21	0x3c00bd44	0.007857624
22	0xbda251e6	-0.07925777
23	0xbd739c28	-0.059475094
24	0x3cb17776	0.021663409
25	0x3cfec994	0.03110198
26	0xbda02daa	-0.0782121
27	0xbccbc0b0	-0.024872154
28	0x3d021618	0.03175935
29	0xbd25bb32	-0.040461726
30	0xbd0d9ff4	-0.03457637
31	0xbdd5ec9d	-0.10445521
32	0xbbcad916	-0.0061904294
33	0xbcb7dc44	-0.022443898
34	0x3da9f40f	0.082985036
35	0xbc9ba899	-0.019001292
36	0xbdcf0439	-0.10108227
37	0x3c42a9c0	0.011881292
38	0xbd03f3e1	-0.032215003
39	0xbc31d01e	-0.010852842

linears.4.weight f4 [40, 40]
0	0x3dd27990	0.102770925
1	0xbe291052	-0.16510132
2	0xbe963a09	-0.29341152
3	0xbe583058	-0.21112192
4	0xbcad5e5d	-0.02116316
5	0x3e2d0659	0.16896953
6	0x3a3c22ec	0.00071768346
7	0x3c9d7bcf	0.019224076
8	0x3e7a98f3	0.24472408
9	0xbceb2c31	-0.028707596
10	0x3ce8ca98	0.028416917
11	0xbe08aefd	-0.13348003
12	0xbe22de70	-0.15905166
13	0xbd55d1c8	-0.052202016
14	0x3d00fa2f	0.031488594
15	0xbb925d7b	-0.00446671
16	0xbe418596	-0.18898615
17	0x3d49bed6	0.04925426
18	0xbe98f0d4	-0.29871237
19	0x3e8c479d	0.27398387
20	0xbd63582f	-0.05550402
21	0xbe632258	-0.2218107
22	0xbe040416	-0.12892184
23	0x3e6789a5	0.22611101
24	0x3a0184c6	0.0004940744
25	0x3e195b8c	0.14976329
26	0xbcf56724	-0.029956408
27	0xbd8c7bae	-0.068595275
28	0xbe5c4043	-0.21508889
29	0xbe48b3ed	-0.19599886
30	0xbe4df72a	-0.20113817
31	0xbd8b5fbb	-0.068053685
32	0xbe4a4591	-0.197531
33	0xbe49cb36	-0.19706425
34	0x3e6076d1	0.21920325
35	0xbcd59776	-0.026073199
36	0xbc7a53a0	-0.015278727
37	0x3e19fecd	0.15038605
38	0x3e9d2f3b	0.30700096
39	0x3e787f5f	0.24267338
40	0x3e41a27d	0.1890964
41	0x3d942143	0.07232907
42	0xbc825593	-0.015909946
43	0x3d312d47	0.04325607
44	0x3e5d6b41	0.21622945
45	0x3e619760	0.22030401
46	0x3e102394	0.14076072
47	0x3e88c3ae	0.26711792
48	0xbdb49237	-0.08816951
49	0x3e90e77d	0.28301612
50	0x3dd3c020	0.10339379
51	0xbdc80def	-0.097682826
52	0xbe63b6b1	-0.2223766
53	0x3e675ab5	0.22593196
54	0xbe89afdd	-0.26891986
55	0xbe72dcff	-0.23717116
56	0x3dec8c5b	0.11550208
57	0x3e3e5498	0.18586957
58	0x3e6dcc39	0.23222436
59	0xbd953928	-0.07286292
60	0x3dc0e282	0.09418203
61	0x3bb654c7	0.0055643055
62	0xbe73708a	-0.23773399
63	0xbd704109	-0.058655772
64	0xbb0adc87	-0.0021188573
65	0xbe1c6f12	-0.15276745
66	0x3e83f809	0.25775173
67	0x3d8b8608	0.06812674
68	0x3d508fa7	0.050918248
69	0x3c20f0df	0.009823053
70	0xbe451a2c	-0.19248265
71	0x3d1e3d87	0.038632896
72	0x3da4dcc7	0.080499224
73	0x3e62b651	0.2213986
74	0x3cf16927	0.029469086
75	0x3e23227e	0.15931126
76	0x3e231303	0.15925221
77	0x3de63707	0.112409644
78	0xbe60b09e	-0.21942374
79	0x3caf25b8	0.02138029
80	0xbdbe9658	-0.093060195
81	0xbc120a33	-0.0089135645
82	0xbe052271	-0.1300142
83	0x3da07a93	0.07835879
84	0x3e032460	0.12806845
85	0xbc5ce0a7	-0.013481296
86	0x3ea70263	0.32619008
87	0xbcf790d0	-0.03022042
88	0x3c4990b9	0.012302571
89	0x3e0ea957	0.13931786
90	0x3e7e9217	0.24860416
91	0x3d098f74	0.033584073
92	0xbe799fc7	-0.24377356
93	0x3e7665c7	0.24062262
94	0x3df83ab5	0.121205725
95	0x3e64beac	0.2233836
96	0xbe244d7e	-0.16045186
97	0xbd0aa1be	-0.033845656
98	0x3e222065	0.1583267
99	0xbe334252	-0.17505768
100	0x3ec71ddb	0.38889965
101	0x3e24d247	0.1609584
102	0xbe1a39cc	-0.1506111
103	0x3e902489	0.28152874
104	0x3e5c84ec	0.2153508
105	0x3e86d0ee	0.26331276
106	0x3e85d466	0.2613861
107	0x3d1f166a	0.038839735
108	0xbe5ff955	-0.21872456
109	0x3e16c0dc	0.14722008
110	0x3aaeeddf	0.0013346038
111	0xbd5d4984	-0.054025188
112	0xbe789cf0	-0.24278617
113	0xbd802132	-0.062563315
114	0xbe24f38c	-0.16108531
115	0x3e1d2fe0	0.15350294
116	0xbdbf6aa2	-0.093465105
117	0x3e180910	0.14847207
118	0x3e599752	0.2124913
119	0xbe0513b4	-0.12995797
120	0x3e3fe5e5	0.18740042
121	0xbda16690	-0.0788089
122	0xbda99bf1	-0.082816966
123	0x3dd1352f	0.10215222
124	0xbde76137	-0.11297839
125	0x3e2cd42c	0.16877812
126	0x3dd0c770	0.1019429
127	0x3d384848	0.044990808
128	0xbdded1df	-0.108798735
129	0xbe12f587	-0.14351474
130	0x3e7081a9	0.23486961
131	0xbd6f26aa	-0.058386482
132	0xbcfb05dc	-0.030642442
133	0xbe5a1236	-0.2129601
134	0x3e3d50a0	0.18487787
135	0x3d80faa1	0.06297804
136	0xbe1bf3fb	-0.1522979
137	0x3e4f2697	0.20229565
138	0xbd6bca94	-0.05756624
139	0x3dc38baa	0.09548123
140	0xbda01da0	-0.078181505
141	0xbe2adc42	-0.16685584
142	0xbe6e0caf	-0.23247026
143	0x3d744482	0.059635647
144	0x3d72d897	0.059288587
145	0x3dbc7f45	0.09203962
146	0x3d0e842b	0.034794014
147	0xbd4986b2	-0.04920072
148	0x3e8cdffc	0.27514637
149	0xbdd4ff0c	-0.10400209
150	0x3c9788d7	0.018497868
151	0x3e19a966	0.15006027
152	0x3c987f30	0.018615335
153	0x3e9240c7	0.28565046
154	0x3e7b3a51	0.24533965
155	0xbd0a2f63	-0.033736598
156	0x3e861a4d	0.2619194
157	0x3e300a26	0.17191371
158	0x3e6d4a96	0.23172984
159	0xbdffc104	-0.12487987
160	0x3dd77a58	0.10521382
161	0xbd2da05b	-0.042389255
162	0xbe363088	-0.1779195
163	0x3c0882ed	0.008331996
164	0xbdd8383e	-0.10557602
165	0x3dc9d479	0.09854979
166	0xbd9bbf7a	-0.07604881
167	0x3ea393c8	0.31948686
168	0xbe574a01	-0.21024324
169	0x3dd30d6f	0.10305297
170	0x3eacf8e8	0.3378365
171	0x3e2a5864	0.16635281
172	0xbe0013d5	-0.12507565
173	0xbde1e229	-0.11029465
174	0xbd85b96c	-0.06529507
175	0x3e545a50	0.20737576
176	0x3e11270b	0.1417505
177	0x3d228357	0.039676037
178	0xbe517d41	-0.20457937
179	0x3b794ad5	0.0038038988
180	0xbe959028	-0.29211545
181	0x3c0fec99	0.008784437
182	0x3e60d50d	0.21956272
183	0xbe1a3ccb	-0.15062253
184	0x3e9f0fd3	0.3106676
185	0x3c79f3d8	0.015255891
186	0x3e6cb9a0	0.23117685
187	0x3d6492b4	0.05580397
188	0xbd79628a	-0.06088499
189	0x3e138765	0.14407118
190	0x3e5ebd6f	0.2175195
191	0x3c8d4496	0.017244618
192	0xbda05d28	-0.07830268
193	0xba284e26	-0.00064203364
194	0xbe7983e3	-0.24366717
195	0xbe224274	-0.15845662
196	0xbdb16424	-0.086616784
197	0x3e693a57	0.22776161
198	0xbd9c4818	-0.07630938
199	0x3e218043	0.15771584
200	0xbc44e4c8	-0.012017436
201	0xbbb73726	-0.005591291
202	0xbe1ba424	-0.15199333
203	0x3ea5c74d	0.32378617
204	0x3dbe2073	0.09283533
205	0x3d8b7cdb	0.06810924
206	0xbd0a6d79	-0.033795808
207	0x3e7ab7f3	0.24484234
208	0x3d64a34e	0.055819802
209	0x3e479a0a	0.19492355
210	0x3cf33aa9	0.029691057
211	0xbe08ab24	-0.13346535
212	0x3da257c6	0.07926898
213	0xbe908ff9	-0.28234842
214	0x3e5dc562	0.21657327
215	0xbe80f52d	-0.25187054
216	0x3e511bf7	0.20420824
217	0x3daac03d	0.08337448
218	0xbdc4ae77	-0.09603589
219	0x3cd25982	0.025677446
220	0x3ecee623	0.40409955
221	0x3e992cb2	0.29916912
222	0x3c786dd8	0.015162908
223	0xbd1b6aca	-0.03794364
224	0xbcd92760	-0.026508033
225	0xbe8463e1	-0.25857452
226	0x3e5cd1c6	0.21564397
227	0xbe9d0c7c	-0.30673587
228	0x3e258a9a	0.16166154
229	0x3e2c58c3	0.16830735
230	0xbdd0b2e8	-0.10190374
231	0x3e8213ea	0.25405818
232	0xbe58fa1d	-0.2118916
233	0x3db20e7f	0.08694171
234	0x3e56d3ff	0.20979308
235	0x3e5d73df	0.21626233
236	0xbcfb05d6	-0.030642431
237	0x3e388277	0.18018518
238	0x3db3bab1	0.08775843
239	0xbdc1cce8	-0.09462911
240	0xbd309b8d	-0.043117095
241	0x3ce33b26	0.027738165
242	0xbd74a104	-0.05972387
243	0xbe33cdb7	-0.17558943
244	0x3e4b882c	0.19876164
245	0xbc635580	-0.013875365
246	0x3e169022	0.1470342
247	0xbe6dff52	-0.23241928
248	0x3d6ca74f	0.057776745
249	0x3ea46cf2	0.3211437
250	0xbd3d957d	-0.04628514
251	0x3e9fc3d2	0.31204087
252	0x3e2db8da	0.16965047
253	0x3d7f1222	0.062273152
254	0x3b3fa905	0.002924503
255	0x3e32fd8c	0.17479533

linears.4.bias f4 [40]
0	0xbbb26b2d	-0.0054449053
1	0xbceca2d3	-0.028886234
2	0x3c92373d	0.017848605
3	0x3b6104e6	0.0034335195
4	0xbce3cbab	-0.027807077
5	0x3b49df0f	0.003080312
6	0x3b02ced5	0.0019959707
7	0xbd3f2233	-0.046663474
8	0xbc4259a8	-0.011862196
9	0x3bc94aeb	0.006142964
10	0x3cdb7168	0.026787475
11	0x3c13c115	0.009018202
12	0xbb9d7f46	-0.004806432
13	0x3c892f17	0.016746087
14	0x3ba13b91	0.004920431
15	0x392c92a7	0.0001645783
16	0x3c190e24	0.00934175
17	0x3cca70a7	0.02471192
18	0x3c22cf80	0.009937167
19	0xbd55ab05	-0.05216505
20	0xbc09d0eb	-0.008411626
21	0x3d51c1e8	0.051210314
22	0x3bb8592a	0.0056258636
23	0x3c7275f5	0.014798631
24	0x386ad5c0	5.5989018e-05
25	0xbcadb056	-0.021202248
26	0xbcbbd505	-0.022928724
27	0x3d08142a	0.033222355
28	0x3b812a5d	0.0039418177
29	0xbd863742	-0.06553508
30	0x3cea3d20	0.0285936
31	0xbd1cca2b	-0.03827874
32	0x3c4cd0ab	0.012500922
33	0x3d1351ef	0.03596681
34	0x3c6b068f	0.014344825
35	0xbd94534e	-0.072424516
36	0x3c685356	0.014180025
37	0xbd1b1993	-0.037866186
38	0xbc1127c0	-0.008859575
39	0xbc150962	-0.009096475

linears.5.weight f4 [3, 40]
0	0x3ec43380	0.3832054
1	0x3b829967	0.003985572
2	0x3e5a5f8a	0.21325508
3	0xbde43ab9	-0.11144013
4	0xbea3efe2	-0.32018954
5	0x3d9e43a8	0.07727748
6	0x3e28322a	0.16425386
7	0xbe1a7e75	-0.15087302
8	0xbdf61305	-0.120153464
9	0x3eb9fba7	0.36324808
10	0xbec77c54	-0.38962042
11	0xbd9c7044	-0.076386005
12	0x3d9210f6	0.07132141
13	0x3ea140cf	0.31494758
14	0x3e89e1c8	0.2693007
15	0xbe314ffc	-0.17315668
16	0xbeb06405	-0.3445131
17	0x3e7b0b1f	0.24515961
18	0x3e823627	0.2543194
19	0xbe77130f	-0.24128364
20	0x3ecf4143	0.40479478
21	0x3e0d06bd	0.13772102
22	0xbdae83a5	-0.08521203
23	0xbe942c7c	-0.2894019
24	0xbea932a1	-0.3304644
25	0xbe5dd300	-0.21662521
26	0x3e83a2e7	0.25710222
27	0x3ed21122	0.41028696
28	0x3eb33816	0.35003728
29	0xbeb01862	-0.34393603
30	0x3e0dff2f	0.13866876
31	0x3e93e5a4	0.2888614
32	0x3e2fb600	0.17159271
33	0x3d8ab9b4	0.06773701
34	0x3ec32dfb	0.38121018
35	0xbef4042c	-0.47659433
36	0x3ed61720	0.41814518
37	0xbc9a7cc2	-0.018858317
38	0x3e9252fc	0.28578937
39	0xbeb23827	-0.34808466
40	0xbda2454a	-0.07923372
41	0x3e79d808	0.24398816
42	0x3e44c0e9	0.19214214
43	0xbbef55b0	-0.007303916
44	0x3e0f7650	0.14009976
45	0x3ed0a60c	0.40751684
46	0xbce9e638	-0.02855216
47	0x3e831a38	0.2560594
48	0xbd9827f8	-0.074294984
49	0x3e80d500	0.25162506
50	0x3dc797e4	0.09745768
51	0xbe831c4d	-0.2560753
52	0x3c62ab1c	0.013834741
53	0x3d67e878	0.056618184
54	0x3d113e3f	0.035459753
55	0xbe82bff8	-0.25537086
56	0x3d238033	0.039917182
57	0xbea87ae1	-0.3290625
58	0x3e9a35f0	0.30119276
59	0x3d2e6a0c	0.042581603
60	0x3e5832fb	0.21113198
61	0x3d1d9940	0.03847623
62	0xbe9518fa	-0.29120618
63	0xbe2aef59	-0.16692866
64	0x3e4036b6	0.1877087
65	0x3e8e8897	0.27838585
66	0x3e44d00e	0.19219992
67	0xbe41cee5	-0.1892658
68	0x3e125719	0.14291038
69	0xbe5f19ad	-0.21787138
70	0xbe60ebad	-0.21964903
71	0xbea13de0	-0.3149252
72	0xbec999f5	-0.39375272
73	0xbecdae6e	-0.40172142
74	0x3e46740a	0.19380203
75	0xbe89d91c	-0.26923454
76	0xbdd2dc2a	-0.10295899
77	0x3df6a4b1	0.12043131
78	0x3e16a144	0.14709955
79	0x3eb8fcd7	0.36130401
80	0x3e1fde85	0.15612228
81	0xbc97de51	-0.018538626
82	0x3ead2845	0.33819786
83	0x3ce6c544	0.028170235
84	0xbe90f9c7	-0.28315565
85	0x3b11192f	0.0022140255
86	0x3e5212ec	0.2051503
87	0xbe69c90d	-0.22830601
88	0xbe825bae	-0.2546057
89	0xbe8e31a4	-0.27772248
90	0x3ecb7581	0.39738086
91	0xbd43093e	-0.047616236
92	0x3dc79292	0.09744753
93	0xbe8857a7	-0.26629373
94	0x3e23a8eb	0.15982406
95	0x3e8a72ac	0.27040613
96	0x3e611a3f	0.21982668
97	0x3c0ab0e2	0.008465024
98	0xbe91cbc6	-0.2847578
99	0xbe2f04a6	-0.17091617
100	0x3e0bc9e8	0.1365124
101	0xbead169e	-0.33806318
102	0x3e310563	0.17287211
103	0xbe90cd81	-0.28281787
104	0xbe9a0d4f	-0.3008828
105	0x3e98b343	0.29824266
106	0xbe49e99c	-0.19718021
107	0x3d308f14	0.0431052
108	0x3e8f6961	0.28010085
109	0xbdad7211	-0.08469022
110	0xbe90d143	-0.28284654
111	0x3e9bb1d6	0.30409116
112	0x3c7ee320	0.0155570805
113	0x3eaed25e	0.34144872
114	0x3d236e33	0.039900016
115	0x3eb18a97	0.34676048
116	0x3e0361d6	0.1283029
117	0x3d076ac9	0.033060823
118	0x3e7171ca	0.23578563
119	0xbe4aff1c	-0.19823879

linears.5.bias f4 [3]
0	0x3bca3c9f	0.0061717774
1	0xbc88955e	-0.016672786
2	0x00000000	0.0

exp_avg f4 [40, 2]
0	0x3b618420	0.0034411028
1	0x3bab9f87	0.005237523
2	0x395ffbe3	0.00021360772
3	0x398fe70a	0.00027447223
4	0xbb19193a	-0.0023360983
5	0xbb620107	-0.0034485476
6	0xbb46a72a	-0.003031204
7	0xbba08016	-0.0048980815
8	0xbae3e0d9	-0.0017385735
9	0xbb3bdd5a	-0.0028665871
10	0xbb2ce438	-0.0026381146
11	0xbb76aa90	-0.0037638284
12	0xb8d0ef3e	-9.962775e-05
13	0x38f3bf42	0.000116227675
14	0xbb03da4a	-0.0020119124
15	0xbb5081f0	-0.003181573
16	0xb995eae8	-0.00028594513
17	0xb9d09eaa	-0.00039791066
18	0x3c0a6b41	0.008448423
19	0x3c51692d	0.0127814235
20	0x3abf1bcb	0.0014580427
21	0x3b10931d	0.0022060343
22	0xbb087d06	-0.0020826473
23	0xbb4e93f9	-0.0031521304
24	0x3bcf75bc	0.0063311737
25	0x3c1e289a	0.009653235
26	0x3b22db2b	0.0024849873
27	0x3b7232b0	0.0036956482
28	0xbb341c49	-0.002748268
29	0xbb8d330e	-0.0043090647
30	0xba838bf0	-0.0010036211
31	0xbacd7bf5	-0.0015677201
32	0xba9aea79	-0.0011819146
33	0xbae596dd	-0.0017516274
34	0xbb65565c	-0.00349941
35	0xbbac2e95	-0.0052545764
36	0x3c17c979	0.009264343
37	0x3c670e26	0.014102494
38	0x3c458f9e	0.012058167
39	0x3c96eb1f	0.018422661
40	0x3a86d06e	0.0010285506
41	0x3ade9619	0.0016981988
42	0x3ba1b8bc	0.004935352
43	0x3bf5b829	0.0074987602
44	0xbb96809d	-0.0045929686
45	0xbbeca6fa	-0.0072220536
46	0x3a05a0ab	0.0005097489
47	0x3a37c58d	0.00070103334
48	0xb96c76dc	-0.00022550992
49	0xb9c6b60b	-0.00037901136
50	0x3a74efe6	0.0009343609
51	0x3abcfd52	0.0014418757
52	0x3b7becbb	0.0038440663
53	0x3bb9e782	0.00567335
54	0xbb53a7ca	-0.0032296055
55	0xbba4e34d	-0.005031979
56	0x3b05c2b7	0.0020410249
57	0x3b5d9042	0.0033807908
58	0x3ad7216a	0.0016413156
59	0x3b295ae7	0.0025841536
60	0x3a025618	0.00049719354
61	0x3a3ce552	0.0007205802
62	0x3a28d389	0.00064402126
63	0x3a831066	0.0009999394
64	0xbc28e471	-0.010308371
65	0xbc8130e3	-0.015770381
66	0x3bbce24e	0.0057642823
67	0x3c0e94f1	0.008702503
68	0x3ac7f287	0.0015254774
69	0x3b21769f	0.0024637354
70	0x3b84032e	0.0040286994
71	0x3bcd0a13	0.0062573045
72	0x3aca613c	0.0015440355
73	0x3b211760	0.0024580583
74	0xb9767530	-0.00023504044
75	0xb9acae8d	-0.00032936447
76	0xbb5114e1	-0.0031903314
77	0xbba760c8	-0.005107973
78	0x3b85670b	0.0040711216
79	0x3bcee1b9	0.0063135293

exp_avg_sq f4 [40, 2]
0	0x3b09b5ae	0.002101283
1	0x3bba040a	0.005676751
2	0x3855695c	5.088128e-05
3	0x38618cff	5.3775493e-05
4	0x3a82e0a9	0.0009985167
5	0x3b257e0d	0.0025252134
6	0x3accdc07	0.0015629538
7	0x3ba2f8d3	0.00497351
8	0x3a08c32d	0.0005217072
9	0x3ae0932e	0.0017133707
10	0x3ab1ada4	0.0013555777
11	0x3b383278	0.0028106254
12	0x3880604b	6.1214516e-05
13	0x37f5d15e	2.930377e-05
14	0x3a45625e	0.00075296115
15	0x3b1d578e	0.0024008485
16	0x372b4dac	1.0210479e-05
17	0x385608a6	5.102963e-05
18	0x3c437006	0.011928564
19	0x3d032c8f	0.032024916
20	0x39c13b7e	0.00036856154
21	0x3a78b6d8	0.0009487695
22	0x3a39eb1a	0.0007092223
23	0x3af3a40c	0.0018588318
24	0x3bcf781e	0.0063314578
25	0x3c88bb5b	0.0166909
26	0x3a9872db	0.0011630909
27	0x3b1ed0b2	0.0024233279
28	0x3ab25f7d	0.001360878
29	0x3b81c324	0.00396003
30	0x39eb5418	0.00044885348
31	0x3a8b1fc7	0.0010614329
32	0x39962018	0.0002863414
33	0x3a588c98	0.0008260696
34	0x3b064dae	0.0020493078
35	0x3baa6d35	0.005201007
36	0x3c5d40c2	0.013504209
37	0x3d134397	0.03595313
38	0x3cbde21a	0.023179103
39	0x3d812660	0.063061476
40	0x395b3237	0.00020904174
41	0x3a4091d5	0.00073459494
42	0x3b840974	0.004029447
43	0x3c281575	0.010259022
44	0x3b6a24af	0.0035727432
45	0x3c296927	0.010340012
46	0x38b9ce1d	8.859879e-05
47	0x38faffc3	0.00011968568
48	0x377b978e	1.4996052e-05
49	0x3881bd11	6.186416e-05
50	0x393aaf0c	0.00017803552
51	0x39ab992d	0.00032729786
52	0x3b251800	0.0025191307
53	0x3bbd5b4b	0.0057787052
54	0x3aed82bf	0.001812063
55	0x3bafbbc6	0.0053629605
56	0x3a467828	0.0007571005
57	0x3b22bf2f	0.0024833193
58	0x39e41a16	0.00043506984
59	0x3a991577	0.0011679371
60	0x38ad91ff	8.276477e-05
61	0x39047005	0.00012630232
62	0x38a0586e	7.645866e-05
63	0x393f112c	0.00018221576
64	0x3c920249	0.017823355
65	0x3d480e0d	0.048841525
66	0x3bb03773	0.005377704
67	0x3c665687	0.014058716
68	0x39c53bda	0.0003761936
69	0x3a89e417	0.0010520247
70	0x3b2eb759	0.0026659577
71	0x3bf4a0c0	0.007465452
72	0x39dd6d78	0.00042233965
73	0x3abd0c31	0.0014423189
74	0x376a5a4c	1.3968511e-05
75	0x37d3e217	2.5258441e-05
76	0x3aedb977	0.0018136938
77	0x3bb37d69	0.0054775965
78	0x3b3b6982	0.0028596823
79	0x3c05bac5	0.008162205

exp_avg f4 [40]
0	0x3bade686	0.0053070216
1	0x3959bf5a	0.00020766017
2	0xbb615d30	-0.003438782
3	0xbba0f49f	-0.0049119736
4	0xbb3b3453	-0.0028565123
5	0xbb745a5e	-0.0037285308
6	0x38b28035	8.511582e-05
7	0xbb5796e8	-0.0032896344
8	0xb9ca830a	-0.00038626074
9	0x3c511eb5	0.012763669
10	0x3b15655a	0.0022796006
11	0xbb4d56b4	-0.0031332197
12	0x3c1cdcff	0.009574174
13	0x3b69c634	0.0035671117
14	0xbb8debdc	-0.004331095
15	0xbadcf6b2	-0.0016858189
16	0xbaf01356	-0.001831631
17	0xbbac1930	-0.005252026
18	0x3c674921	0.014116556
19	0x3c9845c8	0.018587962
20	0x3ae2847a	0.0017281913
21	0x3bf501f3	0.007477039
22	0xbbee1194	-0.007265279
23	0x3a3596e7	0.0006927088
24	0xb9d1ba13	-0.00040002223
25	0x3aab51d1	0.0013070648
26	0x3bb733aa	0.0055908756
27	0xbba53fe7	-0.005043018
28	0x3b613819	0.0034365712
29	0x3b25f23f	0.0025321392
30	0x3a354215	0.0006914449
31	0x3a6e007d	0.0009079052
32	0xbc816ff0	-0.015800446
33	0x3c0da104	0.008644346
34	0x3b1efb8b	0.0024258818
35	0x3bcda968	0.0062762983
36	0x3b22fa33	0.0024868369
37	0xb996fcaa	-0.0002879848
38	0xbbaa5500	-0.005198121
39	0x3bd04829	0.0063562584

exp_avg_sq f4 [40]
0	0x3bc01370	0.005861692
1	0x38821fcc	6.204806e-05
2	0x3b26f40c	0.0025475053
3	0x3ba5fa62	0.0050652483
4	0x3ae08224	0.0017128629
5	0x3b399346	0.0028316542
6	0x37fa8da2	2.9868275e-05
7	0x3b24fb70	0.0025174282
8	0x386e5079	5.6818568e-05
9	0x3d04419d	0.032289136
10	0x3a82b738	0.0009972816
11	0x3af43a9d	0.0018633191
12	0x3c8891de	0.016671117
13	0x3b17751f	0.002311058
14	0x3b84ee7f	0.0040567513
15	0x3a94c0fa	0.0011349015
16	0x3a67b9ab	0.00088396174
17	0x3babf1d2	0.005247333
18	0x3d14d0bf	0.03633189
19	0x3d842ef7	0.0645427
20	0x3a49cf2a	0.00076984114
21	0x3c28d03c	0.010303553
22	0x3c2c6451	0.010521964
23	0x38fb71aa	0.00011989784
24	0x38986c72	7.268124e-05
25	0x3991dfcd	0.000278233
26	0x3bbca030	0.0057564005
27	0x3bb2cd7b	0.005456624
28	0x3b279fe2	0.0025577475
29	0x3a9665c3	0.0011474419
30	0x3901290f	0.00012317694
31	0x39285bb2	0.00016055888
32	0x3d4a1c5a	0.049343444
33	0x3c660be2	0.014040919
34	0x3a868901	0.0010264219
35	0x3bf82adc	0.0075734686
36	0x3ac11fde	0.0014734229
37	0x37b9dea6	2.2157397e-05
38	0x3bb9bd65	0.0056683295
39	0x3c08ffe3	0.008361789
