Lid_Driven_Re100/saved_models/RA-21000.pt (torch, 95111 bytes, 36 tensors)

linears.0.weight f4 [40, 2]
-0.18867737 -0.04685801 0.21275938 -0.15137547 -0.32406706 0.2907411 0.28783995 0.146189
0.43208817 0.2881441 -0.19577602 0.2817629 -0.1882551 -0.34336004 0.5192032 -0.16783945
-0.024677683 -0.016783768 0.09707868 -0.17416058 -0.040202137 0.08068047 -0.022358583 0.31017008
0.13618897 -0.3290647 0.20047586 -0.2339828 0.28245872 0.15985869 0.2534292 -0.19791032
0.23199207 -0.40802208 -0.07570315 0.16214767 0.16989093 -0.3270411 -0.038615417 -0.29477945
0.40262428 0.64938766 0.23041534 -0.27537525 0.1899364 0.31298408 -0.22281194 -0.17723534
0.19567645 0.08508057 0.22359815 -0.26386738 0.22951718 -0.3000195 0.27424473 0.2357801
0.39152342 0.3724491 -0.079299815 -0.21881694 -0.048847508 -0.10950855 0.07266356 -0.009697238
-0.072130054 0.17894006 0.064592466 -0.16302446 -0.0014389524 -0.36133048 0.01315211 -0.2030708
-0.1257889 -0.18675815 -0.29782367 0.07354362 0.30430517 -0.020152416 -0.21830107 -0.33924794
00000000: a434 41be 2fee 3fbd 98dd 593e 2c02 1bbe
00000010: 1eec a5be 04dc 943e c25f 933e 92b2 153e
00000020: a93a dd3e a087 933e 8279 48be 3a43 903e
00000030: f2c5 40be e3cc afbe 80ea 043f 1bde 2bbe
00000040: da28 cabc 1d7e 89bc 30d1 c63d 2757 32be
00000050: ffaa 24bd cd3b a53d 5929 b7bc 9dce 9e3e
00000060: 1f75 0b3e 2b7b a8be 8b49 4d3e 3099 6fbe
00000070: 6e9e 903e ffb1 233e 79c1 813e 01a9 4abe
00000080: 548f 6d3e 45e8 d0be 410a 9bbd 0a0a 263e
00000090: e3f7 2d3e ee71 a7be 332b 1ebd 55ed 96be
000000a0: c524 ce3e 453e 263f 00f2 6b3e fcfd 8cbe
000000b0: b07e 423e 733f a03e d028 64be 2e7d 35be
000000c0: 685f 483e b93e ae3d eaf6 643e a019 87be
000000d0: 8d06 6b3e 289c 99be ce69 8c3e 5770 713e
000000e0: c275 c83e a6b1 be3e f167 a2bd 8c11 60be
000000f0: 5314 48bd 0546 e0bd a2d0 943d 2ae1 1ebc
00000100: ecb8 93bd 103c 373e 0e49 843d e2ef 26be
00000110: 3b9b bcba 4f00 b9be f37b 573c cbf1 4fbe
00000120: cece 00be 873d 3fbe 587c 98be 0a9e 963d
00000130: e3cd 9b3e ae16 a5bc 518a 5fbe e8b1 adbe

linears.0.bias f4 [40]
0.037083704 0.083721936 -0.12504716 -0.12111221 -0.16783224 -0.06220914 0.083707795 -0.046892654
-0.025530636 0.07120689 0.0935851 -0.15708995 0.18819158 0.057255007 -0.021955729 -0.032835532
-0.0364549 -0.08218457 0.18745193 0.26858675 0.12880996 0.10982763 -0.25298432 0.021871058
-0.018076211 0.07568725 0.107164755 -0.09161792 0.18732418 0.110939585 -0.059352215 0.03365516
-0.2388429 0.075288445 0.13150556 0.14594945 0.048072807 -0.027104532 -0.108841546 0.25364435
00000000: 15e5 173d 6876 ab3d 5d0c 00be ae09 f8bd
00000010: 37dc 2bbe 03cf 7ebd fe6e ab3d 8312 40bd
00000020: a025 d1bc ebd4 913d 8ba9 bf3d 30dc 20be
00000030: 4bb5 403e 3a84 6a3d 80dc b3bc 8d7e 06bd
00000040: bc51 15bd 6250 a8bd 66f3 3f3e 3484 893e
00000050: c2e6 033e 4fed e03d 2987 81be ef2a b33c
00000060: 9014 94bc eb01 9b3d 3279 db3d 2da2 bbbd
00000070: e9d1 3f3e 4b34 e33d 4f1b 73bd fed9 093d
00000080: 3c93 74be d430 9a3d 65a9 063e c673 153e
00000090: fee7 443d 530a debc 51e8 debd acdd 813e

linears.1.weight f4 [40, 40]
-0.12743111 -0.028570816 0.29335475 -0.20199521 -0.15618336 0.11266418 0.025420303 -0.4729764
-0.19580205 -0.033821806 -0.050815668 0.18208991 0.17408812 -0.09048221 -0.10338881 -0.0027360884
-0.26649874 0.23106721 0.040374234 0.08105595 0.20237263 0.048645444 -0.1860612 0.24751687
-0.19961725 -0.16816889 -0.039215285 -0.15175958 -0.24422285 0.12317237 0.05170046 0.069163404
0.11583296 -0.07068133 0.034632113 -0.16621864 0.08776299 0.16162372 -0.29709402 -0.0785549
0.051364396 -0.19905593 -0.22435628 0.03443552 0.19473417 0.13807791 0.056738645 -0.19577868
-0.24968788 -0.2310173 0.19182295 -0.24538557 -0.11571809 0.19117528 -0.045740943 -0.13821352
-0.041467667 -0.082239844 -0.08790564 -0.16577634 -0.09441427 0.21439512 -0.019191902 0.1360139
0.061426938 -0.25561276 0.1881584 0.20573767 -0.025416287 -0.28968057 -0.23912363 -0.21733563
-0.17098612 -0.18822494 -0.2584491 0.006176064 -0.14971484 -0.24186191 0.1596458 -0.26008502
-0.21431017 -0.04702737 0.0644628 0.14852929 0.00048988464 0.32373405 0.25197887 0.1220288
-0.07276073 -0.11465478 0.07825853 0.02524147 -0.09920217 -0.2902568 0.17067066 0.114331655
0.24175885 -0.043014135 -0.34638622 -0.19436042 -0.3328505 -0.24714123 0.15399663 -0.13460092
0.13218164 -0.27079773 -0.16812935 0.25278643 -0.09427597 -0.17283101 -0.2827553 0.095746025
0.07494856 -0.37013307 -0.174522 -0.35993916 0.17972729 0.00031658122 0.19448729 -0.019749446
0.04148142 0.27821133 -0.0014964042 -0.045264192 -0.067251354 -0.15833224 -0.07246298 -0.112287305
-0.051501792 -0.28137276 0.2193977 0.31759718 0.05729927 0.0035954271 0.20707357 0.3120753
0.14155643 0.16647395 -0.024793373 -0.5078845 -0.035727922 -0.07175305 0.32128534 -0.1413223
0.07605372 -0.19873182 0.0135787185 0.13367571 -0.15037261 -0.015890008 0.14475732 0.23807059
0.015699444 -0.15016448 -0.14079008 -0.19183701 0.05494105 0.060880452 0.37854987 -0.30896708
-0.1701009 0.1152949 0.03957546 -0.25710344 0.042344525 -0.036036137 0.22275767 0.08857456
0.009668736 -0.09106036 -0.22231598 -0.18433002 0.26631135 -0.11962886 -0.22130445 0.11136868
-0.1538677 -0.2817541 0.31540656 0.3453806 0.17963377 -0.0967929 -0.09448339 0.040983126
-0.16317594 0.020666348 0.13905224 0.111179665 -0.028241033 -0.009056036 0.035135858 0.023527946
-0.19963522 -0.16803874 -0.23615497 0.28093812 0.21527845 -0.09062592 0.019539544 0.07135723
0.069112666 0.20425121 -0.25052378 -0.2797992 -0.0046775914 0.22565623 -0.08338321 -0.27390388
0.07155724 0.2745496 0.21533734 -0.043812905 -0.07922764 -0.07103318 0.2275013 -0.07567415
-0.21375781 -0.00055288157 0.19720656 0.3087329 -0.13429065 0.23967668 0.13382591 -0.17048112
-0.116555676 -0.22572242 0.0551751 0.14141212 -0.077499524 -0.16918007 -0.15219176 -0.12371324
0.05370717 -0.012425113 0.20198524 0.12807374 0.119357586 -0.18869047 -0.18429448 0.16108787
0.06822323 -0.11076344 0.4106263 -0.43410775 -0.13096873 -0.17000985 0.0033490597 -0.36454546
-0.03059905 0.16297571 -0.1076298 0.2102911 0.23489329 0.19327317 -0.118379004 -0.052445415
00000000: 4d7d 02be 580d eabc 9832 963e d5d7 4ebe
00000010: 88ee 1fbe 7abc e63d 3d3e d03c f629 f2be
00000020: 5580 48be bc88 0abd 1724 50bd c775 3a3e
00000030: 2844 323e bd4e b9bd 83bd d3bd f24f 33bb
00000040: 8672 88be e29c 6c3e 745f 253d a900 a63d
00000050: c53a 4f3e 7240 473d d486 3ebe 1075 7d3e
00000060: 7768 4cbe 7734 2cbe 35a0 20bd dd66 1bbe
00000070: 8e15 7abe cc41 fc3d ddc3 533d 8ba5 8d3d
00000080: d539 ed3d 60c1 90bd 67da 0d3d 3835 2abe
00000090: 15bd b33d b080 253e b51c 98be 64e1 a0bd
000000a0: 7963 523d 51d5 4bbe a7bd 65be 430c 0d3d
000000b0: 6568 473e 4c64 0d3e c866 683d 357a 48be
000000c0: 2eae 7fbe cd8f 6cbe 3c6d 443e 5b46 7bbe
000000d0: 9bfd ecbd 74c3 433e db5a 3bbd d887 0dbe
000000e0: 00da 29bd 5d6d a8bd df07 b4bd 46c1 29be
000000f0: 455c c1bd 658a 5b3e 5638 9dbc 3a47 0b3e
00000100: d09a 7b3d addf 82be 98ac 403e e5ac 523e
00000110: d135 d0bc 0351 94be d3dc 74be 3b8d 5ebe
00000120: fc16 2fbe 0abe 40be 7153 84be 9460 ca3b
00000130: d94e 19be a6aa 77be 307a 233e dd29 85be
00000140: 2074 5bbe c69f 40bd 1305 843d 1018 183e
00000150: 9a6b 003a 78c0 a53e 6003 813e 3cea f93d
00000160: 9403 95bd 20d0 eabd 0246 a03d 33c7 ce3c
00000170: 822a cbbd 8a9c 94be 4ac4 2e3e b726 ea3d
00000180: a28f 773e 972f 30bd 8959 b1be 6b06 47be
00000190: 616b aabe 9712 7dbe 4bb1 1d3e d3d4 09be
000001a0: a05a 073e 00a6 8abe 1a2a 2cbe 396d 813e
000001b0: c213 c1bd 9dfa 30be 4dc5 90be 7e16 c43d
000001c0: a17e 993d 1582 bdbe e5b5 32be f249 b8be
000001d0: 6e0a 383e d0fa a539 ad27 473e 97c9 a1bc
000001e0: 6ce8 293d b771 8e3e fe22 c4ba f266 39bd
000001f0: 14bb 89bd d921 22be 7967 94bd e3f6 e5bd
00000200: 8bf3 52bd 1710 90be caa9 603e 199c a23e
00000210: a4b2 6a3d 42a1 6b3b 180b 543e 55c8 9f3e
00000220: 2bf4 103e 2678 2a3e 791b cbbc b804 02bf
00000230: 7157 12bd 43f3 92bd 837f a43e cbb6 10be
00000240: 0ec2 9b3d 5b80 4bbe 4679 5e3c 49e2 083e
00000250: 47fb 19be c32b 82bc 433b 143e c7c8 733e
00000260: 1f9c 803c b8c4 19be 462b 10be ec70 44be
00000270: de09 613d c85d 793d 4ad1 c13e ef30 9ebe
00000280: ee2e 2ebe bc1f ec3d e119 223d 10a3 83be
00000290: 7471 2d3d a19a 13bd 961a 643e 9466 b53d
000002a0: 9e69 1e3c db7d babd cda6 63be 02c1 3cbe
000002b0: f659 883e faff f4bd a29d 62be 4315 e43d
000002c0: 7f8f 1dbe 1342 90be f87c a13e bad5 b03e
000002d0: eaf1 373e 5b3b c6bd 8280 c1bd ecdd 273d
000002e0: 9817 27be 794c a93c b663 0e3e 2ab2 e33d
000002f0: bd59 e7bc c55f 14bc 9eea 0f3d aebd c03c
00000300: 2d6d 4cbe 5912 2cbe 9cd2 71be 1fd7 8f3e
00000310: f471 5c3e 159a b9bd 6511 a03c bd23 923d
00000320: f18a 8d3d 3b27 513e a744 80be d741 8fbe
00000330: 7b46 99bb 6d12 673e d1c4 aabd 213d 8cbe
00000340: 9a8c 923d c491 8c3e 6481 5c3e 2975 33bd
00000350: 1a42 a2bd d879 91bd 1af6 683e 0cfb 9abd
00000360: 54e3 5abe 41ef 10ba 84f0 493e 3d12 9e3e
00000370: 7d83 09be ce6d 753e a909 093e 9a92 2ebe
00000380: beb4 eebd c723 67be 49ff 613d 57ce 103e
00000390: 12b8 9ebd 8a3d 2dbe 28d8 1bbe 5e5d fdbd
000003a0: 0dfc 5b3d b392 4bbc 38d5 4e3e c325 033e
000003b0: c071 f43d 1338 41be b1b7 3cbe 38f4 243e
000003c0: 9fb8 8b3d f1d7 e2bd 9c3d d23e 5f43 debe
000003d0: ab1c 06be 1017 2ebe e67b 5b3b b4a5 babe
000003e0: dcaa fabc 1be3 263e 036d dcbd 8d56 573e
000003f0: de87 703e 67e9 453e b170 f2bd 01d1 56bd

linears.1.bias f4 [40]
-0.019580325 -0.0062478455 -0.05243439 -0.071299836 0.04426889 0.016953386 0.006906376 -0.07170544
0.113512 0.17814296 -0.013217108 -0.0044670925 0.0027557735 0.0238439 -0.16910563 -0.061199896
0.014400994 0.09503274 -0.13222617 0.035714786 -0.0083318595 0.00873999 0.06347209 -0.01970481
0.14912656 -0.034136057 0.008390842 -0.008346317 -0.008134797 0.08601859 -0.1716885 0.09954557
-0.03049656 -0.14361316 -0.048310865 -0.054500394 0.03438881 0.029562123 -0.06558046 0.0016187575
00000000: eb66 a0bc baba ccbb 71c5 56bd a605 92bd
00000010: 4c53 353d d4e1 8a3c e24e e23b 4dda 92bd
00000020: fb78 e83d 1c6b 363e 928c 58bc b060 92bb
00000030: 359a 343b 4854 c33c 072a 2dbe beac 7abd
00000040: 26f2 6b3c 86a0 c23d 4c66 07be ab49 123d
00000050: 5a82 08bc 2d32 0f3c a8fd 813d fb6b a1bc
00000060: a2b4 183e 40d2 0bbd be79 093c febe 08bc
00000070: d047 05bc 842a b03d 1ccf 2fbe 8cde cb3d
00000080: ecd3 f9bc 540f 13be 9de1 45bd ce3b 5fbd
00000090: 48db 0c3d 442c f23c 0c4f 86bd 7d2c d43a

linears.2.weight f4 [40, 40]
-0.47207808 -0.23270994 0.07611623 0.19648786 0.12516062 0.036225207 0.015196312 -0.46162271
0.22589798 0.32977083 -0.15882836 0.2107576 0.045621287 -0.2125422 -0.033430826 -0.16933991
0.25784037 -0.12540802 -0.09904199 -0.02891192 0.14821209 0.38356295 0.18048897 -0.23195818
-0.13420744 -8.176069e-06 0.26528418 -0.15222965 0.2531623 -0.14253269 -0.25686502 -0.17417325
-0.49141383 -0.05742925 -0.6899591 -0.6964254 0.36788237 -0.08398533 -0.23741373 -0.14355735
0.6920321 -0.29418442 -0.06635142 0.068270124 0.06292579 0.009155723 0.40091982 0.15192528
0.28184617 -0.30401742 0.12971309 -0.21652868 -0.20778997 0.08507214 0.20916164 0.43267497
-0.1938767 0.32102382 -0.07761085 0.23376116 0.1928254 -0.5060125 -0.26793247 -0.055927347
0.00717304 0.0017052946 -0.29489407 0.03439266 -0.28790152 -0.14728633 -0.1423768 0.325475
0.32029125 -0.077502616 0.06789422 0.544665 -0.17893939 0.20965442 -0.11223138 -0.1704481
-0.3561453 0.11911246 0.21339053 0.19934742 -0.21595122 -0.14816684 -0.2458919 -0.30123204
-0.24084927 0.18139908 -0.23803136 0.08927902 0.1383122 0.06651195 -0.13015765 -0.30634487
-0.1660268 -0.19979027 -0.09386948 -0.06733483 -0.0041391994 -0.040568113 -0.14265448 -0.18390156
0.17617527 0.052412014 -0.073151365 0.14667626 -0.042424645 -0.0555265 -0.29272938 -0.08939458
-0.19923328 -0.08478051 -0.07211631 -0.3312141 -0.032572955 0.13660575 -0.12071392 0.003397767
-0.05627523 0.16026653 0.46306542 0.0018902255 -0.25526243 -0.03692247 -0.07660045 0.3697593
-0.22136857 -0.083150536 0.102927625 0.18786882 -0.06901783 -0.10148424 0.2239655 0.025424147
0.086772844 -0.12861799 0.16564788 -0.0076789334 -0.11971665 -0.29534206 -0.124489754 0.19370137
-0.07477689 -0.058031186 -0.26176387 0.15176576 -0.023068557 -0.135436 0.35961375 -0.06891325
0.2678689 0.3580862 -0.017241068 0.19598722 -0.14827101 0.09687093 0.69002926 -0.1393717
-0.17807522 -0.20181741 -0.023398422 0.005321986 -0.1197495 0.1724582 -0.020389672 -0.003969384
0.18627603 -0.034237213 -0.25506136 -0.054034133 -0.047433674 0.21335879 -0.3210192 -0.16055714
0.2900223 -0.034228005 0.04529991 -0.2031098 0.25822133 -0.1898073 0.061427906 0.025876148
0.17569481 0.092042565 -0.09310092 0.070096746 0.20540436 0.0962951 0.102007866 -0.0499952
-0.13396357 -0.3597912 -0.25977975 -0.07635749 0.09315079 -0.2779579 -0.44858688 -0.06981021
0.11288858 -0.2124537 0.08935596 -0.08027195 -0.09745148 -0.026807157 0.14447609 0.097358465
-0.12510951 -0.28401068 0.1911461 0.14082056 -0.15811339 -0.07196572 -0.04944551 0.29700485
-0.12823507 0.22527657 0.20463361 0.10376803 -0.10628433 0.04820511 -0.26734188 0.048274856
0.30741084 -0.019330638 -0.033820078 -0.20613314 -0.06599608 -0.24910414 -0.2104297 0.17220925
0.31616864 -0.115443684 -0.04136757 0.07046676 0.17501295 -0.17564404 0.0040346473 -0.15401417
0.05503344 0.20447782 0.08291285 0.020504925 -0.2575762 0.087589644 -0.15333511 -0.13998245
-0.018318519 0.24841984 0.08140048 -0.13882793 0.18121727 -0.08755198 -0.16489017 -0.26555604
00000000: 38b4 f1be 844b 6ebe d3e2 9b3d 1d34 493e
00000010: 1b2a 003e e260 143d f4f9 783c d059 ecbe
00000020: cd51 673e b9d7 a83e e7a3 22be d7d0 573e
00000030: 63dd 3a3d aaa4 59be c3ee 08bd 7167 2dbe
00000040: a703 843e f66a 00be 87d6 cabd b1d8 ecbc
00000050: e9c4 173e 5d62 c43e 1ad2 383e 7286 6dbe
00000060: ad6d 09be f32b 09b7 54d3 873e 17e2 1bbe
00000070: 7d9e 813e 17f4 11be d083 83be 795a 32be
00000080: 989a fbbe ef3a 6bbd 29a1 30bf ef48 32bf
00000090: 145b bc3e 8000 acbd 961c 73be b300 13be
000000a0: 0429 313f 579f 96be 41e3 87bd 35d1 8b3d
000000b0: 3ddf 803d e301 163c 5d45 cd3e 4d92 1b3e
000000c0: 244e 903e 2ca8 9bbe 82d3 043e b2b9 5dbe
000000d0: e5c6 54be 4d3a ae3d 782e 563e 9387 dd3e
000000e0: 9d87 46be 3c5d a43e 70f2 9ebd 165f 6f3e
000000f0: 0674 453e 098a 01bf 722e 89be 1314 65bd
00000100: d20b eb3b 3184 df3a 5bfc 96be 51df 0c3d
00000110: d467 93be 3ad2 16be 39cb 11be a9a4 a63e
00000120: 37fd a33e b1b9 9ebd 200c 8b3d 2a6f 0b3f
00000130: e33b 37be a6af 563e 91d9 e5bd f289 2ebe
00000140: ad58 b6be 3cf1 f33d 0c83 5a3e bb21 4c3e
00000150: 5122 5dbe 0cb9 17be 16cb 7bbe 163b 9abe
00000160: 31a1 76be aec0 393e 7ebe 73be ebd7 b63d
00000170: b7a1 0d3e 6b37 883d 0c48 05be 3cd9 9cbe
00000180: ee02 2abe d295 4cbe a43e c0bd d8e6 89bd
00000190: 1fa2 87bb c02a 26bd 0414 12be b150 3cbe
000001a0: 4a67 343e fbad 563d 62d0 95bd 4d32 163e
000001b0: 77c5 2dbd c16f 63bd a0e0 95be 8114 b7bd
000001c0: cf03 4cbe 67a1 adbd b7b1 93bd e594 a9be
000001d0: 386b 05bd 61e2 0b3e dc38 f7bd 12ad 5e3b
000001e0: db80 66bd e91c 243e e916 ed3e 71c1 f73a
000001f0: c2b1 82be 043c 17bd b2e0 9cbd 1751 bd3e
00000200: 71ae 62be d44a aabd b8cb d23d af60 403e
00000210: 3859 8dbd f8d6 cfbd 3657 653e 4d46 d03c
00000220: f6b5 b13d 6fb4 03be 999f 293e 909f fbbb
00000230: 012e f5bd 1337 97be 7cf4 febd a759 463e
00000240: a024 99bd 1cb2 6dbd ea05 86be 7c68 1b3e
00000250: 45fa bcbc bcaf 0abe 4b1f b83e 6422 8dbd
00000260: 1d26 893e 1357 b73e 243d 8dbc e0b0 483e
00000270: 5bd4 17be 4464 c63d c2a5 303f 74b7 0ebe
00000280: 5a59 36be 39a9 4ebe 0cae bfbc 0e64 ae3b
00000290: 3a3f f5bd e298 303e 3e08 a7bc 9b11 82bb
000002a0: 25bf 3e3e 523c 0cbd 6797 82be e552 5dbd
000002b0: d049 42bd ba7a 5a3e a15c a4be 1769 24be
000002c0: ce7d 943e aa32 0cbd 668c 393d 04fc 4fbe
000002d0: 9635 843e d85c 42be d49b 7b3d 37fa d33c
000002e0: 57e9 333e d080 bc3d b2ab bebd e28e 8f3d
000002f0: 8555 523e 5e36 c53d 80e9 d03d c4c7 4cbd
00000300: bf2d 09be 8d36 b8be da01 85be 5161 9cbd
00000310: d7c5 be3d 7f50 8ebe 2ead e5be a8f8 8ebd
00000320: 2132 e73d 768d 59be 4200 b73d 9f65 a4bd
00000330: a494 c7bd af9a dbbc 8af1 133e e063 c73d
00000340: b51c 00be d969 91be cebb 433e 4433 103e
00000350: 7ae8 21be c362 93bd 6087 4abd 0511 983e
00000360: 0e50 03be e7ae 663e 798b 513e 5584 d43d
00000370: 99ab d9bd b972 453d 09e1 88be dbbb 453d
00000380: f464 9d3e 495b 9ebc ec86 0abd 9114 53be
00000390: f428 87bd 2815 7fbe e27a 57be 9f57 303e
000003a0: dbe0 a13e bd6d ecbd 0b71 29bd e050 903d
000003b0: 9836 333e 08dc 33be 1335 843b e4b5 1dbe
000003c0: bf6a 613d a262 513e 36ce a93d f2f9 a73c
000003d0: 07e1 83be 3362 b33d e103 1dbe 8f57 0fbe
000003e0: b810 96bc c561 7e3e 4bb5 a63d e928 0ebe
000003f0: 0591 393e 744e b3bd f8d8 28be f6f6 87be

linears.2.bias f4 [40]
0.010156837 -0.07157286 0.008048158 -0.036325637 0.086150005 -0.03141873 0.051223516 -0.0712978
-0.02397232 -0.03184693 0.006436398 0.011273467 -0.02633269 -0.029945 -0.027737053 -0.07808147
0.123918205 -0.03627709 0.03116343 0.071802974 0.023312634 -0.08739734 -0.07950744 0.092459336
0.01017086 0.0024453974 0.053978164 0.08536621 -0.026135955 0.12813425 0.036971197 -0.11003041
0.029028377 -0.049525987 0.023540948 0.022141283 0.031422094 -0.030409917 -0.039445397 -0.020124404
00000000: dd68 263c cb94 92bd 6cdc 033c 31ca 14bd
00000010: 6a6f b03d edb0 00bd c0cf 513d 9504 92bd
00000020: 9961 c4bc ed71 02bd 6be8 d23b 59b4 383c
00000030: a7b7 d7bc 374f f5bc d138 e3bc 2ee9 9fbd
00000040: d4c8 fd3d 4997 14bd 734a ff3c 700d 933d
00000050: 23fa be3c 60fd b2bd ccd4 a2bd 525b bd3d
00000060: aea3 263c f642 203b 3518 5d3d 7bd4 ae3d
00000070: 121b d6bc a035 033e 1c6f 173d a057 e1bd
00000080: ebcc ed3c c3db 4abd f2d8 c03c a361 b53c
00000090: 74b4 003d 381e f9bc 7f91 21bd efdb a4bc

linears.3.weight f4 [40, 40]
-0.2740074 0.58241224 -0.054746456 0.10639485 -0.2961715 0.5426832 -0.17061648 0.1057073
0.08260683 0.06049722 0.06905456 0.050370853 0.6923787 0.2196278 0.26194364 -0.34111935
-0.35343587 0.15490183 -0.15524885 0.020150533 0.021776654 -0.29013464 0.21023619 -0.34727806
-0.058045305 0.18947764 -0.02301749 0.20020196 -0.43776286 0.10050814 0.058750134 0.040202495
0.17106953 -0.42765102 -0.33714205 0.5108694 -0.15113 0.25219446 -0.41880536 -0.44168442
-0.10259212 -0.008664698 0.050012626 -0.08848861 0.02200592 0.15065984 -0.02634871 -0.14390044
0.120263055 0.11385108 0.19576508 -0.034382578 -0.060973603 0.4475423 -0.15834638 0.12054026
0.15966092 -0.22603144 0.073663615 0.19771238 -0.11546358 -0.18945293 0.0786199 0.08629872
-0.19392937 0.32327226 -0.072618484 0.19820848 -0.29508737 -0.016544804 0.30024073 -0.3136112
0.07634417 -0.05407385 -0.037874307 0.08715524 0.20258264 0.25770918 0.15649131 0.1911244
0.012691143 -0.18167731 -0.16122419 -0.22452216 -0.019915843 0.04610421 -0.27096105 -0.13134632
-0.14203247 -0.001395351 0.18340023 -0.14898308 0.24555022 0.2869558 0.19492772 -0.14724076
-0.13408689 0.052692078 -0.1345414 0.07071749 -0.16920234 -0.44292623 -0.19113302 0.2060573
-0.11826045 0.42151982 -0.053707756 -0.18430485 -0.121740654 0.14113624 -0.21520892 -0.16024911
-0.09177099 -0.18237248 -0.014179583 -0.07540383 0.38631913 0.16753604 0.24738847 0.05435144
0.5361539 0.026290735 0.5355887 -0.23771864 -0.055725954 -0.06813213 0.0100877965 0.031456288
0.06442658 -0.19407481 -0.29271096 0.02577179 0.09927364 -0.15828794 -0.83901495 -0.14973746
0.17040642 -0.21777871 0.32650578 0.14048977 0.1478602 0.13754053 -0.14225973 0.17716329
-0.08095939 -0.18483655 0.21383902 0.39643902 0.27202716 -0.18350051 0.31090337 -0.0890822
0.1439707 0.14508499 0.24484785 0.093872905 -0.18753919 0.015641667 0.2703904 0.1780436
-0.112567276 0.08028357 0.23416406 0.26381165 0.011657599 0.18985835 -0.18638504 0.43078348
0.25971538 -0.094259284 -0.12662709 0.11184461 -0.19062667 0.16146079 0.067084186 0.5837905
-0.121172585 0.14635256 -0.3247523 0.11638501 -0.3325862 0.5971959 0.38511413 -0.17026426
0.074975185 -0.1040699 -0.096961945 -0.14621332 0.19835456 -0.021951774 -0.26688156 0.22968847
0.006834385 0.0780725 -0.04504005 -0.20566402 -0.10834941 0.039716687 0.43756032 0.4768083
0.0246121 0.06352572 -0.13120109 -0.14464879 0.057994332 -0.083624244 0.12919153 -0.01061361
0.1883255 -0.21640241 0.08531013 -0.0005145597 -0.03941377 0.12582019 -0.08298282 0.030544722
0.115249105 -0.07862307 -0.2946258 -0.0048021576 0.21454895 0.15469478 -0.084732644 -0.15322335
-0.115586415 0.27168784 0.1573441 -0.09469749 0.053212747 0.1451069 -0.22126347 0.15388529
0.16746557 -0.30255812 0.06912074 0.25577578 0.03295323 0.117709965 -0.27625418 -0.2658289
-0.16848375 -0.13832015 -0.017759532 0.026632454 -0.0077061863 -0.19401261 -0.2541624 0.051121403
-0.09457746 0.2666965 0.02779599 0.17228854 -0.17085192 0.064716764 0.03316347 0.31198844
00000000: b34a 8cbe f818 153f d23d 60bd 8be5 d93d
00000010: caa3 97be 49ed 0a3f 16b6 2ebe 127d d83d
00000020: c52d a93d efcb 773d 7a6c 8d3d ab51 4e3d
00000030: bb3f 313f 1ce6 603e 7a1d 863e 32a7 aebe
00000040: 8cf5 b4be 969e 1e3e 8ef9 1ebe bb12 a53c
00000050: f464 b23c 878c 94be 2848 573e 6ece b1be
00000060: eac0 6dbd 6d06 423e 2d8f bcbc be01 4d3e
00000070: 7422 e0be 36d7 cd3d fba3 703d 5fab 243d
00000080: da2c 2f3e 13f5 dabe e29d acbe 56c8 023f
00000090: d3c1 1abe a21f 813e a86d d6be 7624 e2be
000000a0: d11b d2bd 61f6 0dbc 0ada 4c3d 8439 b5bd
000000b0: c245 b43c 9346 1a3e 40d9 d7bc a35a 13be
000000c0: 7a4c f63d c12a e93d a476 483e bfd4 0cbd
000000d0: 75bf 79bd 4424 e53e 8e25 22be d0dd f63d
000000e0: 277e 233e c974 67be f3dc 963d 1d75 4a3e
000000f0: 2b78 ecbd f3ff 41be 7803 a13d 62bd b03d
00000100: 6c95 46be f183 a53e 00b9 94bd 2af7 4a3e
00000110: b115 97be f888 87bc 27b9 993e a691 a0be
00000120: 555a 9c3d 8b7c 5dbd 1722 1bbd 727e b23d
00000130: d371 4f3e 75f2 833e 423f 203e 1db6 433e
00000140: 83ee 4f3c 9e09 3abe f417 25be 23e9 65be
00000150: 8d26 a3bc c5d7 3c3d 68bb 8abe a67f 06be
00000160: f670 11be 36e4 b6ba 45cd 3b3e 058f 18be
00000170: 8471 7b3e dfeb 923e 229b 473e 48c6 16be
00000180: 134e 09be a6d3 573d 39c5 09be 55d4 903d
00000190: 6143 2dbe 3ac7 e2be 60b8 43be af00 533e
000001a0: 8932 f2bd 72d1 d73e aafc 5bbd 69ba 3cbe
000001b0: 2a53 f9bd 0586 103e ba5f 5cbe 5818 24be
000001c0: 6ef2 bbbd dabf 3abe 7b51 68bc 536d 9abd
000001d0: 9fcb c53e 918e 2b3e 6753 7d3e 9e9f 5e3d
000001e0: 6241 093f ab5f d73c 571c 093f 846c 73be
000001f0: e640 64bd dc88 8bbd 4947 253c 4fd8 003d
00000200: 15f2 833d 8cbb 46be 36de 95be 5c1f d33c
00000210: fa4f cb3d 3c16 22be afc9 56bf c754 19be
00000220: 057f 2e3e 6201 5fbe c42b a73e 8ddc 0f3e
00000230: aa68 173e 6dd7 0c3e 89ac 11be 4b6a 353e
00000240: 09ce a5bd cb45 3dbe 9ef8 5a3e 0efa ca3e
00000250: 2547 8b3e 8fe7 3bbe ba2e 9f3e ba70 b6bd
00000260: 0e6d 133e 2991 143e 65b9 7a3e 7040 c03d
00000270: 460a 40be f422 803c 9c70 8a3e 1051 363e
00000280: ac89 e6bd b66b a43d b4c8 6f3e 5212 873e
00000290: 84ff 3e3c 3a6a 423e b8db 3ebe a78f dc3e
000002a0: 6af9 843e 030b c1bd 88aa 01be c90e e53d
000002b0: a333 43be fa55 253e 6f63 893d 4b73 153f
000002c0: 5529 f8bd 72dd 153e ef45 a6be 445b ee3d
000002d0: bd48 aabe d5e1 183f ae2d c53e c159 2ebe
000002e0: 978c 993d 9a22 d5bd fc93 c6bd f2b8 15be
000002f0: 751d 4b3e 35d4 b3bc b3a4 88be 7433 6b3e
00000300: faf2 df3b 7ae4 9f3d ea7b 38bd 9799 52be
00000310: 4ce6 ddbd f7ad 223d e807 e03e 3820 f43e
00000320: 519f c93c c619 823d 9459 06be d01e 14be
00000330: 778b 6d3d 3043 abbd c94a 043e b5e4 2dbc
00000340: 66d8 403e 9898 5dbe 14b7 ae3d 84e3 06ba
00000350: 5570 21bd 02d7 003e e6f2 a9bd ed38 fa3c
00000360: b907 ec3d 2205 a1bd 31d9 96be 6b5b 9dbb
00000370: b8b2 5b3e 4f68 1e3e 4f88 adbd 95e6 1cbe
00000380: 92b8 ecbd ab1a 8b3e d01e 213e c2f0 c1bd
00000390: 9cf5 593d e796 143e e492 62be 1b94 1d3e
000003a0: 187c 2b3e e6e8 9abe 2d8f 8d3d 0bf5 823e
000003b0: f7f9 063d ec11 f13d 3071 8dbe ba1a 88be
000003c0: 0187 2cbe cca3 0dbe 707c 91bc 4e2c da3c
000003d0: 2d84 fcbb 3eab 46be 9321 82be ad64 513d
000003e0: d4b1 c1bd 728c 883e 6bb4 e33c 686c 303e
000003f0: cef3 2ebe 398a 843d 6bd6 073d f3bc 9f3e

linears.3.bias f4 [40]
-0.17808734 -0.001615129 -0.03321925 0.07515143 -0.027385756 -0.022315387 -0.06181411 0.011109829
0.045790818 -0.012341749 -0.030703194 -0.04927931 -0.11699844 -0.04851745 -0.000651752 -0.11682313
-0.057381526 0.029962769 0.011702902 0.075827375 0.05037828 -0.041587263 -0.05001624 -0.03182766
-0.024303459 0.03600882 -0.10422354 0.0100300135 0.0039929016 -0.036058363 -0.06175971 -0.12161829
-0.050465737 -0.03417247 0.08579314 -0.0072451383 -0.06193363 0.005589905 0.0044946433 0.03562027
00000000: 875c 36be bcb2 d3ba e910 08bd fee8 993d
00000010: 1858 e0bc c2ce b6bc cb30 7dbd 0006 363c
00000020: 278f 3b3d 0c35 4abc 4485 fbbc 1ad9 49bd
00000030: e19c efbd 3cba 46bd 56da 2aba f740 efbd
00000040: e408 6bbd 7b74 f53c 87bd 3f3c 624b 9b3d
00000050: 7559 4e3d 6857 2abd d4dd 4cbd b85d 02bd
00000060: 0c18 c7bc fc7d 133d 2773 d5bd ed54 243c
00000070: e3d6 823b efb1 13bd c0f7 7cbd 0313 f9bd
00000080: 29b5 4ebd 6ff8 0bbd 50b4 af3d a068 edbb
00000090: 1eae 7dbd 862b b73b cd47 933b 8fe6 113d

linears.4.weight f4 [40, 40]
0.13979965 -0.18001258 -0.5294744 -0.24895586 -0.029219808 0.19946007 -0.25071725 0.13418043
0.31013492 0.026173782 0.011100085 -0.14667898 0.028321464 -0.008961241 0.08719573 -0.017011749
-0.14294666 0.046861753 -0.29498646 0.21976273 0.24093647 -0.21465026 -0.104287185 0.050469365
-0.031646233 0.113333195 0.055048686 -0.07380255 -0.23594645 -0.19146122 -0.2670857 -0.12607816
-0.2164863 -0.24147165 0.19432223 0.016089968 0.05948195 0.2510369 0.39382806 0.21795692
0.19286153 -0.040185153 0.011588833 -0.026535783 0.24591106 0.12075463 0.058828972 0.22417715
-0.07732978 0.2710032 0.10017511 -0.11641881 -0.21584776 0.28903013 -0.24490002 -0.25173742
0.116418175 0.14914308 0.21110226 -0.12440819 0.2191082 -0.00080305187 -0.21462028 -0.19269453
-0.027531363 -0.13246363 0.2516863 0.16915154 -0.015962848 -0.048060805 -0.1809166 -0.049191
0.09555892 0.22770798 0.02138689 0.15038551 0.19534765 0.12406857 -0.21513547 0.056411643
-0.09588372 -0.069128945 -0.21905442 0.066565216 0.08182586 -0.15093358 0.35573548 0.0024363508
0.04165177 0.29759264 0.39898103 0.11139026 -0.17364323 0.16396064 0.11237102 0.20050797
-0.1534281 -0.070320845 0.05802048 -0.19628735 0.26850048 0.3322759 -0.16236487 0.22607411
0.23953995 0.12411787 0.3692545 0.051172957 -0.23522942 0.13977292 -0.0076635783 -0.11832541
-0.23553526 -0.07928983 -0.16812916 0.19841589 -0.0321789 0.17567658 0.3444954 -0.113581814
0.22633836 -0.056844465 -0.0066811405 0.115658 -0.06793692 0.17710273 0.29142758 0.15149182
-0.07871613 -0.074492015 0.2117055 -0.026201086 -0.092564635 -0.13808522 0.17103834 0.094851136
-0.19597751 0.20376772 -0.05460767 0.08751902 -0.003014116 -0.16917242 -0.25335136 0.09578875
0.041697707 0.13120133 0.029395565 -0.03630298 0.20466138 -0.09327902 0.02190842 0.18591379
0.024878126 0.29937416 0.25507545 -0.016784275 0.21445455 0.20207503 0.18044013 -0.1666938
0.09073718 -0.05812195 -0.035956733 0.038582876 -0.079631194 0.076063395 0.029079806 0.29018474
-0.23791616 0.09549 0.26808593 0.16925992 -0.16133597 -0.0880102 -0.07592627 0.2389708
0.09959471 0.02888595 -0.16028199 -0.025653515 -0.2841923 0.048382338 0.20040053 -0.13975026
0.2897317 0.010523299 0.22161162 0.042947214 -0.05584053 0.13605675 0.24261498 0.0032720056
-0.0625746 0.016377363 -0.2434574 -0.13943826 -0.09365066 0.212346 -0.110030994 0.13326612
-0.012350598 -0.015012359 -0.18168512 0.29816896 0.097713105 0.054329142 -0.1562366 0.16702524
0.0875359 0.21954268 0.019293599 -0.08992577 0.008483571 -0.35454962 0.1933396 -0.24667434
0.21331923 0.07400126 -0.12476724 0.00020175964 0.45532265 0.23834771 -0.008725188 -0.04557749
-0.027689405 -0.1555573 0.25287613 -0.26335397 0.14427446 0.14774978 -0.11438124 0.14326368
-0.22209728 0.09116056 0.22662148 0.22436439 -0.030226251 0.09189515 0.09465272 -0.10173844
-0.09088301 0.02782673 -0.0380561 -0.19933258 0.12090049 -0.00029882393 0.14910291 -0.29415068
0.04528797 0.22062911 -0.073715374 0.28628764 0.2442373 0.02712779 0.058349732 0.1783809
00000000: a427 0f3e 3855 38be a28b 07bf 49ee 7ebe
00000010: 615e efbc 433f 4c3e 035e 80be 9866 093e
00000020: 01ca 9e3e 666a d63c 22dd 353c 0433 16be
00000030: 6a02 e83c 2bd2 12bc ad93 b23d 395c 8bbc
00000040: 9c60 12be 1cf2 3f3d 7708 97be 7b09 613e
00000050: 0db8 763e 47cd 5bbe 8594 d5bd f7b8 4e3d
00000060: 7b9f 01bd 3c1b e83d bb7a 613d cb25 97bd
00000070: f29b 71be 690e 44be 75bf 88be a21a 01be
00000080: 96ae 5dbe 5844 77be 68fc 463e 1ccf 833c
00000090: 58a3 733d e987 803e d5a3 c93e 1930 5f3e
000000a0: 7e7d 453e 3099 24bd 17df 3d3c 9261 d9bc
000000b0: 1cd0 7b3e 344e f73d a6f6 703d b28e 653e
000000c0: 135f 9ebd eec0 8a3e 9c28 cd3d fc6c eebd
000000d0: 3207 5dbe c2fb 933e 12c7 7abe bae3 80be
000000e0: a76c ee3d f7b8 183e 312b 583e b9c9 febd
000000f0: e65d 603e e683 52ba 6bc5 5bbe b751 45be
00000100: 7489 e1bc 8ca4 07be 07dd 803e 1036 2d3e
00000110: 85c4 82bc 68db 44bd 3442 39be 817c 49bd
00000120: 65b4 c33d 482c 693e 8f33 af3c a9fe 193e
00000130: 3709 483e aa17 fe3d 794c 5cbe e50f 673d
00000140: af5e c4bd 7a93 8dbd cd4f 60be 5853 883d
00000150: 5194 a73d 558e 1abe f622 b63e 2fab 1f3b
00000160: 0c9b 2a3d 105e 983e 3e47 cc3e 9420 e43d
00000170: 88cf 31be 4ce5 273e c722 e63d f651 4d3e
00000180: 411c 1dbe 6004 90bd e2a6 6d3d 8dff 48be
00000190: e578 893e 1120 aa3e fa42 26be f97f 673e
000001a0: f649 753e 8331 fe3d ed0e bd3e bc9a 513d
000001b0: fbdf 70be a220 0f3e c11e fbbb 9854 f2bd
000001c0: 2830 71be b562 a2bd 0d2a 2cbe 892d 4b3e
000001d0: 06ce 03bd 90e4 333e b361 b03e 959d e8bd
000001e0: 3ec5 673e bed5 68bd 78ed dabb 1ade ec3d
000001f0: 8322 8bbd 6b5a 353e ff35 953e ac20 1b3e
00000200: ec35 a1bd 458f 98bd 54c9 583e a9a3 d6bc
00000210: 8792 bdbd 3666 0dbe ad24 2f3e 5041 c23d
00000220: 54ae 48be 7ca8 503e 4bac 5fbd 2c3d b33d
00000230: 7a88 45bb 893b 2dbe 45b7 81be e42c c43d
00000240: 37cb 2a3d a459 063e f8ce f03c 6fb2 14bd
00000250: c192 513e 1209 bfbd 4979 b33c 2f60 3e3e
00000260: 36cd cb3c 9247 993e 4099 823e 2d7f 89bc
00000270: f999 5b3e c2ec 4e3e 4cc5 383e c8b1 2abe
00000280: 6ad4 b93d 4811 6ebd 5e47 13bd 1409 1e3d
00000290: ae15 a3bd 20c7 9b3d c638 ee3c 1893 943e
000002a0: 4ba0 73be 4390 c33d 8f42 893e 7952 2d3e
000002b0: 4235 25be b13e b4bd 3b7f 9bbd c3b4 743e
000002c0: 50f8 cb3d 3aa2 ec3c f620 24be 5227 d2bc
000002d0: a781 91be 8f2c 463d cc35 4d3e b11a 0fbe
000002e0: b757 943e ea69 2c3c 28ee 623e 6be9 2f3d
000002f0: 0ab9 64bd 7652 0b3e 1070 783e 256f 563b
00000300: 1d27 80bd d229 863c e64c 79be e7c8 0ebe
00000310: ebcb bfbd 3b71 593e ee57 e1bd ea76 083e
00000320: 2a5a 4abc 66f6 75bc aa0b 3abe 9aa9 983e
00000330: cf1d c83d 3c88 5e3d 7dfc 1fbe aa08 2b3e
00000340: 0646 b33d cccf 603e 9c0d 9e3c 012b b8bd
00000350: adfe 0a3c 8787 b5be d1fa 453e 3398 7cbe
00000360: 5b70 5a3e f98d 973d f785 ffbd 718f 5339
00000370: 0d20 e93e 6c11 743e 17f4 0ebc 76af 3abd
00000380: e4d4 e2bc 6a4a 1fbe fb78 813e 55d6 86be
00000390: afbc 133e b84b 173e b640 eabd b7b3 123e
000003a0: 786d 63be 63b2 ba3d 760f 683e c7bf 653e
000003b0: 0b9d f7bc 8633 bc3d 49d9 c13d 3e5c d0bd
000003c0: df20 babd e2f4 e33c b7e0 1bbd d71d 4cbe
000003d0: ad9a f73d 78ab 9cb9 6fae 183e eb9a 96be
000003e0: e17f 393d 99ec 613e 16f8 96bd 4b94 923e
000003f0: 5819 7a3e 193b de3c 2100 6f3d 7ca9 363e

linears.4.bias f4 [40]
0.06541175 -0.033949006 0.015826728 -0.023046628 -0.06494092 0.021195574 0.025428453 -0.030995902
-0.03435097 0.00011153078 0.036090843 0.009629864 0.072630845 0.014312463 0.03892692 -0.022110129
-0.004652614 0.033602342 0.039336603 -0.030271642 -0.047228917 0.012879637 -0.01807661 -0.040119752
-0.01087925 -0.023660976 0.0025065173 0.05894391 0.0266462 -0.015007845 0.029232867 -0.04728584
-0.00970485 0.035822105 0.032530837 -0.031506058 0.028954396 -0.04909274 0.051191915 -0.07422705
00000000: 98f6 853d 1d0e 0bbd 0ea7 813c 48cc bcbc
00000010: bfff 84bd 57a2 ad3c 554f d03c 1eeb fdbc
00000020: 9ab3 0cbd a2e5 e938 fed3 133d 94c6 1d3c
00000030: 7bbf 943d d27e 6a3c d671 1f3d 4d20 b5bc
00000040: f474 98bb 9ca2 093d 6b1f 213d 3cfc f7bc
00000050: 1c73 41bd 1d05 533c 6615 94bc 9c54 24bd
00000060: e23e 32bc aad4 c1bc 6244 243b 2b6f 713d
00000070: 2249 da3c 77e3 75bc c479 ef3c ccae 41bd
00000080: 1701 1fbc 33ba 123d 0e3f 053d 7f0c 01bd
00000090: c531 ed3c 7815 49bd 9dae 513d 5a04 98bd

linears.5.weight f4 [3, 40]
0.38791424 -0.07561242 0.12375893 -0.09930057 -0.30819562 0.1988975 0.12892468 -0.18785551
-0.13911493 0.34211856 -0.35540512 -0.05232674 0.02307498 0.14708269 0.20770568 -0.14852622
-0.21558285 0.24108116 0.23544057 -0.27383944 0.3391927 0.021402583 -0.260314 -0.309034
-0.2894215 -0.34788346 0.25348142 0.36652452 0.37834698 -0.3023437 0.09379389 0.2511349
0.18071094 0.042359438 0.30922297 -0.36011815 0.13551144 -0.049489282 0.33087528 -0.31446195
-0.05970164 0.24056321 0.26359758 -0.051988035 0.11244309 0.31532365 0.014133696 0.26480317
-0.07937378 0.24675679 0.0880372 -0.18226753 0.06912048 0.104253635 0.045261577 -0.15349747
0.068373114 -0.34374318 0.30898643 0.060076416 0.2550274 0.04282218 -0.26451167 -0.16035329
0.14144985 0.31315738 0.22917524 -0.14815836 0.124901876 -0.24691543 -0.2141468 -0.21934943
-0.3333765 -0.29840526 0.07430925 -0.27245712 -0.20259485 0.04885236 0.09269484 0.3252941
0.2736478 0.018532578 0.27844152 0.0070125423 -0.34642732 -0.08430105 0.20919158 -0.33173302
0.10010154 -0.26513982 0.36770245 -0.10602675 0.157342 -0.26030535 0.27945176 0.29665163
0.3008947 0.05246206 -0.25193834 0.014920703 0.094911575 -0.25790745 0.11670835 -0.21437518
-0.41474637 0.23426908 -0.19534467 0.558603 0.3692154 -0.27476856 -0.25241917 0.32804662
0.05706674 0.093831696 -0.110305175 0.12173673 0.04067403 0.05564955 0.27352738 -0.18018486
00000000: b29c c63e afda 9abd 5275 fd3d 195e cbbd
00000010: d1cb 9dbe c9ab 4b3e d504 043e 325d 40be
00000020: 2574 0ebe 2a2a af3e a9f7 b5be 9054 56bd
00000030: be07 bd3c d89c 163e ccb0 543e 4217 18be
00000040: c0c1 5cbe fbdd 763e 5517 713e af34 8cbe
00000050: aaaa ad3e 7854 af3c e047 85be b439 9ebe
00000060: 0e2f 94be c81d b2be 51c8 813e 1aa9 bb3e
00000070: b2b6 c13e cbcc 9abe 0317 c03d c194 803e
00000080: 4a0c 393e 1781 2d3d 7952 9e3e 6861 b8be
00000090: 83c3 0a3e 46b5 4abd 7c68 a93e 2801 a1be
000000a0: b589 74bd 3456 763e 43f6 863e 68f1 54bd
000000b0: 9048 e63d 1a72 a13e 0591 673c 4894 873e
000000c0: b88e a2bd d0ad 7c3e d94c b43d 57a4 3abe
000000d0: 0a8f 8d3d ee82 d53d 3464 393d 712e 1dbe
000000e0: 3407 8c3d 1bff afbe 7833 9e3e b012 763d
000000f0: f492 823e 4f66 2f3d 136e 87be a733 24be
00000100: 3bd8 103e 2a56 a03e eaac 6a3e d3b6 17be
00000110: 8ecc ff3d 66d7 7cbe 4c49 5bbe 239d 60be
00000120: 53b0 aabe 93c8 98be 732f 983d 807f 8bbe
00000130: 0675 4fbe 6a19 483d cbd6 bd3d f38c a63e
00000140: 901b 8c3e a2d1 973c e38f 8e3e 78c9 e53b
00000150: ec5e b1be 07a6 acbd 5136 563e e9d8 a9be
00000160: 0902 cd3d 68c0 87be 7f43 bc3e 8d24 d9bd
00000170: 431e 213e be46 85be 4d14 8f3e b9e2 973e
00000180: df0e 9a3e 75e2 563d 10fe 80be f775 743c
00000190: 0061 c23d 720c 84be ca04 ef3d 2b85 5bbe
000001a0: a359 d4be 3ce4 6f3e 6f08 48be 9b00 0f3f
000001b0: cd09 bd3e 77ae 8cbe 163d 81be baf5 a73e
000001c0: d0be 693d d52a c03d aee7 e1bd 1b51 f93d
000001d0: d099 263d c8f0 633d c80b 8c3e 6182 38be

linears.5.bias f4 [3]
0.040241607 -0.014616983 0.0
00000000: 62d4 243d 127c 6fbc 0000 0000

exp_avg f4 [40, 2]
0.0048831264 0.0068775355 0.0021063082 0.0038677563 -0.004279444 -0.006358921 -0.0060885767 -0.008256187
-0.0038620427 -0.0052314517 -0.0036938416 -0.005538122 0.0011235698 0.0013427549 -0.0031869765 -0.0047466313
-0.00047758938 -0.001446049 0.00947548 0.012818232 0.0010145573 0.0013780611 -0.0037594847 -0.005258625
0.011890987 0.016265284 0.0034292294 0.005124347 -0.0029807508 -0.0039915647 -0.002321012 -0.0028351748
-0.0033719393 -0.004694492 -0.0055481596 -0.0073275077 0.013022131 0.018365182 0.018676553 0.025521187
0.0022953502 0.0030923106 0.008268307 0.012551433 -0.00916407 -0.012642961 -7.295282e-05 0.00034250304
0.00010487577 8.952261e-06 0.00197005 0.002682381 0.007104133 0.010027378 -0.005137189 -0.0069513083
0.0037209399 0.0051747346 0.003068458 0.004204761 0.0015243075 0.0025490874 0.00030027502 0.0005852692
-0.015711054 -0.022010988 0.0088213105 0.012857711 0.0054799137 0.006794488 0.012154857 0.01683986
0.0012929135 0.0011304481 -0.000861407 -0.0013892908 -0.008447109 -0.011600709 0.0077442476 0.010043082
00000000: a202 a03b f35c e13b fd09 0a3b 2f7a 7d3b
00000010: 943a 8cbb 7f5e d0bb af82 c7bb f544 07bc
00000020: 531a 7dbb 996c abbb 6114 72bb 2279 b5bb
00000030: bf44 933a 61ff af3a 98dc 50bb a189 9bbb
00000040: f664 fab9 5a89 bdba 0b3f 1b3c 9003 523c
00000050: e5fa 843a 0fa0 b43a b061 76bb 8b50 acbb
00000060: 6ad2 423c c63e 853c ecbc 603b 23ea a73b
00000070: b358 43bb accb 82bb 1f1c 18bb 57ce 39bb
00000080: c1fb 5cbb 41d4 99bb 56cd b5bb 971b f0bb
00000090: c75a 553c 9472 963c 92ff 983c cf11 d13c
000000a0: 966d 163b 5da8 4a3b cb77 073c 87a4 4d3c
000000b0: e524 16bc 6c24 4fbc 3ffe 98b8 fb91 b339
000000c0: c0f0 db38 ab31 1637 f41b 013b e3ca 2f3b
000000d0: c9c9 e83b df49 243c dd55 a8bb cdc7 e3bb
000000e0: 03db 733b d290 a93b 2f18 493b 17c8 893b
000000f0: 46cb c73a 970e 273b 3b6e 9d39 c06c 193a
00000100: 78b4 80bc 6350 b4bc 4287 103c 26a9 523c
00000110: d990 b33b 4ca4 de3b 2a25 473c bff3 893c
00000120: fa76 a93a 8b2b 943a 0cd0 61ba dd18 b6ba
00000130: be65 0abc e610 3ebc 75c3 fd3b bd8b 243c

exp_avg_sq f4 [40, 2]
0.008233192 0.016904276 0.00090491323 0.0018735974 0.0057669226 0.012837335 0.012305387 0.02445549
0.005435581 0.011159898 0.0048689535 0.010325345 0.0005697688 0.0011185802 0.0028852744 0.0054910225
4.141239e-05 0.00018061434 0.033232253 0.068147324 0.0003718787 0.0006792434 0.0046024513 0.009412382
0.046519373 0.09219858 0.0040161805 0.008611889 0.0034555432 0.007423908 0.0022827382 0.0046622166
0.0042112432 0.008478971 0.01185073 0.024623195 0.053429987 0.10816892 0.11898664 0.23873833
0.0020351897 0.004409615 0.021382894 0.04415594 0.029717175 0.059345488 1.2829455e-05 5.0040144e-05
5.972548e-06 1.1215168e-05 0.0010012612 0.0019594624 0.01576737 0.032081563 0.010527243 0.02230097
0.005569143 0.012156959 0.003055445 0.0060169715 0.0009253687 0.0021654062 5.4556884e-05 0.0001259466
0.083978556 0.17116125 0.027097823 0.055895146 0.010990689 0.021529494 0.04989695 0.10017183
0.00076300814 0.0016043822 0.00015811816 0.00035638546 0.025548173 0.051720846 0.022655822 0.047107264
00000000: 83e4 063c d67a 8a3c b337 6d3a 7f93 f53a
00000010: 74f8 bc3b af53 523c 899c 493c e156 c83c
00000020: f51c b23b 01d8 363c be8b 9f3b a32b 293c
00000030: 895c 153a 539d 923a df16 3d3b 09ee b33b
00000040: 37b2 2d38 4b63 3d39 8b1e 083d d390 8b3d
00000050: b7f8 c239 410f 323a 29d0 963b 6436 1a3c
00000060: 198b 3e3d 9cd2 bc3d 2a9a 833b e118 0d3c
00000070: 6576 623b 4144 f33b fe99 153b 82c5 983b
00000080: 78fe 893b 62eb 0a3c 9029 423c 95b6 c93c
00000090: 67d9 5a3d ab87 dd3d 44af f33d d277 743e
000000a0: d160 053b 887e 903b 2e2b af3c dcdc 343d
000000b0: 6f71 f33c 4114 733d 173e 5737 32e2 5138
000000c0: cc67 c836 c828 3c37 c03c 833a 536a 003b
000000d0: 922a 813c f567 033d 757a 2c3c 86b0 b63c
000000e0: 5c7d b63b fb2d 473c dc3d 483b 042a c53b
000000f0: 7194 723a 7de9 0d3b 02d4 6438 8810 0439
00000100: f3fc ab3d e544 2f3e 41fc dd3c 4ff2 643d
00000110: 4a12 343c 9f5e b03c bf60 4c3d e326 cd3d
00000120: 9c04 483a 224a d23a 85cc 2539 3fd9 ba39
00000130: 674a d13c 3dd9 533d b498 b93c 8cf3 403d

exp_avg f4 [40]
0.006739583 0.0037871911 -0.0062982296 -0.008298087 -0.0051775677 -0.0051674806 0.0014356476 -0.0048271837
-0.0013897091 0.012544229 0.0013719788 -0.0052120755 0.016150102 0.0050387084 -0.0038800642 -0.002925414
-0.004547691 -0.0071959477 0.018244825 0.025341755 0.0029819142 0.012319823 -0.012444173 0.0001801877
2.235026e-05 0.0027986907 0.010016643 -0.006758841 0.00500237 0.004141916 0.0023734784 0.0007047615
-0.021832313 0.0126167 0.006899032 0.016749196 0.0011498686 -0.0015759884 -0.011502333 0.0100441715
00000000: b8d7 dc3b 8632 783b 6161 cebb b3f4 07bc
00000010: 96a8 a9bb f853 a9bb 572c bc3a 5a2d 9ebb
00000020: e626 b6ba 4f86 4d3c f8d3 b33a 0fca aabb
00000030: 384d 843c c01b a53b ad48 7ebb 4db8 3fbb
00000040: cc04 95bb fccb ebbb 2c76 953c 8399 cf3c
00000050: 386c 433b 15d9 493c a5e2 4bbc c4f0 3c39
00000060: d17c bb37 3d6a 373b d91c 243c 4579 ddbb
00000070: ecea a33b e9b8 873b 5c8c 1b3b bebf 383a
00000080: aed9 b2bc 46b6 4e3c 4611 e23b 9c35 893c
00000090: 30b7 963a 6591 ceba 4874 3cbc 4f90 243c

exp_avg_sq f4 [40]
0.017389966 0.0019116779 0.013310733 0.02510409 0.011417282 0.0107189715 0.0011327785 0.0056026937
0.00018311093 0.07005535 0.0006994762 0.009648655 0.09446128 0.0088172825 0.007657329 0.0047137444
0.008763003 0.025421493 0.111025006 0.24479595 0.0045496426 0.045298897 0.060955934 5.7896985e-05
1.3453954e-05 0.0019926901 0.03295023 0.022952568 0.012542755 0.006141127 0.00222212 0.00014977065
0.17569342 0.057394996 0.021990035 0.10271713 0.001644275 0.00037922402 0.052845173 0.04832019
00000000: 6775 8e3c 4491 fa3a 4315 5a3c 18a7 cd3c
00000010: 8d0f 3b3c a09e 2f3c bd79 943a cd96 b73b
00000020: 7701 4039 2e79 8f3d 0e5d 373a 6415 1e3c
00000030: ea74 c13d 5d76 103c 55ea fa3b c175 9a3b
00000040: b392 0f3c bc40 d03c 1461 e33d caab 7a3e
00000050: 2b15 953b 568b 393d eeac 793d 6ad6 7238
00000060: 4bb8 6137 cb97 023b d2f6 063d 0607 bc3c
00000070: 2180 4d3c 823b c93b fda0 113b c10b 1d39
00000080: fae8 333e 0417 6b3d 7224 b43c 5c5d d23d
00000090: b784 d73a 96d2 c639 2e74 583d 64eb 453d

exp_avg f4 [40, 40]
-0.00022935614 6.0580187e-05 5.973882e-05 0.0003785954 0.00073878566 0.0003191074 -0.00080152374 4.6267054e-05
-0.00012871952 -0.00014873684 0.00036478665 0.00035765165 -0.00021005081 -0.00021184575 0.00062052114 -0.00027650985
-0.00078177627 0.00011793138 -0.0001704533 -0.0001330515 0.001746654 -0.00015848939 0.00037321603 -0.00060244714
0.00037183706 -0.00021609427 -0.00022435522 0.00063371006 0.001470356 -0.00035380077 -0.00044616035 0.00013446671
-0.0001973943 -0.00014771784 -0.0005576378 -0.00013768532 -0.0004679712 -0.0002082558 2.9106639e-05 -0.00046242995
9.5120486e-05 -8.300731e-05 0.00011357073 -0.00015035368 -0.00022465819 4.6220393e-05 0.00013458917 -0.00020934868
1.8355515e-05 -2.1350968e-05 -6.5524864e-06 -3.1437467e-05 -2.2705608e-05 -5.774679e-05 -0.00015478641 -7.8936886e-05
-2.2676633e-05 1.4552018e-05 -3.929472e-05 4.640832e-05 -0.00018458959 -6.9967355e-05 -0.00012251255 0.00013213468
-0.00010679376 -6.4984895e-05 -6.4154716e-05 -0.00015768684 -0.00019108609 6.716249e-05 4.9383285e-05 -3.709861e-05
2.6206015e-05 -8.278909e-06 5.410148e-05 1.673596e-05 8.85495e-05 0.00013178521 -0.00013063267 0.0001393341
0.0015105006 -0.00081135996 0.0005183713 -0.0024123734 -0.0043511 -0.0010256062 0.0041463464 -0.0014240546
0.00067202456 0.00044997982 -0.0016456936 -0.0015894005 0.00061805994 0.0005070524 -0.0035324956 0.00071501156
0.0031941591 -0.0003529331 0.00035170905 0.0006495666 -0.008710466 0.00017127942 -0.0021315143 0.003322066
-0.0021964582 0.00046812452 0.0004857385 -0.0035594618 -0.007531385 0.0018189545 0.0022218444 -0.0008135853
0.0011568003 0.00052106666 0.0025925501 0.000578582 0.0024743865 0.0016860943 -0.00082925236 0.002610114
0.00023556536 -0.00015673561 0.00014306021 -0.00036901975 -0.0006448975 -9.162078e-05 0.0005782396 -0.00029038114
9.627991e-05 3.471722e-05 -0.00021534874 -0.00019596913 4.2119344e-05 2.1908832e-05 -0.00051942247 4.514677e-05
0.00038275297 -2.5657479e-05 -6.709178e-08 7.760967e-05 -0.0012068205 -3.184966e-05 -0.00030490328 0.000481172
-0.0003288534 1.0946744e-05 1.0284899e-05 -0.0005174661 -0.0010588133 0.00024957894 0.00030638807 -0.00012503641
0.00018201035 5.0554034e-05 0.00033531574 6.468125e-05 0.00034905135 0.0002858788 -0.00016546184 0.0003733817
-0.00043322123 0.00021964552 -0.00012056701 0.0006946678 0.001265028 0.00032696943 -0.0012231333 0.00037497256
-0.00019750629 -0.00014537225 0.0004941731 0.0004791472 -0.00020086896 -0.00017265948 0.0010300294 -0.00023847849
-0.0009748129 0.00011435816 -0.00012471277 -0.00019372767 0.0025813438 -7.602451e-05 0.0006215536 -0.0009720088
0.0006372295 -0.000163582 -0.00016977334 0.0010396503 0.002224928 -0.0005371665 -0.00065849005 0.00023503728
-0.0003351911 -0.00016339471 -0.00077599153 -0.00017624417 -0.00072779116 -0.0004736564 0.00021872796 -0.00076209725
-8.9536676e-05 5.4192766e-05 -3.0232699e-05 0.00013565578 0.00026448027 8.173594e-05 -0.00028078308 5.5909626e-05
-5.08749e-05 -3.0366267e-05 0.00013761445 9.500957e-05 -2.8208477e-05 -4.498897e-05 0.00023463601 -7.757676e-05
-0.00025785324 1.9856709e-05 -1.1562054e-05 -4.033214e-06 0.0006717879 -1.4953346e-05 0.000103303515 -0.00022359865
0.00014231942 -4.120522e-05 -3.820824e-05 0.0002274611 0.00057110575 -0.00011044939 -0.00016784726 5.849483e-05
-0.00011415053 -3.2279153e-05 -0.00017137607 -2.1603719e-05 -0.00016450357 -0.000102863385 1.9503117e-05 -0.00013669075
2.8576234e-05 -3.4820337e-07 -2.9130768e-05 -4.5688765e-05 -0.00010612077 -7.448691e-05 0.00014184417 3.2656873e-05
2.4925306e-05 3.281115e-05 -8.105204e-05 -6.308692e-05 4.0577932e-05 5.4062286e-05 -0.00010127162 7.600451e-05
00000000: 527f 70b9 7b17 7e38 1290 7a38 377e c639
00000010: 11ab 413a df4d a739 591d 52ba df0e 4238
00000020: e2f8 06b9 3ef6 1bb9 d640 bf39 3183 bb39
00000030: 1641 5cb9 e922 5eb9 78aa 223a 86f8 90b9
00000040: 1ef0 4cba ed51 f738 b6bb 32b9 bd83 0bb9
00000050: fcef e43a 2c30 26b9 35ac c339 8bed 1dba
00000060: 20f3 c239 5d97 62b9 e540 6bb9 901f 263a
00000070: f6b8 c03a 567e b9b9 a1ea e9b9 a2ff 0c39
00000080: a1fb 4eb9 b5e4 1ab9 702e 12ba 9f5f 10b9
00000090: 085a f5b9 3e5f 5ab9 082a f437 4c72 f2b9
000000a0: 6c7b c738 3614 aeb8 d22c ee38 42a8 1db9
000000b0: 3992 6bb9 c5dc 4138 8120 0d39 9c84 5bb9
000000c0: 2bfa 9937 db1a b3b7 6edd dbb6 b9db 03b8
000000d0: ec77 beb7 2535 72b8 294e 22b9 eb8a a5b8
000000e0: b339 beb7 7124 7437 62d0 24b8 8ea6 4238
000000f0: 648e 41b9 70bb 92b8 b676 00b9 a28d 0a39
00000100: 77f6 dfb8 8048 88b8 cd8a 86b8 bd58 25b9
00000110: 485e 48b9 96d9 8c38 e620 4f38 549a 1bb8
00000120: fdd4 db37 a5e5 0ab7 06eb 6238 3364 8c37
00000130: a7b3 b938 d32f 0a39 71fa 08b9 361a 1239
00000140: fdfb c53a 72b1 54ba 4fe3 073a e918 1ebb
00000150: ac93 8ebb a26d 86ba 13de 873b 58a7 baba
00000160: ce2a 303a 45eb eb39 50b4 d7ba 6e53 d0ba
00000170: 4d05 223a b6eb 043a 7181 67bb 9d6f 3b3a
00000180: 1955 513b e109 b9b9 9765 b839 ad47 2a3a
00000190: 58b6 0ebc 7899 3339 e0b0 0bbb 05b7 593b
000001a0: 74f2 0fbb 9c6e f539 b8aa fe39 dc45 69bb
000001b0: d6c9 f6bb fc69 ee3a 5d9c 113b c946 55ba
000001c0: c79f 973a 3198 083a c6e7 293b fbab 173a
000001d0: 5129 223b f0ff dc3a 2f62 59ba 720e 2b3b
000001e0: 1802 7739 6559 24b9 6f02 1639 fe78 c1b9
000001f0: 570e 29ba 8824 c0b8 0195 173a 4c3e 98b9
00000200: e2e9 c938 559d 1138 3dcf 61b9 107d 4db9
00000210: 4da9 3038 dcc8 b737 da29 08ba fa5b 3d38
00000220: 3cac c839 043b d7b7 1914 90b3 60c2 a238
00000230: 2d2e 9eba 5096 05b8 6ddb 9fb9 d045 fc39
00000240: f569 acb9 e8a7 3737 4e8d 2c37 90a6 07ba
00000250: e1c7 8aba ebd9 8239 b6a2 a039 351c 03b9
00000260: 08da 3e39 fb09 5438 51cd af39 7ba5 8738
00000270: e100 b739 01e2 9539 d37f 2db9 72c2 c339
00000280: f821 e3b9 a550 6639 ecd8 fcb8 5e1a 363a
00000290: 4ccf a53a 186d ab39 8b51 a0ba f797 c439
000002a0: b119 4fb9 116f 18b9 658b 013a 0c36 fb39
000002b0: 5aa0 52b9 ed0b 35b9 0d02 873a 1510 7ab9
000002c0: 968a 7fba 92d3 ef38 54c5 02b9 6023 4bb9
000002d0: c32b 293b 596f 9fb8 c2ef 223a 68ce 7eba
000002e0: bf0b 273a 3587 2bb9 2f05 32b9 e044 883a
000002f0: 19d0 113b a2d0 0cba 859e 2cba 5774 7639
00000300: 96bc afb9 ef54 2bb9 e96b 4bba 2fce 38b9
00000310: 3dc9 3eba 1655 f8b9 575a 6539 7bc7 47ba
00000320: a3c5 bbb8 0a4d 6338 3a9c fdb7 d23e 0e39
00000330: f1a9 8a39 a669 ab38 1136 93b9 8180 6a38
00000340: 8262 55b8 10bb feb7 994c 1039 e03f c738
00000350: 3ea1 ecb7 8ab2 3cb8 a008 7639 b5b0 a2b8
00000360: 7a30 87b9 f591 a637 a5fa 41b7 0b55 87b6
00000370: ec1a 303a 22e0 7ab7 a7a4 d838 ce75 6ab9
00000380: 943b 1539 c5d3 2cb8 c941 20b8 a082 6e39
00000390: 42b6 153a 11a1 e7b8 2800 30b9 5858 7538
000003a0: 1964 efb8 7a63 07b8 6ab3 33b9 a239 b5b7
000003b0: 977e 2cb9 5cb8 d7b8 a09a a337 a554 0fb9
000003c0: ffb6 ef37 b5f0 bab4 d95d f4b7 f0a1 3fb8
000003d0: 288d deb8 db35 9cb8 01bc 1439 0df9 0838
000003e0: b016 d137 b49e 0938 7cfa a9b8 884d 84b8
000003f0: 3932 2a38 f0c0 6238 c961 d4b8 9c64 9f38
