Lid_Driven_Re100/saved_models/RA-7000.pt (torch, 94805 bytes, 36 tensors)

linears.0.weight f4 [40, 2]
000000 b8 9c 41 be 1a 6b 34 bd d3 7d 6b 3e ea 92 e4 bd
       -0.1890744 -0.044047453 0.22997217 -0.11160834
000010 04 96 a8 be d8 c1 8e 3e 56 ec 8f 3e 05 03 17 3e
       -0.32926953 0.27882266 0.28109998 0.14747246
000020 f1 48 db 3e 5e d5 99 3e 14 f0 44 be 59 ad 8f 3e
       0.42829087 0.300456 -0.19232208 0.2806194
000030 b6 fd 5f be e8 76 cc be a0 14 ca 3e f9 c8 3e be
       -0.21874127 -0.39934468 0.3946886 -0.18631352
000040 54 3a 49 bd bb e4 22 bd 16 f5 d1 3d b4 2a 2d be
       -0.04912789 -0.039768916 0.102518246 -0.16910821
000050 d1 a0 52 ba 69 3e ec 3d 8f f0 42 3c 7d c9 9f 3e
       -0.0008034828 0.11535341 0.011898174 0.3120841
000060 62 bd 13 3e 8e dd a5 be 03 6b 49 3e 55 f1 6c be
       0.14427713 -0.32395595 0.19669728 -0.23138936
000070 b1 25 91 3e 50 23 21 3e b1 f7 4a 3e 80 17 5e be
       0.2834907 0.15736127 0.1982105 -0.21688652
000080 a7 fd 5e 3e 56 f1 d7 be ff 39 8e bd b1 92 25 3e
       0.21776448 -0.42176312 -0.069446556 0.1616924
000090 db 77 31 3e 2b c8 a3 be 09 e4 11 bd 85 31 94 be
       0.17330877 -0.31988654 -0.035617862 -0.2894403
0000a0 3c 10 c7 3e 79 dd 21 3f a6 97 6f 3e c2 95 88 be
       0.38879573 0.63228565 0.23397693 -0.26676756
0000b0 7f c0 3d 3e 39 81 a0 3e f7 50 7d be dc 44 60 be
       0.18530463 0.3134859 -0.24737917 -0.21901268
0000c0 d9 64 8e 3e 0d af 27 3e c0 a1 29 3e 72 56 83 be
       0.27811316 0.1637537 0.16565609 -0.2565189
0000d0 c9 ab 6d 3e 12 01 96 be 52 f0 8a 3e 92 39 74 3e
       0.23210062 -0.29297692 0.27136475 0.23850086
0000e0 4a a4 c3 3e 7e 84 b9 3e 35 76 b1 bd 17 eb 62 be
       0.3821128 0.36233896 -0.08665124 -0.22159992
0000f0 44 ac 78 bd ca 23 e2 bd 12 65 b1 3d 96 9b 8d 3b
       -0.06071116 -0.110419825 0.08661856 0.004321526
000100 76 3a aa bd 5c 9c 2b 3e 27 f8 8b 3d dd 8c 22 be
       -0.08311932 0.16758865 0.06834441 -0.15874048
000110 9e 42 b0 3c 2c 9d bf be a5 00 84 3c 4d 9f 4b be
       0.02151614 -0.374246 0.016113589 -0.19884987
000120 7c 64 0c be 6f 02 43 be 69 2b a5 be e9 90 09 3d
       -0.13710207 -0.19043897 -0.32259682 0.033585463
000130 07 4c 92 3e e0 10 cc bc d6 fb 65 be 44 75 ae be
       0.2857363 -0.02491039 -0.22459349 -0.34073842

linears.0.bias f4 [40]
000000 c9 ba 87 3c 0d 51 a6 3d 18 f7 e9 bd 02 ef bc bd
       0.016568558 0.08120928 -0.114240825 -0.092252746
000010 73 eb fb bd 7c 8e 38 bd 81 b1 d9 bb a9 76 24 bd
       -0.12300768 -0.04505776 -0.0066434746 -0.040152226
000020 e0 69 10 bd 45 04 51 3d 73 e0 89 3d 89 9d ea bd
       -0.03525722 0.051029462 0.067322634 -0.11455829
000030 8e 11 25 3e ba ac 09 3d 14 25 d1 bb c9 28 bb bc
       0.16119978 0.03361199 -0.006382594 -0.022846596
000040 54 21 ee bc 18 45 5a bd 42 aa 28 3e c6 81 74 3e
       -0.029068626 -0.05328855 0.16471198 0.2387763
000050 e6 92 bc 3d 06 fc b3 3d 29 30 61 be a5 40 c2 ba
       0.09207706 0.08788304 -0.21991028 -0.0014820291
000060 db 2a 0d 3d ba 6a 29 3d 93 7f ad 3d a9 b8 86 bd
       0.0344647 0.041361548 0.084715985 -0.0657819
000070 ea 9e 18 3e ba ca 9e 3d 4d 17 9b bd 28 91 2f 3d
       0.14904371 0.07753511 -0.07572804 0.04286304
000080 7e bb 5f be be 39 51 3d 18 25 61 3d 53 22 ee 3d
       -0.21848866 0.051080458 0.054967016 0.116276406
000090 3f 31 d0 3c 28 57 d3 bc 1e 5c a6 bd a5 42 61 3e
       0.025414107 -0.025798395 -0.08123039 0.21998079

linears.1.weight f4 [40, 40]
000000 80 e0 1d be 0b 76 68 3c 12 c9 3e 3e d9 b5 2e be
       -0.15417671 0.0141883 0.1863139 -0.17061557
000010 17 c2 05 be 9a 97 dc 3d 8d 45 18 3c de 7e 7e be
       -0.1306232 0.10771103 0.009293926 -0.24853083
000020 7e b6 58 be a4 a2 c6 bc 57 3f 18 bd 2f 5c 4d 3e
       -0.21163365 -0.024247475 -0.03716978 0.20054697
000030 d0 35 2b 3e 0c a4 8f bd fe ee a6 bd ff 7d 5d ba
       0.16719747 -0.07013711 -0.08151053 -0.0008449256
000040 3b 6e 8d be 7a 69 6a 3e 55 8d 52 3d a7 32 dc 3c
       -0.27623162 0.22891799 0.051404316 0.026879622
000050 3b b5 58 3e 16 53 cd 3d 2a 51 1a be 6e 01 68 3e
       0.21162884 0.10025613 -0.15070024 0.22656795
000060 c5 24 37 be 6f bc 20 be ba 9d 90 bc 87 eb 03 be
       -0.1788512 -0.15696882 -0.017653335 -0.12882815
000070 9f 4f 6c be f1 1b d1 3d 05 0a 28 3d 3a 55 aa 3d
       -0.23077248 0.102104075 0.04102518 0.08317037
000080 fb d0 e3 3d 2b 03 91 bd 4a 58 9a 3c 83 9c 40 be
       0.11123844 -0.07080682 0.018840928 -0.18809704
000090 df b8 8c 3d 95 00 ff 3d ca 25 50 be 46 08 e3 bd
       0.06871199 0.12451283 -0.20326915 -0.110855624
0000a0 79 8c 6d 3d 5f 19 4a be 6c 12 84 be fc 99 a4 3c
       0.057995293 -0.19736241 -0.25795305 0.020092957
0000b0 7a 94 39 3e 17 24 06 3e 6b 2d 88 3d a0 fc 35 be
       0.18123046 0.13099705 0.06649288 -0.1777215
0000c0 24 65 7e be 7f f8 63 be 4d c0 3e 3e 95 bd 86 be
       -0.2484327 -0.22262762 0.18628044 -0.26316515
0000d0 50 42 af bd 9a ad 46 3e 30 f0 5c bd b0 eb 04 be
       -0.0855757 0.19402161 -0.05394 -0.12980533
0000e0 31 22 04 bd 31 61 bc bd f6 ea 5e bd 70 5f c4 bd
       -0.03225917 -0.09198225 -0.054423295 -0.09588516
0000f0 6f 59 c9 bd 92 f2 68 3e fb 48 3f bd da b5 15 3e
       -0.09831511 0.22748783 -0.04670046 0.14620152
000100 6e 41 5a 3d 96 7d 80 be df 5e 4c 3e 6b dd 46 3e
       0.053285055 -0.25095814 0.19958065 0.19420402
000110 9d 9d f8 bc f9 ec 8c be e3 35 73 be 97 fd 59 be
       -0.030348593 -0.27524546 -0.23751025 -0.21288143
000120 83 00 41 be 48 12 36 be 7f 50 7b be 54 b2 17 3d
       -0.18847851 -0.17780411 -0.24542426 0.0370353
000130 33 c2 0f be ba 95 6e be fe a9 1c 3e 7f ee 71 be
       -0.14038925 -0.23299304 0.15299222 -0.23626135
000140 7a 62 54 be f9 df 1d bd 93 dd eb 3b c3 e0 05 3e
       -0.20740691 -0.038543675 0.0071980446 0.13074021
000150 57 b4 6d bc b7 8f 9e 3e 93 35 84 3e 4d 66 fd 3d
       -0.014508328 0.3096902 0.25822124 0.12373028
000160 1a a5 98 bd 6e 95 bf bd 4b 18 9e 3d a6 f0 f5 3a
       -0.074533656 -0.09354673 0.07719477 0.0018763735
000170 ec 17 1d bd 28 ea 8e be 47 19 27 3e ac d4 02 3e
       -0.03835289 -0.27913022 0.16318236 0.1277644
000180 f4 f2 80 3e 2a ac 89 bd c7 2b 84 be ea a8 bb bd
       0.2518536 -0.06722291 -0.2581465 -0.09163077
000190 f1 2a a9 be 6c 95 50 be dd e0 f4 3d e7 84 02 be
       -0.33040574 -0.203695 0.11956952 -0.1274601
0001a0 bd 4b 02 3e 19 7b 83 be b3 90 0c be 19 81 78 3e
       0.12724204 -0.25679854 -0.13727073 0.24267997
0001b0 fa 25 bf bd 5c 86 20 be 4c af 92 be 61 1e d6 3d
       -0.09333415 -0.15676254 -0.28649366 0.10455013
0001c0 ce ef 17 3d f2 0f b3 be 10 83 23 be bd 84 9f be
       0.03709393 -0.34973103 -0.15967965 -0.3115596
0001d0 16 f2 3f 3e 26 f1 23 3c 13 91 20 3e 7a 51 0d 3c
       0.18744692 0.010006225 0.15680341 0.008625383
0001e0 b1 bb 65 3d 12 7f 9a 3e a9 f0 d1 ba 34 73 9c bd
       0.0560872 0.30175072 -0.0016017157 -0.07639161
0001f0 da 07 b4 bd 11 bb 14 be 97 01 96 bd 4f b3 38 be
       -0.0879056 -0.14524485 -0.07324522 -0.18037151
000200 98 9e 8b bd 77 d6 8e be d0 3e 75 3e 62 6d 96 3e
       -0.06817359 -0.27898 0.23949742 0.29380327
000210 14 95 e8 3d d8 bb bc bc 7e 3b 4f 3e b9 e3 90 3e
       0.113565594 -0.02303879 0.20237538 0.2829874
000220 8b 00 00 3e 15 5b 1d 3e 82 e1 50 3d 72 c4 aa be
       0.12500207 0.15366776 0.05099631 -0.33353
000230 8d 76 a8 bc 42 0b a9 bd 7f 68 85 3e 45 d2 0c be
       -0.020564342 -0.082541004 0.26056287 -0.13752086
000240 89 45 9a 3d 7f a0 5c be 41 d1 15 3c eb 73 f6 3d
       0.07532794 -0.215456 0.009144128 0.12033828
000250 0b 54 0d be 31 eb 7a 3b 50 1b ff 3d dd 08 85 3e
       -0.13801591 0.0038287158 0.12456381 0.25983325
000260 02 15 a0 bd ba 8c 0f be 86 4b 08 be 78 13 01 be
       -0.07816507 -0.14018527 -0.1331006 -0.12605083
000270 b9 66 75 3d 97 1b 97 3d ff 1c 8a 3e a6 54 85 be
       0.059912417 0.07378309 0.26975247 -0.26041144
000280 8b 4f 2b be a2 d4 be 3d 2f a0 f8 3d 9a f0 7f be
       -0.16729562 0.093179 0.121399276 -0.24994126
000290 0a a8 41 3d 57 bc a4 bc 74 18 62 3e 52 99 57 3d
       0.047279395 -0.020109339 0.2207964 0.052636452
0002a0 ed 53 76 3c 16 be e6 bd 91 80 63 be 84 3c 2a be
       0.015034658 -0.11266725 -0.22217013 -0.16624647
0002b0 cb eb 58 3e 1a 61 0c be 67 b3 63 be a4 e0 bb 3d
       0.21183698 -0.13708916 -0.22236405 0.09173706
0002c0 7d 9b 27 be e1 9d 84 be e5 c1 75 3e 50 a0 86 3e
       -0.16367908 -0.25901702 0.23999746 0.26294184
0002d0 2e fb 32 3e ba 9b 14 be 1a f4 8e bd b9 c1 21 3d
       0.1747863 -0.1451253 -0.069801524 0.03949139
0002e0 71 ef 27 be 33 f1 c4 3a a1 27 d6 3d d2 0f ea 3d
       -0.16399933 0.0015025496 0.10456777 0.11428799
0002f0 ab 12 04 bd 83 c1 96 bc ad 1b 2a 3d 9b 45 02 3c
       -0.032244366 -0.01840282 0.0415303 0.007951166
000300 30 c0 25 be 4a 06 3f be d7 90 7c be b6 cb 77 3e
       -0.16186595 -0.18654743 -0.24664627 0.24198803
000310 ac 54 5a 3e 71 ac b5 bd 39 0b 14 3c ec 81 5a 3d
       0.21321362 -0.08870781 0.009035879 0.05334656
000320 ce a8 81 3d cb 05 35 3e 94 a2 56 be 26 08 88 be
       0.06331025 0.17677991 -0.20960456 -0.26568717
000330 3c dc c8 3b 06 6e 86 3e b5 bc b8 bd 5b 7b 85 be
       0.0061297696 0.26255816 -0.09020368 -0.26070675
000340 df 51 7b 3d 0e 5e 63 3e 74 57 65 3e 4f 6a ec bb
       0.061357375 0.22203848 0.22396642 -0.0072148214
000350 ca 2a 25 be 3b 1c e4 bd 92 2f 6f 3e f0 50 ce bd
       -0.16129604 -0.11138197 0.2335799 -0.10074031
000360 1c db 71 be 23 38 5e 3d bb 29 cf 3d 58 91 3e 3e
       -0.2361874 0.054252755 0.10115381 0.18610132
000370 6e 0a 0c be 3c fe 36 3e 9f 28 2c 3e 76 fc 36 be
       -0.13675854 0.1787042 0.1681237 -0.17869744
000380 13 36 e2 bd c8 41 88 be 1d a8 1a 3b ef b4 1a 3e
       -0.1104547 -0.26612687 0.0023598738 0.15108083
000390 e8 4f 9e bd 12 de 43 be 3b 1c 21 be 05 6c 00 be
       -0.07730085 -0.19127682 -0.15733425 -0.12541206
0003a0 b3 2f c0 3d 53 d4 7a bd a6 51 35 3e c6 c6 5d 3d
       0.09384098 -0.061237644 0.17706928 0.054144643
0003b0 ca 90 dc 3d f1 61 44 be 14 4e 31 be c5 3a 0a 3e
       0.10769804 -0.19177987 -0.1731494 0.13498981
0003c0 e4 37 6c bd d3 c2 d8 3c dd bb 45 3e ac 68 9c be
       -0.05767049 0.026460087 0.19309945 -0.30548608
0003d0 18 8b 3b bd 4a 71 5b be b9 18 98 bc 0f eb 3a be
       -0.045786947 -0.21429935 -0.018566476 -0.1825373
0003e0 21 9a 32 bd fb b3 54 3e b7 bb ec bd 8c 3a 5f 3e
       -0.04360402 0.20771782 -0.11559241 0.21799678
0003f0 1e ea 87 3e d7 21 82 3e cd b4 75 bd b0 aa 56 ba
       0.26545805 0.25416443 -0.05998688 -0.00081888866

linears.1.bias f4 [40]
000000 0e f7 7e bc 49 f1 a1 ba 22 dd 16 bd 5b 9c ba bc
       -0.015561832 -0.0012355234 -0.036831982 -0.022779634
000010 c9 5c f0 3c f4 3d 2e 3c f2 44 a4 bb 0f 2b 6c bd
       0.029341118 0.010634888 -0.0050131017 -0.05765825
000020 71 b5 84 3d 35 f1 20 3e 54 5f 5b 3c 51 be 03 bb
       0.0647992 0.15717013 0.013389427 -0.002010245
000030 3a 9c 7e b9 a3 be a2 3b 38 79 07 be 45 93 09 bd
       -0.00024281527 0.0049665733 -0.13229835 -0.033587713
000040 a3 13 e1 39 59 fa 24 3d 93 75 e3 bd 64 df dd 3c
       0.00042929975 0.040277813 -0.1110641 0.02708406
000050 6c b8 93 bc 3f c5 0c bc e2 e1 e0 3c 8f 8b b4 bc
       -0.018032275 -0.008591949 0.02745146 -0.022039203
000060 cd 3a f1 3d 9a b4 dc bc df d3 c6 3b 99 fe c7 bc
       0.117787935 -0.026941586 0.0060677375 -0.024413394
000070 84 5d df b8 51 8b 6d 3d 1a 4a 03 be 7b 20 86 3d
       -0.00010650887 0.05799419 -0.12821236 0.06549164
000080 ac 73 9b bc 48 dd ee bd 73 78 24 bd f5 71 24 bd
       -0.018976055 -0.116633 -0.04015393 -0.04014774
000090 7b c7 ad 3c 61 30 a7 3c 77 59 34 bd b2 b7 88 3c
       0.021213284 0.020408811 -0.044030633 0.016689155

linears.2.weight f4 [40, 40]
000000 88 cc 40 be 7e 10 7b be 84 80 37 3e f8 2e 1d 3e
       -0.18828022 -0.2451801 0.17920119 0.15349948
000010 0e fc d0 3d 48 9a e1 3d 1a 10 cf 3d 53 af 91 be
       0.102043256 0.11015755 0.10110493 -0.28454074
000020 5d c7 3f 3e 0c 4b 8c 3e 88 40 12 be 57 3e d7 3c
       0.18728395 0.27401006 -0.14282429 0.026274843
000030 ff 8b a2 3c ae 5d 30 be 35 18 5a bd 69 fe eb bd
       0.019842146 -0.17223236 -0.053245742 -0.11523134
000040 79 0f 6b 3e d7 9f df bc 5d 6a b1 bd 06 af 03 be
       0.22955121 -0.027297897 -0.08662865 -0.12859735
000050 9a 60 33 3e 2d 4b 3c 3e 2f d5 65 3e 16 fb 58 be
       0.1751732 0.18388052 0.22444604 -0.21189532
000060 bf 64 d5 bd a1 06 0b 3d 62 1a 53 3e 6c 99 38 be
       -0.104196064 0.03394187 0.20615533 -0.18027276
000070 82 84 85 3e 32 fa 81 be 6f 43 5f be 75 d9 9c bd
       0.26077658 -0.25386196 -0.21803068 -0.07658664
000080 cf 34 b7 bd 17 1e 4f bd 4a 54 ae be 56 30 97 be
       -0.08945619 -0.050565805 -0.34048682 -0.29529065
000090 87 90 06 3e cc 48 fd bd 8d ca 67 be af ad a6 bd
       0.1314107 -0.123674005 -0.2263586 -0.08138596
0000a0 ca 5b 9a 3e df 2a 5c be 61 1b ef bd 72 1b 35 3e
       0.30148154 -0.21500729 -0.11675144 0.17686251
0000b0 b9 b0 c0 3c 1c ef 59 bd de c4 5b 3e 1e 81 85 bd
       0.023521768 -0.053206548 0.21461818 -0.06518768
0000c0 b6 66 87 3e 57 c7 27 be 99 68 e8 3c 3d b4 1b be
       0.2644555 -0.16384636 0.028370189 -0.15205474
0000d0 b1 d2 d6 bd b2 b5 84 3c 4f 7f 2a 3e ac 50 91 3e
       -0.10489405 0.01619992 0.16650127 0.2838186
0000e0 28 25 6b be 38 15 41 3e a9 0d 18 be dc 78 64 3e
       -0.22963393 0.1885575 -0.14848961 0.22311729
0000f0 f7 08 c5 3d 8b 75 c5 be c8 32 6b be 70 43 a7 bc
       0.096208505 -0.3856624 -0.2296859 -0.020417899
000100 9a 21 6d bd 5c 77 1d 3d 31 33 1a be 72 cf 5f bc
       -0.057893373 0.038443908 -0.1505859 -0.013660299
000110 72 dc 6a be 50 e8 f6 bd 3e 23 cd bd 60 94 8b 3e
       -0.22935656 -0.12056029 -0.100164875 0.2726164
000120 e5 a7 d1 3d 63 80 f9 bc 11 e4 ad bd 1b d8 a5 3e
       0.102371015 -0.030456727 -0.08490766 0.32391438
000130 d2 3c 2b bd 85 14 43 3e ec 8d ac bd e1 30 3b be
       -0.04180605 0.19050796 -0.08425507 -0.18280365
000140 a7 e3 93 be 11 98 ba 3d bb ef 7b 3e 83 af 37 3e
       -0.28884622 0.091110356 0.24603169 0.17938046
000150 47 ba 5c be 00 5b 53 be 24 26 3d be 0b c1 00 be
       -0.21555434 -0.20640182 -0.1847158 -0.1257364
000160 0b ed 6a be 41 5e ef 3d 98 fe 50 be 6d d0 b9 3d
       -0.22941987 0.116878994 -0.2040962 0.09072957
000170 70 24 db 3d 44 25 75 3d 91 95 71 bd 4e 10 86 be
       0.10700309 0.059849992 -0.05898053 -0.26184314
000180 4c c2 1f be af 24 71 be 82 18 0a bd f0 35 81 bd
       -0.15601462 -0.2354915 -0.03371478 -0.06309116
000190 c7 0d 6c 3c 73 ed 85 bd 48 df 39 be 14 1c 51 be
       0.014407582 -0.065394305 -0.18151581 -0.20420867
0001a0 c6 20 2e 3e 2f 30 2f 3d 8e ae 13 be b5 62 3b 3e
       0.1700469 0.04277056 -0.14422056 0.18299372
0001b0 3f 9d 87 bd 75 65 7c bd 03 4b 95 be c7 d7 e7 bd
       -0.06621789 -0.061620194 -0.29158792 -0.11320453
0001c0 a6 f0 df bd 5c 78 88 bd 1e 80 39 3b 63 cb 80 be
       -0.10934572 -0.06663582 0.0028305124 -0.25155172
0001d0 fa 30 a3 bd 14 e6 19 3e 0e ce be bd 94 03 2b bb
       -0.07968326 0.15029174 -0.093166456 -0.0026094662
0001e0 49 72 c5 bc ed 3b 1c 3e ab 2a 9b 3e f4 93 05 bd
       -0.024102347 0.15257235 0.3030599 -0.032611802
0001f0 3b 57 63 be eb 76 1d bd 64 62 8d bd f3 3b 9c 3e
       -0.22201245 -0.038443487 -0.06903532 0.30514488
000200 be 4b 56 be 4a 45 a4 bd 6f 65 e2 3d b8 4d 21 3e
       -0.20927331 -0.08021028 0.11054503 0.15752304
000210 bb 05 9d bd a5 06 70 bc e7 fa 32 3e 7b 73 fa 3c
       -0.076671086 -0.014650022 0.17478524 0.030572644
000220 47 09 db 3d d9 9d 39 bc 11 91 12 3e 55 8a b1 bc
       0.10695129 -0.011329138 0.14313151 -0.021672407
000230 97 2d d5 bd 0c bf 81 be 1d c4 de bd ca 53 38 3e
       -0.10409086 -0.2534107 -0.108772494 0.18000713
000240 2b 08 56 3d 2d c2 8a bd af 9a 84 be dc da 04 3e
       0.052253883 -0.06775317 -0.25899264 0.12974113
000250 e5 1f e8 bc a1 be 07 be 60 5d 96 3e 2c 12 62 bd
       -0.028335521 -0.13256313 0.29368114 -0.05519311
000260 fb 6a 80 3e 82 0a 59 3e f5 2f d2 bc e2 3e 48 3e
       0.2508162 0.21195415 -0.025657633 0.19555238
000270 4c 44 60 bd 27 6d e0 3d af b9 12 3f 3c e9 fc bd
       -0.054752633 0.10958319 0.5731458 -0.123491734
000280 4c ae 2f be f3 8f 56 be 76 df ec 3d fe eb b2 3c
       -0.17156333 -0.2095335 0.11566059 0.021841045
000290 9b a5 2b be 1c dc 20 3e cb ef 32 3c 8b 14 42 3e
       -0.16762392 0.15708965 0.010921429 0.18953149
0002a0 d0 31 2a 3e 9e c1 ae bd 56 3f 70 be 13 36 a3 bd
       0.16620564 -0.08533023 -0.2346166 -0.07969298
0002b0 f4 f7 85 bd bb 85 14 3e ef a1 3d be f9 59 08 be
       -0.06541434 0.14504139 -0.18518804 -0.13315572
0002c0 55 65 82 3e e0 1d a4 bd 5c e3 13 3e 20 e4 6e be
       0.25467935 -0.08013511 0.144422 -0.2332921
0002d0 0a 3a 7f 3e 74 69 87 be 14 16 dc 3c 45 31 f3 3c
       0.24924484 -0.26447642 0.026865996 0.02968658
0002e0 69 2e a8 3d bc 69 dc 3d f4 39 3d be 2e 2f d9 3d
       0.08211977 0.10762355 -0.18479139 0.10604702
0002f0 dc b3 59 3e cf 4d 68 3d f1 b1 31 3e f4 d4 38 bd
       0.21260017 0.05671483 0.17353036 -0.045124963
000300 28 43 f2 bc e0 bc 81 be 38 26 fa bd 13 79 e6 3b
       -0.029573038 -0.25339413 -0.12214321 0.007033476
000310 04 26 0d bd 07 c0 96 be f3 60 af be 6a d7 b5 bc
       -0.034460083 -0.2944338 -0.34253654 -0.022197444
000320 47 0f aa 3d 37 d5 40 be b2 ce b1 3d e1 cf a6 bd
       0.08303695 -0.18831335 0.08682002 -0.081451185
000330 aa f0 e0 bd 32 82 e2 38 5e 05 07 3e df c8 82 3c
       -0.10983403 0.000108007705 0.13185641 0.015964923
000340 9c 6a 07 be 1a b7 7c be 46 2e 36 3e 94 c5 f6 3d
       -0.13224262 -0.24679223 0.1779109 0.12049404
000350 be a0 0d be b4 29 6b bd 4e e1 ab bd 20 af 8c 3e
       -0.1383085 -0.057412818 -0.08392583 0.2747736
000360 0b f7 14 be 9d 8c 74 3e 08 e9 2e 3e 67 5a a9 3d
       -0.14547364 0.23881765 0.17081082 0.08269196
000370 16 b7 fc bd cc 87 54 3d b0 92 77 be d9 19 70 3d
       -0.12339608 0.05188732 -0.2417705 0.0586184
000380 ef 50 a0 3e 3b 72 2a 3b 96 4b bd bb f2 16 70 be
       0.31311747 0.0026008028 -0.005776833 -0.23446253
000390 8c 2b 49 bd 3f d4 82 be 5e 09 45 be 9d 25 51 3e
       -0.049113795 -0.25552556 -0.19241855 0.20424505
0003a0 de 36 8c 3e 1b a3 ee bd df 34 6d bd 41 a3 d2 3c
       0.2738561 -0.11652204 -0.05791175 0.025712611
0003b0 28 ce 38 3e 49 65 3c be cd cc df bb 5d 37 10 be
       0.18047392 -0.18398012 -0.006829834 -0.1408362
0003c0 d5 41 6b 3d 7b 29 42 3e 2d df 17 3e 1b 09 35 3c
       0.05743583 0.18961136 0.14831229 0.011049534
0003d0 09 b6 7e be b5 24 9b 3d 5a 34 10 be dc b1 ef bd
       -0.24874128 0.07575361 -0.1408247 -0.11703846
0003e0 f9 3b 5a 3b 31 00 6e 3e dc b3 d4 3d 9d eb 07 be
       0.0033299907 0.2324226 0.10385868 -0.13273473
0003f0 06 3c 27 3e 88 59 b9 bd d7 be 1a be 2b 77 7f be
       0.16331491 -0.0905028 -0.15111862 -0.24947803

linears.2.bias f4 [40]
000000 21 b8 73 3c b2 8f cf bb 50 93 0c bd e3 f7 c8 bc
       0.014875443 -0.0063342685 -0.034320176 -0.024532264
000010 ed 22 3b 3d b5 43 7c bb 8a a5 13 3d 08 bc 15 bd
       0.045687605 -0.0038492505 0.036046542 -0.036556274
000020 5d 50 20 bc 30 ab 0a bd bc 3c 1e 3c 70 a7 3c 3b
       -0.009784785 -0.033854663 0.009658035 0.0028786324
000030 25 60 de bc 4c 62 d9 bc 19 34 e2 bb 74 20 d9 bc
       -0.027145455 -0.02653613 -0.006903183 -0.026504733
000040 9b 97 8d 3d 54 bf f4 bc ce 5c b7 3c 84 c6 27 3d
       0.06913682 -0.029876389 0.02238312 0.040960804
000050 34 ef 51 3c da ae 91 bd 56 77 22 bd 74 7a 9a 3d
       0.012813378 -0.071134284 -0.03966459 0.07542887
000060 fa 6f e9 3b 69 71 6a bb d9 a1 c0 3c 9d 0f 20 3d
       0.0071239443 -0.0035773164 0.023514675 0.03907739
000070 6e 8c 61 bb 56 d2 fd 3d a6 d9 aa 3c 4e 1a 57 bd
       -0.0034415978 0.12393634 0.020855736 -0.05251532
000080 93 43 84 3c 38 5f 08 bd cf 00 cb 3c f0 99 51 3c
       0.016145503 -0.033293933 0.024780659 0.012793049
000090 04 07 68 3c 72 e2 08 bd 8a 20 dd bc 4b 67 60 bb
       0.014161829 -0.03341908 -0.026993055 -0.0034241255

linears.3.weight f4 [40, 40]
000000 ad 7d ee bd f2 e1 8d 3d 1b 31 4f 3e 14 f6 ff 3d
       -0.116450645 0.06927861 0.20233576 0.124981076
000010 e2 7b 3d be b2 05 bc 3d f7 65 c1 3d 91 5b f4 3d
       -0.18504289 0.09180774 0.094432764 0.119315274
000020 73 26 28 3e f7 77 d2 bd f9 a2 aa 3d c5 4b a6 3d
       0.16420917 -0.10276788 0.08331866 0.08119921
000030 fe f1 71 3e 3a da 59 3e d5 60 42 bd 40 f2 8d be
       0.23627469 0.21274653 -0.047455627 -0.27723885
000040 f2 fe 28 bd 19 f2 fb 3c ed 89 37 be 11 21 2f 3e
       -0.04125876 0.03075509 -0.17923708 0.17102458
000050 01 9f fd bd 7d 69 ea bd c0 20 75 3e fc be 8f be
       -0.12383843 -0.114459015 0.23938274 -0.28075397
000060 7b 79 78 3e 5e 74 09 3c ce 3c 66 be d8 e2 47 3e
       0.24265091 0.0083895605 -0.22484133 0.19520128
000070 d2 f4 fc bd 52 22 a3 3d d8 ae 35 3e 95 42 49 3e
       -0.12351383 0.079655305 0.17742479 0.19654305
000080 46 3e 52 3d 56 da 21 be bc c4 7e be 43 7f 8c 3e
       0.05132892 -0.15805945 -0.24879736 0.27440843
000090 ae a4 56 be d1 7b aa bd a2 f2 52 be cb db 9e be
       -0.20961258 -0.08324397 -0.2060037 -0.31027064
0000a0 ca a3 c0 bd 35 f4 23 3c d8 3e 37 3d 5f ae 55 bd
       -0.0940624 0.010006954 0.044737667 -0.052168246
0000b0 08 1d 31 3c 70 99 1a 3e 14 55 1d bd 04 a7 0a bd
       0.010810144 0.15097594 -0.038411215 -0.033850685
0000c0 3b 41 27 3e 72 d1 02 3e 0c 61 8d 3d 78 d4 ca 3c
       0.16333477 0.1277521 0.06903276 0.024759516
0000d0 b2 22 8e bd a6 aa ad 3e 79 cf 11 be 9a 0a 79 3e
       -0.06940211 0.33919257 -0.14239301 0.2432045
0000e0 ba 0c 13 3e ff 53 a8 bd 33 a6 c2 3d cb 43 45 3e
       0.14360324 -0.08219146 0.09504356 0.19264142
0000f0 c4 e2 6e be 8f 3f 2e be c1 ee 4a 3e a3 9b be 3d
       -0.23328692 -0.17016433 0.1981764 0.09307029
000100 7d b2 7c be 9a d8 a0 3e 11 98 25 bd 8f 90 c4 3d
       -0.24677463 0.31415254 -0.040428225 0.09597885
000110 25 6e 8a be 50 4b cb bd 3e 60 3a 3e 8c c4 7e be
       -0.2703716 -0.09926474 0.18200776 -0.24879664
000120 bd fa 18 3e d7 67 95 bc f2 94 e2 3c da 60 e5 3d
       0.14939399 -0.018237991 0.027658913 0.112001136
000130 b9 63 d4 3d 16 9c 84 3e 24 f6 1c 3e c9 a1 99 3e
       0.10370583 0.25900334 0.1532827 0.30006245
000140 02 9b 7c 3c 33 ef 49 be 7e 28 14 be fe a6 73 be
       0.015417816 -0.19720154 -0.14468572 -0.23794171
000150 99 ef 50 3b 9f cd aa 3c 51 72 86 be 2c 23 12 be
       0.0031881093 0.02085 -0.26259091 -0.1427123
000160 78 60 0f be 86 eb 82 ba ce 9e 17 3e 67 de f6 bd
       -0.14001644 -0.0009988404 0.14806673 -0.12054139
000170 3d fd 66 3e 9e 4c a3 3e 3c cc 32 3e b1 77 3e be
       0.2255754 0.31894392 0.17460722 -0.18600346
000180 3e b7 fe bd 4f 4e ad 3d 6e aa 1e be 3f 37 b7 3d
       -0.124372944 0.08462202 -0.15494701 0.08946084
000190 4c 5f 63 be 09 04 c7 be ee 76 37 be 4d 71 65 3e
       -0.22204322 -0.38870266 -0.17916462 0.22406502
0001a0 b2 3b 0d be e7 9b db 3e 81 1b 68 bd 51 18 49 be
       -0.13792303 0.42892382 -0.056666855 -0.19638182
0001b0 0b dc b8 bd de 7d 33 3e 7d bb 62 be 0f 1b 25 be
       -0.09026345 0.17528483 -0.22141834 -0.16123603
0001c0 2b 26 c1 bd 07 d9 f3 bd 3d 8c 05 bc 77 72 c0 bd
       -0.09431108 -0.11906629 -0.008151111 -0.093968324
0001d0 99 88 d6 3e 9e fb 26 3e 06 71 94 3e 92 77 0b 3e
       0.4190109 0.16306922 0.2899248 0.13619831
0001e0 e2 5f 6b 3e 48 17 2a 3e 4d 4e 80 3e 39 a4 2b be
       0.22985795 0.16610444 0.2505974 -0.16761865
0001f0 5a b2 fe bd 1e b6 af 3d 2a 16 a7 bd e2 a0 e3 3c
       -0.124363616 0.08579658 -0.08158524 0.027786676
000200 16 c1 82 3d 6d 87 e1 bd 1a 43 53 be 7d 55 06 be
       0.063844845 -0.110121585 -0.20631066 -0.13118549
000210 ab 66 38 3e 76 81 04 be e9 16 b5 be 47 d2 59 be
       0.18007915 -0.1294001 -0.35369042 -0.2127162
000220 e3 53 8a 3d 21 81 63 be 07 de 7e 3e fc 4c bc 3c
       0.06754281 -0.22217228 0.24889384 0.022985928
000230 4b 96 38 3e 60 3e 70 3d a4 e0 08 bd 54 30 f6 bc
       0.18026082 0.058653235 -0.03341736 -0.030052342
000240 0b fd 05 be f3 c9 ec bd 19 ae 58 3e 2e a8 95 3e
       -0.1308481 -0.11561956 0.21160163 0.29229873
000250 41 36 79 3e 3f 6b f7 bd 61 cf 96 3e 93 bd 2c be
       0.24337102 -0.120810024 0.29455093 -0.16869192
000260 32 44 aa 3d a6 3d a2 3c 60 27 aa 3d f3 34 b1 3d
       0.083137885 0.019804787 0.083082914 0.086526774
000270 53 ad 15 be 66 73 b9 3d 87 66 8f 3e 37 6a 02 3e
       -0.14616899 0.09055214 0.2800791 0.1273583
000280 a8 ab 9a bd 5f 7f 93 3d d5 04 7f 3e 6e 01 1d 3e
       -0.07552272 0.072020285 0.24904187 0.15332577
000290 88 b9 3f 3d 03 05 39 3e 26 c4 35 be 6c c2 96 3e
       0.046807796 0.18068318 -0.17750606 0.29445207
0002a0 5b ac fe 3d 16 f9 d9 bd 2b d8 09 be ed 32 01 3e
       0.12435218 -0.106432125 -0.13461368 0.12617083
0002b0 65 00 38 be 42 4f 82 3e 43 c7 eb 3c 18 db 95 3e
       -0.179689 0.25451094 0.028781539 0.29268718
0002c0 20 d4 e4 bd a0 4c 01 3e aa a1 89 be ed d7 11 3e
       -0.11173272 0.12626886 -0.26881152 0.14242525
0002d0 58 9a 86 be 49 c8 0a 3f 15 62 42 3e b8 1f f0 bd
       -0.2628963 0.5421186 0.18982728 -0.117248
0002e0 87 ba 9c 3d b2 6a be bc c3 3e bc bd 62 9f a7 bd
       0.07652765 -0.023244236 -0.09191658 -0.08184697
0002f0 7b c8 48 3e 25 2b 0a 3e 10 f8 7c be 69 dd f5 3d
       0.19607727 0.13493021 -0.24704003 0.12005121
000300 f0 d2 a5 3c 60 2c bc 3c a7 68 42 bd 56 d0 5e be
       0.020242184 0.022970378 -0.047463086 -0.21759161
000310 d2 e9 de 3d 6a 4e 24 3d 0c bc e6 3e e7 04 df 3e
       0.108844414 0.040113844 0.45065343 0.43558428
000320 56 3e cd 3d b6 d3 61 3c 78 a5 a3 bd 25 82 18 be
       0.10021655 0.013783386 -0.07990545 -0.14893396
000330 d8 ce b9 3d 32 de fc bd 05 b5 10 3e a4 25 0b 3c
       0.090726554 -0.12347068 0.14131553 0.008492861
000340 6d 78 5e 3e e4 35 6b be cc ea ad 3d e2 4f fd 3c
       0.21725626 -0.22969776 0.084920496 0.03092188
000350 9e c6 83 bd 8f b5 10 3e b6 45 25 be 08 d6 89 3d
       -0.064343676 0.14131759 -0.16139874 0.06730276
000360 63 21 06 3e be 5d ae bd 02 90 79 be 59 83 4e 3c
       0.13098674 -0.08513974 -0.24371341 0.012604558
000370 58 da 46 3e f7 dd 1f 3e 9a 4a c9 bd 6b 45 e7 bd
       0.19419229 0.15612017 -0.09828682 -0.11292537
000380 04 bf cd bd d5 91 8f 3e 0b 03 23 3e 85 21 dd bd
       -0.10046199 0.2804095 0.1591913 -0.10797409
000390 fa 99 c7 3d 36 09 0a 3e 6a 6d 5a be cd 84 3c 3e
       0.097461656 0.13480076 -0.213308 0.18410034
0003a0 15 9f 63 3e 79 4e 83 be 74 8e a7 3d bd b1 70 3e
       0.22228654 -0.25645807 0.08181468 0.23505302
0003b0 06 6b d4 3c ab 91 d5 3d a0 8b 83 be bd e8 6e be
       0.025929939 0.104281746 -0.25692463 -0.2333097
0003c0 5b 2a 2a be 62 b7 1b be 4f 18 c2 bb 48 e0 ff 3c
       -0.1661772 -0.15206674 -0.005923308 0.031234875
0003d0 4d 16 a0 ba 3d 35 5f be 63 3a 72 be ad 32 44 3d
       -0.0012213677 -0.21797653 -0.23655085 0.04789989
0003e0 96 82 c3 bd dc da 82 3e 79 4e f2 bc 4c 74 36 3e
       -0.09546392 0.255576 -0.029578434 0.17817801
0003f0 77 a8 41 be 8b 7c 41 3d 23 e8 40 bc 80 80 69 3e
       -0.1891192 0.047237914 -0.011774096 0.22802925

linears.3.bias f4 [40]
000000 f2 1e fb 3a 02 44 95 bc 8d 4c b0 bc e2 f6 b8 3c
       0.0019159003 -0.018220905 -0.021520877 0.02257866
000010 54 3c 49 bc 54 d0 8c bc b3 02 2f bd 97 00 1f 3b
       -0.01228245 -0.017189182 -0.042727184 0.0024261826
000020 84 fb de 3c ae a3 60 3b c4 24 0b bc 10 ee 11 bd
       0.027219541 0.0034277248 -0.008492652 -0.035627425
000030 13 9b 80 bd 5d 75 09 bc 2d 7a b9 3a c9 98 fc bc
       -0.06279578 -0.008389798 0.0014150791 -0.030834572
000040 7f 6b a4 bc ca 13 5b 3c bd 04 02 3d 00 a4 b1 3d
       -0.02007079 0.013371417 0.0317428 0.08673859
000050 a2 5c 71 3d d8 13 01 bd 08 63 46 bd 32 13 9a bc
       0.058926232 -0.031513065 -0.048434287 -0.018807981
000060 54 10 1e bd f1 ee ce 3c 90 a4 8a bd 4b c5 3b 3c
       -0.03858979 0.02526042 -0.06769669 0.0114606125
000070 a4 93 a4 bc 8b c8 00 bd c2 46 0c bd 0c d8 29 bd
       -0.020089932 -0.031441253 -0.034247167 -0.041465804
000080 82 50 8c bc 74 1d 20 bd 3e a5 b6 3d da 59 f4 3b
       -0.017128233 -0.03909059 0.08918236 0.007457
000090 55 c8 69 bd 5e c4 56 3c 6e 72 07 ba e9 fb 3e 3b
       -0.057075817 0.013108341 -0.00051668927 0.002914185

linears.4.weight f4 [40, 40]
000000 ba 6d 91 3d 79 84 44 be eb 47 ca be 17 b0 63 be
       0.07101007 -0.1919116 -0.39507994 -0.22235142
000010 a2 fc b9 bd 4c 9a 2e 3e 67 51 28 be dc 20 0a 3e
       -0.09081389 0.17051047 -0.16437303 0.13489097
000020 88 e5 86 3e f9 15 53 ba 11 69 eb bc 8d 1f 46 be
       0.26346993 -0.00080522854 -0.028736623 -0.19347973
000030 49 5a ce bc ba 55 cb bc f6 bc 2f 3d e5 4d df 3a
       -0.025189536 -0.024821151 0.042904817 0.0017036764
000040 0b f5 1c be 42 28 67 3d fb da 8f be 2c 9b 76 3e
       -0.15327851 0.056434877 -0.28096756 0.24082631
000050 5c d9 66 3e 7f 1f 70 be aa c4 07 be a9 20 f8 3d
       0.22543854 -0.23449515 -0.13258615 0.121156044
000060 a8 0f 59 bd 6c 44 26 3e 24 8b 52 3d 3f 50 a6 bd
       -0.052993447 0.16237038 0.051402226 -0.081207745
000070 1f 14 7b be dd e7 5a be f0 5a 87 be 11 41 ca bd
       -0.24519394 -0.21377511 -0.26436567 -0.09875692
000080 06 74 52 be b3 29 79 be 96 26 60 3e 8b 67 b5 bb
       -0.20552072 -0.24332313 0.2188972 -0.005536025
000090 2d 6f 64 3d b5 61 65 3e 45 6b 96 3e b1 c6 48 3e
       0.055770088 0.22400554 0.29378715 0.19607045
0000a0 bb 96 41 3e e5 e1 c8 3b 19 e4 f7 bc b6 dd 2f bc
       0.18905155 0.0061304444 -0.030260133 -0.010734012
0000b0 99 a7 86 3e 18 1d 0f 3e 3e 8e b6 3d 67 99 5c 3e
       0.26299742 0.13975942 0.08913849 0.21542893
0000c0 bf c4 a8 bd b0 33 92 3e fe 66 f2 3d 72 06 d6 bd
       -0.08240651 0.2855506 0.118360505 -0.10450448
0000d0 bc 2e 44 be 4a a0 8c 3e 9e c1 5f be 16 30 7b be
       -0.19158453 0.2746604 -0.21851203 -0.24530062
0000e0 cb 87 fe 3d b0 27 17 3e 21 c7 46 3e 92 87 ac bd
       0.12428244 0.14761233 0.19411899 -0.084242955
0000f0 bd 93 e1 3d 54 11 20 3c f2 f8 5a be 1d e3 10 be
       0.11014507 0.009769756 -0.21384028 -0.14149137
000100 94 10 38 bb 58 2d 14 be 2c ec 70 3e d5 2c ea 3d
       -0.0028086053 -0.14470422 0.23527592 0.11434332
000110 17 09 68 3d 1e a6 ea bc b6 55 3d be a3 21 90 bd
       0.056649294 -0.028643664 -0.18489727 -0.07037666
000120 4a 6c a7 3d 44 f1 60 3e 79 a4 3f 3c 4d b6 22 3e
       0.081749514 0.21967036 0.011696928 0.15889855
000130 07 d9 36 3e 15 90 ea 3d 2e fa 3a be cb 02 ee 3c
       0.17856227 0.11453263 -0.18259498 0.029054066
000140 2d e0 9d bd 9d b3 a1 bd a5 60 94 be 4a d9 9a 3d
       -0.07708774 -0.07895587 -0.28979984 0.07560976
000150 fe 55 de 3d b1 ea ae bd df 78 a6 3e 29 d7 a0 3c
       0.108562455 -0.085408576 0.32514092 0.019633846
000160 c3 04 d5 bc 27 df 5c 3e 0b 42 93 3e 6b 9e e1 3c
       -0.026003247 0.21569501 0.28761324 0.02754136
000170 2b b1 59 be 66 47 45 3e bc f8 0c 3e 5a 3d 63 3e
       -0.2125899 0.19265518 0.1376676 0.22191373
000180 bc a6 12 be fc e4 97 bd e6 25 18 3e 89 ce 66 be
       -0.14321417 -0.07416722 0.14858207 -0.22539724
000190 e9 83 a7 3e 3d 0c 88 3e e5 df 0f be 6e de 32 3e
       0.32717827 0.26571837 -0.14050253 0.17467663
0001a0 b6 2b 69 3e 34 3c 8a 3e d7 65 98 3e e3 59 43 3a
       0.2277058 0.26999056 0.29765198 0.0007452054
0001b0 2e 85 27 be ed db 18 3e e6 74 3f 3c fc de df bd
       -0.16359398 0.14927645 0.011685586 -0.10931203
0001c0 85 4c 5f be 04 f4 93 bd 09 34 33 be 85 f8 3f 3e
       -0.21806534 -0.07224277 -0.17500319 0.18747146
0001d0 7f 68 2f bd 94 d6 1a 3e 23 68 9a 3e fe c0 c8 bd
       -0.042824265 0.15120918 0.30157575 -0.09802435
0001e0 a8 a3 7a 3e 02 b1 74 bd 38 c1 09 bd c0 78 99 3d
       0.24476492 -0.05973912 -0.033631533 0.07493734
0001f0 d8 f3 cf bc d9 f7 40 3e d0 6e 88 3e fc ff db 3d
       -0.025384828 0.18844546 0.26647043 0.107421845
000200 c0 92 88 bd a9 3d f6 bd 29 3a 60 3e c6 a3 85 bc
       -0.06668615 -0.120234795 0.21897186 -0.016313445
000210 57 d9 9c bd 04 83 41 be ce 56 2c 3e a2 33 8d 3d
       -0.07658642 -0.18897635 0.16829988 0.06894614
000220 3b 34 32 be 80 4d 4f 3e 98 76 9b bd 38 ab a7 3d
       -0.17402737 0.20244408 -0.07590979 0.08186954
000230 d4 fd 0f be 34 95 37 be 90 3c 78 be a0 21 a5 3d
       -0.14061671 -0.1792801 -0.24241853 0.08063054
000240 e1 a3 61 3d 7d 42 d6 3d 21 49 99 3c 8b 87 6a bc
       0.055087928 0.104619004 0.018711628 -0.0143145425
000250 54 88 71 3e b8 81 b0 bd 6e 0b 00 3d 11 e1 3d 3e
       0.23587161 -0.08618492 0.0312609 0.18542887
000260 6b 78 e9 3c e7 bb 9c 3e 0e 5d 78 3e 37 8e fb bc
       0.028499803 0.30612108 0.24254248 -0.030707462
000270 72 f3 5c 3e 7c 6c 05 3e 0c f1 4a 3e 8f b9 fc bd
       0.21577242 0.13029665 0.19818515 -0.1234008
000280 5e 11 db 3d 79 41 ce bc f0 19 6a bd b2 00 0c 3d
       0.10696672 -0.025177704 -0.057153642 0.03418035
000290 28 61 6c bd 89 d7 b9 3d 59 56 b3 3b ba c7 74 3e
       -0.057709843 0.09074313 0.00547294 0.23904315
0002a0 cb 11 72 be ce 21 93 3d ea c0 82 3e cf 4e 32 3e
       -0.236396 0.07184182 0.25537807 0.17412876
0002b0 19 18 29 be a3 9a 01 be a6 f6 93 bd aa 81 56 3e
       -0.16513099 -0.12656645 -0.07224779 0.209479
0002c0 25 dd 08 3e 3c 39 4d 3d cc d0 30 be 00 c7 2a 3c
       0.1336561 0.05010341 -0.1726715 0.010423422
0002d0 dc 27 ba be 74 24 1f 3d 03 69 4a 3e 43 0f 18 be
       -0.36358535 0.038853124 0.19766621 -0.14849572
0002e0 88 2e 9a 3e 63 b4 ee 3a 71 9a 2d 3e b9 55 20 3d
       0.30113626 0.0018211718 0.16953446 0.03914425
0002f0 2a 89 f3 bc 7f 89 09 3e c6 5e 6a 3e 13 45 0e bd
       -0.02972849 0.13431357 0.22887716 -0.034733843
000300 3a fc b1 bd f4 a4 f5 3b ba 85 7a be c1 be 30 be
       -0.086906865 0.0074964706 -0.24465075 -0.17260267
000310 21 3b db bd 2f 63 56 3e a5 a8 cb bd 15 66 e9 3d
       -0.10704637 0.20936273 -0.09944276 0.11396424
000320 8f 1b 07 3c b7 cb 3b bc 82 7a 2a be d2 39 8c 3e
       0.008246317 -0.011462144 -0.16648296 0.27387863
000330 9a ba d4 3d be 10 60 3d 10 e8 05 be 13 44 40 3e
       0.10387154 0.054703467 -0.13076806 0.18775968
000340 af bc 69 3d e6 a8 51 3e 81 12 88 3d 81 6b 08 be
       0.05706471 0.20474586 0.06644154 -0.1332226
000350 14 40 be 3d 64 db 9e be 43 5f 79 3e 78 89 70 be
       0.09289566 -0.31026757 0.24352746 -0.2348994
000360 4a e8 6d 3e c4 1c 47 3d 4c 18 8c bd a0 9c 97 3b
       0.23233142 0.048611417 -0.06840572 0.0046268255
000370 90 c7 ff 3e 91 15 9a 3e fb 36 ff 3c 91 47 b2 bc
       0.49956942 0.3009458 0.031154146 -0.021762641
000380 53 a1 99 3c 46 5a 43 be 01 82 55 3e 47 d4 99 be
       0.018753683 -0.19077405 0.20850374 -0.30044767
000390 06 9a ee 3d ae f0 32 3e 67 c8 a4 bd fd 09 4d 3e
       0.116504714 0.17474625 -0.08046036 0.20023341
0003a0 df 9c 49 be 92 ba cb 3d 71 83 47 3e f8 c8 81 3e
       -0.19688748 0.09947695 0.19483735 0.2534864
0003b0 42 ad 16 bc 93 9e 11 3e f8 ec 08 3e a2 96 a0 bd
       -0.009196581 0.14220648 0.13371646 -0.07841231
0003c0 ce 87 03 be 4c ff 1d 3c 07 5b ed bc b7 ff 56 be
       -0.12844774 0.009643387 -0.02897407 -0.20995985
0003d0 33 1e c1 3d 19 7a b1 bc 1b 8b 47 3e 91 ec 89 be
       0.09429588 -0.021664666 0.19486658 -0.26938298
0003e0 f7 a6 9d 3c 9a e2 58 3e 0a 7c cb bd 64 bd 72 3e
       0.019244654 0.21180192 -0.09935768 0.2370506
0003f0 b8 11 5f 3e 9e 46 7a 3d 25 34 0d 3d 0e e9 51 3e
       0.21784103 0.061102502 0.034473557 0.2049906

linears.4.bias f4 [40]
000000 ab aa 4f 3d 07 f1 e4 bc cf bc 98 bb 27 ab ec bc
       0.05069987 -0.027946962 -0.0046611796 -0.028890206
000010 ee 95 31 bd 28 6d 2a bc 81 f5 07 3d e1 07 11 bd
       -0.043355875 -0.010402001 0.033193115 -0.035407905
000020 9d 7d 8e bc f2 98 c5 ba 58 b2 8a 3c b1 a1 3b bc
       -0.017393881 -0.0015075488 0.016930744 -0.011452124
000030 0a 06 25 3d c5 ed 35 3d c4 37 05 3d 2b b6 b8 bc
       0.040288962 0.044416208 0.032523885 -0.022547802
000040 1a 31 c5 bc 47 85 08 3d 73 24 cf 3c 94 08 3d bd
       -0.024071265 0.03333023 0.025285935 -0.04615076
000050 3e b9 c2 bc c8 14 9b 3c dc 07 50 bc 27 08 1e bd
       -0.023769971 0.018930808 -0.012697186 -0.038581993
000060 31 d7 df bc 31 9c 6f bc d6 c7 ab 3c 5c 36 41 3d
       -0.027324291 -0.014624641 0.020969313 0.04717098
000070 fa aa b2 3c f5 28 d6 bc 2b cb 0c 3d 69 75 ae 3b
       0.021810044 -0.026142577 0.034373444 0.005324055
000080 a6 90 25 3b 54 5a 0d 3d 56 1d 09 3d 26 2d 09 bd
       0.002526322 0.03450997 0.033475243 -0.033490323
000090 a2 08 33 3d 48 6a 25 bd 0e 55 14 3d 23 de 3b bd
       0.043709405 -0.04038456 0.036213927 -0.045866143

linears.5.weight f4 [3, 40]
000000 c4 75 c6 3e 15 7f 73 bd 51 ef 67 3e e0 66 d4 bd
       0.38761723 -0.059447367 0.22649886 -0.10371184
000010 9a 9b a2 be 4c 45 32 3e 91 0d 2b 3e bb 1e 2f be
       -0.3175934 0.17409247 0.16704394 -0.17101566
000020 27 fb b2 bd 55 5f ab 3e 6f b4 c6 be 46 ef 77 bd
       -0.0873931 0.3347117 -0.38809535 -0.060530923
000030 51 96 8c 3d 9b f8 75 3e 7e ab 85 3e 05 81 a4 bd
       0.06864608 0.24020617 0.261074 -0.08032421
000040 05 98 58 be 91 c7 ae 3e b6 b0 7d 3e 87 94 61 be
       -0.21151741 0.34136632 0.24774441 -0.22029315
000050 43 e2 a2 3e 63 d0 bc 3c fb 69 14 be b7 8e a0 be
       0.3181325 0.023048585 -0.14493553 -0.31358883
000060 63 04 a0 be 47 af 78 be f8 a2 85 3e 31 bb c2 3e
       -0.31253347 -0.24285613 0.26100898 0.3803344
000070 0f 46 bc 3e 74 fa 90 be 28 6a d5 3d ec 6c 75 3e
       0.367722 -0.2831608 0.10420638 0.23967332
000080 15 3a 51 3e 61 ba 3b 3d 93 b9 cb 3e 00 fb c4 be
       0.20432313 0.04583204 0.3979002 -0.38472748
000090 d8 55 2e 3e 67 d9 18 bd cc a9 b0 3e 72 75 a8 be
       0.17024934 -0.037316706 0.34504545 -0.32902104
0000a0 e1 d6 9f bd e6 ec 5b 3e 44 4c 37 3e b6 58 12 bd
       -0.07804657 0.21477088 0.17900187 -0.035729133
0000b0 66 69 f6 3d 79 39 b7 3e b5 b0 d0 bb be e9 6e 3e
       0.12031822 0.35786036 -0.0063687214 0.23331353
0000c0 07 c8 a1 bd 84 99 73 3e 43 6a 93 3d dd 2a 44 be
       -0.0789948 0.2378903 0.07198002 -0.19156976
0000d0 5b 05 59 3d bc 5d 6c 3d a5 8a 23 3d 71 82 4b be
       0.052983623 0.05770658 0.039927144 -0.19873978
0000e0 62 26 76 3d 14 56 a5 be 9c 23 98 3e 20 00 9a 3d
       0.0600952 -0.32292235 0.29714668 0.07519555
0000f0 f0 eb 60 3e 53 ba 12 3d 6f 6d a1 be 95 b3 2a be
       0.21965003 0.035822224 -0.31528804 -0.16670068
000100 91 ca 0d 3e 53 7f 9d 3e f7 eb 68 3e a0 5f 29 be
       0.13846804 0.30761203 0.22746263 -0.16540384
000110 07 9e 0b 3e 09 84 79 be 11 b8 5e be b9 1c 84 be
       0.13634501 -0.24366774 -0.21749903 -0.25803164
000120 08 6c ae be 0c 76 8e be 45 a2 29 3d 00 70 92 be
       -0.34066796 -0.27824438 0.041414518 -0.28601074
000130 00 b0 23 be e5 d6 a1 3d 80 77 bc 3d 5b b6 a6 3e
       -0.15985107 0.07902316 0.0920248 0.32561
000140 ce ef 6a 3e ac ba 1f 3d d0 78 a2 3e 87 0c 9e 3b
       0.2294304 0.038996384 0.31732798 0.0048232707
000150 1c ff c3 be b7 cb d1 bd 4c 44 62 3e 58 45 c4 be
       -0.3828057 -0.10243934 0.22096366 -0.38334155
000160 11 a5 dd 3d 6b af 93 be a6 2a bd 3e 89 14 2d bd
       0.108224995 -0.2884477 0.369466 -0.042255912
000170 82 0b 11 3e ae 3f 8b be da d1 77 3e bb 2a 9f 3e
       0.14164546 -0.2719702 0.24201146 0.31087288
000180 42 41 98 3e 5b 30 f1 3c 6f 6b ba be 64 e0 5f 3c
       0.29737288 0.029442003 -0.3641009 0.013664339
000190 16 62 00 3e ad d2 80 be b0 a5 28 3e 7a 78 81 be
       0.12537417 -0.25160733 0.16469455 -0.2528723
0001a0 16 eb ce be 03 2d b5 3e ae 0f 58 be da 54 9b 3e
       -0.4041373 0.35385904 -0.21099731 0.30338174
0001b0 84 89 c8 3e b9 58 81 be d7 34 96 be 2f 67 af 3e
       0.39167416 -0.25263003 -0.2933719 0.3425841
0001c0 00 4d 63 3d d2 29 96 3d 4d 52 b1 bd e5 2d ed 3d
       0.055493355 0.07332195 -0.08658276 0.11581019
0001d0 88 0b 47 3d d3 a6 4a 3d f6 09 86 3e 06 47 13 be
       0.04859498 0.049475502 0.26179475 -0.14382562

linears.5.bias f4 [3]
000000 67 0e 25 3d c7 d4 46 bc 00 00 00 00
       0.04029694 -0.012135691 0.0

exp_avg f4 [40, 2]
000000 7a 5b 2e bb ab 4d 50 3c 2c a1 78 3a b8 72 3a 3a
       -0.0026604817 0.01271383 0.00094844657 0.00071124313
000010 8b fe 0e ba c4 fc 3d bc af 1a a4 3a 0d 54 03 bc
       -0.00054548 -0.011595909 0.0012520159 -0.008015645
000020 cb 29 7b 3a c9 0d bf bb be ed d9 39 f2 51 c3 bc
       0.0009581118 -0.0058305007 0.00041566597 -0.023842786
000030 a4 a4 47 ba 4e 80 0e bc b0 4f 98 3a e7 fa ce 3b
       -0.0007615781 -0.008697582 0.0011620428 0.006316531
000040 07 00 06 3a 5a 3b 61 3c 30 b6 3d bb 35 7c f5 3c
       0.00051116984 0.013747061 -0.0028947704 0.029966453
000050 71 9b c0 ba fd 20 cb bb 09 66 da 3a 59 25 c3 3a
       -0.0014694763 -0.006199001 0.0016662489 0.001488845
000060 3f 32 78 bb 48 97 10 3c 13 e6 a2 ba 2a 75 e5 3b
       -0.0037871746 0.008825131 -0.0012428187 0.0070024924
000070 d6 51 ab 3a 52 ca 92 bc 53 f7 0c 3b 5b 9e eb ba
       0.0013070654 -0.01791874 0.0021509721 -0.0017976271
000080 15 8a 80 39 44 8c 90 bc 2d 23 dd 3a bf 9e 4c bc
       0.00024516942 -0.017645009 0.0016871445 -0.01248902
000090 09 1f 8d bb b5 aa 01 3c ed cc cc bb b5 37 06 3c
       -0.004306678 0.007914235 -0.006250015 0.0081919925
0000a0 2b 44 76 b9 c5 40 6b 3c 89 ec 47 bb 4e fa 8d 3a
       -0.00023485783 0.014358704 -0.0030505976 0.0010832043
0000b0 0f 7e 3f 3b 8c c0 d6 bb 59 93 ff b9 69 dc 4e 3b
       0.0029219424 -0.006553715 -0.00048747173 0.003156448
0000c0 e4 79 81 ba fc cc e4 bb d2 c2 dc ba ca 62 fa ba
       -0.0009878245 -0.006982444 -0.0016842729 -0.0019102928
0000d0 33 ba fe ba b4 73 01 3c 69 5f bf 3a 9e 9c 9b bc
       -0.0019434154 0.007901121 0.0014600578 -0.01899558
0000e0 19 40 fe ba 0b ff 18 3c f5 6c bc ba 77 39 d6 3a
       -0.0019397765 0.009338151 -0.0014375733 0.001634403
0000f0 a1 a7 60 ba 6e ad 75 3c e9 31 0a b9 9c 49 5b bc
       -0.00085699005 0.014994962 -0.00013179299 -0.013384249
000100 be 01 cf 3b d6 ca 7d bc a6 ac 82 bb 1a c7 51 3c
       0.0063173464 -0.015490254 -0.0039878665 0.012803817
000110 a3 6e 42 bb 0d 56 23 bb fe 62 aa bb c5 20 90 3b
       -0.0029667995 -0.0024923116 -0.005199789 0.0043984377
000120 99 83 60 ba ad f5 2b 3c 75 25 7a 3a bd 50 e4 3b
       -0.00085645315 0.010495585 0.00095423247 0.0069676326
000130 46 9a 61 3b 37 ea d7 ba 8f 75 32 bb 53 63 29 3c
       0.003442423 -0.0016473 -0.0027230715 0.010338622

exp_avg_sq f4 [40, 2]
000000 46 b1 22 3c da b9 63 3c b3 2a 4b 38 1f 17 b3 38
       0.009929961 0.013899291 4.843874e-05 8.539692e-05
000010 a9 47 42 3b f5 1f a1 3b b6 b9 1b 3b 90 4e 7d 3b
       0.0029644764 0.0049171397 0.0023761815 0.0038651563
000020 54 5a 20 3a 6a 94 96 3a 4a d8 90 3c ba 89 d6 3c
       0.00061169756 0.0011488323 0.01768126 0.02618872
000030 bc 6b 21 3b c4 88 61 3b f6 97 0f 39 83 d6 85 3a
       0.0024630865 0.0034413794 0.00013694153 0.0010211024
000040 98 59 37 3b 7b e1 9e 3b 71 b2 d0 3c 0c f4 1f 3d
       0.0027976986 0.0048486567 0.025475712 0.0390511
000050 f1 e3 45 39 e4 8d 3c 3a 2f 5a 4e 39 5f cf 13 3a
       0.00018872299 0.0007192774 0.00019679287 0.00056385057
000060 ff 8f a5 3b 8f ff f0 3b 13 68 14 3b 3a 40 48 3b
       0.005052566 0.0073546837 0.002264504 0.003055586
000070 7a 2b 36 3c 42 99 86 3c 3e ff c3 39 85 12 d5 39
       0.011118764 0.0164305 0.0003738347 0.00040640324
000080 8f 3f 15 3c ba ed 60 3c 19 cd 90 3b 35 3f e4 3b
       0.009109392 0.013728553 0.004418981 0.0069655427
000090 69 58 0c 3c cf 58 4b 3c ac 97 09 3c 7c 52 42 3c
       0.0085660005 0.01241131 0.008397978 0.011860486
0000a0 bd 2c 7a 3b 51 e1 d3 3b 37 ef 8c 3b 50 de ee 3b
       0.0038173639 0.006466069 0.0043009776 0.0072896853
0000b0 b8 e2 56 3b d0 50 a0 3b 8b dc d7 3a 1c ed 18 3b
       0.0032788943 0.004892446 0.0016468925 0.0023334688
0000c0 d8 62 21 3a 5d 55 a7 3a 10 80 fb 38 dd 18 97 39
       0.00061563915 0.0012766529 0.00011992466 0.0002881949
0000d0 f9 3f 84 3b 9b 36 c5 3b 0b a5 0b 3c 2d 46 5c 3c
       0.0040359464 0.0060184724 0.008523236 0.013444466
0000e0 5d 5c 5c 3b 7b 98 a6 3b 5e 88 17 3a 24 78 62 3a
       0.0033624389 0.005084095 0.0005780513 0.0008639118
0000f0 db 62 03 3c e6 19 3b 3c ee 19 bc 3b ac ec 08 3c
       0.008019174 0.011419749 0.0057403957 0.008357208
000100 4e d8 78 3c 5b 01 b3 3c 5f 9a 37 3c 75 66 7c 3c
       0.01518829 0.021851232 0.0112062385 0.015405287
000110 83 a8 51 39 50 c8 9d 39 2a 93 ad 3b 9f 37 fc 3b
       0.00019994569 0.00030094618 0.0052970843 0.0076970602
000120 8d 33 38 3b 16 71 91 3b 08 ac 34 3a 90 ce 9e 3a
       0.0028106899 0.0044385297 0.000689209 0.0012116004
000130 2b b9 1d 3b 5e 92 7a 3b a4 8b 54 3b 9b f6 a6 3b
       0.0024066668 0.0038234214 0.0032431865 0.0050953156

exp_avg f4 [40]
000000 b2 a7 58 3c 8f ae 54 3a 3c bc 41 bc f1 d9 05 bc
       0.013223575 0.00081131695 -0.011824664 -0.008169637
000010 f0 46 b4 bb 1e cc ca bc da f2 20 bc 0a ca c4 3b
       -0.0055016205 -0.024755534 -0.009823525 0.0060055302
000020 2f 48 64 3c 05 c6 f6 3c 41 94 d7 bb 58 b2 d4 3a
       0.013933226 0.03012372 -0.0065789525 0.0016227467
000030 de 86 0c 3c 72 60 e8 3b 3e 93 99 bc 7e 92 ae ba
       0.008577077 0.0070915753 -0.018746968 -0.0013318805
000040 20 47 95 bc ec b5 43 bc aa 14 02 3c f3 97 f0 3b
       -0.018222392 -0.011945229 0.007939497 0.0073423325
000050 1c 08 73 3c d6 60 b9 3a ee 49 cc bb c1 b3 7e 3b
       0.014833476 0.0014143239 -0.006234399 0.0038864466
000060 6c 5c f2 bb 1b 5b 01 bb 43 61 02 3c 37 58 9e bc
       -0.0073962715 -0.001973814 0.007957759 -0.019329173
000070 a7 22 18 3c 45 e1 e5 3a e4 27 81 3c f3 97 67 bc
       0.0092856055 0.0017538449 0.015766092 -0.014135349
000080 03 87 70 bc 66 f3 51 3c d5 d0 5b bb 84 ce 7f 3b
       -0.014680627 0.012814378 -0.0033541222 0.0039033005
000090 31 46 2d 3c df 7b f6 3b 64 46 d2 ba 7d 2a 1e 3c
       0.010575817 0.007522091 -0.0016042707 0.009653685

exp_avg_sq f4 [40]
000000 fa ff 6f 3c 08 c0 9a 38 89 13 ae 3b 4f 69 81 3b
       0.014648432 7.379061e-05 0.0053123874 0.0039493213
000010 e7 92 90 3a 89 b7 e9 3c 30 c7 80 3b 79 c7 82 3a
       0.0011030108 0.0285299 0.003929995 0.000997766
000020 dd 3c ad 3b 0c d7 27 3d ee be 58 3a 9b f3 0f 3a
       0.0052867965 0.04097657 0.0008268197 0.0005491317
000030 21 53 f0 3b c6 a5 52 3b cc eb 8f 3c cf c2 c4 39
       0.0073341285 0.0032142266 0.017568491 0.00037529177
000040 94 83 74 3c 07 0d eb 3b 4d 4c 4e 3c 80 5d 42 3c
       0.014923949 0.007173184 0.012591434 0.011863112
000050 9a ba e5 3b 70 ec ec 3b 35 45 a2 3b 34 59 22 3b
       0.00701077 0.007230334 0.004952098 0.0024772407
000060 0d 3c bb 3a 6f aa 8d 39 dc 80 cb 3b 73 05 69 3c
       0.0014284864 0.000270206 0.0062104296 0.014222491
000070 05 ee aa 3b 2d 4f 5d 3a 1a 09 4b 3c 8d 84 17 3c
       0.0052163624 0.0008442279 0.012392307 0.009247911
000080 20 b1 b3 3c a9 18 83 3c 0e f2 c7 39 49 0b fb 3b
       0.021935046 0.01600297 0.00038136583 0.0076612574
000090 ca a0 98 3b 32 46 b9 3a d8 cc 73 3b 7f ac a4 3b
       0.0046578394 0.00141353 0.0037200954 0.005025446
