Lid_Driven_Re100/saved_models/VA-14000.pt (torch, 95111 bytes, 36 tensors)

linears.0.weight f4 [40, 2]
000000 b0 83 f5 bd b4 c3 4b 3e e0 5a c8 3e 7a 33 c7 3d
       -0.11988008 0.19898874 0.39131832 0.09726615
000010 62 5d 1f 3e 9b a2 64 be 17 28 68 be a9 d9 b9 3e
       0.15562966 -0.22327654 -0.22671543 0.36298874
000020 44 f4 45 be 5f 96 78 be 7c e1 a3 3e 78 74 f1 3c
       -0.19331461 -0.24276112 0.32007968 0.029474482
000030 76 9b d5 3e 02 89 9e be 94 35 59 3d ca 08 70 be
       0.4172017 -0.30963904 0.05302961 -0.23440853
000040 d4 22 94 be 75 13 80 3e 4d da 7f be 92 b7 f3 bd
       -0.28932822 0.25014845 -0.24985619 -0.11900248
000050 2a 9a d2 3d 8e 52 ef 3d 01 5a 41 be 4c a2 8d be
       0.10283311 0.11685668 -0.1888199 -0.27662885
000060 40 9b b9 be 2e e4 99 bd 9c 68 5e 3e 5c 24 c6 bd
       -0.3625126 -0.07514225 0.21719593 -0.09674904
000070 5f a1 af 3e de ba 83 be 2e 4e ca 3e 71 e0 af 3e
       0.34302804 -0.25728506 0.3951277 0.34350923
000080 78 39 95 bd 7e 9a 88 be 40 2b b4 bd 3f ab 41 be
       -0.07286352 -0.26680368 -0.08797312 -0.18912981
000090 d3 9b d5 3e bb f8 8b be 48 6a 0f 3e 5a b5 8f bd
       0.41720447 -0.27338204 0.14005387 -0.07017012
0000a0 d9 24 18 3d 82 50 67 bd cb 2d aa be 69 8f 26 be
       0.037144516 -0.056473263 -0.33238062 -0.16265644
0000b0 27 b7 30 3e 88 72 aa 3e b6 92 9f bd 8f ee 1c be
       0.17257367 0.33290505 -0.07791655 -0.15325378
0000c0 2d 5a 8c bd ef 32 c7 be 95 37 05 bd 1b e8 c0 bd
       -0.06853137 -0.38906047 -0.03252371 -0.094192706
0000d0 b3 ea 31 be b1 36 3f 3e 95 8c 4d be 6c ae f5 bd
       -0.17374687 0.18673207 -0.20073159 -0.11996159
0000e0 d8 15 1f 3d 55 17 8d 3e 18 74 dd be 11 49 7f 3d
       0.03883919 0.27556863 -0.43252635 0.06232554
0000f0 75 1a 78 be 10 0e 8a 3e 10 b3 91 3e c5 cd 72 3d
       -0.24228843 0.26963854 0.28456926 0.05927827
000100 51 94 3f be 30 db f8 bd f7 8b ba 3e 98 45 d8 be
       -0.18708922 -0.12151182 0.3643491 -0.42240596
000110 62 e8 c2 3d 7a 3c 3e 3d 21 03 bf 3c 49 0b 12 be
       0.0951698 0.046444394 0.023316922 -0.14262117
000120 14 e4 18 3e 18 c7 ef 3d fe 6a 9c bd 43 c8 bd bd
       0.14930755 0.11707896 -0.07637595 -0.092667125
000130 e5 91 01 be b6 2f 0d 3e 80 f8 39 3e dd 9d 83 3e
       -0.1265331 0.13787732 0.18161201 0.25706378

linears.0.bias f4 [40]
000000 07 db 01 be e7 dc aa bd f0 aa ce 3c 7f 70 1d be
       -0.12681209 -0.08342915 0.025227994 -0.15374945
000010 b2 a7 ee 3d 36 b8 5f 3e 6b ea 0d be e4 f0 86 3d
       0.11653079 0.21847615 -0.13858955 0.06588915
000020 fd 02 fe bd 3e 05 28 3e 1a 99 89 bd c7 b6 f3 bc
       -0.12402914 0.1640825 -0.06718655 -0.029750241
000030 6d 5c ad 3d 97 34 08 3e 0e 93 42 3d 6b 07 48 3d
       0.084648944 0.13301311 0.047503524 0.0488352
000040 c6 86 be bd 53 ea a6 3d 2a 5c 0a 3c 1f 11 a4 3e
       -0.0930305 0.081501625 0.008444825 0.32044312
000050 bf e5 28 3d 98 bd 01 be 48 d7 01 be 7c 5a e7 3d
       0.041234728 -0.1266998 -0.1267978 0.112965554
000060 a6 38 17 3e ae 46 82 bd 85 33 f0 bd f0 75 af 3d
       0.14767703 -0.06361137 -0.117285766 0.08567417
000070 a1 a3 07 3e 66 e7 37 3d 78 7e c9 bd b0 e6 a1 bd
       0.13246013 0.044898413 -0.09838575 -0.07905328
000080 05 40 ae 3d 06 1d 8f 3d b6 a8 4f bc 65 2a 90 3d
       0.085083045 0.06987958 -0.012674501 0.07039336
000090 3b 84 d4 bd 8e 3d 4c 3e f8 e5 80 bd ae f3 d8 bd
       -0.103767835 0.19945356 -0.06293863 -0.10593353

linears.1.weight f4 [40, 40]
000000 36 7f 7d be 7d e4 83 3d a1 32 a5 3e 4d 3f a4 3d
       -0.24755558 0.06440065 0.3226519 0.08019886
000010 2b 78 ad 3d 58 a6 a5 3e 11 2d 6e 3e e9 e5 13 be
       0.08470186 0.32353473 0.23259379 -0.14443173
000020 f4 71 a6 bd ab e1 0a 3d 88 b3 73 be 02 d7 00 be
       -0.081272036 0.03390662 -0.23798954 -0.12582019
000030 89 75 4c 3d 2a 82 b9 bd 5a 1d ad 3e d6 69 de bc
       0.049916778 -0.0905803 0.33811456 -0.027150076
000040 f5 9f 89 bd ee 68 35 be 2e 74 0b 3e 40 f5 4a 3e
       -0.067199625 -0.17715809 0.13618538 0.19820118
000050 57 0e cf bd fd 6e 9e be 27 7c 13 3e 1a de 0b 3e
       -0.10110157 -0.30944052 0.14402829 0.13658944
000060 5e c1 55 3e 28 db 57 3e 02 00 97 3d 4f d3 a2 3c
       0.20874545 0.21079695 0.07373048 0.01987615
000070 4a 3d 3f be 04 46 c9 3d 81 d3 a4 be d3 77 67 3d
       -0.18675724 0.098278075 -0.32192615 0.056510758
000080 c2 72 1b 3e 47 43 4a bd ab bc 42 be 95 16 f5 3d
       0.15180495 -0.049380567 -0.19017284 0.11967198
000090 1d 31 6c 3e 3e bc f6 bd eb 0f f6 3c c8 e3 36 bc
       0.2306561 -0.12047623 0.030036887 -0.011162706
0000a0 f9 b4 82 be f6 d5 38 3d 78 5f a1 3e 19 ff 18 be
       -0.25528696 0.045125924 0.3151815 -0.14941062
0000b0 41 77 d1 3b 4f 8c cf 3b 71 4c e9 3d 8d cd 8b 3e
       0.00639239 0.0063338648 0.11391533 0.2730526
0000c0 fb 31 18 3e 13 c9 46 3e b8 8f 37 be a7 a3 72 be
       0.14862816 0.19412641 -0.17925918 -0.23695241
0000d0 82 36 c7 3d 73 4b c6 3d 32 c6 8a 3e 2a 3c 6c 3d
       0.097271934 0.096823595 0.27104336 0.057674564
0000e0 d0 f8 26 3d af 99 aa bc dd 1f 54 3e 24 45 f3 bd
       0.04076463 -0.020825235 0.2071528 -0.11878422
0000f0 8f 9a 1f 3e ba 2d 7b be 95 80 5e be 4a 59 73 3e
       0.15586303 -0.24529162 -0.21728738 0.2376453
000100 d2 74 03 be f1 cc 34 3d d7 8b 37 bb ce 99 86 3e
       -0.12837532 0.04414076 -0.0028006935 0.2628922
000110 1f 03 fa 3d fe 53 83 3e 08 d3 d0 be 2a 08 a4 bd
       0.122076266 0.25650018 -0.40786004 -0.0800937
000120 a8 dc 45 3d 03 9d ac 3e ef 73 73 be 3a 1d c2 bd
       0.048306137 0.3371354 -0.23774694 -0.09478231
000130 2a 49 de 3d f9 39 e3 3e 85 ab 21 3c df 11 25 3e
       0.10853799 0.44380167 0.009867554 0.16120099
000140 2d 15 ad bd 95 5a 1f be 47 3c 5c be 7e 01 83 be
       -0.084513046 -0.15561898 -0.21507369 -0.25587076
000150 7b 71 16 be 7d ba 6d 3e e9 d3 ae 3d 19 71 42 be
       -0.14691727 0.23215671 0.085365124 -0.18988456
000160 a6 51 e0 bb b2 87 01 be 22 66 36 be 7c 30 02 be
       -0.0068456708 -0.1264942 -0.17812398 -0.12713808
000170 ac 44 fe 3d 59 6a 10 be d1 11 ec 3d 43 ec 43 be
       0.12415442 -0.14103068 0.11526836 -0.19133095
000180 1d c8 1b 3e 5f 95 b1 bd 12 06 16 be 50 72 59 be
       0.15213056 -0.086710684 -0.14650753 -0.21235013
000190 8f 8f 56 3c b0 37 80 3e 8e 17 28 bd bd e5 8e 3e
       0.0130957505 0.25042486 -0.04103809 0.2790965
0001a0 15 6b 6d be e4 d7 3b 3e 00 6c 33 be 08 73 ba bd
       -0.2318538 0.18344074 -0.17521667 -0.09103972
0001b0 db 10 92 bd 35 f1 da 3d 11 db cf 3d b4 cd 1a 3e
       -0.07132121 0.10690538 0.101492055 0.15117532
0001c0 7a d0 6c bd 68 9f 3f be 66 35 78 3e 93 8a 5a be
       -0.057816006 -0.18713152 0.2423912 -0.21341924
0001d0 4f 31 7c be 6b 25 76 3e 32 a2 d9 3d 98 2a 46 be
       -0.24628185 0.24037711 0.106266394 -0.19352186
0001e0 18 c6 32 be 00 c2 37 bd 00 76 8d 3e a6 65 4b be
       -0.1745838 -0.044862747 0.2762909 -0.19862995
0001f0 ba ed 52 3e 9a f2 1d 3e 0b d5 c7 3e d1 92 80 be
       0.20598498 0.15424576 0.39029726 -0.25112012
000200 66 72 bf be 22 1d dd be a2 9a 26 3e 20 93 3a be
       -0.37391967 -0.4318629 0.16269925 -0.18220186
000210 f0 17 1f be 3e 6e ab ba 9c fb c8 3e 8c 72 87 be
       -0.15536475 -0.0013079119 0.39254463 -0.2645458
000220 34 44 97 3d de 28 9f be f3 58 99 3e 37 f6 58 be
       0.073860556 -0.31085867 0.29950675 -0.21187674
000230 97 0e 26 bd ac ff 30 3d 9b f3 48 3e 6e e8 20 3e
       -0.040541258 0.043212578 0.19624178 0.15713665
000240 95 26 2a be 85 8d 19 be 1f 59 b5 be c6 04 72 be
       -0.1661628 -0.14995392 -0.35419556 -0.23634633
000250 ba 3a 8f bd d4 ee a3 be d3 c6 25 bf a1 3c d2 bd
       -0.06993623 -0.3201815 -0.64756507 -0.1026547
000260 fd 2c f3 3d f6 cb e4 3e 44 f2 58 bc 65 28 4f bc
       0.11873815 0.4468686 -0.013241354 -0.012643908
000270 ef e3 65 3e 55 1c f9 be 56 a3 2e be 62 96 ec 3d
       0.22450231 -0.48654428 -0.17054495 0.11552121
000280 d2 e1 c2 3d 53 c0 84 be 24 d9 a2 bd e2 08 7a 3d
       0.09515728 -0.25927982 -0.079515725 0.061043628
000290 de ca 90 3e 4e ff e6 3b 85 e1 5c 3e d5 46 63 3e
       0.28279775 0.0070494777 0.21570404 0.22194989
0002a0 bd 94 f4 bc a8 76 46 3e 56 9f 34 be 41 5e aa 3b
       -0.02985608 0.19381201 -0.17638907 0.005199224
0002b0 a5 95 9f 3e c6 0a 74 3e a8 d0 2b 3e 11 d4 32 be
       0.31168857 0.23832235 0.16778815 -0.1746371
0002c0 04 82 49 3c 70 89 bc 3d c7 97 77 3d af 25 95 3e
       0.012299065 0.092059016 0.06044748 0.29130313
0002d0 24 d5 33 3d 05 36 3e 3e 40 b3 71 be 86 6b 62 3e
       0.04390444 0.18575294 -0.23603535 0.2211133
0002e0 fd ba eb bd ed 6e f9 3d 38 c2 67 be 3e 57 9c 3e
       -0.115102746 0.121793605 -0.22632682 0.3053531
0002f0 c5 3e 76 3e f3 c7 40 3e 42 aa 61 bd 10 fc d7 bd
       0.24047382 0.18826275 -0.05509401 -0.10546124
000300 3b a4 89 bd 15 97 f1 bd cd 36 78 3e 87 23 0a be
       -0.067207776 -0.11796395 0.24239655 -0.13490115
000310 f2 ce 22 be bf 51 0f 3e c6 68 21 3e 3b 34 c2 bd
       -0.15899256 0.13996027 0.15762624 -0.094826184
000320 e9 c1 42 3e 9f 38 e5 3d b9 be 7f 3e 9b 61 aa 3d
       0.19019283 0.1119244 0.24975099 0.08319398
000330 81 e5 e8 3d 24 8c 63 be b2 83 c9 3d 7c ea 16 3d
       0.113718994 -0.22221428 0.09839572 0.036844715
000340 54 d1 84 bc e2 4b 57 3e 4d b2 52 be 3f 86 79 3c
       -0.016213097 0.21025041 -0.20575829 0.015229761
000350 49 cf 9f 3d 7f 54 43 3d 05 62 cc 3d 90 f6 87 3d
       0.078032084 0.047688004 0.09979633 0.06638825
000360 0c 19 14 3e fa c6 ff 3d 55 24 f8 3d df e7 cc bd
       0.1446268 0.12489124 0.12116305 -0.100051634
000370 c0 22 59 be e9 bb 6b be 68 6b 63 bd 5d 0e 9f 3e
       -0.21204662 -0.23020901 -0.055522352 0.31065646
000380 1a f2 59 be 56 1a a6 bd 1f 65 2a 3e a7 01 09 3d
       -0.2128376 -0.08110492 0.16640137 0.03344884
000390 06 04 88 be 85 1b 89 3e 2a 42 26 bd 2c a0 ed 3d
       -0.2656557 0.26778808 -0.040590443 0.11602816
0003a0 6d df 07 be 17 30 47 be aa d4 97 bb 21 16 f3 bd
       -0.13268824 -0.19451939 -0.004633506 -0.11869455
0003b0 4e 05 17 3d 56 7e 8a bd 30 dd 25 be 6a 75 91 be
       0.036870293 -0.06762378 -0.16197658 -0.28409892
0003c0 c0 2e bd be 6d 85 a6 3d 65 1a 09 3e 02 f5 4e be
       -0.3694973 0.08130918 0.13388975 -0.2021065
0003d0 1d 7e 4f 3e db 89 36 3e 68 d1 51 3e 48 53 35 3e
       0.20262952 0.17826025 0.20490038 0.1770755
0003e0 b6 81 af bd e5 bb 97 3e 9a b3 fc 3c c1 09 60 3c
       -0.08569662 0.2963554 0.03084736 0.0136742005
0003f0 cd 0a 49 3e da 66 68 3e ba be 48 3e bf ce 75 bd
       0.19633026 0.22695485 0.19604006 -0.06001162

linears.1.bias f4 [40]
000000 69 12 60 3d d8 8f c7 3c 77 e0 b5 3d 11 22 bb bd
       0.054705057 0.024360582 0.08880704 -0.09137357
000010 a2 54 8b 3d ee f4 3b 3d a3 c1 d2 3d a2 98 d7 3d
       0.06803252 0.04588788 0.102908395 0.10527159
000020 9f fe 52 bc dd cc 04 3e 34 97 9f bd b5 c2 1b be
       -0.012878089 0.12968774 -0.077925116 -0.15210994
000030 30 9b cf 3c ae 10 9a bd 30 b5 66 bc d0 03 e5 3d
       0.025342554 -0.07522713 -0.014081284 0.11182368
000040 fa 82 6b bd 53 90 2c 3d c3 b0 35 3d ff aa 50 bd
       -0.057497956 0.042129826 0.044358026 -0.050944325
000050 f0 9e 15 3d 88 3d e0 3d 5e 66 94 3d a2 e8 d5 bd
       0.036528528 0.10949236 0.072460875 -0.10444762
000060 38 58 34 bd 80 ff 37 be 58 8f 01 be 3b ab cd 3d
       -0.044029444 -0.1796856 -0.12652338 0.10042425
000070 a8 a0 03 3e 6b bb 83 bd b0 1b ce bd 26 d7 e3 bb
       0.12854254 -0.064322315 -0.10063875 -0.006953138
000080 80 97 a6 bd e7 44 ce 3c c3 b2 f7 bc 15 8e 0d 3e
       -0.08134365 0.02517934 -0.030236607 0.13823731
000090 59 ac 79 bd a3 06 5d bc dd d3 fd bd 68 86 c9 bc
       -0.06095538 -0.013490352 -0.12393925 -0.024600223

linears.2.weight f4 [40, 40]
000000 0e 8e 27 be 65 06 aa 3e cd 59 91 be 04 c1 37 3c
       -0.16362783 0.33208004 -0.28388825 0.011215452
000010 cb 5e 28 3e 24 4c 90 bd 17 6b af 3e f6 45 d4 3d
       0.1644241 -0.07045773 0.3426139 0.103649065
000020 ec e1 15 3d 59 5f 57 3e 72 c5 32 be 59 8d 8b 3d
       0.03659241 0.21032466 -0.17458132 0.06814069
000030 2c 0f 83 be f8 80 fd bd b4 79 11 be 18 37 7e 3e
       -0.25597513 -0.123781145 -0.14206582 0.24825704
000040 d0 bc 63 be b2 d5 fe 3d fa 28 96 3e 60 45 6e 3e
       -0.22239995 0.12443103 0.29328138 0.23268652
000050 48 a0 f3 3b 5f 44 d7 3d 76 ab 94 3e 31 b6 bd 3c
       0.0074348785 0.105110876 0.29037064 0.023158165
000060 91 c7 52 3d 77 77 97 be da 73 97 be ac 4b b8 3e
       0.051459853 -0.29583332 -0.29580575 0.35995233
000070 53 10 60 3e 80 7d 53 3d db 1b 23 3e 7e 80 ff 3d
       0.21881227 0.051633358 0.15928595 0.1247568
000080 66 50 08 be 95 56 f9 bd 0d 9e 15 be 0e d2 39 bd
       -0.1331192 -0.12174717 -0.14611073 -0.04536634
000090 fc fa 80 be 1d ef 88 bd 23 d7 e8 bd 5c 16 24 be
       -0.25191486 -0.06686232 -0.11369159 -0.16024154
0000a0 9f 69 8c be 65 ec 1e be 7a 50 88 be 8c ca 11 bd
       -0.27424332 -0.15519865 -0.266239 -0.035593554
0000b0 28 30 38 be dc bb 41 3d d7 14 29 be ea 17 0e be
       -0.1798712 0.047298297 -0.16511856 -0.1387631
0000c0 32 37 ce bd 67 29 6a 3e d1 3a 19 3e 05 32 a5 3e
       -0.100691214 0.22867356 0.14963843 0.32264724
0000d0 c1 61 0c be 50 57 97 3e 38 2f 22 be 4e dc be be
       -0.13709165 0.29558802 -0.15838325 -0.37277454
0000e0 31 96 3d 3e 6e 7a e1 bd 42 63 cb be 04 a3 66 be
       0.18514325 -0.1100968 -0.39724165 -0.22523123
0000f0 b5 71 f7 bc e4 14 7e be 8e 39 8e be 8a 53 8c bd
       -0.030205587 -0.24812657 -0.27778286 -0.06851871
000100 ae f7 be 3d 0c 28 0c 3d b5 fa cb 3e d6 ab bb bd
       0.09324585 0.03421788 0.39839712 -0.091636345
000110 8d 10 0e bf d0 99 6b 3e 67 07 8c be 8b 53 27 bc
       -0.55494004 0.23007894 -0.27349398 -0.010212789
000120 c8 98 82 3d 7d 23 c7 3d 6b c7 7b 3d b5 d1 53 be
       0.06376797 0.09723566 0.061469477 -0.20685466
000130 ea e1 60 3e 83 4f 91 3c d7 07 11 3f 37 c0 9a 3e
       0.2196118 0.01773811 0.5665259 0.30224773
000140 db b0 a8 ba b1 9d 81 be 5c fa 8a 3d 91 94 23 3d
       -0.001287009 -0.25315621 0.067860335 0.039936606
000150 94 85 92 be 2e 4f 3b 3e 80 fc cb be 87 7a 80 3e
       -0.28617537 0.18291923 -0.3984108 0.2509348
000160 ff 36 10 be 75 5d a9 3d 10 68 16 be e8 ce c0 bd
       -0.1408348 0.08269779 -0.14688134 -0.09414464
000170 07 70 44 3c e4 15 5e be 08 2a 82 3e 01 d6 a6 bc
       0.0119896 -0.21688038 0.25422692 -0.020365717
000180 db 96 2c bd 7a d2 a8 be b6 87 d5 be 33 76 3a be
       -0.042136054 -0.3297308 -0.41705102 -0.18209152
000190 4a a1 a0 3d f0 bf 11 be 4d 94 fc be df 2a 43 3d
       0.078432634 -0.14233375 -0.49331895 0.047648307
0001a0 de 9a 9e 3e 87 47 84 3e 37 4d 92 3e f8 f0 b2 be
       0.3097753 0.2583582 0.28574535 -0.3494947
0001b0 d8 7e c4 be b4 8e 82 3e f7 26 71 3d 67 7e 44 3e
       -0.38378024 0.254995 0.05887505 0.19188844
0001c0 66 fe 95 be 33 13 07 3d 0e 8b 35 3e 50 62 93 3d
       -0.29295653 0.032977294 0.17728826 0.07196486
0001d0 70 69 31 3e b6 f5 20 3e 2e 47 13 3e 49 40 28 3e
       0.17325377 0.15718731 0.14382622 0.16430773
0001e0 d0 23 10 be 60 2a 81 be 1a 0e bd 3d ce db 11 be
       -0.14076161 -0.25227642 0.09231205 -0.14244005
0001f0 43 aa 4f be 45 fb 91 3e 77 0f d6 3d 5a 1d cc 3d
       -0.20279793 0.28512016 0.104521684 0.09966536
000200 2e 4b 40 bd ea 70 2a bb 3a 26 eb bd ba 33 83 3e
       -0.046946697 -0.0026007243 -0.114819005 0.25625402
000210 03 70 78 be ef 27 47 bd 91 8f 81 be d4 07 f6 3c
       -0.24261479 -0.048622068 -0.25304845 0.03003303
000220 2d ba 9b be e0 be 90 bd 60 27 fc 3d d4 53 33 be
       -0.30415478 -0.070676565 0.12312198 -0.17512447
000230 f1 a5 6f be 7b 4a fe 3c fb 5c b1 be ce 79 45 bd
       -0.23403145 0.031041374 -0.3464125 -0.048211865
000240 42 a1 bc 3d 08 0f 9a 3e d9 b2 de 3c 2b da c4 3d
       0.09210445 0.30089593 0.02718489 0.09611925
000250 f7 4c 47 3e 63 18 d1 3d 8e e2 8c 3c 29 46 50 3e
       0.19462954 0.102097295 0.017197873 0.20339264
000260 65 a0 51 be 6d de a8 3d 3f 32 2a 3d dc 36 2b 3e
       -0.20471342 0.08245549 0.041551825 0.16720146
000270 ef 86 06 3e 31 a3 ab 3d 06 37 ab 3e b2 bf c6 bd
       0.1313741 0.08380736 0.33440417 -0.09704532
000280 3b 0c 47 be 32 be 07 bf 8f bb 60 3e 08 ee cd bc
       -0.1943826 -0.5302459 0.21946548 -0.025137916
000290 5b 23 3a 3d 01 f1 db bd 3c 70 e6 be f0 b3 53 bd
       0.045443874 -0.10739327 -0.45007503 -0.051685274
0002a0 e6 f2 90 bd c7 96 8b bd 2c 7d a0 bd ca 97 ae 3e
       -0.07077579 -0.06815868 -0.07836375 0.3410018
0002b0 e7 d3 d3 bd 77 7d 20 be 56 b2 96 bd e5 85 c4 be
       -0.103431515 -0.15672861 -0.07358234 -0.38383403
0002c0 30 d4 9d 3d 26 f9 78 3c 97 cc 22 bf cb 8f 17 bd
       0.07706487 0.01519612 -0.6359343 -0.037002366
0002d0 07 44 4e be 1a 72 2b 3e 61 6b 2f bf 82 10 cc 3d
       -0.20143138 0.16742745 -0.6852322 0.09964086
0002e0 51 ff 5e 3e 2f a4 bd 3e 84 ac a0 3e 56 98 ea be
       0.21777083 0.37039325 0.3138162 -0.45819348
0002f0 ee 64 01 bf ea 95 95 3e c4 a1 99 3e c8 d9 c6 3e
       -0.5054463 0.29215938 0.3000623 0.3883803
000300 ef 41 11 be 88 ab a1 3e b8 01 24 bd 08 77 27 be
       -0.14185308 0.3157618 -0.0400407 -0.16354
000310 7f 9d 77 bd 01 39 32 be 61 73 12 3f d8 38 c2 3c
       -0.060452934 -0.17404558 0.57207304 0.023708746
000320 d2 ab 13 be 87 4a f9 bc 00 02 9a bc a9 12 48 3e
       -0.14421013 -0.030431045 -0.018799782 0.19538368
000330 e6 7b 5f be d6 78 20 be 7e 52 3c 3d 3b 4c 17 be
       -0.21824607 -0.15671095 0.04597711 -0.14775173
000340 37 55 9e 3d a6 ea bf 3c 05 d7 8e 3e 3b 52 f8 3d
       0.07731097 0.023427319 0.27898422 0.12125059
000350 7d 5f 8e be 97 b8 6f bc 24 b2 ab 3d 65 44 b3 be
       -0.27807227 -0.014631412 0.08383587 -0.35013118
000360 5b 2c 0a 3e d3 ab 8d 3e 7b 27 a6 3d 74 f4 73 3e
       0.13493483 0.27670154 0.08112999 0.2382372
000370 9b 4d 3b be 6a 72 01 be 8d 15 c2 be c4 c0 40 3e
       -0.18291323 -0.12641302 -0.37907067 0.18823534
000380 9a 4b a4 3d fe c5 59 3e 44 15 16 be 48 47 2e 3e
       0.08022232 0.21266934 -0.1465655 0.17019379
000390 e7 7d ab be fd f1 03 be ff 0d 79 3e dd e3 43 3e
       -0.33494493 -0.1288528 0.24321745 0.19129892
0003a0 67 83 71 3e 40 c1 48 be 97 32 05 bd 54 a9 8d be
       0.23585282 -0.19604969 -0.03251895 -0.2766825
0003b0 80 99 37 3d a9 b8 5c be 12 e5 51 3e 67 96 82 be
       0.044824123 -0.21554817 0.2049754 -0.25505373
0003c0 6f d5 35 bb ec 84 6a bd 77 48 49 3d 69 2e 05 3f
       -0.0027745625 -0.05725567 0.049141373 0.5202394
0003d0 b5 35 ce bd df c5 a5 3c 94 8a 1d be c4 74 9c be
       -0.100688376 0.020235954 -0.15384895 -0.30557835
0003e0 3e 76 91 be 5e 62 14 be 75 89 eb 3d 99 6e 74 bd
       -0.28410524 -0.14490649 0.11500827 -0.059675787
0003f0 b1 6b dc be 08 27 15 bd 19 83 71 be 78 e8 7c be
       -0.43050912 -0.036414176 -0.23585166 -0.24698055

linears.2.bias f4 [40]
000000 93 ae 55 3c 1b 26 46 bd 4c dd 82 bd 93 cb fb bd
       0.01304211 -0.048376184 -0.06389865 -0.12294688
000010 4e d4 30 be e5 1e fd bc 56 9e 04 bd a0 ae ad 3d
       -0.17268488 -0.03089852 -0.032377563 0.08480573
000020 bd 8a b9 3c e4 d9 2e 3c 9e 95 9d bd 5c b2 4a bd
       0.022649163 0.010672066 -0.07694553 -0.049486503
000030 d4 d5 80 3b 52 b3 ff bb 92 45 53 3d 12 51 bf 3d
       0.0039317403 -0.007803359 0.05158002 0.09341635
000040 cb de ad bd 8b 01 ab bc 36 96 0f bd 6c 34 5e bd
       -0.0848976 -0.02087476 -0.03505536 -0.054249212
000050 8d 67 b6 3d 07 2a 2e bd 63 0b d5 bc a2 35 38 3d
       0.089064695 -0.04252055 -0.026006406 0.044973023
000060 10 db 01 3e f1 96 26 bd bf 27 b1 3c 87 7f 45 bd
       0.12681222 -0.040671293 0.021625398 -0.048217323
000070 3b 8a e9 bc 65 a1 44 bd 79 46 12 3e a3 e4 66 3b
       -0.028508296 -0.04800548 0.14284696 0.0035231493
000080 1a 41 04 be 54 3c 23 3c 29 04 8b bc ab 3f 98 bd
       -0.1291546 0.009963114 -0.016969757 -0.07434019
000090 1c 3d f4 3c a0 39 29 bc 67 f9 ef bd c5 da 63 bb
       0.029814295 -0.01032868 -0.117174916 -0.0034767848

linears.3.weight f4 [40, 40]
000000 25 67 4e be 89 5c 08 3f a0 de 1c bd 0e e6 7b 3d
       -0.20156534 0.532662 -0.03829825 0.061498694
000010 f9 d1 10 be e6 13 a6 3e 23 be 1d be 91 16 92 be
       -0.14142598 0.32437056 -0.15404563 -0.28532842
000020 1b 5c 54 be 62 50 5e 3e 17 09 5e 3e 7e 83 42 3e
       -0.2073826 0.21710351 0.21683155 0.18995473
000030 d5 07 23 bd 0a 40 6f 3e 26 72 6b 3e 82 a2 16 be
       -0.03980239 0.23364273 0.22992763 -0.1471043
000040 32 c9 91 bd 00 ab 47 be 4d 07 50 3e e2 46 a5 3d
       -0.07118453 -0.19498825 0.20315285 0.080701604
000050 ff db 06 3e 9e bc 12 3f 03 55 93 bd c5 c3 4f 3e
       0.1316986 0.57319057 -0.07193949 0.20289524
000060 a9 23 23 3e c8 84 94 3d fa 88 29 bc ae 07 be 3e
       0.15931572 0.072518885 -0.010347599 0.37115234
000070 4c 0c f3 3b ea bd 75 bd 23 f4 6b 3e b9 99 8c be
       0.0074172374 -0.05999557 0.2304235 -0.2746103
000080 15 a4 37 3d b0 4c 2f be 4f 4c 97 bd be 46 8d be
       0.044834215 -0.17119098 -0.073876016 -0.27593035
000090 f8 00 b9 be 62 0b 65 3e b7 de 8c 3e cd d3 01 3d
       -0.36133552 0.22367623 0.27513668 0.03169613
0000a0 8b 75 91 3e f5 85 26 be 53 31 76 3d 88 84 1a 3d
       0.2840999 -0.16262038 0.060105633 0.037724048
0000b0 c0 bd 90 be 23 95 43 3e 08 0c 70 bb 73 37 14 3e
       -0.28269768 0.1909986 -0.0036628265 0.14474277
0000c0 79 88 12 3e c3 54 ce bd ee 02 93 be c9 29 24 be
       0.14309873 -0.10074761 -0.28713173 -0.16031565
0000d0 96 48 1d 3e a2 0e 53 3d 69 4e 1d be 59 b6 1c 3e
       0.1535972 0.051527627 -0.15361942 0.15303935
0000e0 ad 4d 47 be a0 16 b2 bd b3 69 0d be fa 76 50 be
       -0.19463225 -0.086957216 -0.13809852 -0.20357886
0000f0 b4 1c 51 3e f6 14 06 bd 35 62 ab 3d 90 ee 95 3d
       0.20421106 -0.032734834 0.08368341 0.07320893
000100 16 cc aa 3d db 3f 60 bc cc 1b b5 bd 15 c7 67 3c
       0.083397076 -0.013687099 -0.088431925 0.014146586
000110 13 a7 51 be c9 8b 8f be b2 bd 60 3e 55 b3 2f 3d
       -0.2047389 -0.28036335 0.21947363 0.042895634
000120 b8 dc 3b be 8a a0 4a be e9 2d 30 be 29 74 d6 3d
       -0.18345916 -0.19787803 -0.17205013 0.104713745
000130 2e d6 70 be 0a 45 24 be d1 cd cf 3d 6e 3d 8a 3e
       -0.23519203 -0.16041961 0.10146678 0.26999992
000140 a3 11 3a be dc ea 87 3e ba 3b 03 be e5 36 76 3e
       -0.1817079 0.2654637 -0.12815753 0.24044378
000150 fb f0 15 3d 24 6d 96 3d ea f0 8e bd 56 a4 91 bd
       0.03660677 0.07345036 -0.069795445 -0.07111423
000160 32 0e cd bd b6 2f 3c be f8 3f 54 be af 69 50 3e
       -0.10012473 -0.18377575 -0.20727527 0.20352815
000170 40 a2 38 bd 82 b5 9b bd 22 0e ac 3e 86 60 4b be
       -0.04507661 -0.07602979 0.33604532 -0.1986104
000180 5f f9 cc 3d 3a 0e 38 3d 7b 6c f9 bd bf 54 16 3e
       0.10008501 0.044935443 -0.12178894 0.14680766
000190 dd a3 ad 3e d0 98 f8 3d 3d 0b 9d 3e 0d 53 9b 3e
       0.3391408 0.12138522 0.30672637 0.303368
0001a0 80 d3 93 3e 82 fb a1 3e 6e e4 98 3e 04 72 74 bd
       0.288723 0.31637198 0.29861778 -0.059679046
0001b0 08 c0 1e be 20 80 c2 bd 5c a6 5f 3e 75 e5 e2 3c
       -0.15502942 -0.09497094 0.21840805 0.027697304
0001c0 26 1d 17 be fd c5 41 be 65 b6 38 3e a4 89 5b be
       -0.14757213 -0.18923183 0.18038328 -0.21439224
0001d0 d3 98 d7 bd 3f 94 9d 3d 8d 06 95 bd 35 35 af be
       -0.10527196 0.07694291 -0.0727664 -0.3422028
0001e0 45 ba 15 be 00 09 81 3e ce bd d1 bd ed 93 33 bd
       -0.14621837 0.2520218 -0.102412805 -0.043842245
0001f0 6c 70 66 be e7 52 73 be fb 03 14 be d1 d8 80 3e
       -0.22503823 -0.23762093 -0.14454643 0.25165418
000200 23 3c 18 bd 85 32 65 be 1b 0d da 3d ff d9 2f be
       -0.037166726 -0.22382553 0.10647031 -0.17173003
000210 19 2d 06 be 71 ef 5d 3e 65 19 56 3e 8f db 3f bc
       -0.13103141 0.21673371 0.20908125 -0.011710062
000220 d7 d0 5f be 84 51 0c 3d e3 b7 f5 bd a7 ea f1 3c
       -0.2185701 0.034257427 -0.11997964 0.029530836
000230 92 a2 9b 3e 75 da 83 3e d0 fc 7a be d8 ac 8a 3e
       0.3039747 0.25752607 -0.24510503 0.27084994
000240 96 81 94 3e 8d d2 16 3e 9f ef 3d 3e 2b 04 7a 3e
       0.29005116 0.14728756 0.1854844 0.24415652
000250 55 c8 8d be 6b 5c 36 be f0 dd 6e 3b 2d e4 a3 bd
       -0.27691904 -0.17808692 0.0036448203 -0.080025055
000260 3c 15 5a be a3 73 c4 3d 97 9a 40 3e f4 5c 9d 3d
       -0.21297163 0.095923685 0.18808971 0.07683745
000270 c9 be bb bc 4f e9 2a 3e a0 b5 cd 3d 3f cb e9 3d
       -0.022918122 0.16690563 0.10044408 0.11415719
000280 ea 96 49 be cf c7 10 be bd f9 81 3e 55 76 03 3e
       -0.19686475 -0.14138721 0.25385848 0.12838109
000290 79 a6 4b 3e 5f b2 8a bd b4 e9 7c be 2c f8 95 be
       0.19887723 -0.06772303 -0.24698526 -0.29290903
0002a0 12 cd c3 bc 76 a5 a1 be e3 ee 7f be 4c 66 1d 3e
       -0.023901496 -0.3157155 -0.24993472 0.15371054
0002b0 5d af 00 be c4 6c cb 3d 01 e0 4b be 49 bf 25 bc
       -0.12566896 0.09932855 -0.1990967 -0.010116407
0002c0 aa 60 24 3e 2c 9a 74 3e fa a2 60 3e 07 0f 81 3e
       0.160525 0.23886937 0.2193717 0.25206777
0002d0 2f 15 2b 3e 08 42 ff 3b e7 ad 70 be 71 82 35 bd
       0.167073 0.007789854 -0.23503838 -0.04431385
0002e0 f8 77 6c 3e 86 4e 16 3e 0d 95 25 3e dc d6 3d bd
       0.2309264 0.14678392 0.1617014 -0.046347484
0002f0 fe d5 c9 3e fe 13 ab 3e da 2c 9d 3e 4e de 29 3e
       0.39421076 0.3341369 0.30698282 0.16588709
000300 e2 b0 ae 3d 14 79 90 3e 7d 70 96 3d 3b 5c 48 be
       0.085298315 0.28217375 0.07345674 -0.19566433
000310 ce 01 ed 3d 31 7c 73 bc 72 a3 83 be 4a 84 40 bd
       0.1157261 -0.0148611525 -0.25710636 -0.04700116
000320 f8 12 30 3e 50 cf c2 bd 0f e3 f2 3d 49 02 04 3e
       0.17194736 -0.09512198 0.11859714 0.12891497
000330 86 12 f8 3d f3 cb 3f 3e 5c 99 32 be d8 e8 87 3e
       0.12112908 0.18730144 -0.17441314 0.26544833
000340 09 58 9d bd b2 6a 7c be 8e 01 17 3d cb ef 30 be
       -0.07682807 -0.24650076 0.036866717 -0.17278974
000350 af 96 81 3e b3 b5 e8 bd c6 33 47 3d 71 5b 18 be
       0.25310275 -0.113627814 0.04863336 -0.14878632
000360 02 22 ab bd ee 89 58 be 5a 0a b8 bd 34 39 e0 bb
       -0.08356096 -0.21146366 -0.089863494 -0.0068427566
000370 5c 73 04 3d 32 92 53 bd 33 68 49 bd 32 8f 22 be
       0.032336578 -0.051653095 -0.049171638 -0.15874937
000380 fd 67 54 be de 30 99 bd ef c7 a5 bd 21 be f3 3d
       -0.20742793 -0.07480024 -0.08094775 0.119014986
000390 0e 5e 8c 3e 64 bd b5 bd 9d 29 de 3b de 49 64 be
       0.27415508 -0.08874014 0.006779863 -0.22293803
0003a0 fb 5e 0c be 8b 66 b2 3d aa 85 73 3e bb d2 55 3e
       -0.13708107 0.08710965 0.23781458 0.20881169
0003b0 2d 1a 67 3e 0f 4e 79 be c2 24 26 3e e4 ca 59 be
       0.22568579 -0.24346183 0.1622496 -0.21268803
0003c0 17 05 4d be 8c ac a6 3e 36 74 9d 3e 9a 3c 43 3d
       -0.20021473 0.32553518 0.30752724 0.047665216
0003d0 79 03 45 3d ee ce 1b 3e 74 29 65 3e 4d 3e b7 bd
       0.048099015 0.15215656 0.22379094 -0.0894743
0003e0 ca 8d 80 bd 23 54 8d bd 63 a9 0f 3e 40 09 30 3e
       -0.06277044 -0.069008134 0.1402946 0.17191029
0003f0 56 13 9b 3d 1a 89 a8 bd 9c 96 71 3e e0 d5 1a 3e
       0.075720474 -0.08229275 0.23592609 0.1512065

linears.3.bias f4 [40]
000000 cb e5 a5 bb fb 80 09 3d bd 63 d2 3d f2 a9 2e 3d
       -0.005062794 0.03357027 0.1027293 0.04264254
000010 b8 f9 ad 3c 3f 8a bd bc 07 f9 77 bc b2 1b 8c bc
       0.02123724 -0.02313721 -0.015135056 -0.01710305
000020 a3 fd ea bc 62 1b ed 3c a1 05 a7 bc 07 c9 c8 3a
       -0.028685397 0.028943721 -0.020388426 0.00153187
000030 ec f0 bd bc fd 4e 4a 3d d9 bb 3b 3d 8e 38 e0 bc
       -0.02318617 0.049391735 0.045833442 -0.027370717
000040 4c d8 55 bd 21 d8 50 3b 30 53 de 3d 4e fa 94 3c
       -0.05220823 0.0031867104 0.108557105 0.01818576
000050 24 86 a4 bd 26 a0 19 3c f6 65 81 bc 08 47 70 3d
       -0.08033398 0.009376561 -0.01579569 0.05866149
000060 1c 97 78 bd ca 44 48 bd 20 5f 9e bc c3 7d 0b 3c
       -0.060690984 -0.048893727 -0.019332469 0.008513871
000070 44 38 04 3d 4c d2 ac bc 4a 66 4e bd 42 41 07 bc
       0.03228022 -0.021096371 -0.05039052 -0.008255305
000080 ec d1 d0 bc 38 84 82 3d 4c 99 d7 bc ef a2 5d 3d
       -0.025490724 0.06372875 -0.026318215 0.054110464
000090 f0 43 d4 3c 30 81 d9 bb d4 31 02 39 d6 68 97 bc
       0.025911301 -0.006637715 0.00012416329 -0.018482607

linears.4.weight f4 [40, 40]
000000 35 47 94 3d 77 f6 d3 3b 5e 04 3e 3e 2f 08 08 3e
       0.07240144 0.00646859 0.18556353 0.13284372
000010 5b af 62 be fd a6 06 be 61 a3 20 be 23 0f ba 3d
       -0.22137205 -0.13149638 -0.15687324 0.09084918
000020 86 99 fb bc c9 2f ae 3e 99 27 60 be 86 da a4 3d
       -0.030712854 0.34020832 -0.21890105 0.080494925
000030 4e 39 8f be 22 bb 67 bd 83 7b 2f 3e 3c da 15 be
       -0.27973408 -0.056574948 0.1713696 -0.14634031
000040 72 36 d8 3d ef b2 09 be d1 f7 81 3e 60 dd 06 be
       0.105572596 -0.13447164 0.2538438 -0.13170385
000050 6a 83 b9 3d 78 ee 56 bc 0f ff 86 3d 1c 90 77 3e
       0.09058268 -0.013118379 0.06591617 0.24176067
000060 8f 6f 8d bd 77 90 98 be 30 e6 f7 3b a2 bf 24 be
       -0.06906044 -0.29797718 0.0075652823 -0.16088727
000070 7d 19 ad bd 6c a7 1c 3e 1d 82 29 bd 93 fb 2d be
       -0.08452127 0.15298241 -0.04138385 -0.16990499
000080 87 90 72 be 54 47 c6 bd de a3 c8 3d 5d ad 49 bd
       -0.23687945 -0.096815735 0.0979688 -0.049237598
000090 21 bd 34 3e 0c 69 30 3e 29 22 60 3e 5a ca 8f 3e
       0.17650272 0.17227572 0.21888031 0.2808407
0000a0 0f 13 bc 3b 07 a6 35 be 7f 7f 97 3d bc ad 9c 3e
       0.0057395766 -0.17739116 0.07397365 0.306013
0000b0 ec 5b 44 bd 1f 6a ff bd 00 82 01 3e 88 9b 9c 3c
       -0.047939226 -0.12471413 0.12647247 0.019117132
0000c0 b4 91 90 be d6 2a 1e be 5a fb 01 bd 74 93 dc bd
       -0.28236163 -0.15446028 -0.03173385 -0.10770312
0000d0 a3 4d 37 3e ca 26 9e bc 25 47 82 3d 44 38 16 3e
       0.1790071 -0.019305605 0.06361226 0.14669901
0000e0 34 88 81 be 53 de 06 be d5 c2 8c 3e 08 00 88 3c
       -0.25299227 -0.13170747 0.27492395 0.016601577
0000f0 0f be 26 3e 7b 8c f6 bd 67 56 70 3c ca bc 66 be
       0.16283439 -0.12038513 0.014669037 -0.22532955
000100 39 74 51 be 3c 07 6c be 6a 4b 42 3e ea e9 62 be
       -0.20454492 -0.23049635 0.1897408 -0.22159544
000110 97 26 06 3e f9 83 e1 bd 71 5d da bd bd 25 14 be
       0.13100658 -0.110115 -0.10662354 -0.14467521
000120 35 ce 08 3e a5 0c 7b 3e d6 f0 65 3d f3 2f 13 3e
       0.13359912 0.24516542 0.056137882 0.1437376
000130 17 7b 20 3e dd a8 8c be 26 45 95 3e 9e fa 7c 3d
       0.15671955 -0.27472582 0.2915432 0.061762445
000140 e5 7f c2 bd f8 6c 4d 3e 69 26 e8 3d f0 3d 3d 3d
       -0.0949705 0.200611 0.11335451 0.046201646
000150 b3 c7 46 3e b3 56 5c 3d c5 a9 1d 3e 27 a7 98 bd
       0.19412117 0.05379362 0.15396793 -0.07453757
000160 f4 4e 8f be 32 15 3c 3e 9e f9 8e be a4 4a 97 3e
       -0.27989924 0.1836746 -0.27924818 0.29549134
000170 f2 08 54 be db 00 5c 3e 05 8a 3b be dd 84 01 be
       -0.20706537 0.21484701 -0.18314369 -0.1264834
000180 ab 1d 41 be 3e c2 8f 3d a7 f0 3b 3e 51 c8 f5 bd
       -0.18858974 0.07019471 0.1835352 -0.12001098
000190 a5 ab 19 3e 67 0b b8 3d 99 25 39 3d cf 94 b3 3d
       0.15006883 0.0898655 0.04520187 0.08768617
0001a0 f3 29 95 3d 8b bd 32 be 80 2d 51 be 60 ff 26 3c
       0.07283392 -0.17455117 -0.20427513 0.010192722
0001b0 c3 41 49 3e d2 f3 ed bc 42 8b be 3d 83 8f bc bd
       0.19653992 -0.029046927 0.09303905 -0.0920706
0001c0 f7 13 48 bd 5a c6 ce 3c 8b 5c 31 bd f5 94 84 3d
       -0.048847165 0.025241066 -0.043301146 0.06473724
0001d0 be 59 4f 3e 80 3f 32 3e 5d ea 1d 3e 81 bf 0e be
       0.20249078 0.17407036 0.15421434 -0.1394024
0001e0 03 32 51 3e fc a1 20 be 96 61 71 be 34 de 53 3d
       0.20429234 -0.15686792 -0.23572382 0.05172558
0001f0 3f 09 1b 3e d0 89 37 3e 3b 31 f4 3a 8a b3 7d 3d
       0.15140246 0.17923665 0.0018630394 0.0619388
000200 a3 fe b7 bd 31 db 34 be bd 77 1c 3e c1 ad 74 bd
       -0.08984115 -0.1766174 0.15280052 -0.059736017
000210 04 fb 26 3e a5 db c6 bc 34 3f 39 3e bb 41 fc bd
       0.16306692 -0.024274657 0.18090516 -0.123172246
000220 ab 35 64 be 02 5a 6c 3e 77 98 1b be 00 53 8a 3d
       -0.22286098 0.2308121 -0.1519488 0.06754112
000230 2d 2d 7b bd c5 5a c4 3c 9f 7a 41 3d bb 9a c3 bd
       -0.06132238 0.023969064 0.04723608 -0.09550997
000240 f7 44 70 be 4d 02 8e 3c c8 7b 1f be 12 2c 9a 3d
       -0.23463808 0.017335081 -0.15574563 0.07527937
000250 05 2d 30 3d 36 5c 98 bc a1 c1 43 3e 6f 7e 79 3e
       0.043011684 -0.018598657 0.19116832 0.24364637
000260 48 7e 85 be 2b 88 ba 3b b1 8c b5 bd ba ac 05 be
       -0.26072907 0.005692502 -0.088647254 -0.13054171
000270 63 b0 56 be 47 cf 1a 3e 5f 47 1b bd e9 93 1f 3e
       -0.20965724 0.15118133 -0.03790986 0.15583767
000280 bc 15 37 be 61 82 89 bd be e6 63 be e6 84 44 be
       -0.17879385 -0.06714321 -0.2225599 -0.19191322
000290 1d ca 07 be 75 c8 59 be 70 88 49 be 5c 4f 67 3e
       -0.13260694 -0.21267875 -0.19680953 0.22588867
0002a0 92 b0 88 be b0 af 85 bb 14 41 2d 3b 1e e5 ce 3d
       -0.26697212 -0.0040797815 0.0026436495 0.101022944
0002b0 1b 0d 5c 3d 3a 0b 71 3e c2 69 2b be fd 45 11 be
       0.053723436 0.23539439 -0.16739562 -0.14186855
0002c0 b0 0b 2f 3e ad ab db 3d 45 17 42 3e 61 95 82 be
       0.17094302 0.10726104 0.18954189 -0.25504592
0002d0 1e 8d c5 bd 1a cc 19 3e e1 fd cf 3d f8 ac 61 be
       -0.096460566 0.15019265 0.101558454 -0.22038639
0002e0 3c 05 d2 bd b0 be 6d be e6 24 73 bc 29 eb 6c 3e
       -0.10254905 -0.23217273 -0.01484034 0.23136581
0002f0 96 ef d3 bd ad 5e b2 3d c9 2c 2e 3e c9 4e c8 3d
       -0.10348432 0.08709464 0.17009272 0.09780652
000300 40 2d 1b be 07 0c 46 3d 8a 38 94 3d 59 bd f4 bc
       -0.1515398 0.048351314 0.072373465 -0.029875444
000310 4f 86 11 be c0 64 49 3e 22 6e 40 be 24 82 24 3e
       -0.14211391 0.1966734 -0.18792012 0.1606527
000320 e5 93 b1 bc 5e 5f aa bd 58 f2 76 be 00 29 38 3e
       -0.021676967 -0.08318971 -0.24115884 0.1798439
000330 4d 7a 3a bc ad 69 ac 3c 2b a9 59 3e 82 24 e4 3d
       -0.011381698 0.021046484 0.21255939 0.11139776
000340 57 84 57 3e e5 a9 40 bd c7 d6 56 be 37 c2 71 be
       0.21046577 -0.047037024 -0.20980369 -0.23609243
000350 c4 fd 32 3e 83 bb 9d 3c 85 f4 2a 3e c3 42 b3 bd
       0.17479616 0.019254452 0.1669484 -0.08752968
000360 6d f9 56 be 68 c2 a7 bc 86 ab ed bd 65 6d 3e 3e
       -0.20993586 -0.020478442 -0.11604981 0.18596418
000370 79 4b 4b 3c 27 8c 17 3e 76 c9 ef bd b6 3a e4 bc
       0.012408131 0.14799558 -0.117083475 -0.027860027
000380 c2 2b 90 bb d3 0a e9 bd 7c 51 3d 3e 50 8b 53 be
       -0.0043997476 -0.11379018 0.18488115 -0.20658612
000390 30 9a 41 be 71 b5 bd bd 45 9d 9e be ae b2 44 3e
       -0.18906474 -0.09263123 -0.30979362 0.19208786
0003a0 c5 0f 8b bd aa 50 0e be 4b 34 8c 3d 3c 8d f7 3d
       -0.06790117 -0.13897958 0.068459116 0.12087485
0003b0 56 2c 09 bc c1 2a 60 be c8 ee ce bd 28 32 d0 3d
       -0.008372387 -0.2189131 -0.10104138 0.101658165
0003c0 31 13 d4 bc 21 22 e2 3d 96 f5 1e 3d 87 9d 58 3e
       -0.025888057 0.11041666 0.038808428 0.21153842
0003d0 6b 55 7b be 3d 1b bb bd 01 59 25 be 08 5b 45 3e
       -0.24544303 -0.09136055 -0.16147234 0.19273007
0003e0 2a 1e 8e bd 04 4f 5e bd 8c d6 ab 3d 69 f2 98 3e
       -0.06939347 -0.054274574 0.08390531 0.29872444
0003f0 b1 a3 1a 3c 98 90 a6 bd 18 dd 8f 3c 5c ce 8d be
       0.009438441 -0.08133048 0.01756148 -0.27696502

linears.4.bias f4 [40]
000000 df ff 25 3d b0 01 27 3d 3b fe e7 3c b0 83 17 3c
       0.04052722 0.040773094 0.028319469 0.009247705
000010 58 cd 84 bc 6c cc 8b bc 69 81 05 3c 05 60 21 bb
       -0.016211197 -0.01706525 0.00814853 -0.0024623882
000020 23 93 4f 3c 28 4f da 3c bd 91 38 bd e3 db e3 3c
       0.0126693575 0.026649073 -0.04506086 0.027814811
000030 ae 9e 9a 3c 46 35 38 bd 10 05 70 3c bc 4d a1 bc
       0.018874492 -0.04497268 0.0146496445 -0.019690387
000040 2c dc c2 bb d6 c6 1e 3c 02 d0 74 3c d4 db ca bc
       -0.0059466567 0.009690961 0.014942171 -0.024763025
000050 30 58 2b 3d 27 02 80 3d df 73 db bb 1c 70 4b 3d
       0.04183215 0.062504105 -0.0066971625 0.049667463
000060 55 44 dd bc 1b a9 28 bd bf 71 1a 3c cc 28 02 3d
       -0.027010122 -0.041176897 0.009426533 0.03177719
000070 e4 ce 44 bd ed f8 d0 bc 39 11 e8 bc 6e 3e 99 ba
       -0.04804887 -0.025509322 -0.028328525 -0.0011691579
000080 8e 19 1b bd 12 c6 96 3d 23 93 d0 bc dd eb 4f 3d
       -0.037866168 0.07361998 -0.025460785 0.050762046
000090 d0 21 16 3d 55 79 b7 bc 40 f9 a1 3c 12 3c 74 3a
       0.03665334 -0.022396723 0.019772172 0.00093168125

linears.5.weight f4 [3, 40]
000000 c8 a8 80 3d ad bb 1a 3e 9e 00 a8 3e 9e 45 8e 3c
       0.062821925 0.15110655 0.3281297 0.01736718
000010 91 fd 92 be c3 36 41 be 8f b6 5f be ea 87 07 3e
       -0.2870908 -0.18868546 -0.21846984 0.13235441
000020 06 70 8c 3e d5 20 9f 3e ea a5 80 be 74 69 40 3e
       0.27429217 0.31079736 -0.25126582 0.18790227
000030 ba 85 32 3e 41 31 9f be bd 14 82 3d 1d bd 05 3d
       0.17433825 -0.31092265 0.06351612 0.032651056
000040 04 5c 82 3c b5 86 bd 3e 2e ca d2 3d d7 59 19 bd
       0.015913017 0.37016836 0.10292469 -0.037439194
000050 7a 1f 71 3e 62 f2 a5 be ed 9d 42 3e 89 49 d4 3d
       0.23547164 -0.32411486 0.19005556 0.10365588
000060 da 83 e1 be bb 13 a3 be 97 db f3 3d ef 60 4f 3d
       -0.44045907 -0.3185099 0.11907118 0.050629552
000070 8a c2 ff 3e f3 b2 50 be 41 ec 2b be 0b 4d 95 be
       0.4995311 -0.20380764 -0.16789342 -0.29160342
000080 98 41 4d be 42 7b b4 3e 6d b6 96 be d9 72 10 3e
       -0.20044553 0.35250288 -0.29436055 0.14106311
000090 0c 1b 1f 3e 38 59 4b be 34 78 de 3e 6a 3c 62 bd
       0.15537661 -0.19858253 0.43451083 -0.055233397
0000a0 7e 86 0a be 54 ff bd bd 72 31 9e 3e 5f 21 98 be
       -0.13527867 -0.092772156 0.308971 -0.2971296
0000b0 d5 2e 4f be 61 d3 8d be ab c4 05 be f4 f0 7b be
       -0.20232709 -0.27700332 -0.13063304 -0.24603635
0000c0 69 d9 22 3e a8 d1 82 3e b6 22 a6 3e a6 3c 33 3e
       0.15903248 0.2555058 0.32448357 0.17503604
0000d0 75 33 0b 3e ce 23 37 bd 34 ca 31 3e 25 4c 5c 3e
       0.13593848 -0.04471188 0.1736229 0.21513422
0000e0 ad f5 02 3e a3 ca 50 3e ae df 55 be de 3e 71 3e
       0.1278903 0.203898 -0.20886108 0.23559138
0000f0 27 8b a3 be 03 da 64 bd 96 81 89 3e 07 8f 00 3e
       -0.31942102 -0.055871975 0.2685668 0.1255456
000100 da d5 bf bd 86 a2 af 3d 28 d2 57 be 34 fc 24 be
       -0.09366961 0.08575921 -0.21076262 -0.16111833
000110 52 4a 11 be db bf ed 3d b8 90 ac 3e 5c 58 df 3d
       -0.14188507 0.11608859 0.33704162 0.10905525
000120 0d 19 67 bd 40 fd 8c 3c 36 00 b7 bd bc 2d e5 3d
       -0.056420375 0.017210603 -0.08935587 0.11190364
000130 a3 6b a7 be 88 a3 59 be e4 b5 ec 3d c0 f7 4a be
       -0.32699308 -0.21253788 0.115581304 -0.19821072
000140 6e de 05 3e 52 35 1e 3d 31 92 a9 be 9f bf 95 be
       0.13073131 0.03862507 -0.33119348 -0.29247758
000150 3c 52 94 3e 8a 44 90 be 42 f0 93 bd 1d f2 73 bd
       0.2896899 -0.2817729 -0.0722356 -0.05955707
000160 58 b5 f9 3d ec e7 4c bc 18 cd 23 3d 04 6a 38 bd
       0.12192792 -0.012506466 0.039990515 -0.04502298
000170 81 ba a5 be 07 ad 15 3e fc 05 06 bd a3 f1 37 3e
       -0.32368854 0.14616786 -0.03272055 0.17963271
000180 d6 15 2e be c8 e7 37 be 72 b0 c1 3e 30 30 80 be
       -0.17000517 -0.17959511 0.3782993 -0.25036764
000190 e6 b3 88 3e 14 ad 3d 3e fb 93 cc be 0b 8e a6 3e
       0.26699752 0.18523055 -0.3995665 0.32530245
0001a0 ae a5 63 be 69 97 c2 be 54 02 99 3e d1 6c 1f be
       -0.2223117 -0.38006142 0.2988459 -0.15568854
0001b0 af b5 f1 3d 53 0f 92 3e 58 0e 28 3e dd ff 8c 3d
       0.118022315 0.28527316 0.16411722 0.068847395
0001c0 f7 92 af be 62 f4 86 3e ca f6 4c 3e 81 5a 02 3e
       -0.34291813 0.26358324 0.20016018 0.12729837
0001d0 b2 df 25 3d 48 7e 97 be ee c4 87 bd 94 52 42 3d
       0.040496536 -0.29588532 -0.06629358 0.047442034

linears.5.bias f4 [3]
000000 40 95 40 3d 49 73 b0 bc 00 00 00 00
       0.047017336 -0.021539347 0.0

exp_avg f4 [40, 2]
000000 7e 25 e9 3c e3 2f 1d 3d b2 67 ed 3b f9 9b 1e 3c
       0.02846026 0.038375746 0.0072450275 0.0096807415
000010 9f 0d 60 bb 3b b2 8c bb 2a 14 a6 3c 59 6b dd 3c
       -0.0034187806 -0.0042937077 0.020273287 0.027028726
000020 9c 7c 22 bc 5d 91 5b bc 71 ac e4 bb ce fb 20 bc
       -0.0099174045 -0.0134013565 -0.0069785644 -0.00982566
000030 13 49 4e 38 e7 0b 51 39 3b 8e a4 bc 50 0e db bc
       4.9182283e-05 0.00019936227 -0.020087352 -0.026740223
000040 0a 10 34 3c d1 89 75 3c 0d a4 62 bc 60 c7 99 bc
       0.010990152 0.014986471 -0.013833058 -0.018771827
000050 77 7c 58 3c f2 6e 93 3c 33 10 65 3a 81 2a a7 3a
       0.0132132685 0.017997239 0.00087380706 0.0012753756
000060 f0 3f 56 bc 05 85 8f bc 83 a4 1b bc 8f 84 58 bc
       -0.013076767 -0.017519483 -0.009499672 -0.013215198
000070 f1 33 77 bb 74 84 a3 bb 2a 33 1b bb d5 cb 61 bb
       -0.0037720168 -0.004990155 -0.002368162 -0.0034453769
000080 3f 83 3f 3a 64 6b 78 3a 2f 0c 44 bc 94 eb 83 bc
       0.0007305629 0.00094764517 -0.011965795 -0.016103543
000090 3f 91 15 ba a9 f1 8d ba d2 37 74 bc 1d 02 a8 bc
       -0.0005705542 -0.0010829467 -0.014905887 -0.02050882
0000a0 e9 86 21 bc c4 80 5a bc d3 c5 97 3b 18 96 cd 3b
       -0.009858825 -0.013336364 0.004631737 0.006273996
0000b0 ce ad 17 3c 5e b8 4a 3c ad f3 ae bc f6 4b eb bc
       0.009257747 0.012373058 -0.021356428 -0.028722744
0000c0 fa cb 0a bc f0 6a 3b bc e6 92 04 3c 2b 90 30 3c
       -0.008471483 -0.01143907 0.008091664 0.01077656
0000d0 fc c2 5e 3c 6b ff 95 3c a4 83 59 bc c1 17 94 bc
       0.013596293 0.01831027 -0.0132760145 -0.018077733
0000e0 b1 43 ae bb e0 de e9 bb 1f 68 47 bb 7c 78 8b bb
       -0.005318128 -0.0071371645 -0.0030427051 -0.004256306
0000f0 c6 7d 8e 3c 51 e8 bd 3c 69 7f 26 3c df f5 60 3c
       0.017393958 0.023182066 0.010162213 0.013730495
000100 65 82 5c bc 10 1f 94 bc 3c ff 59 bc be 23 90 bc
       -0.013458823 -0.018081218 -0.0133054815 -0.017595168
000110 ed 33 93 3b 6c 37 b7 3b c6 ed 8e bc 32 f5 bd bc
       0.004492274 0.0055913236 -0.017447364 -0.023188207
000120 a1 ec 91 3c e4 4e c5 3c be ec 34 bd 1f ba 73 bd
       0.017813029 0.02408547 -0.044171087 -0.05950367
000130 71 fc 27 3c 42 d0 62 3c 00 d1 5e 3c 06 dc 95 3c
       0.010253058 0.013843598 0.013599634 0.018293392

exp_avg_sq f4 [40, 2]
000000 44 a9 04 3d 76 47 7e 3d 14 13 08 3b ed 31 87 3b
       0.032387987 0.06207987 0.0020763325 0.0041258247
000010 79 8c e4 39 51 00 5b 3a 50 19 87 3c 27 b4 ff 3c
       0.0004359221 0.0008354234 0.016491562 0.031213833
000020 b2 97 8b 3b a6 55 09 3c 09 47 fb 3a ca 87 8a 3b
       0.004260027 0.008382237 0.001917095 0.004227613
000030 2c 97 0f 37 e8 ad b5 36 99 7e 8c 3c 25 ba 03 3d
       8.558662e-06 5.4144657e-06 0.01715021 0.032159943
000040 f7 ca ae 3b 78 2d 31 3c 48 64 02 3c fa d4 79 3c
       0.005334254 0.010814063 0.007958479 0.0152485315
000050 d8 89 02 3c 02 79 80 3c 0e fa 57 38 d6 82 10 39
       0.007967435 0.015682701 5.1492876e-05 0.0001378165
000060 0f 06 e8 3b 99 25 5f 3c 28 80 7e 3b f1 56 02 3c
       0.0070808004 0.013619804 0.0038833711 0.007955299
000070 f7 c1 2f 3a 7b 7b bb 3a 44 3e 75 39 e9 05 0e 3a
       0.0006704623 0.0014303768 0.00023388217 0.0005417751
000080 a4 42 d9 37 30 c8 2f 38 0a a1 ce 3b 16 89 44 3c
       2.5899448e-05 4.190969e-05 0.0063058184 0.011995574
000090 70 c7 43 38 6a 9c 14 39 5e 85 17 3c 8e a8 97 3c
       4.6677364e-05 0.00014172649 0.009248106 0.01851299
0000a0 ca 2c 87 3b d0 1f ff 3b f1 26 59 3a ec 78 e2 3a
       0.0041252123 0.007785775 0.0008283696 0.0017278469
0000b0 d8 33 62 3b da 6c d9 3b 99 37 9e 3c e3 c0 19 3d
       0.0034515765 0.0066352906 0.01931362 0.037537467
0000c0 31 6a 34 3b 46 64 ab 3b cf d0 2d 3b d2 33 a4 3b
       0.0027529115 0.0052304594 0.0026522165 0.0050110603
0000d0 55 37 fc 3b 5c 3f 72 3c 1c 94 f6 3b 05 71 6f 3c
       0.007697026 0.014785614 0.00752498 0.014614348
0000e0 b3 95 9b 3a 60 b0 12 3b 2b 48 cb 39 55 56 46 3a
       0.0011870175 0.002238296 0.00038772947 0.0007565965
0000f0 f9 3c 45 3c 54 f4 bc 3c b0 bd 8c 3b 22 35 0a 3c
       0.012038463 0.023065723 0.0042950734 0.008435519
000100 67 e6 f7 3b c7 33 70 3c 12 f5 ea 3b 93 0a 56 3c
       0.007565308 0.014660782 0.007170328 0.0130640445
000110 0f 7e 5e 3a 4f d7 bd 3a 40 8e 54 3c 43 12 c9 3c
       0.0008487412 0.0014483723 0.012973368 0.02454484
000120 5a 22 62 3c ff d5 db 3c fe 21 a9 3d a7 d9 1f 3e
       0.013802135 0.02683544 0.082584366 0.15610372
000130 63 65 93 3b 50 7b 10 3c 5e f1 00 3c 20 ec 7d 3c
       0.00449817 0.0088184625 0.007870046 0.015498191

exp_avg f4 [40]
000000 25 ee 21 3d bd de 23 3c 76 2b 8e bb 77 90 e3 3c
       0.039533753 0.010001835 -0.004338677 0.027778847
000010 5a b5 62 bc cb b6 25 bc 25 2c ac 39 87 e1 e1 bc
       -0.013837183 -0.010114382 0.00032839287 -0.02757336
000020 69 ea 7c 3c 5b 13 9f bc 77 8f 98 3c 12 e0 a5 3a
       0.015436747 -0.01941841 0.018623097 0.0012655279
000030 ca 5f 94 bc b8 da 5f bc 41 bb a3 bb 97 b2 68 bb
       -0.018112082 -0.013662986 -0.0049966876 -0.0035506838
000040 c2 88 81 3a 55 4e 88 bc 81 fe 87 ba 05 d4 ad bc
       0.0009882676 -0.016638914 -0.0010375531 -0.021219263
000050 ec 3f 61 bc 5f 2c d4 3b 7b 2a 51 3c fd 35 f3 bc
       -0.01374815 0.006475016 0.012766476 -0.02968883
000060 64 61 41 bc a7 f0 35 3c 35 42 9a 3c 3c de 98 bc
       -0.011803005 0.011104739 0.018830398 -0.018660657
000070 44 18 f2 bb f4 f2 91 bb 35 b6 c2 3c 5d da 67 3c
       -0.0073881466 -0.004454011 0.023768524 0.014151183
000080 e2 8f 98 bc c8 b5 93 bc 28 9c bb 3b 0a f2 c3 bc
       -0.018623296 -0.018031016 0.0057254024 -0.023919124
000090 47 59 cc 3c 5f 4f 7c bd e3 eb 6a 3c 38 e5 9a 3c
       0.024944915 -0.06159913 0.014338466 0.018908128

exp_avg_sq f4 [40]
000000 16 31 80 3d b4 c0 88 3b b2 57 61 3a ed 3c 01 3d
       0.062593624 0.0041733626 0.00085961365 0.031552244
000010 29 22 09 3c 19 27 8b 3b 5f 8c ff 36 21 ec 05 3d
       0.008369961 0.004246604 7.6159336e-06 0.032695893
000020 da c2 32 3c aa ca 7b 3c 67 06 82 3c 38 79 18 39
       0.010910714 0.015368143 0.015872194 0.00014541007
000030 b6 ab 61 3c 9d bf 04 3c 67 18 ba 3a 89 bd 18 3a
       0.013773849 0.008102325 0.0014197946 0.0005826583
000040 d8 23 38 38 9a 4d 46 3c 4b 7a 0b 39 ea c0 98 3c
       4.39024e-05 0.012103463 0.0001330163 0.018646676
000050 d4 4c 00 3c 72 08 e9 3a 5d 7a da 3b d3 fb 1b 3d
       0.007830817 0.0017779006 0.006667419 0.038081955
000060 7f e9 ad 3b 95 ad a6 3b 74 65 73 3c 8b ff 71 3c
       0.005307376 0.0050866106 0.014855731 0.014770399
000070 52 c0 13 3b 00 1e 44 3a 8f fe be 3c 6b 79 0c 3c
       0.0022545052 0.0007481277 0.023314742 0.00857387
000080 6e e1 72 3c b2 f5 58 3c 16 30 c2 3a 07 88 ca 3c
       0.014824254 0.013242172 0.0014815356 0.024723066
000090 51 a1 df 3c 02 3f 21 3e 9a d1 13 3c f3 6f 81 3c
       0.027298601 0.15746692 0.009022141 0.015800452
