Lid_Driven_Re100/saved_models/VA-21000.pt (torch, 95111 bytes, 36 tensors)

linears.0.weight f4 [40, 2]
00000000: 667e f2bd 9cc2 4c3e 0523 c83e 4ffa c33d
00000010: c1ab 383e 51e0 6fbe 54f6 66be a2d6 ba3e
00000020: 65e2 46be e824 78be 6f38 a33e 2045 f13c
00000030: 2a24 d83e 87ef a4be 867a 593d bc67 70be
00000040: b00a 93be a767 813e de37 7fbe 98a7 ecbd
00000050: e612 d43d e9cd eb3d 84e0 3ebe ae53 7dbe
00000060: 3926 b9be 8993 95bd b6f1 5d3e 82c1 c4bd
00000070: a2bd a73e accf 92be cabd ca3e 61f6 af3e
00000080: 1719 8fbd 88b6 90be a54e b3bd dd0d 40be
00000090: d6b1 d43e c7a8 99be 45e1 0d3e 90ca 8cbd
000000a0: 7cf1 153d 0f42 6abd 8fc2 aabe b575 28be
000000b0: 79cb 2f3e 3f2e a93e 5575 a0bd 7005 1cbe
000000c0: b2fb 8dbd 5b4a c6be a95b f8bc a8a7 bfbd
000000d0: 1bdf 30be 03e3 403e bc6b 4dbe 13db f2bd
000000e0: 7138 253d 6583 8e3e ab5e dbbe 926c 913d
000000f0: 46b8 76be 1903 8c3e 7b00 923e 8daf 6d3d
00000100: da92 40be 9369 f8bd 2e65 ba3e 7b4e dabe
00000110: fe1b c43d 62e1 3f3d f97c af3c 5f7b 12be
00000120: 991a 193e 46ab ec3d cdb0 9fbd eb28 bbbd
00000130: 6274 00be 8d0b 0e3e 6af0 393e e3cc 823e
-0.11840515 0.19996113 0.39089218 0.09569227 0.18034269 -0.23425414 -0.22554904 0.36491877
-0.194223 -0.24232829 0.31878993 0.029451907 0.4221509 -0.32213995 0.053095363 -0.23477072
-0.2871909 0.25274393 -0.24923655 -0.115554035 0.10355167 0.115138836 -0.18640333 -0.24738953
-0.36161974 -0.07303531 0.21674237 -0.09607221 0.32761866 -0.28674066 0.39597923 0.3436766
-0.069872074 -0.2826426 -0.08755235 -0.18755288 0.41541928 -0.3001158 0.13855465 -0.06874573
0.03660725 -0.057191905 -0.3335156 -0.16451152 0.17167462 0.33043095 -0.07834879 -0.15236449
-0.06932773 -0.38728604 -0.030317144 -0.0935815 -0.17272608 0.18836598 -0.20060629 -0.11858191
0.04033703 0.2783462 -0.42845663 0.07100786 -0.24093732 0.27346113 0.28515992 0.058028746
-0.1880602 -0.12129512 0.3640532 -0.42638 0.095756516 0.0468458 0.021421896 -0.14304875
0.14951552 0.11556105 -0.07797394 -0.09138664 -0.12544397 0.13871594 0.18158117 0.2554694

linears.0.bias f4 [40]
00000000: e646 03be 5cab b1bd c8f6 593c d0a4 1dbe
00000010: a77d f43d ca8b 613e 2aa8 1dbe 90ae 8a3d
00000020: c438 febd 5fa5 2d3e 1696 91bd f33a 95bb
00000030: 8323 b63d 439b 0b3e 3212 b13c 9daf 4c3d
00000040: 8e5e ebbd dcc2 ae3d 5aa9 7ebc 32e2 a53e
00000050: bbf2 2f3d 2901 06be 986b 06be 8d7a ed3d
00000060: fa7c 1a3e d2b5 85bd 598d f2bd f012 b73d
00000070: cfdc 0c3e 8d04 653d a740 c6bd 4899 a8bd
00000080: b98c b23d c1d5 8b3d 0f9b 5fbc db93 933d
00000090: f5fc dbbd 33da 4f3e 8249 85bd 4a5f e0bd
-0.12820014 -0.08675262 0.013303466 -0.15394902 0.11938029 0.22025982 -0.15396181 0.067715764
-0.12413171 0.16957615 -0.07108705 -0.0045541464 0.08893492 0.13633446 0.021615122 0.049972165
-0.11492644 0.0853326 -0.015543306 0.32399136 0.042956095 -0.1308638 -0.13126981 0.1159564
0.15086737 -0.0652882 -0.11843366 0.08939159 0.13756107 0.055912543 -0.096803 -0.08232361
0.08718247 0.0682788 -0.013647809 0.072059356 -0.10741607 0.2029808 -0.06508161 -0.10955675

linears.1.weight f4 [40, 40]
00000000: 02cd 87be e680 8f3d 2101 aa3e e11a 8f3d
00000010: f733 ae3d 6bf0 a43e 1344 773e eef9 0cbe
00000020: c36f d6bd e3a4 a53c 538b 72be 841c fdbd
00000030: c8f5 2d3d 6e75 b1bd 6149 b73e 946b f3bc
00000040: d3c3 7fbd 678f 33be b735 1e3e 1351 483e
00000050: df7a b8bd 736e 9dbe 3170 113e 136f 0b3e
00000060: d4d5 593e 10c9 5c3e d46d 4c3d 8707 833c
00000070: 2a38 44be 7923 a63d bc14 acbe b043 863d
00000080: 7ee2 173e 1a92 25bd 1d56 40be 4ced 003e
00000090: bd83 713e ece4 05be d0bf 6e3c 7583 47bc
000000a0: 87b9 8dbe 7f56 473d 3410 a33e a1dd 1ebe
000000b0: c324 953b ece6 1f3c 6e6f e83d eb50 8c3e
000000c0: 58cf 0b3e cdf1 433e c49b 35be 4da5 74be
000000d0: c687 bf3d 91f7 d03d d51a 913e b8cf 763d
000000e0: 4eb9 1e3d 2971 b4bc 34a8 5e3e 716f ebbd
000000f0: c3be 2e3e 2033 7ebe f6fe 5cbe 9300 733e
00000100: dae5 03be 421d 2d3d 74a8 80bc 842f 853e
00000110: add3 fd3d a584 803e 2db6 d6be ff0c 9cbd
00000120: f0f1 3a3d 482d ad3e 8e31 70be efa4 bdbd
00000130: 5ac0 e23d 5d90 e53e d696 a2bb f7e0 263e
00000140: 5d8a b5bd d568 1ebe 07ee 5ebe 7773 80be
00000150: 7539 17be 4fed 6f3e 9d75 9e3d 50f7 43be
00000160: 0202 03bc 124b 00be f1d0 35be cacb 03be
00000170: adda fc3d 859c 0ebe b27f e73d acce 41be
00000180: b6d6 193e c831 b3bd 8ee3 1abe 5dbf 56be
00000190: bb76 483c 7766 7e3e a80e 24bd 041a 8f3e
000001a0: e14e 6ebe 2d1d 3a3e 1d69 35be 3a68 bbbd
000001b0: 54f1 8dbd fae9 d93d 5880 d73d c331 1b3e
000001c0: 52ad 6ebd a946 48be 046f 793e 926e 5bbe
000001d0: f463 7cbe 30f4 7c3e 6427 dc3d 533d 45be
000001e0: 1e4a 45be dd22 3fbd 55ca 9d3e 7c13 80be
000001f0: 0408 583e c192 153e a5b6 dd3e 3442 73be
00000200: 6a7e c4be e7db dfbe 8c02 233e a45e 32be
00000210: 3e87 1ebe 20a9 b8bb 5214 dc3e 80fb 8bbe
00000220: bf8a ad3d 7001 9cbe f73e b13e 7345 63be
00000230: 51b7 04bd 9704 533d 381b 423e 2c4f 233e
00000240: a085 21be d082 0ebe adc6 b8be 3931 70be
00000250: 1581 a6bd ceeb a5be 515a 34bf 97a4 d0bd
00000260: af31 f73d 93f2 fd3e b0de 8abc 4d60 3eba
00000270: bc00 663e aeef 03bf 8a8e 4bbe 6bd7 e03d
00000280: 318c 9b3d 6575 82be 62e6 a2bd 3ec4 6f3d
00000290: 583a 8f3e 99e0 493c bb24 583e 6e18 623e
000002a0: ab4c 23bd f712 443e 51c4 31be 8a37 df3a
000002b0: 6052 9d3e 157a 7a3e 4544 323e d622 2ebe
000002c0: 02b7 063c 7769 b73d 4efe 843d 4f15 983e
000002d0: 1559 6f3d 6a3f 393e cdc0 6ebe e24c 613e
000002e0: 94e2 efbd f655 f13d 0834 73be 8792 9a3e
000002f0: 2145 7a3e e055 3b3e 31f9 81bd 7857 cfbd
00000300: e894 90bd d277 f7bd 455a 7c3e 8bab 09be
00000310: 3635 20be 0f90 183e c1af 143e 9fec bbbd
00000320: 6a57 123e 4506 f73d f9ce 7c3e b595 7e3d
00000330: 3ac9 e13d aa3a 4dbe c6dc ac3d 26bb 133d
00000340: c3a5 2fbd 914d 623e 36e1 51be 1cf8 883b
00000350: 9357 913d dc64 913d ce9a dd3d f950 ab3d
00000360: 2aed 023e 3cf1 fb3d 5ff4 013e 8967 94bd
00000370: 2db2 2ebe 7ce8 7ebe 1fd4 51bd 64d0 a43e
00000380: c009 5bbe ac43 c8bd 7e14 073e 7fce fc3c
00000390: 9995 7ebe a68a 843e 5cd7 79bd a5c7 f63d
000003a0: 1a4c 0abe f086 42be 21ec 923b 9a2c dbbd
000003b0: 48eb 023d fb3d cbbb 459b 40be cd24 8fbe
000003c0: b0c3 c0be d740 a73d 8a35 083e a15c 4cbe
000003d0: 6875 4f3e 5b45 383e a406 4c3e 573f 353e
000003e0: 9c1e b4bd e5b1 983e 57ae fb3c 9c58 513c
000003f0: 82d8 483e 703f 6a3e bd5d 473e 065b 70bd
-0.26523596 0.07007007 0.33203986 0.069875486 0.08506005 0.32214674 0.24147062 -0.13767216
-0.104705356 0.020220226 -0.2368596 -0.123589545 0.042470723 -0.08664976 0.3579817 -0.029714383
-0.062442612 -0.17535172 0.15450178 0.19562177 -0.09007811 -0.3074833 0.14202954 0.1361659
0.21272975 0.21561074 0.049909428 0.0159948 -0.1916205 0.081122346 -0.3360957 0.06555879
0.14832494 -0.040422536 -0.1878285 0.12590522 0.2358541 -0.13075608 0.014572099 -0.012177338
-0.2768061 0.048666473 0.318483 -0.15514232 0.0045515015 0.009759646 0.113493785 0.27405486
0.13653314 0.19135208 -0.17735201 -0.23891182 0.093520686 0.102034695 0.28340784 0.06025669
0.03875094 -0.022026615 0.21743852 -0.11495865 0.17064957 -0.2482419 -0.21581635 0.23730688
-0.1288065 0.04226423 -0.015705325 0.26012814 0.123938896 0.251012 -0.41935864 -0.07619666
0.045640886 0.3382361 -0.23456404 -0.09259974 0.110718444 0.44836703 -0.0049618287 0.16296755
-0.08864281 -0.15469678 -0.21770488 -0.25088093 -0.14768012 0.2343037 0.07737277 -0.19137311
-0.007996084 -0.12528637 -0.17755486 -0.12870708 0.123463966 -0.13926895 0.11303653 -0.18926495
0.15023312 -0.087497294 -0.15125868 -0.20971437 0.012235339 0.24843775 -0.04005304 0.27949536
-0.23272277 0.18175192 -0.17715879 -0.09150739 -0.06930795 0.106403306 0.105225265 0.15155701
-0.05827076 -0.19558205 0.24358755 -0.21428898 -0.24647504 0.24702525 0.10749701 -0.19261675
-0.19266555 -0.046664108 0.3081843 -0.25014865 0.21096808 0.14606763 0.4330341 -0.23755723
-0.38377696 -0.4372246 0.1591894 -0.17418915 -0.15481278 -0.0056353956 0.42984253 -0.27340317
0.08473729 -0.30469847 0.3461835 -0.22194462 -0.032401387 0.05151805 0.18955696 0.1594817
-0.1577363 -0.13917089 -0.36089078 -0.23456277 -0.08130089 -0.32406467 -0.7045031 -0.10187643
0.12070023 0.49599132 -0.016951889 -0.0007262275 0.22461218 -0.515376 -0.19878593 0.10978588
0.07595099 -0.2548019 -0.07954098 0.05853676 0.279742 0.012321615 0.21107762 0.22079632
-0.03986804 0.1914786 -0.17360045 0.0017030102 0.3072691 0.24460633 0.17408855 -0.17005476
0.008222343 0.08955663 0.06493817 0.29703757 0.058434565 0.18090597 -0.23315735 0.22001985
-0.11713138 0.11783974 -0.23750317 0.30189916 0.24440433 0.18294477 -0.063463576 -0.10124105
-0.070596516 -0.12083401 0.2464381 -0.13444345 -0.15645298 0.14898704 0.1452017 -0.09175991
0.14291158 0.12061743 0.24688329 0.06215449 0.11024709 -0.2004191 0.08440547 0.03606715
-0.042882692 0.22099902 -0.20496067 0.0041799676 0.070967816 0.070993155 0.10820542 0.08365054
0.12785783 0.12301871 0.12690876 -0.0724631 -0.17060156 -0.24893373 -0.051227685 0.3219024
-0.21390438 -0.097785324 0.13191411 0.030860184 -0.24861754 0.2588703 -0.0609964 0.12049798
-0.13505593 -0.18996787 0.004483715 -0.107018664 0.031962663 -0.006202457 -0.1880923 -0.27957764
-0.37649298 0.08166664 0.13301674 -0.1995721 0.2025963 0.17995207 0.19924408 0.17699943
-0.08794901 0.29823223 0.03072278 0.012777474 0.19613841 0.22875762 0.19469352 -0.058680557

linears.1.bias f4 [40]
00000000: 9f10 4e3d 9300 e13c b223 bc3d 5d36 d5bd
00000010: 4337 963d b93a 983d 940e d83d a9a5 013e
00000020: 33ea bfbb 49aa 153e 255b a9bd 0ccc 1fbe
00000030: a277 8d3d e528 9abd c027 73bb 063e ec3d
00000040: f797 7cbd 79eb 303d f745 423d 51ad 53bd
00000050: 0422 ca3b e31e f03d 6316 9a3d 7047 dabd
00000060: 7f16 fbbc 5a57 3abe c49d 03be d6da d03d
00000070: e787 053e 3a2c 8dbd dd5e d2bd 7c5b 17bc
00000080: 2e60 d5bd 7987 133d 7e89 02bd 4b95 103e
00000090: c19b 89bd 07e1 eebb 26ff 01be 8bb8 cdbc
0.05030882 0.027466094 0.09186496 -0.104107596 0.07334759 0.074330755 0.105496556 0.1266085
-0.005856776 0.1461574 -0.082693376 -0.15605181 0.06907584 -0.07527331 -0.003710255 0.115352675
-0.061668362 0.043193314 0.047430005 -0.05167896 0.0061686058 0.11724641 0.07523801 -0.10658157
-0.030650375 -0.18197384 -0.12853152 0.1019799 0.13040124 -0.06893201 -0.10272 -0.00923812
-0.104187354 0.03601787 -0.031869404 0.14119451 -0.06719161 -0.007290009 -0.12694988 -0.025112411

linears.2.weight f4 [40, 40]
00000000: 1182 29be e2e4 a73e c38b 90be 8869 ba3a
00000010: 1fc8 2a3e 553a 8cbd 8f88 b03e 0a51 d83d
00000020: 79f2 193d 893a 573e 3606 37be ca5f 873d
00000030: c854 81be d112 01be 6939 13be f95d 863e
00000040: f20c 62be a5e4 f43d 5949 943e 4106 703e
00000050: 17c3 e63b 5d0b ec3d 3b76 973e 16f9 993c
00000060: 006c 563d 014a 97be 00df 9abe c1f3 b73e
00000070: 3c40 6d3e f4ab 5e3d 4bc7 243e 9522 053e
00000080: a597 08be 6150 f6bd 27dc 16be e85c 27bd
00000090: 0718 82be 5e15 89bd d8cc fabd 0bd0 20be
000000a0: 9cae 96be 4fbe 42be c815 80be dd1b 8abd
000000b0: 70a6 2cbe e8ec 713d e778 5cbe 84b9 f1bd
000000c0: 8253 acbd 04a1 5d3e 106a 0a3e 5f0a b33e
000000d0: 6dea e4bd 7413 943e d14a 2bbe aa2f d5be
000000e0: 7b37 473e 5ce9 ebbd 4cef d9be bdd1 58be
000000f0: 7411 5ebd 6834 5dbe 0346 9abe 6880 82bd
00000100: 0233 de3d 913b 3f3d c7b5 e63e 3732 07be
00000110: 5291 18bf 1862 7a3e d1da 85be 667d e83c
00000120: 6732 993d e3af ea3d 3040 6c3d 0f6a 6fbe
00000130: 5017 513e 274f 5c3c fcf0 143f 97a7 9e3e
00000140: e86f 16bc 3ccb 8cbe d261 983d d2e3 9d3c
00000150: f86f 90be 22b8 3e3e 9d37 d9be cbbf 853e
00000160: 8699 08be 1d77 a83d bf91 1ebe 0e56 adbd
00000170: 3fb4 103d 411b 60be b12f 813e 052f 10bd
00000180: b266 23bd 728b abbe 3f82 ddbe d707 36be
00000190: b1a1 8a3d d6ee 02be ae54 ffbe d693 533d
000001a0: 90b0 a13e 24b5 853e 334e 9e3e 3625 bebe
000001b0: de2f ccbe 6a06 853e 39a0 7f3d 40d0 573e
000001c0: e2d1 96be 8a9b 203d 302c 373e a2c5 803d
000001d0: 131a 2b3e e98e 233e 421a 193e 507b 2d3e
000001e0: ea2c 16be f84d 87be e2dc c63d 5aef 29be
000001f0: 4afc 4bbe 91b2 933e e9c1 be3d a31f de3d
00000200: 6893 25bd 6dd6 75ba c3f1 fabd c52b 843e
00000210: bc54 63be 8894 53bd ca50 82be a97e 303d
00000220: d7e5 9abe 1c91 9bbd 9c8e f33d 1dff 2fbe
00000230: dfc8 79be fb9c 3a3d 3197 adbe 7f7a 4abd
00000240: 9759 c53d 3872 9a3e 91d2 113d 5ecc b53d
00000250: 6675 493e d9c4 d73d 420d a33c a5dd 5c3e
00000260: e423 55be d7b1 b23d a9db 2a3d b362 283e
00000270: 539c 013e 41d1 af3d 2b8b a73e a1e4 c7bd
00000280: 7581 87be a46b 1fbf 2c50 823e 1b4d 91bd
00000290: 94af 493d 8bc8 c2bd 4244 16bf 23bc 8b3c
000002a0: c4d0 bebc 5781 efbd 7b32 e5bd cfb8 f13e
000002b0: 8b03 42bd 3fca 07be a965 83bd 239f 33bf
000002c0: 7b5c 973d c818 0dbd aa5a 3cbf 54f8 34bc
000002d0: 6183 8fbe 725a 493e 594f 71bf 8132 423e
000002e0: 8a19 8a3e 93c0 c43e aa84 f63e aaba 11bf
000002f0: 3952 29bf c009 a83e a1c5 a33e 5f8c 023f
00000300: 9726 b9bd 55fe be3e 2d6f 62bc 9f88 9bbe
00000310: 5d23 c7bd 6d75 1bbe 1542 3a3f 471d bd3d
00000320: 149e 06be 8a9b 00bd bf4a 08bd e7ec 633e
00000330: c749 70be a386 2fbe 32ab c83c c5f3 2abe
00000340: 30f4 7b3d 4e09 ef3c 5170 9d3e 366b 0a3e
00000350: eca4 98be 3174 c53b 12c9 c43d 6e0c f7be
00000360: dfbd 013e 23c2 8e3e d0cf 823d 6b84 673e
00000370: 782f 2cbe e16c 09be 5f7d edbe 63bd 6e3e
00000380: 0ba6 8a3d 2e46 5b3e 63d9 f6bd fede 173e
00000390: 0198 cbbe 3bba 0fbe b16d 6f3e f3ca 383e
000003a0: 8627 6c3e 652e 57be d35a 9fbc 6435 96be
000003b0: b74d 7b3d fd9b 58be adc0 903e 7e1d 6fbe
000003c0: 651d 8cbb 6093 01bd a7ba 3e3d cd8b 223f
000003d0: 3ee7 d9bd 2261 d03c 609f 47be 19b4 a9be
000003e0: 8b8c 96be e80b 29be f634 193e 8026 56ba
000003f0: 560c 0dbf 06bc d7bc 7b00 7cbe 809b c4be
-0.16553523 0.3279181 -0.2823163 0.0014222125 0.16677903 -0.068470635 0.34479186 0.10562332
0.037584756 0.21018423 -0.17873463 0.06610067 -0.25259995 -0.12604834 -0.14377369 0.2624357
-0.2207525 0.11957673 0.2896221 0.23439886 0.0070422995 0.11525605 0.2958239 0.018795531
0.05234909 -0.29548648 -0.3024826 0.35928157 0.23169035 0.054363206 0.16091649 0.13001473
-0.13339098 -0.1202705 -0.14732419 -0.040860087 -0.25408956 -0.066935286 -0.12246102 -0.15704362
-0.2943009 -0.1901791 -0.25016618 -0.06743596 -0.16860366 0.059063822 -0.21530496 -0.118029624
-0.08414365 0.21643454 0.13517022 0.3496885 -0.11177526 0.28921092 -0.16727759 -0.41637927
0.19454758 -0.11519119 -0.42565382 -0.21173759 -0.054215863 -0.21602023 -0.3013154 -0.06372148
0.10849573 0.046687666 0.4506056 -0.13202749 -0.5959674 0.24451482 -0.26143506 0.028380107
0.074803166 0.11459329 0.0576784 -0.23380302 0.2041905 0.013446606 0.5818021 0.30987236
-0.009181954 -0.27498806 0.07440533 0.019273672 -0.28210425 0.18624929 -0.42425242 0.2612289
-0.13339815 0.08225844 -0.15485285 -0.08463679 0.035328146 -0.21885397 0.25231698 -0.03520109
-0.03989286 -0.33504826 -0.43263432 -0.17776428 0.067691214 -0.12786421 -0.49869293 0.05165466
0.3158002 0.26114762 0.30919036 -0.37137765 -0.3988027 0.25981456 0.06240866 0.21075535
-0.29457003 0.039210834 0.1788795 0.062876955 0.16709165 0.15972485 0.14951423 0.16941571
-0.14665571 -0.26426673 0.09710099 -0.16595212 -0.1992046 0.28847173 0.09314329 0.10845878
-0.04042378 -0.000937796 -0.12253144 0.25814644 -0.22200292 -0.051655322 -0.25452262 0.043089543
-0.3025348 -0.07596037 0.11892435 -0.17187162 -0.24393032 0.045559864 -0.33904412 -0.049433228
0.096362285 0.30165267 0.035601202 0.088768706 0.1967369 0.105355926 0.019903783 0.21568926
-0.20814472 0.087253265 0.04171339 0.16443901 0.12657289 0.08584834 0.32723364 -0.097604044
-0.26465955 -0.6227362 0.2545179 -0.07094785 0.04923971 -0.09510907 -0.58697903 0.017057484
-0.023292907 -0.116945915 -0.11191269 0.4721131 -0.04736666 -0.13260745 -0.064158745 -0.701647
0.07390686 -0.03444746 -0.7357584 -0.011045534 -0.28029922 0.19663408 -0.942617 0.18964578
0.2697261 0.38428172 0.4814809 -0.5692545 -0.66141087 0.3281994 0.31986716 0.5099544
-0.090405636 0.37303415 -0.013820452 -0.3037767 -0.09723542 -0.15181513 0.72757083 0.092341
-0.1314624 -0.031398334 -0.03327441 0.2225834 -0.23465644 -0.17141204 0.024495695 -0.16694553
0.061512172 0.029179242 0.30749753 0.1351746 -0.29813325 0.006025814 0.096086636 -0.4825167
0.12670086 0.2788249 0.06387293 0.22609107 -0.16814983 -0.1342044 -0.46384713 0.23314433
0.067699514 0.2141349 -0.12053182 0.14831159 -0.39764407 -0.14035885 0.23381688 0.18046169
0.23061952 -0.21013792 -0.019452488 -0.2933761 0.06135341 -0.21153255 0.28272 -0.23351094
-0.004275965 -0.03163469 0.046564724 0.6349457 -0.10639809 0.025436942 -0.1949439 -0.33145216
-0.294041 -0.16508448 0.14961609 -0.0008169189 -0.5509695 -0.026334774 -0.24609558 -0.38399887

linears.2.bias f4 [40]
00000000: 1dbe 4c3c 4392 70bd ddc7 87bd 95e8 febd
00000010: ba54 33be 16bf d2bc d27a 52bd 8ee8 b63d
00000020: 04ea c13c 5f81 453c 6c40 b6bd 3d53 53bd
00000030: 0500 0db9 3b13 81bc ec62 6a3d 1ee6 c23d
00000040: ac4e b3bd da44 c8bc 8298 16bd 23bb 6abd
00000050: be41 b13d bb21 2ebd 5980 3bbd 8fd4 163d
00000060: 7f14 e13d c911 4abd f74b 8c3c 4ddd 43bd
00000070: 0fc4 f5bc c0d3 4abd 9049 0f3e 8bad 98bc
00000080: bae2 06be 4608 6bbc c551 81bc df07 c1bd
00000090: 9633 0d3d 5324 0fbc cc5a 16be dd57 703c
0.012496498 -0.058733236 -0.06629918 -0.12446705 -0.1751279 -0.025725883 -0.05138666 0.08931075
0.023671158 0.01205477 -0.08899006 -0.051593054 -0.00013446815 -0.01575624 0.057223246 0.095165476
-0.0875524 -0.024446893 -0.036766537 -0.057307374 0.086551175 -0.042512637 -0.0457767 0.036823805
0.109902374 -0.049333367 0.017126067 -0.04781847 -0.030000715 -0.049518347 0.13992906 -0.01863744
-0.13172427 -0.014345234 -0.015786061 -0.094253294 0.034473024 -0.008736688 -0.14683074 0.014669386

linears.3.weight f4 [40, 40]
00000000: ac21 85be b5a2 1e3f 24f9 e93a 9ecf 273e
00000010: d04e e4bd a108 9a3e 2843 31be 38df bdbe
00000020: cfb1 51be 9af2 243e b2e8 483e 465a 903e
00000030: 94ac b1bd 50d2 a63e 9e7d 7f3e 0ba7 04be
00000040: 0927 cf3c 7223 17be fd09 603e ab2f 903d
00000050: 9e96 293e a165 103f cdab e4bc f5a4 353e
00000060: 9286 623e 36ff d03d 25c0 963c 4221 b53e
00000070: bdbe 993d c507 fe3c 1cf0 8a3e c08c b0be
00000080: 9d45 713c 8599 1cbe 86de 78bd 1957 8dbe
00000090: 29dd d9be f5c5 7f3e 35b5 4b3e a96e 0d3d
000000a0: e689 8b3e b953 1cbe 7554 933d 187d 3e3d
000000b0: d97b 91be 7a0a 3e3e 71b8 c6bb e773 073e
000000c0: f071 033e 4a6e dfbd bb53 94be 4059 16be
000000d0: 69f8 143e a153 553d e7af 16be bc2f 1a3e
000000e0: 3408 3fbe f980 98bd de37 08be af95 50be
000000f0: 350a 5a3e 937a 56bc c0c7 b73d 3114 a23d
00000100: ce84 a63d dfef 96bb 17e8 aabd e338 d73c
00000110: 39ca 43be 90c9 89be 849e 613e cf60 1e3d
00000120: 1905 3ebe b1da 42be 7d7d 27be 2b21 b73d
00000130: 09b8 76be c229 1bbe f5a6 c23d 9345 883e
00000140: 3796 09be c312 6d3e 041d 0bbe 1616 a73e
00000150: 8f05 8ebd 23ee 143d 4a00 8bbd e13c 11bd
00000160: e9fe 6cbd db64 3cbe 733f 7fbe 30c3 223e
00000170: 185e f8bd dbda cbbc 1663 bd3e d007 23be
00000180: 5f0f 3b3d 65aa 2b3e 8f25 fdba f21b a73d
00000190: f7fc c23e aaa4 8b3d 70b6 be3e 4104 813e
000001a0: 8274 7c3e fdeb a83e 3793 ba3e 02eb e1bd
000001b0: d06d 3ebe de3c cebd 5028 853e b91d b5bd
000001c0: 1113 46be 646c 69be 725d 893e 527f 80be
000001d0: 1361 0bbe f0de af3d 1466 e6bd c06d 84be
000001e0: b8d6 41be 53d4 923e abbb 4cbd 8d82 3cbd
000001f0: cd32 62be 3551 8abe c4ab 1fbe e2f4 443e
00000200: 5bc9 ffbc 6efa 80be 115c d13d fb47 d6bd
00000210: d2b1 17be cada 543e 8eb3 6c3e e2db b63c
00000220: a434 4fbe 12b8 443c c4e5 d9bd f250 913c
00000230: d496 a93e ec31 6c3e a176 60be 1303 913e
00000240: e073 9f3e 3451 163e e805 523e c112 5b3e
00000250: 28aa 74be b398 09be 1e53 153d e308 b7bd
00000260: 8c89 79be cbad ed3d c317 583e 23aa 903d
00000270: 7495 4bbd 33f2 333e bae3 b73d f24d e33d
00000280: 113b a9be 3927 51bd d705 a83e 1256 b73e
00000290: bb8b 763e 2958 b4bd 98c3 12bf e7c6 dcbe
000002a0: b30d 20bc 93e7 c4be 8280 88be bc33 a03e
000002b0: 7f55 64be e99e 6b3e 3caf 58be 9225 893d
000002c0: e8b9 b33e 99b0 813e e01b 703e 2ab7 bb3e
000002d0: df63 5f3e 4f76 713d bc14 67be 1e09 39bd
000002e0: c374 793e 236d 183e 520b 243e eb17 a13d
000002f0: 591c 193f 6e46 f33e 77f9 9a3e 5c27 143e
00000300: fd7a c43d 7757 903e 7939 383e f3e2 63be
00000310: 37de a43d 6b00 3cbc f222 1cbf 9a12 48bd
00000320: f212 533e 87b1 83bd 5c05 bc3d 5237 553d
00000330: 0895 9c3d 8c8b 4d3e 882b 1fbe 8158 9d3e
00000340: 9d92 d9bd 37ce 81be 8a12 d63b 8a94 64be
00000350: 4ff9 8e3e a5fa 2bbe 2ccf 8f3d 01c6 31be
00000360: 5453 ddbd 3e00 4cbe eb7e babd ad42 66bc
00000370: f663 883c 55b1 b4bb 7116 c1bc 9e17 02be
00000380: cfd8 3bbe 6958 48bd f480 5abd 1e87 0d3e
00000390: cf4f 523e da5b f5bd 37de 0dbc 247c 79be
000003a0: 0f6b e5bd e0d2 013e 75d0 563e 6876 4a3e
000003b0: ac3e 553e 64ce 56be 8bf8 383e 31ea 7abe
000003c0: 139a 2cbe cf34 9f3e ca57 953e 87bf 633c
000003d0: 8132 093d f009 233e 90bc 7b3e ee49 85bd
000003e0: 39d3 a5bd 8998 6abd bfce 083e 08f9 133e
000003f0: 6196 d33d 9085 f4bd 9639 743e 0ae8 083e
-0.26002252 0.6196702 0.0017850739 0.16387793 -0.11147845 0.30084708 -0.17310774 -0.37084365
-0.20477985 0.1610817 0.19620016 0.28193873 -0.08675495 0.3258233 0.24950263 -0.12954347
0.025287168 -0.14759615 0.2187881 0.07040342 0.16561362 0.56405073 -0.027913952 0.17738707
0.22121647 0.102049276 0.018402169 0.35376936 0.075070836 0.031009564 0.27136314 -0.34482384
0.01472607 -0.15292938 -0.06075909 -0.27605513 -0.42551544 0.24977858 0.19893344 0.034529362
0.27253646 -0.15266313 0.07193843 0.046506017 -0.284148 0.18558684 -0.0060644676 0.13227807
0.12836432 -0.10909708 -0.2897013 -0.14682484 0.14547886 0.052081708 -0.14715539 0.15057272
-0.18655473 -0.074464746 -0.13302562 -0.203696 0.21292956 -0.013090747 0.08973646 0.079140075
0.08130799 -0.0046062316 -0.08345049 0.026272243 -0.1912011 -0.26911592 0.22033125 0.038666543
-0.18556632 -0.19028737 -0.16356464 0.08941873 -0.24093641 -0.15152648 0.09504501 0.2661558
-0.13436209 0.23151688 -0.13585287 0.32634038 -0.06934654 0.036359917 -0.067871645 -0.03545845
-0.05786029 -0.18397848 -0.24926548 0.1589477 -0.12127322 -0.024884632 0.3698966 -0.15920949
0.045668956 0.16764219 -0.0019313561 0.08159627 0.38083622 0.068185166 0.37248564 0.25198558
0.24653819 0.32992545 0.3644044 -0.11031152 -0.18596578 -0.10070203 0.26007318 -0.0884356
-0.19343211 -0.22795254 0.26829106 -0.25097138 -0.1361125 0.08587444 -0.112499386 -0.25864983
-0.18929565 0.28677616 -0.04998366 -0.04602294 -0.22089691 -0.2701508 -0.15592867 0.1923404
-0.031223943 -0.25191063 0.102226384 -0.10462948 -0.14813927 0.20786586 0.2311537 0.022321645
-0.20234925 0.012006776 -0.106395274 0.017738793 0.33122885 0.23065919 -0.21920253 0.28322658
0.31143093 0.14679414 0.20510066 0.21393873 -0.23893034 -0.13437156 0.03645622 -0.08937242
-0.24368876 0.11605414 0.21102814 0.07063701 -0.049703076 0.1757286 0.08978982 0.11098851
-0.33052877 -0.051062796 0.32816955 0.35807854 0.2407674 -0.08805878 -0.573297 -0.431205
-0.009768891 -0.38457927 -0.26660544 0.3128947 -0.22298239 0.23009838 -0.21160597 0.06696619
0.35102773 0.25330046 0.23448133 0.3666318 0.21815442 0.05895072 -0.22566503 -0.04517471
0.24360947 0.14885382 0.16019943 0.0786589 0.5980888 0.4751467 0.30268452 0.1446814
0.09593771 0.2819173 0.17990674 -0.22254543 0.080501966 -0.011474709 -0.6099082 -0.048845865
0.20612696 -0.06430345 0.0918071 0.05205471 0.07645613 0.20072764 -0.1554395 0.30731586
-0.106236674 -0.25352642 0.0065329717 -0.22322288 0.27924582 -0.16794832 0.07021937 -0.17360689
-0.10806909 -0.19921967 -0.09106239 -0.014053983 0.016649228 -0.0055143037 -0.023570271 -0.12704322
-0.18344425 -0.04891244 -0.053345636 0.13821074 0.20538257 -0.1198041 -0.008658937 -0.24363762
-0.112020604 0.12678099 0.20977958 0.19771731 0.20824689 -0.2097717 0.18063562 -0.245034
-0.1685565 0.31094977 0.2916854 0.013900644 0.03349543 0.1592176 0.2458365 -0.065082416
-0.08096928 -0.057274375 0.13360117 0.14450467 0.10331417 -0.119395375 0.23850092 0.13369766

linears.3.bias f4 [40]
00000000: de5d 113b 59f3 1f3d 19e6 0f3e 5c44 8d3d
00000010: c2e4 8abb 1a40 43bc da96 6ebc 9c98 dbbb
00000020: 8d9c 06bd 6c6b 153d 42f5 d4bc e64b 18bc
00000030: e42a f9bc 9b86 433d 2fbf 473d ddda 5bbd
00000040: 2288 75bd 45da be3b 7588 d43d 4eb5 903c
00000050: 8aea a1bd 461a 123b 1ae2 a1bc 4b51 8f3d
00000060: b67e a5bd 61cc 5abd 2245 d8bc 34ac 14be
00000070: e5cb 3a3d cf8d 5fbc 4a31 4cbd ffeb 7ebc
00000080: 34cf 16bd e5a7 7b3d 9368 19bd f501 313d
00000090: 4108 eb3c 2ec2 0abd bef9 053c 8adf aabc
0.0022181193 0.039050434 0.14052619 0.06897804 -0.004238696 -0.0119171385 -0.014562333 -0.006701542
-0.032864142 0.0364794 -0.025995854 -0.009295439 -0.03041596 0.04773579 0.04876631 -0.05367552
-0.05994428 0.0058243596 0.103775896 0.017664578 -0.07906063 0.0022293492 -0.019761134 0.06997927
-0.08080809 -0.053417567 -0.026400153 -0.14518815 0.045604605 -0.01364465 -0.049851693 -0.015559196
-0.036818698 0.061439414 -0.037453245 0.043214757 0.02869046 -0.03387659 0.008177219 -0.020858545

linears.4.weight f4 [40, 40]
00000000: c2c5 a23d 9f72 073d df88 473e e821 173e
00000010: 0911 63be 5226 0ebe 0c3a 36be 512c ad3d
00000020: 9204 2cbd 16ed b13e a71a 7abe f74e a53d
00000030: f043 9bbe 3952 33bd 0b99 413e 72c0 26be
00000040: e76b ac3d dc73 1fbe 7f4e 863e 0da2 fbbd
00000050: 0774 9c3d 537e 75bc 4a33 8a3d 37c2 7f3e
00000060: 9d14 79bd c713 9dbe 591e 8c3c e367 1abe
00000070: fb0a 91bd 9b21 343e 864b 29bd 1b9f 30be
00000080: b931 7bbe 39ae 97bd 17ab c33d 54d1 01bd
00000090: c317 143e 11e3 2c3e 4e1a 593e 1343 953e
000000a0: 0929 a9bb 50e1 1ebe 5f82 a33d 57b5 9d3e
000000b0: aecf 94bd f087 f5bd e468 003e c886 923c
000000c0: ede3 8ebe cac1 1fbe ab00 90bd 3219 b5bd
000000d0: cceb 333e a27a 0c3d 6411 cd3d 5529 103e
000000e0: c73d 8fbe 04f2 06be 4c38 8d3e dd7b 113d
000000f0: 5bc2 223e c018 a1bd e045 f1bb 8d31 82be
00000100: 1fa6 5cbe c8ce 6bbe 0e4c 4c3e 9ed5 5ebe
00000110: ece6 073e a1ce d5bd eec5 d9bd 5cb7 07be
00000120: 5804 123e 7b3d 813e 9529 993d 665d 1b3e
00000130: e61e c53d b7c4 99be 0065 9a3e 1aa0 9e3d
00000140: 2d8a b5bd 5f5c 6a3e 59aa e73d 9164 623d
00000150: 1d80 4b3e fd93 473d 2887 123e 1c8e 93bd
00000160: 61c7 93be 0722 423e 73dd a5be a94d 9e3e
00000170: a17b 58be 2108 5d3e e923 38be 9aef 0fbe
00000180: ace8 4cbe 3db4 993d 38b4 363e 7664 ffbd
00000190: 9e0d 0e3e 493b c53d 8157 293d 129b d83d
000001a0: 3899 893d a87d 3bbe 157e 37be 12de 3ebc
000001b0: 5ba0 523e bd3d 1abc cff1 d23d 283d a6bd
000001c0: 9f30 17bd cf5e 163d 6b76 6bbd 0e72 6f3d
000001d0: 7740 463e c812 343e a56a f73d 10d4 f4bd
000001e0: 86dc 543e 9519 0ebe 7423 6abe 68e1 673d
000001f0: 472b 0e3e 2d4b 2f3e 2010 c3bb d08a 803d
00000200: 2e46 aabd a085 36be 04a9 333e 6ba7 72bd
00000210: c99e 153e 7f5a 7dbc 121a 493e 0b08 0dbe
00000220: 0f35 73be 0bdc 763e 4067 13be 2e4e 663d
00000230: 4897 7cbd f9a2 a53c 9881 833d 6911 fbbd
00000240: c940 68be 54fc 973c b593 20be afeb af3d
00000250: 3314 3f3d 2b1e 02bc f85d 403e 7462 713e
00000260: 423c 8fbe 856a 923c f60c 94bd 89c6 fdbd
00000270: c97e 6cbe 599e 263e 2eb7 11bd 1859 1b3e
00000280: 311b 44be 8113 80bd b165 66be 4a21 44be
00000290: f18e 1abe 207d 4ebe 9059 4ebe f67a 7a3e
000002a0: 5a14 85be 25fa eebb 8f5c e93c afc2 f63d
000002b0: 3dce 2f3d 095e 803e 6071 1dbe edac 11be
000002c0: a8dd 283e 2098 bb3d c8a1 4f3e dfe8 73be
000002d0: 4f13 b9bd 7702 253e 5bc6 ce3d aede 71be
000002e0: 42d8 debd 63e3 68be ab2a acbc 5616 7a3e
000002f0: 1586 d6bd 0ab4 ac3d 8af4 313e fb06 983d
00000300: e053 31be 9900 5b3d cd35 8b3d 0489 47bb
00000310: 1ec6 0bbe ceb2 333e e304 39be 0f43 283e
00000320: b5f6 2fbc 845d 9ebd 39cf 53be d62d 463e
00000330: 4545 99bd aa53 a33c 0c0d 4e3e 6052 1a3e
00000340: 17fb 453e ee08 24bd 2613 78be 6944 2cbe
00000350: e279 2a3e 27f4 a13c d7f2 2c3e c0f2 c7bd
00000360: 5fa0 62be 7633 fabc ecd5 c5bd 20ec 4b3e
00000370: 254b c4ba 0c5a 2f3e 7d34 5ebe 553a 39bd
00000380: 3bc8 5f3c 11ab fcbd 1441 4a3e 2a8b 2abe
00000390: d135 3abe 20b3 a2bd 7ced d7be b3cc 963e
000003a0: bedc ebbc abc8 0abe 8eba 033d 3423 0c3e
000003b0: 8083 2dbd 326a 6bbe 52f3 98bd 5d95 ba3d
000003c0: e50e c5bc b235 b33d 6a77 143d 1b2c 533e
000003d0: 99ce 7bbe ccaf b2bd 2f13 18be 0cc6 483e
000003e0: f90d 89bd e79a 65bd ba82 c43d 5e30 a23e
000003f0: 9ebb 8a3c 2460 c0bd 4c74 b03b 8a21 84be
0.079478756 0.033068296 0.19485806 0.14759028 -0.22174467 -0.13881806 -0.1779558 0.08455718
-0.041996546 0.34751195 -0.2442423 0.08071702 -0.3032527 -0.043779586 0.18906038 -0.1628435
0.08419018 -0.1557154 0.26231763 -0.12286768 0.07639318 -0.014983731 0.06748064 0.24976431
-0.060810674 -0.3067915 0.017104315 -0.15078692 -0.070821725 0.17590944 -0.04133179 -0.17248194
-0.24530686 -0.07406277 0.09554117 -0.03169377 0.1446219 0.16883494 0.2120144 0.29152736
-0.0051623625 -0.15515637 0.07983851 0.30802414 -0.07266174 -0.11988819 0.12540013 0.017886534
-0.2790827 -0.15601268 -0.070313774 -0.08842696 0.17570418 0.03429664 0.100130826 0.14078267
-0.2797682 -0.13178259 0.27582014 0.035518516 0.15894453 -0.07866049 -0.007363066 -0.2542843
-0.21547745 -0.230281 0.19950888 -0.21761176 0.13271683 -0.10439802 -0.10633455 -0.1325354
0.1425947 0.25242218 0.07478634 0.15172347 0.09625034 -0.30032894 0.30155182 0.07745381
-0.088642456 0.228868 0.11311788 0.05527169 0.1987309 0.048725117 0.1430937 -0.072048396
-0.28863052 0.18958293 -0.32395515 0.30918625 -0.2114091 0.21585132 -0.17982449 -0.14056244
-0.20010632 0.07505081 0.17842185 -0.12470333 0.13872382 0.09630448 0.041343216 0.10576452
0.06718677 -0.18309653 -0.1791919 -0.011649625 0.20568983 -0.009414134 0.103000276 -0.081171334
-0.036911603 0.03671151 -0.05748598 0.05845838 0.19360529 0.1758529 0.12080888 -0.1195451
0.20787248 -0.13876946 -0.22865087 0.05661145 0.13883696 0.17118521 -0.00595285 0.062764764
-0.08314167 -0.17824411 0.17544943 -0.059241693 0.14611353 -0.0154634705 0.19638851 -0.137726
-0.23750709 0.24107377 -0.14394855 0.0562269 -0.06166771 0.020219313 0.064212024 -0.1225918
-0.22680964 0.018552937 -0.15681346 0.08589875 0.046650123 -0.007941763 0.18785846 0.23572713
-0.2797566 0.017873058 -0.072290346 -0.12391383 -0.2309524 0.16271342 -0.035575084 0.15170705
-0.19150998 -0.0625372 -0.2249973 -0.19153324 -0.1509359 -0.20164919 -0.20151353 0.24460968
-0.2599209 -0.007293003 0.028486518 0.12048852 0.042921294 0.25071743 -0.1537528 -0.14226122
0.16490805 0.09159875 0.20276558 -0.23819302 -0.09036886 0.16114222 0.10096427 -0.23620102
-0.10881092 -0.22742991 -0.02101644 0.24422583 -0.10474793 0.08432777 0.1737844 0.074232064
-0.17317152 0.053467367 0.06797371 -0.0030446658 -0.13649794 0.17548677 -0.1806827 0.16431831
-0.010739972 -0.077326804 -0.20684518 0.19353423 -0.07483915 0.019937355 0.20122164 0.15070486
0.19334064 -0.04004758 -0.24226055 -0.16822971 0.16648057 0.019769741 0.16889511 -0.09763098
-0.22131489 -0.030542117 -0.09659943 0.19914293 -0.0014976008 0.17124194 -0.2169971 -0.045221645
0.0136585785 -0.12337316 0.19751388 -0.1665465 -0.18184592 -0.07944322 -0.42173374 0.29453048
-0.028791782 -0.13553111 0.032160334 0.13685304 -0.042361736 -0.22989729 -0.07468285 0.0911052
-0.024054954 0.08750476 0.036246695 0.20622294 -0.2459053 -0.08724937 -0.14851068 0.19606799
-0.06692118 -0.05605593 0.095952466 0.31677526 0.016935166 -0.09393337 0.0053849574 -0.25806838

linears.4.bias f4 [40]
00000000: 7f30 533d 6496 303d 5b49 1e3d 3670 d83b
00000010: d338 a0bc 8204 30bc aa5f 8aba d1bc 0bbd
00000020: f02e 0c3c 1d01 073d de68 7bbd 6205 2e3d
00000030: b5c0 d13c 87b2 7dbd 6feb 5e3c 79d4 9fbc
00000040: 3be0 c7bb 7de7 58bc 382a 6f3c 5a4c d5bc
00000050: 8a29 553d 17dd a73c 15d4 47bc ebee 6b3d
00000060: 00b9 1dbd f091 53bd a876 243a 0a44 253d
00000070: ff6e 43bd a59f ffbc fad6 7ebc 14da 01bd
00000080: b431 4bbd 9f9b 6d3d 96c7 1ebd 631e 883d
00000090: a738 173d b90d dfbc 7fb9 cd3c 6976 96bb
0.05155992 0.043112174 0.038644176 0.0066051735 -0.019558346 -0.010743262 -0.0010557075 -0.034115616
0.008556113 0.032960046 -0.061379306 0.042485602 0.025604585 -0.061937835 0.013605936 -0.019510495
-0.0060997284 -0.013238785 0.014597468 -0.026037384 0.052041568 0.020491166 -0.01219656 0.057600897
-0.038506508 -0.05165285 0.00062737847 0.04034809 -0.047713276 -0.031204054 -0.015554184 -0.031702116
-0.049607947 0.05800974 -0.03876456 0.06646421 0.036919262 -0.027228223 0.025112865 -0.0045917523

linears.5.weight f4 [3, 40]
00000000: 161c 8a3d 5cb4 2c3e 7613 b03e 2b28 323d
00000010: 729a 8cbe b728 7dbe 2c5a 4bbe 92f7 423e
00000020: a4a3 b73e dbad ae3e 0380 84be b7f9 6e3e
00000030: b626 323e fe30 b4be e53f a63d 479a d83b
00000040: 8b31 513d 45ee c33e 89d9 a53d 03fd fcbc
00000050: 4416 753e 09fe 9dbe f890 503e f9c8 003e
00000060: 8c46 f4be f57d acbe bb7b 053e c877 a63d
00000070: 1fb8 f33e ba14 4dbe d000 48be d5e8 b5be
00000080: 28f3 0dbe 7b3e ba3e 52e7 aabe 9e71 253e
00000090: e16d 553e 3a79 36be 03d5 f23e 22bc 3ebd
000000a0: c79e 0bbe 43bc efbd 4752 9d3e d7a0 8abe
000000b0: 87cc 63be 4a7e 92be eee0 03be f0ea 81be
000000c0: cf4d 0b3e 8727 803e c317 a83e 392c 153e
000000d0: 39eb 073e ecad 1ebd 614d 313e b75b 5b3e
000000e0: 2d99 ff3d e3c6 603e e2ee 51be f0cb 773e
000000f0: 6474 a3be 8052 58bd bfa8 8f3e 568b f73d
00000100: dead b1bd 71b3 d93d d407 50be 775a 24be
00000110: e349 f9bd 8ebc e03d ce81 aa3e 4ab6 fe3d
00000120: c1b0 9dbd fad2 a03c 64ce a4bd ba22 de3d
00000130: 55bc a6be 6978 5dbe bf9e e83d 03c3 58be
00000140: e995 013e cb69 633d 6344 abbe 4345 9dbe
00000150: 958d 5a3e 34a5 31be aded 9dbd 6e67 aabd
00000160: 6844 d13d 58de 3b3d f141 813d 5187 abbc
00000170: 55a6 babe 30ad 0a3e bdf8 b2bd 9557 3b3e
00000180: 879e 3dbe a76e 44be dda8 cd3e fd82 53be
00000190: fb74 963e 98e7 1a3e 47bd c2be d577 a73e
000001a0: 786c 49be f85f d2be d5c5 9c3e 17e5 39be
000001b0: 0368 bc3d 96d7 893e 7da3 f03d 0a9b 833d
000001c0: 0d3d cdbe 996b 803e 99d9 823e 729c f43d
000001d0: 3026 a83b c5cb 72be 7f03 b3bd 9b24 2a3d
0.06743638 0.16865677 0.34389848 0.04349534 -0.27461582 -0.24722563 -0.19858617 0.19039753
0.35867035 0.34117016 -0.25878915 0.23337446 0.1739758 -0.35193628 0.08117656 0.006610188
0.05107264 0.38267723 0.08098132 -0.030882364 0.23934275 -0.30857876 0.20367801 0.12576665
-0.47710073 -0.33689848 0.1303548 0.08128315 0.4760141 -0.20027438 -0.1953156 -0.355292
-0.13862288 0.36375794 -0.33379608 0.16156623 0.20842697 -0.17819682 0.4742814 -0.046566136
-0.13634787 -0.1170583 0.30726835 -0.27075836 -0.2224599 -0.28611976 -0.12878773 -0.25374556
0.136039 0.25030157 0.3283063 0.14567651 0.13273324 -0.038740084 0.17314674 0.21421705
0.12480388 0.2195087 -0.20501283 0.2419889 -0.31924736 -0.052813053 0.2805843 0.12087123
-0.08675741 0.10629929 -0.20315486 -0.16050135 -0.12172296 0.10973464 0.33302158 0.12437113
-0.07699729 0.019631851 -0.080471784 0.10846467 -0.3256556 -0.21627964 0.113584034 -0.21168141
0.12654842 0.055520814 -0.33450612 -0.30716905 0.21343072 -0.17348176 -0.07711349 -0.08320509
0.102181256 0.04586634 0.063114055 -0.020938547 -0.36455026 0.13542628 -0.08738849 0.18295129
-0.18517505 -0.19182836 0.40167895 -0.20655437 0.29386124 0.15127409 -0.38035032 0.32708612
-0.19670284 -0.41088843 0.30619684 -0.18153797 0.09199526 0.26922292 0.11749933 0.06426056
-0.4008564 0.2508209 0.2555664 0.11943902 0.0051315054 -0.23710544 -0.08740901 0.041538816

linears.5.bias f4 [3]
00000000: b6dc 893d 445a b1bc 0000 0000
0.067315504 -0.021649487 0.0

exp_avg f4 [40, 2]
00000000: fc60 a23b ced3 8b3b 584c 9f3a c0e6 8a3a
00000010: 50cc 03ba 2f2f 8fb9 ba87 5e3b 86a4 3c3b
00000020: 3a57 e1ba 9a50 c1ba f0e9 9eba e12b 84ba
00000030: 539f 5eb9 20d3 3a38 4acd 66bb fd9d 4abb
00000040: 9dd3 073b f05f df3a 3648 05bb d782 faba
00000050: f87e 033b 5a74 ec3a a0e1 ad39 4efa 7339
00000060: fadb 08bb 9601 f4ba 7f50 f2ba 2ae3 d8ba
00000070: c818 89ba fbf3 27ba a7ff cfb9 740e cfb9
00000080: d544 0f37 9e2c 8a38 cc87 00bb cd38 e6ba
00000090: 2619 27ba d0f9 cbb9 501c 18bb d896 0ebb
000000a0: 163d f3ba b2e7 d1ba b584 3b3a 9567 203a
000000b0: 8663 cc3a 4726 ba3a 3215 5ebb 58c7 43bb
000000c0: f911 9bba 9141 93ba 19ce b03a 144a a43a
000000d0: bddd 263b 39b7 0c3b 6ef5 12bb adad 01bb
000000e0: 44d2 76ba 5f00 64ba fb5c 0eba 43c6 11ba
000000f0: 4ce7 533b 6a86 283b a50b ce3a d187 b93a
00000100: 068e 08bb f064 ebba b5f5 21bb ad79 03bb
00000110: 6706 f339 69d3 c739 258d 2ebb 4b17 19bb
00000120: 312c 343b 8c68 233b 8821 dabb 30dc cabb
00000130: 188b f93a 714c d43a bc78 043b 8130 ed3a
0.004955409 0.0042671924 0.001215349 0.0010597333 -0.00050276984 -0.0002731024 0.003395541 0.0028784587
-0.0017192133 -0.0014748753 -0.0012124162 -0.0010083878 -0.00021230923 4.454248e-05 -0.0035217577 -0.0030916922
0.0020725497 0.0017042141 -0.002033723 -0.001911248 0.0020064693 0.0018040047 0.00033165235 0.00023267532
-0.002088307 -0.0018616195 -0.0018487124 -0.0016547192 -0.0010459656 -0.00064069004 -0.00039672593 -0.00039492885
8.53949e-06 6.5886634e-05 -0.0019612191 -0.0017564535 -0.0006374292 -0.00038905302 -0.0023210235 -0.002175739
-0.0018557634 -0.0016014485 0.0007153259 0.00061189506 0.0015593625 0.0014202081 -0.0033887145 -0.0029873457
-0.0011830918 -0.001123475 0.0013489156 0.0012534284 0.0025461756 0.0021471514 -0.002242412 -0.0019787357
-0.00094154873 -0.0008697565 -0.0005430725 -0.00055608543 0.0032333909 0.0025714883 0.0015720023 0.0014154856
-0.0020836606 -0.0017959159 -0.0024713103 -0.0020061538 0.00046353342 0.0003811375 -0.0026634422 -0.002335983
0.002749216 0.002493414 -0.0066568293 -0.006190799 0.0019038646 0.0016197098 0.0020213565 0.001809612

exp_avg_sq f4 [40, 2]
00000000: 4f7f 833e b8e3 c83e d61e a63c ac15 113d
00000010: 4ded 8e39 8b70 de39 bbdd d33d 6743 203e
00000020: 0b19 1f3d db68 7e3d d9fd 923c 32d5 063d
00000030: ce54 273b 7831 733b 8e36 003e ede2 433e
00000040: 43d6 1d3d 7ea8 6d3d 6c29 973d 5f21 ea3d
00000050: 3579 883d 87a0 d13d 14bd 5339 2b6d 7d39
00000060: 21f4 733d aa36 c53d c6d8 113d 2bab 6b3d
00000070: b295 d83a 4458 043b 70ec ae3a 75f3 0b3b
00000080: 5069 3c39 3903 7d39 6dc6 543d f9e1 a13d
00000090: d0ee 4c3a 87e9 ad3a c14c b93d 60b3 183e
000000a0: a8f8 093d e96b 553d 04a9 913b af82 0f3c
000000b0: 1bc9 043d ffb0 4f3d 612d 1a3e 3062 6e3e
000000c0: 18d5 d43c 6cda 313d a2a8 a13c edf7 f33c
000000d0: 5127 6a3d 2fe5 ad3d 9da2 863d 9e3b d33d
000000e0: 2fe0 2c3c 6a98 803c 9fc9 ef3b 4077 383c
000000f0: c2ac 933d e5d6 e93d b604 053d a90a 513d
00000100: 0383 653d 8f19 b63d 7e51 223d f5c7 743d
00000110: 885e 223b 2e6f 7c3b 6d54 c63d 0e2e 1c3e
00000120: 3fa1 ed3d f1dd 3b3e bf08 3b3f 792d 903f
00000130: d7d4 073d 69f4 503d 241f 753d 6a1c c23d
0.25683066 0.39236236 0.020278376 0.03542106 0.00027261153 0.0004242699 0.10345026 0.15650712
0.038842242 0.062111717 0.01794331 0.032918163 0.0025532725 0.0037108343 0.12520811 0.19129534
0.038534414 0.058022015 0.073809475 0.11432146 0.066637434 0.10235696 0.00020192965 0.00024168628
0.05955899 0.09629567 0.035607122 0.057536285 0.0016524105 0.0020194212 0.001334561 0.0021354828
0.00017968309 0.00024129161 0.051947046 0.07904429 0.0007817568 0.0013268449 0.09047843 0.14912176
0.033684403 0.052104864 0.004445197 0.008759185 0.03241835 0.050705906 0.15056373 0.23279643
0.025980517 0.043421194 0.01973373 0.029781306 0.0571664 0.08490979 0.06573985 0.103141055
0.010551496 0.015697677 0.0073177363 0.0112589 0.07210685 0.11417941 0.032475196 0.051035557
0.056033146 0.08891594 0.0396285 0.059761006 0.0024775583 0.0038518417 0.09684072 0.15251943
0.11603021 0.18346383 0.7306022 1.1263877 0.033161964 0.051014338 0.05984415 0.09478076

exp_avg f4 [40]
00000000: 0f58 aa3b 4919 af3a a2a5 57b9 98f0 5a3b
00000010: 266f f5ba e60c a6ba 112b 8d39 b001 6fbb
00000020: 0f36 0a3b 4e15 22bb c4c6 163b 1081 8939
00000030: 044b 19bb 2caa 0abb 55ae 2aba 6c50 e3b9
00000040: 558c 2d39 a58d 0ebb 5f0c d2b9 aa9b 39bb
00000050: bf68 00bb f410 4c3a 4ee0 e63a 292a 73bb
00000060: 7c14 b9ba f5e0 cb3a fdca 2c3b c33c 22bb
00000070: 534d 8fba 905b 4aba b2ab 423b 6ad8 e53a
00000080: f354 0dbb cece 14bb 085a d739 89f0 3dbb
00000090: e40f 503b 8ddd 02bc 6d44 083b e63b 163b
0.0051984857 0.0013358976 -0.00020565701 0.0033407565 -0.0018725141 -0.0012668639 0.00026925703 -0.0036469512
0.002108935 -0.0024731937 0.0023006657 0.00026226835 -0.002339066 -0.002115856 -0.0006510963 -0.00043356733
0.00016550843 -0.0021751907 -0.00040063538 -0.0028321543 -0.0019593684 0.00077845086 0.0017614455 -0.0037103987
-0.0014120485 0.0015554713 0.0026366108 -0.0024755455 -0.0010933079 -0.00077193324 0.002970439 0.001753581
-0.0021565526 -0.0022706273 0.00041075074 -0.0028982481 0.0031747753 -0.007987392 0.0020792738 0.0022923886

exp_avg_sq f4 [40]
00000000: 3e4e e43e 53d2 263d 50e6 dd39 7c75 353e
00000010: 82a9 913d df9e 183d 6b16 8f3b e401 5f3e
00000020: a5ba 853d bf63 073e 8d7a f13d 2ca0 7a39
00000030: 47b5 e23d a4d4 853d b094 003b aeab 1c3b
00000040: c65c 9539 4e03 ba3d d044 a43a 0620 2f3e
00000050: 7a7c 713d a9cf 223c 4643 6f3d df8d 883e
00000060: 6c9e 4d3d 8b24 0b3d 5126 c43d 56e5 f13d
00000070: d08f 933c 4a1d 583c 4d13 033e 9a8a 703d
00000080: ac90 d03d 6c53 893d fa0a 933b 9bba 323e
00000090: 43da 573e d9db a53f 8d87 6d3d f77f df3d
0.44590944 0.040727925 0.00042324 0.17720598 0.07112409 0.037260886 0.004366686 0.21778065
0.0652974 0.13221644 0.11790953 0.00023901527 0.11069732 0.065346986 0.0019619875 0.002390604
0.00028488616 0.090826616 0.0012532715 0.1710206 0.0589566 0.009937205 0.058413766 0.2667074
0.05019991 0.033970397 0.09577621 0.118113205 0.018012911 0.013190577 0.12800331 0.05872593
0.10183844 0.067053646 0.0044873925 0.17453997 0.21079354 1.2957717 0.0579906 0.10913079

exp_avg f4 [40, 40]
00000000: 0a0c 6e37 2196 61b8 f8ef c8b7 d4ed eb37
00000010: e7b7 f837 00ac 11b8 324d 71b8 7940 aab6
00000020: dce7 1e38 55d5 2038 b30f 8ab7 956c d337
00000030: 1337 5538 e162 e9b7 68fc 3ab8 cb39 27b8
00000040: d190 1637 ab37 7737 28a2 6fb8 e74f 61b7
00000050: cb17 92b6 f469 1938 6192 e0b7 3a88 6637
00000060: e67b 6d37 92ca 8736 70c2 b937 5cad fc37
00000070: 4894 abb6 0ce7 7938 d4c0 0438 5118 2db8
00000080: 7327 ee37 860d 48b8 ea0b 6eb7 eb8b a2b5
00000090: 8df8 c4b7 16a9 7037 002f 8937 6cc5 e8b7
000000a0: df6c 9b38 8216 d2b9 0fd2 3637 1d84 8238
000000b0: 343f 9f39 913f 0eba 06ea d936 24a2 c038
000000c0: 0e78 5239 6263 5039 96d8 17b9 59ef d839
000000d0: 1be8 b839 b973 92b9 d56a e1b8 c7b7 30ba
000000e0: 71c5 e239 6665 3c39 4ee4 1db9 ec36 d2b9
000000f0: 717d 00b8 4d6d 173a 240a b5b9 94e4 de38
00000100: 02f3 8f39 343b 4339 7b65 0b39 5139 7239
00000110: 975a ddb9 caca ab39 6dc5 db38 c5f1 8db9
00000120: e07e 6939 bb90 87b8 d5e7 0ab9 e31f 1638
00000130: 4d71 24b9 c5d2 2db8 e9ad 9938 4480 a3b9
00000140: 341f 6b37 e106 79b8 03db c036 e983 2d37
00000150: 6fa3 3a38 4cae c8b8 62bc 8f37 632b 7737
00000160: e5cc 0538 573f c137 eb48 a8b7 afdf 8e38
00000170: 1178 5538 fb37 47b8 c3f1 3cb7 f221 f4b8
00000180: 4c0e a138 1426 da37 9ce3 80b7 6cff 9eb8
00000190: 915f c0b6 8b58 d138 d8a9 5ab8 d915 5337
000001a0: 5e2b 2c38 3506 0b38 84ea bc37 1190 0738
000001b0: e5bd 9fb8 497c 4038 a330 8137 8a5c 1eb8
000001c0: b4dc 0238 b676 94b6 cb4a a7b7 dd66 8f36
000001d0: 0737 a7b7 dd71 81b7 fd67 4337 8b14 43b8
000001e0: 9385 9d35 91c0 a1b7 d3de 13b8 3799 b337
000001f0: b8c3 cd36 183f 4838 67db cfb8 1f5a 79b7
00000200: bf38 9837 e9ce 2038 a078 11b7 b1d3 d9b7
00000210: 53aa cd37 a20c 1337 1852 4db8 01c7 8638
00000220: 5e55 6fb8 07f1 1736 8cca 86b8 a5ac 7338
00000230: e45e 8135 750e 4cb8 2261 8236 019d 6137
00000240: 0cab 08b7 edaf cab7 9b23 b236 0a60 8937
00000250: e90d 8238 7930 2638 2c21 cf37 8dd8 d2b7
00000260: 4441 7d37 96c3 70b8 8179 54b6 124c b9b5
00000270: 05d5 a2b7 482e 2b38 568b 1537 85fc d5b5
00000280: 09e9 5b38 ffc6 66b9 d47b 1fb6 e6f4 5938
00000290: 18dc 2439 2569 a3b9 0bae c6b3 f12f 2938
000002a0: 0c2c 0239 0768 d338 b9f6 9ab8 1274 6a39
000002b0: 4742 4a39 a956 2bb9 7b27 92b8 3c95 c5b9
000002c0: c939 7739 064e bd38 6f09 c2b8 6e50 77b9
000002d0: c4e1 abb7 7ce9 aa39 12c6 39b9 61be 4f38
000002e0: 1d85 0c39 5ead d638 fab6 b038 5ae8 fe38
000002f0: a1dc 71b9 3784 4139 5616 9438 09ac 19b9
00000300: 7efc f438 ca7e 58b8 82c6 95b8 252c 4e37
00000310: 9a69 a6b8 731d 0cb8 c80a 4838 1679 29b9
00000320: d512 ba37 ad5b 9eb8 fbdf 03b7 b77b dd37
00000330: b2f3 4c38 bff9 d9b8 e55e 44b7 0704 0237
00000340: 28c0 4b38 27e8 1038 6ea5 c3b7 8e11 9238
00000350: 30f7 8b38 d1ea 70b8 58eb 07b8 6146 fab8
00000360: 8ce4 9438 fb6d e137 d6c3 2cb8 0b8f a4b8
00000370: 5425 09b7 badc de38 2e62 5db8 a83a 7237
00000380: 0fcc 1738 8a23 0438 8082 0a38 c37c 2838
00000390: dad1 90b8 f91e 8e38 34aa 0238 7929 55b8
000003a0: 4eff 2038 7606 f4b7 7e44 c6b7 9523 8935
000003b0: 2115 d9b7 c325 36b7 e6f8 a537 33a5 50b8
000003c0: 9735 d738 cfe4 f6b9 1585 ac36 8600 c738
000003d0: 6041 b539 7c65 2dba 6100 4c37 568e ca38
000003e0: 5cc3 8439 9d15 6739 deac 2ab9 7fd9 fe39
000003f0: cd64 d839 e7df b3b9 c6cd 0eb9 194f 54ba
1.41887085e-05 -5.3784e-05 -2.3953602e-05 2.812493e-05 2.964954e-05 -3.473088e-05 -5.753077e-05 -5.0739004e-06
3.788607e-05 3.8345654e-05 -1.6458192e-05 2.5203723e-05 5.083445e-05 -2.7821809e-05 -4.4580927e-05 -3.9869727e-05
8.974414e-06 1.47353085e-05 -5.713306e-05 -1.3429649e-05 -4.353909e-06 3.657672e-05 -2.6771044e-05 1.3740786e-05
1.4155148e-05 4.046896e-06 2.214426e-05 3.0121468e-05 -5.1134593e-06 5.9581405e-05 3.1650838e-05 -4.126906e-05
2.839018e-05 -4.769631e-05 -1.4188679e-05 -1.2110662e-06 -2.3480761e-05 1.4344483e-05 1.6353559e-05 -2.7748487e-05
7.411255e-05 -0.0004007109 1.0896953e-05 6.223491e-05 0.00030373933 -0.0005426342 6.494348e-06 9.1854745e-05
0.00020071885 0.00019873449 -0.00014481167 0.00041377058 0.00035268147 -0.0002793351 -0.00010748735 -0.0006741252
0.00043253184 0.00017966851 -0.00015057737 -0.0004009524 -3.0634405e-05 0.000577648 -0.00034530566 0.00010628361
0.0002745614 0.00018618704 0.00013293877 0.0002310027 -0.000422199 0.0003276675 0.00010479507 -0.00027073748
0.00022267876 -6.46426e-05 -0.0001324707 3.5792484e-05 -0.00015682467 -4.144271e-05 7.328002e-05 -0.00031185348
1.4014357e-05 -5.9372633e-05 5.747542e-06 1.0342316e-05 4.4498065e-05 -9.5692085e-05 1.7134651e-05 1.4732449e-05
3.1900494e-05 2.3036888e-05 -2.0061116e-05 6.812752e-05 5.0894978e-05 -4.7497433e-05 -1.1261963e-05 -0.000116411495
7.679741e-05 2.6005357e-05 -1.5364778e-05 -7.581603e-05 -5.7331713e-06 9.982389e-05 -5.213343e-05 1.2581667e-05
4.1048384e-05 3.3145963e-05 2.2520551e-05 3.232068e-05 -7.6170814e-05 4.5892117e-05 1.5400647e-05 -3.775632e-05
3.119996e-05 -4.4245635e-06 -1.994278e-05 4.273707e-06 -1.9933575e-05 -1.543102e-05 1.1647117e-05 -4.6510755e-05
1.1736287e-06 -1.9282366e-05 -3.5255052e-05 2.1409809e-05 6.1322608e-06 4.7742476e-05 -9.911396e-05 -1.48625395e-05
1.8146236e-05 3.8339673e-05 -8.670759e-06 -2.5966992e-05 2.4517218e-05 8.764824e-06 -4.8952264e-05 6.426685e-05
-5.7061545e-05 2.264105e-06 -6.427345e-05 5.8096502e-05 9.638866e-07 -4.8650854e-05 3.8856097e-06 1.34476e-05
-8.146057e-06 -2.4162198e-05 5.3089584e-06 1.6376394e-05 6.201474e-05 3.9622628e-05 2.469177e-05 -2.513479e-05
1.5095171e-05 -5.7402613e-05 -3.1661186e-06 -1.3805713e-06 -1.94111e-05 4.081268e-05 8.913534e-06 -1.594323e-06
5.24307e-05 -0.00022008641 -2.3764924e-06 5.196491e-05 0.0001572225 -0.00031168121 -9.251752e-08 4.033739e-05
0.00012414175 0.00010080641 -7.389248e-05 0.00022359219 0.00019288911 -0.00016340114 -6.969176e-05 -0.00037685956
0.00023577282 9.026755e-05 -9.252398e-05 -0.00023585718 -2.0489919e-05 0.00032598886 -0.00017716762 4.952995e-05
0.00013401029 0.00010236607 8.426416e-05 0.00012154943 -0.00023065742 0.00018455168 7.06135e-05 -0.00014655305
0.00011681857 -5.1616495e-05 -7.1418486e-05 1.2288835e-05 -7.935167e-05 -3.3406028e-05 4.7693757e-05 -0.00016162204
2.2181697e-05 -7.551103e-05 -7.860358e-06 2.6402862e-05 4.886435e-05 -0.00010393885 -1.1704605e-05 7.7495415e-06
4.857793e-05 3.4548484e-05 -2.3322846e-05 6.965092e-05 6.674079e-05 -5.743915e-05 -3.240569e-05 -0.00011934038
7.09976e-05 2.6873304e-05 -4.1190382e-05 -7.846773e-05 -8.1745275e-06 0.000106268984 -5.2781943e-05 1.4437981e-05
3.619125e-05 3.150435e-05 3.30233e-05 4.0170515e-05 -6.905543e-05 6.776857e-05 3.115293e-05 -5.082178e-05
3.8384744e-05 -2.9090075e-05 -2.3635333e-05 1.0217651e-06 -2.5878255e-05 -1.0856837e-05 1.9785435e-05 -4.974492e-05
0.00010261981 -0.00047091252 5.1414922e-06 9.489157e-05 0.00034571718 -0.00066145486 1.2159436e-05 9.658623e-05
0.00025322556 0.00022037928 -0.00016276861 0.00048608702 0.00041273833 -0.0003430836 -0.00013618832 -0.00080989447
