Lid_Driven_Re100/saved_models/VA-7000.pt (torch, 94805 bytes, 36 tensors)

linears.0.weight f4 [40, 2]
00000000: 4d46 edbd d170 403e 8a0a c33e 3983 bf3d
00000010: 7292 0e3e 7b7b 63be a802 65be a97a b23e
00000020: d2d0 48be 3eaa 74be 994b a73e cf56 1b3d
00000030: e907 4d3e 4d2d 83be 7f7c 523d 1903 65be
00000040: ee74 93be c531 6d3e f0fd 75be 1de5 fbbd
00000050: e083 bd3d 2d02 e73d d71b 33be a362 a5be
00000060: 73b7 b2be c2e0 91bd ae16 613e dc4a adbd
00000070: d648 a23e c279 6fbe 484d d33e e44d b63e
00000080: 83f0 1ebe d6b6 67be 4138 b7bd fb1a 3fbe
00000090: 6851 ae3e 38ff 55be 9e4c 1b3e c20b 85bd
000000a0: c2c1 013d abac 3bbd e5e8 aebe a039 2fbe
000000b0: 254a 2e3e 24fd ad3e dc6a 96bd 6670 17be
000000c0: c985 94bd 2da4 ccbe 6fc8 ecbc 713a d3bd
000000d0: 5cfd 2bbe 2970 323e e539 48be 969f e8bd
000000e0: 4841 2f3d 9527 8f3e fbcd cbbe 8081 213d
000000f0: 13c1 6fbe eabd 833e a674 913e a225 6f3d
00000100: bb31 3cbe 07f7 ebbd 4c92 b33e c340 d0be
00000110: b9ec c13d 7921 3f3d 3590 b63c d3a5 08be
00000120: 3dc0 133e 0d09 e33d 3956 93bd 3ac7 b2bd
00000130: dc48 f8bd 78b4 023e 3c7d 313e 2f19 833e
-0.115856744 0.18793036 0.38093978 0.093512006 0.13923052 -0.22215073 -0.22364295 0.34859207
-0.19610909 -0.23893067 0.32674864 0.037924584 0.20022549 -0.256205 0.05138826 -0.22364463
-0.28800148 0.23163517 -0.2402265 -0.12299559 0.09253669 0.11279712 -0.17491089 -0.32301816
-0.34905586 -0.07122947 0.21981308 -0.08461544 0.31696194 -0.2338629 0.41269898 0.356063
-0.15521435 -0.2262834 -0.089462765 -0.18662636 0.34046483 -0.2089814 0.15165946 -0.06496383
0.031678922 -0.045818966 -0.3416206 -0.17111826 0.17020471 0.33982193 -0.073446006 -0.1478897
-0.0725208 -0.39969006 -0.028904168 -0.10313881 -0.16795868 0.17425598 -0.19553335 -0.113585636
0.042786866 0.27959886 -0.39805588 0.03943014 -0.23413496 0.2573083 0.28409308 0.0583855
-0.18378346 -0.11521726 0.35072553 -0.4067441 0.094689794 0.04666278 0.02228556 -0.13344507
0.14428802 0.11085711 -0.0719418 -0.08729406 -0.12123272 0.12764156 0.1733293 0.2560515

linears.0.bias f4 [40]
00000000: 24d5 f0bd 4856 7ebd 8372 d13c 2bff 19be
00000010: 9d6d c33d 08a3 533e 28d9 56bc 956a 6a3d
00000020: 79a8 fbbd 6044 0d3e 2699 47bd 9ffd 80bd
00000030: 089c 893d 1ab9 fd3d 5699 743d 4bb6 573d
00000040: d537 65bc ce44 7d3d 80fb 853d 47f4 993e
00000050: 13ad fa3c 2e9a f7bd 5757 c6bd e9f1 c83d
00000060: da87 eb3d 8b71 5bbd 5498 e1bd 9457 943d
00000070: 317c ee3d 56ce 67bc 1811 c4bd 19a2 7abd
00000080: 79b7 913d 039d 8f3d 31ef 7e39 e2aa 6b3d
00000090: 2009 b5bd 4bb9 393e 7fc3 56bd 4613 b2bd
-0.11759403 -0.062094003 0.025567299 -0.15038745 0.095423914 0.2066766 -0.0131132975 0.05723055
-0.12287993 0.13795614 -0.048730038 -0.062983744 0.06719214 0.12388821 0.059716545 0.052664082
-0.013990362 0.061833195 0.065421104 0.3006918 0.030600106 -0.12089954 -0.096846275 0.09811766
0.11500521 -0.05357508 -0.110153824 0.07243267 0.116447814 -0.014148315 -0.09573573 -0.061189745
0.07115073 0.070123695 0.00024312433 0.057536013 -0.08839631 0.1813709 -0.052432533 -0.08695082

linears.1.weight f4 [40, 40]
00000000: 9310 5abe 490d 593d ed37 a53e 9b8c cd3d
00000010: c009 b73d c9e9 9d3e c788 743e d109 16be
00000020: 6211 73bd 632d 1a3d 4c5c 7abe e58f f0bd
00000030: dd2d 7b3d ba89 e2bd f6de a63e 6c2b 18bd
00000040: 09a3 6bbd 0873 30be ae29 ff3d ed83 363e
00000050: 471a f1bd 80b4 98be 7ea7 0e3e 51eb 0b3e
00000060: 7345 553e 2364 5f3e 9b7c cf3d af40 ed3c
00000070: 9ce5 47be 3f44 e73d bf00 9cbe afed 383d
00000080: 6476 243e 9d77 59bd df97 51be eab5 e53d
00000090: 7e09 663e 5b7c 29be 6c7b 443d 37e6 8ebc
000000a0: cd29 3dbe da60 393d 21f2 963e 8868 aebd
000000b0: 1e1c db3a 5475 ad3b f4f3 bf3d 21bf 843e
000000c0: 0988 353e 50ff 433e 832d 35be c17e 76be
000000d0: d776 c93d 1f0c b73d e089 6f3e 4dca 7a3d
000000e0: f679 153d 8949 d7bc 81c4 373e 318e febd
000000f0: bc22 123e bac7 7cbe e295 58be d432 6a3e
00000100: fc5e 0cbe 8b50 203d a308 f93c f252 863e
00000110: 2dab 003e 67fc 853e 4ee2 adbe d036 a9bd
00000120: 9395 423d e8e6 963e ac28 78be b313 e5bd
00000130: 540d e33d 2d84 db3e 5a40 673d ddee 293e
00000140: 9418 1cbd d0dd 15be d940 59be 81e2 6ebe
00000150: dd24 24be f940 633e a6ea ca3d f44a 47be
00000160: ff03 043c 7dfb 1cbe a9e2 28be 2bc6 f8bd
00000170: ef8a e93d d33b 1fbe a09e e93d 0f36 44be
00000180: 77de 1d3e c325 cbbd 8730 11be ccb6 73be
00000190: de7b 47bc 7069 823e 584e 00bd f145 7c3e
000001a0: 6cf2 74be 0617 453e b0c5 16be 4542 d7bd
000001b0: 06a0 abbd b157 d23d 00b7 ed3d c56e 253e
000001c0: 6b56 94bd f563 3dbe a704 783e 24db 6bbe
000001d0: a4e1 64be 7ca1 173e 7db2 fc3d d089 3abe
000001e0: 6696 fabc 7643 d0bd f32f 423e 2863 7dbd
000001f0: bd61 723e cc99 1f3e d978 7f3e 1069 8dbe
00000200: 67c1 6dbe 51d9 a1be f96a fe3d 67ed 3fbe
00000210: d0b4 afbd c57d eabc 2f5b 543d 27ac 84be
00000220: dff2 803d 7e21 94be 56ea 363c 5939 40be
00000230: 5028 1bbe a694 303d 85bd 393e 4f6e 5d3e
00000240: bda3 24be fcd5 28be c567 7dbe 4784 36be
00000250: 2703 3fbd d297 75be aa79 99be 49fd 38be
00000260: 9a7b 343e 1149 893e 23d8 3cbd c18e a8bc
00000270: c6b7 183e 57ed 93be d549 f63d 8528 bc3d
00000280: 7866 1c3e 60a9 6dbe 0972 afbd eb1e c23d
00000290: bdab 843e f04e c03b 2bbe 623e d299 513e
000002a0: 2d39 56bc 2f42 113e 1f1d 1cbe d78a 373a
000002b0: d626 903e fdef 713e 2372 283e db4a 2bbe
000002c0: bc9b ed3b ff7e 903d 90ef 823d 0e63 8b3e
000002d0: f63f 1c3c 4b9f 393e c572 5ebe 7f1c 343e
000002e0: 3325 0abe 746c f83d f748 46be a331 8d3e
000002f0: af86 733e e4d7 2a3e 9e70 0fbd d4ff 9abd
00000300: cb4a c6bd d88d 01be f976 813e 8667 2bbe
00000310: e5b7 f2bd 8b3e 223d 074e 363e 5062 97bd
00000320: 8cb9 443e 10e8 fc3d 27cf 7f3e 711d af3d
00000330: f9a0 d43d da3a 5fbe 9565 d03d 55e3 033d
00000340: 2186 a4bc 03d7 463e 790c 4abe 0c2a 123c
00000350: e443 833d 9426 5c3d 117b d83d 1678 953d
00000360: 454a 0e3e ce1e ef3d 2d23 033e a99b ccbd
00000370: 0e09 4ebe b9c9 71be 5479 3fbd f77a 983e
00000380: 7336 62be 1d3b b2bd 5dff 273e e97c b33c
00000390: fd0d 86be 3bf9 823e dc07 2fbd abd2 043e
000003a0: 945e 13be 6c21 45be 990d ab39 f004 febd
000003b0: 1ecf 4c3d 05cb a6bd 3a02 2bbe a4c1 8cbe
000003c0: d9ef 9fbe 897d bb3d 47cf ed3d fb02 12be
000003d0: 3c21 433e 2edf 393e c62e 453e 5cb2 233e
000003e0: eba1 97bd fa0d 8f3e 4d16 293d 808b ce3b
000003f0: 4bde 3e3e 1877 673e 91eb 3d3e 27b9 56bd
-0.21295385 0.052991185 0.3226923 0.10036584 0.089374065 0.30842426 0.23880301 -0.14652182
-0.05934275 0.03764094 -0.24449271 -0.11746196 0.061323036 -0.110614255 0.3259198 -0.037150785
-0.05752853 -0.17231381 0.12459122 0.17823763 -0.1177259 -0.2982521 0.1393108 0.13663985
0.20827274 0.21815543 0.101311885 0.028961508 -0.19521183 0.11292314 -0.3046932 0.045148548
0.16060787 -0.053092588 -0.2046809 0.11216338 0.22464558 -0.16551344 0.047969267 -0.01744376
-0.18472977 0.04525838 0.29481605 -0.085160315 0.0016716754 0.0052935276 0.09372702 0.2592707
0.17727675 0.19140363 -0.17693143 -0.2407179 0.0983712 0.08937859 0.23392439 0.061228085
0.036493264 -0.026280181 0.17946054 -0.124294646 0.14271063 -0.24685565 -0.21150926 0.22870952
-0.13708109 0.03913931 0.030399626 0.26235157 0.12565298 0.2616913 -0.3396172 -0.08262408
0.047505926 0.29473042 -0.24234265 -0.11185398 0.110865265 0.4287428 0.056457855 0.16595025
-0.038109377 -0.14635396 -0.21216144 -0.23328592 -0.16029687 0.22192754 0.09908037 -0.19462186
0.008057593 -0.1533031 -0.16492714 -0.121471725 0.114034526 -0.15550165 0.114072084 -0.19161247
0.15416895 -0.09919312 -0.14178668 -0.238002 -0.012175528 0.25471067 -0.031324714 0.24636056
-0.23920602 0.19247064 -0.1472385 -0.10510687 -0.083801314 0.10270632 0.1160717 0.16155536
-0.072430454 -0.18495162 0.24220525 -0.23032814 -0.223517 0.14807695 0.123387314 -0.18216634
-0.030589294 -0.10169117 0.18963604 -0.06186214 0.23670097 0.15586013 0.24948443 -0.2761922
-0.23218308 -0.31611112 0.12422747 -0.18742906 -0.08579409 -0.028624425 0.051844772 -0.25912592
0.06296324 -0.28931803 0.0111642685 -0.18771876 -0.15152097 0.043110512 0.18138702 0.2162411
-0.16078086 -0.16487879 -0.24746616 -0.17823897 -0.046633866 -0.23983696 -0.29975635 -0.1806537
0.17625275 0.26813558 -0.04610456 -0.020575883 0.14913854 -0.28892013 0.12025801 0.09187416
0.15273464 -0.23209143 -0.08566672 0.094785534 0.25912276 0.005868785 0.22142856 0.20468834
-0.013075155 0.14185403 -0.15245484 0.0007001585 0.2815463 0.23626705 0.1644979 -0.16727774
0.007251231 0.070554726 0.06393349 0.2722401 0.009536734 0.18127172 -0.21723469 0.17588995
-0.13490753 0.12130061 -0.19363771 0.27576932 0.23781846 0.16683918 -0.03501951 -0.075683266
-0.096822344 -0.12651765 0.2528608 -0.1673871 -0.11851481 0.039610427 0.17803203 -0.073917985
0.19211406 0.1234895 0.24981366 0.085505374 0.103822656 -0.21799794 0.10175625 0.032199223
-0.020083489 0.19417958 -0.1973132 0.008921158 0.064094335 0.05374773 0.10570348 0.07298295
0.13895519 0.116757974 0.12806387 -0.09990627 -0.20120642 -0.23612107 -0.046746567 0.29781315
-0.22091083 -0.08702681 0.16406007 0.021910148 -0.26182547 0.25580773 -0.042732105 0.12970988
-0.14391547 -0.1925103 0.00032625793 -0.124032855 0.05000221 -0.08144192 -0.16700068 -0.27491486
-0.31237677 0.09154803 0.11611801 -0.1425895 0.19055647 0.18151543 0.19256124 0.15986007
-0.0740393 0.2794035 0.041281033 0.006303251 0.18639486 0.22604024 0.18546893 -0.05242267

linears.1.bias f4 [40]
00000000: e1a0 093d 2d1a 9e3c 50a9 5c3d 9957 2abd
00000010: 69fc 273d f891 313d cd9f c63d 4960 743d
00000020: 06dc 15bd 8785 823d 48f5 45bd d5c8 10be
00000030: 7468 a9bc 4895 4cbd e115 f8bb ebee b63d
00000040: e845 4dbd 948e 113d 2b61 093d 5c31 fcbc
00000050: 2c6f 2e3d 386e 553d 50c9 643d 7304 8fbd
00000060: 23c4 2bbd 0322 1bbe 5c0d efbd ebac ba3d
00000070: d2ff f23d 2430 34bd a3db a6bd a7cd 60bc
00000080: 075c c5bc 5b9e 4f3b 145c b9bc bed4 f83d
00000090: b4a0 15bd 310e 7ebc 2ed0 c6bd bf1f 8abc
0.03360069 0.019299591 0.053872406 -0.041587446 0.0410122 0.043352097 0.09698448 0.059662137
-0.036586784 0.063731246 -0.04832962 -0.14139111 -0.02067969 -0.049947053 -0.0075709675 0.08932289
-0.050115496 0.035536364 0.033539932 -0.030785255 0.04258649 0.052107066 0.05585605 -0.069832705
-0.041935097 -0.15149693 -0.1167247 0.09115013 0.118652 -0.043991223 -0.08147361 -0.013720906
-0.024091734 0.003168008 -0.022626914 0.12149952 -0.03653021 -0.015506313 -0.09707676 -0.01686084

linears.2.weight f4 [40, 40]
00000000: 6350 2fbe 7e87 973e 65f4 90be 375c 743b
00000010: 9698 203e c2e4 95bd acfe 8c3e 950b c93d
00000020: 5f90 213d ada4 583e 609c 1fbe c60a c13d
00000030: da12 84be e10d e5bd b7cb 0dbe 04c7 403e
00000040: 42fd 67be a161 e63d cb2f 733e 0914 6f3e
00000050: a905 c13b 9c97 e93d fb81 693e 1f0a 6e3d
00000060: 57fa 653d f79a 92be 7bb6 67be deeb 983e
00000070: f4f7 103e 3120 5b3d d892 213e ce80 013e
00000080: 138c 09be 5a3e f5bd 6515 0abe 5d7b 9ebd
00000090: 4613 80be 8e58 86bd 7fbd 83bd 3111 07be
000000a0: 23bd 80be b1e4 92bd 1a62 8bbe 732d 50bc
000000b0: 2665 25be 4671 253d e31e 48bd 7aab 0ebe
000000c0: fdeb debd d35e 643e bff3 f43d e6f2 8b3e
000000d0: e433 0fbe c36d 923e 77f1 1ebe 882d 5ebe
000000e0: 36ef 3c3e 6fd6 b8bd 82a4 90be b6ab 67be
000000f0: 5237 0cbc 4133 7abe 698e c8bd 4d72 04be
00000100: cd9a 993d d9a3 2e3c 7662 913e b248 763c
00000110: 6c29 e0be cdce 603e 604c 8ebe 7b1f 02bd
00000120: 60a5 a23d 3a66 ba3d 5c62 453d 3e34 1cbe
00000130: d0f5 583e 45c9 993c 2d7e ea3e 9b76 853e
00000140: 4e85 7d3c a85f 1abe 4622 4e3d 9d20 0f3e
00000150: 4fc4 92be dae1 2f3e 63e3 adbe ea00 6a3e
00000160: f9bb 2bbe e04c cc3c c12b edbd 321c dcbd
00000170: ac76 06bd 996a 55be 16ae 853e 78cc 943c
00000180: a81f 13bd 8772 8bbe a43a a6be 58f4 39be
00000190: f954 e83d f1c0 00bd 80ff e0be 6390 973c
000001a0: 919c 943e 5abd 833e 4ba4 6f3e 57bd 83be
000001b0: cf78 b7be fec9 813e 93a3 7f3d 4bbb 2b3e
000001c0: 1b17 61be 6f48 ce3c 1e4a 293e 0e1d b93d
000001d0: 6ae7 393e 600f 153e 8df8 073e 8fcd f93d
000001e0: 0619 02be ca99 6abe 6ef8 bb3d 59df 11be
000001f0: 2601 4cbe 48b2 913e 7d95 0b3e 93eb cd3d
00000200: 1003 4dbd d220 27bc dba5 06be bfbc 6b3e
00000210: 069b 81be 11e8 68bd de17 81be 2f1b af3d
00000220: 8a4a a0be 6b32 86bd dcf6 173e 408f 34be
00000230: 6a84 6fbe 7d54 083d 6ffe 8fbe a429 a4bd
00000240: 1ba5 b13d a845 923e 2fa6 a1bb 74d1 f03d
00000250: 04d3 743e b2c1 be3d bc85 df3b b70c 3c3e
00000260: 9f75 43be 6f45 a13d ead6 123d e3a8 463e
00000270: 42d3 053e e140 b03d 5576 943e f410 efbd
00000280: 8d11 3cbd e1e5 dbbe de40 cd3d 7ed0 673d
00000290: d77b cebc ec15 29be 72da 9cbe 0b97 27be
000002a0: baea 47be 24f9 073d 2848 163d d71d 7a3e
000002b0: 118a 6ebe fee9 d5bd 0248 f4bc 104a a7be
000002c0: 46fb 4b3d a776 cb3c 9cd3 06bf 7131 1fbe
000002d0: d2f1 33bd 66d0 143d fdf6 15bf 2d6c d03d
000002e0: bee0 983d 1d4d a23e e5fc 2e3e d25c b7be
000002f0: 65c3 dfbe ccb1 533e a198 723e 4b0f 953e
00000300: 4c18 81be 7b9f 583e 9583 91bc 6372 45bd
00000310: 2bf8 e93c 8148 19be c0db 0b3f a0c7 773b
00000320: 3e3d 11be 55cc 6fbc fcf5 00bc 0579 323e
00000330: 2f40 55be e12b 0fbe 5928 8f3d d4d4 0abe
00000340: 04a6 ba3d e3dd 213d 5711 753e 8b8a dd3d
00000350: 81d2 88be 1a98 25bd 805e 8c3d dbaa 54be
00000360: 30bb 103e 5b8b 8e3e 6f25 e43d 4242 783e
00000370: ca56 42be 6207 2abe e1c9 77be 0828 143e
00000380: 7676 b43d 3e87 573e 2603 30be 25bf 4e3e
00000390: 3b8e 97be 6bf7 00be 2a79 7c3e 39dc 423e
000003a0: 0f5f 5b3e bb03 3fbe 1c5e 46bd 3243 87be
000003b0: 7cce 083d a296 67be 6ca9 cb3d c6ea 94be
000003c0: 80fb acbd fa17 d5bd ffb2 e13d cdc2 853e
000003d0: 0a91 71bd 9830 1d3d 37ff c2bd e171 31be
000003e0: d019 45be 12f4 2dbd b3d6 23be 302f ffbd
000003f0: 6251 35be c0fa c0bd 4fd6 79be 9b49 f83d
-0.17120509 0.2959556 -0.28311458 0.003728641 0.15683207 -0.07319023 0.2753805 0.09816662
0.039444324 0.21156569 -0.15586996 0.09425883 -0.25795633 -0.11184288 -0.13847242 0.18825918
-0.22655204 0.1124909 0.237487 0.23347487 0.0058905673 0.1140587 0.2280349 0.05811512
0.056146946 -0.28633854 -0.22628205 0.29867452 0.14157087 0.053497497 0.15778673 0.12646791
-0.1343234 -0.11974783 -0.13484724 -0.077383734 -0.25014704 -0.06559859 -0.06432628 -0.13190152
-0.251443 -0.07172526 -0.27223283 -0.012706148 -0.16151866 0.04039123 -0.04885758 -0.139326
-0.10884855 0.22301798 0.119605534 0.27333754 -0.13984638 0.28599367 -0.15521799 -0.21697056
0.18450627 -0.09025275 -0.2825051 -0.22624096 -0.008558111 -0.24433614 -0.097927876 -0.12934227
0.07500229 0.0106591815 0.28395432 0.01503198 -0.43781602 0.21953888 -0.27792645 -0.031768303
0.07941699 0.091015294 0.048189506 -0.15254304 0.2118752 0.01877273 0.4579939 0.2606705
0.015473677 -0.15075552 0.050325654 0.13977285 -0.28665397 0.17176 -0.33962545 0.22851911
-0.16770925 0.024939 -0.11580611 -0.10747565 -0.032828018 -0.20841445 0.2610938 0.018163905
-0.03591886 -0.27235815 -0.32466614 -0.18159616 0.11344332 -0.031434003 -0.4394493 0.018501466
0.290257 0.257304 0.23402517 -0.25730392 -0.35834357 0.2534942 0.062411856 0.16770665
-0.2198147 0.025181023 0.1653218 0.09038745 0.18154684 0.14556646 0.13278408 0.1219741
-0.12704858 -0.22910228 0.091782436 -0.14245357 -0.19922313 0.2845633 0.13631244 0.10054698
-0.05005175 -0.010200696 -0.13149206 0.2302122 -0.25313586 -0.05686194 -0.25213522 0.08550107
-0.3130687 -0.06552585 0.14840263 -0.1763277 -0.23390356 0.0332837 -0.28123805 -0.08015755
0.086740695 0.28568769 -0.0049331407 0.117587 0.23908621 0.09314288 0.0068213623 0.18364225
-0.19087838 0.078745715 0.03584949 0.19400363 0.1306887 0.08606125 0.2899653 -0.116731554
-0.045915175 -0.4294882 0.10022138 0.056595318 -0.025205536 -0.16512269 -0.3063541 -0.16366212
-0.19523135 0.033196583 0.036689907 0.24425445 -0.23294856 -0.10445021 -0.029819492 -0.32673693
0.04980018 0.024836851 -0.5266664 -0.15546204 -0.04393179 0.036331557 -0.5858 0.10176883
0.07464741 0.31699458 0.17088659 -0.35813004 -0.43703762 0.20673293 0.23691036 0.2911323
-0.2521385 0.21154587 -0.017762939 -0.04820479 0.028560719 -0.14969064 0.54632187 0.0037808195
-0.14183518 -0.014636119 -0.007871147 0.17428978 -0.20825265 -0.13981582 0.069901176 -0.1355775
0.09113696 0.03951825 0.23932396 0.108174406 -0.26723102 -0.04042826 0.06853962 -0.20768301
0.14133906 0.27840695 0.111399524 0.24244025 -0.1897842 -0.16604379 -0.24198104 0.14468396
0.08811657 0.21047685 -0.17188701 0.20190103 -0.296007 -0.12594382 0.24655595 0.19029321
0.2142298 -0.18653767 -0.048429593 -0.26418453 0.033400044 -0.22616056 0.09944424 -0.29085368
-0.08446407 -0.10404964 0.11020469 0.26125184 -0.05897621 0.03837642 -0.095213346 -0.17328598
-0.19248128 -0.04246909 -0.1599987 -0.12460172 -0.17706826 -0.09422827 -0.24398158 0.12123414

linears.2.bias f4 [40]
00000000: dd07 e93b a82a 08bd b420 7cbd cb20 e5bd
00000010: da64 0ebe 1215 19bd 5682 c3bb dc20 a63d
00000020: 25a5 993c e28a 133c c8e2 b3bd d99e 1fbd
00000030: ba10 b03a a06e e2bb df7f c13c a8f8 713d
00000040: 355b 8bbd e054 4ebc 7f57 33bd 2173 00bd
00000050: 28fd ba3d a847 01bd 819f f2bc 5992 123d
00000060: 9460 2e3d 83b7 f0bc b3a8 7c3c 83d9 05bc
00000070: b894 ccbc 5b00 2fbd 3d52 bf3d 85cc 15bb
00000080: baf0 bfbd d75a b73c 14ef 36bc 22bb 23bd
00000090: b33c 063d 6dd9 cdbb afb3 ddbc 96c6 babc
0.007111533 -0.033243805 -0.061554626 -0.111878954 -0.1390566 -0.03737361 -0.005966465 0.08111736
0.018755505 0.00900528 -0.087834895 -0.03896985 0.0013432719 -0.00691016 0.023620544 0.059075028
-0.06804506 -0.012593478 -0.043784615 -0.031359795 0.09130317 -0.031562477 -0.029617073 0.0357841
0.042572573 -0.02938438 0.01542108 -0.008169535 -0.024973258 -0.04272495 0.093418576 -0.00228575
-0.09372087 0.022382183 -0.011165399 -0.039973386 0.03277273 -0.0062820227 -0.027063219 -0.022799771

linears.3.weight f4 [40, 40]
00000000: e70f 5dbe 57c7 0c3f 050d 99bb e1e3 c23d
00000010: af42 02be cf31 af3e d461 e4bd 4fbc 9cbe
00000020: bae6 51be 2b72 483e b712 8b3e d186 6c3e
00000030: 09c0 f9bc 49fb 8c3e ed84 523e 42a1 0abe
00000040: 0858 5fbd 4e7c 88be 85e8 1e3e 6a63 b33d
00000050: 79a5 e23d 8e94 0f3f 8652 0cbe d7e4 653e
00000060: 8b9a 063e fa31 c03d bce2 f9bc b7ba c73e
00000070: 3317 2e3d 867e c7bc 76ec 5a3e f1cf 34be
00000080: 343e 833d 9028 04be 15fe 90bd a5a6 37be
00000090: 28cc 92be 8385 6f3e 1d9a 353e 61b9 b13c
000000a0: 84f4 8c3e de13 2cbe ecb2 5c3d 0039 a53c
000000b0: bc96 87be fb68 4d3e 135e f13c 283f 133e
000000c0: 5372 153e edd5 c9bd e8b4 8abe fec6 24be
000000d0: f5f2 1c3e 93f7 ae3d 4ea1 28be 9199 243e
000000e0: 0d34 3ebe 8694 bdbd 450d 13be 96dd 48be
000000f0: 2762 483e 2a68 0abd aef4 9e3d 718f 873d
00000100: 9b44 923d fc45 88bc b802 c0bd 0e2d 993c
00000110: 0269 4abe ff90 92be 03cd 5c3e 507f 513d
00000120: ad9e 2cbe 7fcc 58be 1c7e 31be 8927 f63d
00000130: f514 6abe e257 28be 17fd d93d ef50 933e
00000140: 8769 23be 2e13 353e 0ed8 53be fdc5 3d3e
00000150: f35e 59bb 4608 0f3e f4b4 c6bc bdeb 13ba
00000160: 129d 83bd f1f1 03be 1df6 1ebe 0d11 113e
00000170: 4590 6b3b 5db5 a7bd fff1 883e b948 3fbe
00000180: 80b5 6b3d 16b0 22bd 56d3 55be f648 f93d
00000190: 4f8f 983e ae54 943d 6395 453e 3f7e 963e
000001a0: 1ad1 6e3e 0b97 8d3e 8b15 643e c709 bebd
000001b0: a6e3 3abe 295f 09be 874b 303e f896 d33d
000001c0: aee7 fdbd 4ed3 60be 9085 be3d c3a3 71be
000001d0: 7bb2 6bbc 70bd dc3c edf3 263d 5a3c a7be
000001e0: d6a4 21be ad06 673e 993f e6bd 1fad dbbd
000001f0: f1a0 88be 8ede 80be 2e79 1bbe 9987 873e
00000200: e8c7 d1bc 0f81 62be 9f65 ce3d 2e05 46be
00000210: 5634 34be 99cb 563e df16 553e b7b0 a2bb
00000220: e56b 67be aa72 9f3d c986 01be 812b f33c
00000230: 74b5 a03e 11b7 853e 97e1 82be c00d 7c3e
00000240: 3c76 913e fe28 083e e167 363e 3081 693e
00000250: 448b 8abe da7d 37be b5aa 9b3c f6b1 8dbd
00000260: cca1 68be 9da0 b93d b626 613e 9a1b a73d
00000270: f723 31bc c097 243e a3b2 c13d cc6b 073e
00000280: 19c1 74be cbd6 e7bd b5a3 833e 065f 2a3a
00000290: 4a6f 583e fab6 e7bc 655d 10ba f36f 9bbe
000002a0: 7b27 81bc 1660 acbe 5669 6dbe 0e27 273e
000002b0: e132 28be 75a6 f93d a972 5abe cef0 86bd
000002c0: 899f 433e cadf 813e 92cd 5c3e e76c 983e
000002d0: a56e 0f3e 59ad a23d 96a1 80be 1769 8bbd
000002e0: 9ccd 533e dabe 1c3e 7f3c 1d3e 2cb9 c73a
000002f0: 1171 c83e 403a af3e e4a6 913e fe5a 203e
00000300: b556 ec3d 5daf 8a3e 6fc0 183d 6266 21be
00000310: 1613 cf3d cc5a 2fbc fcac 3bbd d5d1 c2bc
00000320: fcb5 353e d5e1 abbd d371 013e 68f5 ff3d
00000330: 5d59 e73d 1885 3b3e 8b19 21be 3de3 863e
00000340: d922 b0bd c28e 7abe 6b7a b73c 8cf2 30be
00000350: 6781 893e 84c0 05be bf6d 903d 74e9 1bbe
00000360: 47a4 b1bd c91d 67be 23b2 a7bd c996 60bc
00000370: 6a00 303d ddc2 50bd 2337 18bd 9aa7 0abe
00000380: 468f 3dbe 9da2 8abd c1f6 96bd 7473 e53d
00000390: 9838 853e 7d1d cfbd ebbd 823c dc9f 77be
000003a0: 6757 14be e76c cb3d 5d03 693e 2969 4b3e
000003b0: 5906 553e 5538 78be 2ac1 393e 5e99 71be
000003c0: aa30 e7bc 2eb5 923e 5eea 873e 6054 143d
000003d0: b622 ad3c 1a06 0a3e 6a8c 553e 67a9 8dbc
000003e0: 8841 cabd ddb2 2a3c 9b48 d53d e6c8 803d
000003f0: 2223 4b3e be04 39be 42cd 843e 9f19 623e
-0.21588098 0.5499167 -0.0046707415 0.09516121 -0.1272075 0.34217688 -0.11151472 -0.30612418
-0.20498171 0.19574802 0.27162716 0.23098303 -0.030487077 0.27535465 0.2055852 -0.13538077
-0.054527313 -0.26657337 0.15518387 0.08759196 0.11066718 0.5608605 -0.13703355 0.22450577
0.13144891 0.09384532 -0.030503623 0.3900964 0.042502593 -0.024352323 0.21379265 -0.17657448
0.06408349 -0.12906098 -0.07079712 -0.17934664 -0.28671384 0.23390774 0.17734571 0.02169484
0.275303 -0.16804454 0.05388157 0.020168781 -0.2648219 0.20059578 0.029463803 0.14379561
0.14594392 -0.09855256 -0.27091146 -0.16091534 0.15327056 0.08543315 -0.16467783 0.16074206
-0.18574543 -0.09256844 -0.1436053 -0.19615778 0.19568692 -0.033790745 0.07761513 0.06619156
0.07141992 -0.016634934 -0.093755186 0.018698242 -0.1976662 -0.28626248 0.21562581 0.051146805
-0.16857405 -0.21171759 -0.17333263 0.120192595 -0.22859557 -0.16439775 0.10643976 0.28772685
-0.15958224 0.17683098 -0.20687887 0.18532558 -0.0033168166 0.13968 -0.024256207 -0.0005642733
-0.06426443 -0.12885262 -0.15523572 0.1416666 0.0035944146 -0.08188889 0.26747128 -0.18680085
0.05754614 -0.03971871 -0.208814 0.12172119 0.29796836 0.07242714 0.19295268 0.29393193
0.23321953 0.276543 0.22273843 -0.09279209 -0.18250903 -0.13415207 0.17216311 0.103315294
-0.12397705 -0.21955606 0.09302819 -0.23597626 -0.014385815 0.0269458 0.04075997 -0.32663232
-0.15785536 0.2256114 -0.11242599 -0.107263796 -0.2668529 -0.25169796 -0.15182945 0.2647064
-0.025608018 -0.22119544 0.100779764 -0.19337913 -0.1759809 0.20976104 0.20809506 -0.0049649137
-0.22599752 0.07785542 -0.12649073 0.02968383 0.31388438 0.2611623 -0.25562736 0.2461462
0.28410518 0.13296887 0.17813064 0.22803187 -0.27059376 -0.17919102 0.019002298 -0.06918709
-0.2271797 0.09063838 0.21987423 0.081595615 -0.010811797 0.16073513 0.094579004 0.13224715
-0.23901786 -0.113202654 0.25710836 0.0006499145 0.21136203 -0.028285492 -0.0005507081 -0.30358848
-0.015765896 -0.33667058 -0.23184714 0.16323492 -0.16425659 0.12189952 -0.21332802 -0.065888986
0.19103827 0.2536605 0.21562794 0.29770586 0.14007051 0.0794322 -0.2512328 -0.06807154
0.20683903 0.15307179 0.15355109 0.0015237681 0.39148763 0.3422413 0.2844764 0.15659711
0.115399756 0.27086917 0.037292894 -0.15761712 0.10111062 -0.0107028 -0.045819268 -0.023781696
0.17745203 -0.083926834 0.12641077 0.124979794 0.112963416 0.1831249 -0.157324 0.26345244
-0.08600397 -0.2446852 0.02239724 -0.17280024 0.2685654 -0.1306172 0.070521824 -0.15225774
-0.086739115 -0.22569956 -0.08188274 -0.013707825 0.042969145 -0.050967086 -0.037161957 -0.13540497
-0.18511686 -0.06769297 -0.07371283 0.112036616 0.2601974 -0.10113046 0.0159597 -0.24182075
-0.14486466 0.09932881 0.22755189 0.19864334 0.20803203 -0.24240239 0.18140092 -0.23593661
-0.028221447 0.28653854 0.26545995 0.03621328 0.021134716 0.1347889 0.20854345 -0.017292691
-0.0987578 0.010418621 0.10414239 0.06288318 0.19837621 -0.18068215 0.2593785 0.22080086

linears.3.bias f4 [40]
00000000: 0b32 30bd 9a38 f33c dbba 133d 4d4c 513d
00000010: 1882 c43c 66b7 3bbc 69fc a5bb c6f1 51bb
00000020: 2991 1fbd 4324 b43c 617e 4cbd 521f 12bc
00000030: fb0b fabc 44dc bf3c 0339 f33c a286 64bd
00000040: 320c fcbc 0632 76bb f546 8c3d d91b cf3c
00000050: 4797 66bd 9dd0 d13c 51e6 1bbc ca79 6d3c
00000060: 7550 7cbd 8c17 2abd 5c3f 34bc 8200 1fbc
00000070: 3dde db3c 02e2 da3b 658b 12bd 13f9 adbc
00000080: 67f7 17bd 51e8 223d 6046 bcbc eb18 463d
00000090: 2312 163d 8b63 24bc 0b54 563c 90c6 84bc
-0.043016475 0.029690076 0.03606687 0.051098157 0.023987815 -0.0114573 -0.00506549 -0.0032034977
-0.038956795 0.021989947 -0.04992521 -0.0089186 -0.03052329 0.02342046 0.029690271 -0.05579246
-0.030767534 -0.0037566437 0.068494715 0.025281833 -0.056296613 0.02561217 -0.009515361 0.014494369
-0.061600167 -0.041526362 -0.011001434 -0.009704711 0.02683937 0.0066797743 -0.03577747 -0.021236932
-0.037101176 0.039772335 -0.022982776 0.048363607 0.03663839 -0.0100334985 0.013081561 -0.016207963

linears.4.weight f4 [40, 40]
00000000: da53 503d 9f9d 093c 3518 253e 24d2 013e
00000010: 1acf 78be 4051 02be 956e 1ebe 6d6c 9c3d
00000020: 2bf6 aebc 0a6c 953e 3edb 53be 9111 e33d
00000030: fe48 77be ee13 1abd 8ba9 2d3e 1990 05be
00000040: 6ec1 c83d 93fb f5bd 75fa 803e 49fc 00be
00000050: 42d4 8e3d 45c3 2e3d ea92 a23d b839 6d3e
00000060: 45da d8bd a8a9 91be 5db5 8ebc 01a9 15be
00000070: 4162 bfbd 1dfe 203e 805e 67bd 27de 1bbe
00000080: b556 6abe 2b54 e6bd 3e84 cb3d 3351 21bd
00000090: e60f 223e 229a 123e 36f0 623e 32a6 6c3e
000000a0: 0909 1fbd ccda 45be 8543 8d3d 5406 9c3e
000000b0: e78d f1bc 0a07 0abe 9ed7 0b3e 748a bfbc
000000c0: 7481 8bbe e220 1ebe bc3c 74bc b913 e9bd
000000d0: dd27 403e f89e 40bd 5bb3 4b3d e4f0 1e3e
000000e0: ebbb 7bbe a5af ebbd f1c7 8c3e 7572 16bc
000000f0: 98de 153e b714 21be e8ce 99bb f953 6dbe
00000100: 34e1 54be b9ce 6bbe 31bf 313e be8b 69be
00000110: 2f4e 023e 8188 e2bd 8790 d8bd 6964 11be
00000120: 3689 063e e7c7 693e 4f8b 883d 6bfb 013e
00000130: 28e7 2e3e 6432 8abe 1126 9a3e 05b5 303d
00000140: 0c12 0abe e64e 423e b76a da3d c5f7 503d
00000150: a5d2 453e ff32 5c3d e057 2a3e 11e9 99bd
00000160: c6fc 8dbe 0fb4 3f3e 5745 57be 8ea9 813e
00000170: 26a3 48be 93f9 4c3e 6ac7 4abe dc7d ffbd
00000180: 10b9 31be f920 923d 26d3 4a3e e688 0abe
00000190: 4873 143e 549a 8d3d ff42 ca3c d3cf a83d
000001a0: 6f49 c13d acc7 2ebe 64a8 69be 8362 943c
000001b0: 92e2 4b3e dd5a 36bd b677 e73d 6c30 debd
000001c0: 96ff 54bd 41b1 6e3c a75a e7bc 3e49 4d3d
000001d0: 48a1 773e 2178 363e 60ea 3d3e 638c 1ebe
000001e0: ca35 6d3e 66af 1dbe 1935 71be 3a86 7e3d
000001f0: 3d14 3c3e 7472 363e 3d59 23bc 5aa3 803d
00000200: 944f b8bd d48c 2fbe d13b 0a3e 6918 28bd
00000210: 62dc 213e d3d5 ffbc 1ed0 3e3e 4010 10be
00000220: 8eb9 6ebe 8efa 733e cc25 06be 6a53 7a3d
00000230: 3bff 82bd b9ce 963c 4379 173e 0c1e abbd
00000240: 4708 6cbe 62fc e13b 28f7 00be 4b08 7d3d
00000250: cfba 533d b6dc 05ba 9fd5 4e3e 1c97 713e
00000260: ce70 8cbe ce7f 7f3c 0b83 d9bd 096d 08be
00000270: 6bc9 5bbe 287d 243e 3994 9abd df69 363e
00000280: ba0b 29be 128a 90bd 03a8 63be f01e 53be
00000290: b1a1 06be 0c57 5abe 607d 45be 5924 663e
000002a0: 0a50 88be bf6b 5bbc 927e 7abc b46a cd3d
000002b0: 46cb 763d 9adc 763e 91d7 2ebe b0e6 08be
000002c0: 207b 2f3e ac96 eb3d 762b 303e b0a5 82be
000002d0: 542e afbd d64b 2f3e 5433 c73d a4c6 6abe
000002e0: 1426 e2bd cc36 6cbe 0125 57bc ed0f 733e
000002f0: 1942 e9bd a17d ab3d 6592 1a3e 3567 eb3d
00000300: 4626 14be 3c12 263d 6b10 883d da3b f8bc
00000310: 014d 28be 6270 503e ba6d 43be 26a6 233e
00000320: 50d1 c23b f732 97bd 5b82 73be f936 423e
00000330: 91b2 ae3d 2cda 343c a71a 543e 8b70 a83d
00000340: ee7a 5f3e 64a0 1cbd 2e2f 4cbe 66b3 71be
00000350: de25 2d3e 6876 803c 8881 2c3e abde b4bd
00000360: d992 58be 8583 13bd fc32 d6bd f532 513e
00000370: 607c 7d3a e150 073e 1bf3 b53d 4406 d1bc
00000380: 6b41 ab3b 1808 01be b88b 483e 7c3e 63be
00000390: b2c0 39be 0df9 abbd dcab 88be 9aa0 2a3e
000003a0: 2904 a9bd 5567 0ebe d729 b63d 9021 073e
000003b0: 0b63 183b 49af 55be 017b 21be 124d e83d
000003c0: 263d dcbc bd1e b13d a986 a03c 7e2e 3b3e
000003d0: be0e 83be ef63 90bd 9175 37be f26d 453e
000003e0: 9863 21bd 695c b5bd 705d eb3d e7a6 8a3e
000003f0: 5315 ee3c ab3a 8cbd 30b2 873c 665a 92be
0.050861217 0.008399396 0.16122515 0.12677819 -0.24297753 -0.12726307 -0.15471871 0.07637868
-0.021357616 0.2918399 -0.20689103 0.11087335 -0.24148938 -0.037616663 0.16959207 -0.1304325
0.09802519 -0.120108746 0.25191084 -0.12596239 0.06974079 0.042666692 0.07938178 0.23166549
-0.105885066 -0.2844975 -0.017420465 -0.14615251 -0.09344912 0.15721937 -0.056486607 -0.15221463
-0.22884639 -0.112465225 0.099373326 -0.03938408 0.15826377 0.1431661 0.22161946 0.23110273
-0.038826976 -0.19321746 0.06897644 0.30473578 -0.02948661 -0.13479248 0.1365647 -0.02338145
-0.27247202 -0.15442231 -0.014907058 -0.11380715 0.18765207 -0.047026604 0.049731594 0.1552158
-0.24583404 -0.11508111 0.27496293 -0.009182562 0.14635694 -0.15730558 -0.0046938546 -0.23176564
-0.20789033 -0.23028077 0.1735809 -0.22807214 0.12725137 -0.11061192 -0.105744414 -0.1419846
0.1313828 0.22830163 0.06667196 0.12693565 0.17080367 -0.2699157 0.30107167 0.043141384
-0.13483447 0.1897541 0.106648855 0.05101754 0.19318636 0.05375957 0.16635084 -0.07515157
-0.27731913 0.1872103 -0.21022545 0.25324672 -0.19593486 0.2001708 -0.19802633 -0.12475178
-0.17355752 0.07135195 0.19807109 -0.13528785 0.14497101 0.069142014 0.02469015 0.08242764
0.094378345 -0.17068356 -0.22818142 0.01811338 0.19910648 -0.044520248 0.1130213 -0.108490795
-0.05200156 0.014568628 -0.028241469 0.050118677 0.24182618 0.17819263 0.18546438 -0.15483241
0.2316505 -0.1539894 -0.23555411 0.062139727 0.18367095 0.17817098 -0.0099700065 0.06281157
-0.08999553 -0.17143565 0.1349938 -0.041038904 0.15806726 -0.031229889 0.18634078 -0.14068699
-0.23312971 0.23826048 -0.13100356 0.061114706 -0.063963376 0.01840912 0.14792351 -0.0835534
-0.23050033 0.0068965415 -0.12594283 0.061775487 0.051691826 -0.0005106436 0.20198677 0.235928
-0.27429813 0.015594436 -0.106206976 -0.13322844 -0.21463554 0.16063368 -0.075478025 0.17813824
-0.1650838 -0.07057585 -0.2223206 -0.2061727 -0.13147618 -0.21322268 -0.19286108 0.22474803
-0.26623565 -0.013392388 -0.015288966 0.10030118 0.06025245 0.2410759 -0.1707442 -0.1336925
0.17136812 0.11503348 0.17204079 -0.25517035 -0.08553758 0.17118773 0.09726587 -0.22927338
-0.11042419 -0.23067778 -0.013131381 0.23736544 -0.1138956 0.08373571 0.15094908 0.114942946
-0.14467725 0.040544733 0.066437565 -0.030301977 -0.16435625 0.2035537 -0.19084826 0.1598135
0.005945362 -0.07382768 -0.23780195 0.18966283 0.085301526 0.011038344 0.20713292 0.08224591
0.21824238 -0.038238898 -0.19939873 -0.23603591 0.16908976 0.01568146 0.16846287 -0.08831533
-0.21149768 -0.0360141 -0.10458943 0.20429595 0.00096697174 0.13214447 0.08884259 -0.025515683
0.0052263043 -0.12600744 0.19584548 -0.22191805 -0.18139914 -0.08397112 -0.26693618 0.16662827
-0.082527466 -0.13906606 0.08894699 0.13196397 0.0023252394 -0.20867647 -0.15769579 0.11342825
-0.026884627 0.08648441 0.019595461 0.18279454 -0.25597185 -0.07050311 -0.17915942 0.19280222
-0.03940162 -0.088555165 0.11492431 0.2708046 0.029062903 -0.068471275 0.016564459 -0.28584594

linears.4.bias f4 [40]
00000000: 8553 343d a457 183d 0656 f53c 14ed 813c
00000010: b1e6 a1bc 660a 2dbc b620 0fb9 336f acbc
00000020: 2b94 ad3b db53 bf3c 4ff8 12bd d7e4 c63c
00000030: b8f4 de3c 4da4 04bd b78e a73c 3e10 91bc
00000040: b867 8dbc f9e8 213c 406d a33c 6a54 bdbc
00000050: 1464 1b3d 693f cd3c 36aa 38bb c0d3 df3c
00000060: d9a0 ecbc d02a 36bd 02e8 d43b 94bc 193d
00000070: 0584 85bc 8909 21bd b784 17bd d099 d7bc
00000080: 54a0 02bd 71c1 0d3d 2dc8 b3bc 9424 013d
00000090: 5b64 013d b83d 9ebc 6c1b c13c d8d1 21ba
0.044024963 0.037192956 0.029948246 0.015860118 -0.019763323 -0.010561561 -0.00013649728 -0.021049118
0.005297204 0.023355415 -0.035881337 0.024279041 0.0272163 -0.032383252 0.020453794 -0.01770794
-0.017261371 0.009882205 0.019949555 -0.02311154 0.03793724 0.02505465 -0.0028177625 0.02732265
-0.028885292 -0.044474423 0.006497384 0.037533358 -0.016298303 -0.039315734 -0.0369918 -0.02631846
-0.031891182 0.03460831 -0.021946037 0.031529024 0.031589847 -0.01931654 0.023572646 -0.0006172932

linears.5.weight f4 [3, 40]
00000000: 7a2d 5b3d fc41 2e3e 3664 a33e 0891 a8bb
00000010: 11ea 8fbe f766 3cbe 3e77 49be ed18 fb3d
00000020: 8305 833e d9ef 9c3e be73 7dbe 8ced 533e
00000030: 8e05 2d3e 9e4b 9bbe 5e72 813d b9b7 333c
00000040: 8978 e53c f38c b03e b07a e33d a77a a7bc
00000050: 829f 713e 42db 9cbe c261 353e 32ed db3d
00000060: 61eb e1be 0e45 a6be 8b51 b33d 8f8c 023d
00000070: 6538 e23e d16a 64be c5db 14be 2eb9 8ebe
00000080: b086 33be c4a7 993e fe52 76be 7ca3 063e
00000090: 9a31 1d3e f60c 41be 419f d13e f284 63bd
000000a0: 3070 05be 096a c0bd 6164 a03e 4351 a4be
000000b0: ed68 58be d174 94be 2d81 0abe 702c 6fbe
000000c0: e539 1e3e 8bf8 873e 50af a73e c047 3a3e
000000d0: 7758 0e3e 452e 47bd 5405 323e 0a60 7a3e
000000e0: edd6 053e 15df 443e 0223 51be 512c 783e
000000f0: 10fb a1be f659 64bd 0d42 803e 423e fa3d
00000100: 170e b7bd 4891 be3d 95bd 63be 4d5d 28be
00000110: 133a d9bb 8dcb f13d 9a65 af3e 4c8e 073e
00000120: 00cf 48bd c247 dd3c 7a8c acbd 3768 f43d
00000130: e434 acbe 3f46 60be 276d f43d a174 50be
00000140: 9abf 1b3e 110c 833c ad11 a8be d048 a1be
00000150: f67d d23e 3a1d 9abe 3ab9 82bd ad5f 8abd
00000160: c0d6 0b3e 5dcb 20bd 3078 7e3d 9d79 ddbc
00000170: fa54 b1be b300 063e ca7d 09bd a1bd 443e
00000180: a4da 34be 07f1 4abe 5bd2 c33e 9964 83be
00000190: a21c 8f3e ec31 5c3e 6108 eabe 0308 ae3e
000001a0: 121c 4ebe fa07 9bbe f908 963e 4116 1abe
000001b0: 8c01 1a3e 37ed 973e 035d 2e3e 3765 823d
000001c0: 337a b1be 5f2b 933e 3e41 a53e acf1 273e
000001d0: ed11 143d 8c85 a4be a63f 98bd fe18 8b3d
0.053510167 0.17017359 0.31912392 -0.005144242 -0.28108266 -0.18398653 -0.19674394 0.122606136
0.25590143 0.3065174 -0.24751183 0.20696086 0.1689665 -0.3033113 0.06320642 0.010969096
0.028011577 0.34482536 0.11107385 -0.020444227 0.23596004 -0.3063603 0.17713073 0.10738601
-0.44124892 -0.3247456 0.087557875 0.03187233 0.4418365 -0.22306372 -0.1453696 -0.27875656
-0.17531848 0.30010808 -0.24055097 0.13148302 0.15350953 -0.188526 0.40941814 -0.05554671
-0.13031077 -0.093952246 0.31326583 -0.32093248 -0.21133776 -0.28995374 -0.13525839 -0.23356795
0.15451773 0.2655681 0.3275094 0.18191433 0.13900934 -0.04862811 0.17384845 0.24450698
0.13070269 0.19225724 -0.2042351 0.24235655 -0.31636858 -0.055749856 0.25050393 0.12218906
-0.08938234 0.09305054 -0.22240289 -0.16441841 -0.0066292374 0.11806402 0.34257203 0.13237876
-0.049025536 0.027011756 -0.08425231 0.1193394 -0.33634102 -0.21901797 0.11934882 -0.2035699
0.15209809 0.015996965 -0.32825986 -0.31500864 0.41111726 -0.30100423 -0.063829854 -0.0675653
0.1365614 -0.039256442 0.06212634 -0.027035529 -0.34635144 0.13086204 -0.033567227 0.19212963
-0.1766153 -0.19818507 0.38246426 -0.25662687 0.27951533 0.21503419 -0.45709518 0.33990487
-0.20127895 -0.30279523 0.2930372 -0.15047552 0.15039653 0.29673168 0.17027669 0.063669614
-0.34663543 0.28744027 0.32276338 0.16400784 0.036149908 -0.32133138 -0.07434015 0.06791876

linears.5.bias f4 [3]
00000000: 37de 2c3d f473 afbc 0000 0000
0.042204108 -0.021417595 0.0

exp_avg f4 [40, 2]
00000000: 6a6d 76bb f429 23bb c361 69ba 3859 00ba
00000010: 089f b639 4edf 97b9 1e87 27bb 7a79 c2ba
00000020: 4199 df3a 3778 873a 4d7a 763a bc58 373a
00000030: 23db 18b9 9778 beb9 0f17 6b3b 75c5 203b
00000040: c801 f9ba e574 95ba e807 113b 4751 d63a
00000050: a612 24bb 630d aaba bd82 45b9 273d 9038
00000060: 2f09 173b 6ab3 e03a a534 ac3a b535 743a
00000070: 448d 6b3a 320f 093a 9adf 1c3a 1387 fa39
00000080: 2089 73b8 c210 e2b8 f875 193b 9d54 cc3a
00000090: 6714 1139 4f7a 5e39 e1ef 173b ed7d f43a
000000a0: e0b3 e53a 4619 c83a f681 00ba 7619 fdb7
000000b0: 7dc1 c7ba c460 98ba b14e 633b af50 f03a
000000c0: 536a 6c3a 28a7 353a 6a76 a1ba c608 52ba
000000d0: 6d39 0abb d505 d6ba 3fd6 233b 1d18 033b
000000e0: 683f 693a 0295 f039 d007 e039 d1df b139
000000f0: 9a94 16bb 59f7 ccba ab4c d6ba 346d 7dba
00000100: 4e04 1a3b 7120 bb3a 4faa f53a 11ef d43a
00000110: 1243 83ba df26 cdb9 0da3 443b 0ee6 f13a
00000120: 818e 48bb cf16 eaba 832d eb3b af9b a73b
00000130: 3019 baba cdfa 70ba 5148 1dbb 212a baba
-0.0037601837 -0.0024896832 -0.0008902812 -0.0004896107 0.00034832233 -0.0002896734 -0.0025562714 -0.0014837228
0.0017059223 0.001033551 0.00094023795 0.00069941184 -0.00014577484 -0.0003632947 0.0035871898 0.0024531756
-0.0018997723 -0.0011402635 0.0022129957 0.0016351127 -0.002503553 -0.001297396 -0.00018836088 6.8778456e-05
0.0023046245 0.0017143313 0.0013138248 0.00093158643 0.0008985589 0.00052283995 0.0005984247 0.00047784354
-5.8063422e-05 -0.00010779641 0.0023416262 0.0015589182 0.00013835878 0.00021217133 0.002318375 0.0018653251
0.001752492 0.0015266321 -0.0004902178 -3.0171806e-05 -0.0015240159 -0.0011625518 0.0034684355 0.0018334592
0.0009018529 0.000692951 -0.0012318615 -0.00080121716 -0.0021091357 -0.0016328642 0.0024999527 0.0020003386
0.0008897693 0.00045887387 0.0004273043 0.00033926827 -0.0022976757 -0.001563768 -0.0016349753 -0.00096674566
0.00235011 0.0014276636 0.0018742773 0.0016245564 -0.0010014495 -0.00039129608 0.0030004412 0.0018455402
-0.0030602517 -0.0017859581 0.0071770563 0.0051149945 -0.001419818 -0.00091926457 -0.0023999403 -0.0014203229

exp_avg_sq f4 [40, 2]
00000000: 77d0 893c acce 203c 1beb 363a 168b c439
00000010: 68c8 013a e0c8 9839 d72a 023c 71b9 833b
00000020: f79a 4b3b b034 b53a 7fb6 933a b640 373a
00000030: 831a 2737 78f1 9638 5a6d 7b3c 1540 2b3c
00000040: 0c4b 923b 0e62 0d3b e779 a83b f05a 713b
00000050: bf10 e33b e64e 513b 8024 1539 c59d 8538
00000060: fbb6 ba3b 2e19 883b 4c2c 0c3b 8372 ba3a
00000070: 7a41 af3a d958 2a3a c211 1e3a 7495 293a
00000080: d49b 4436 7bed 1338 7aca d23b 882b 853b
00000090: 5a05 7b38 1ef7 5838 5f0e 9f3b f96b 593b
000000a0: 0842 733b 4115 683b 3054 0b3a 6d03 8b39
000000b0: cd08 123b 85a0 d63a 1de3 713c d556 f53b
000000c0: 9524 3e3a efd9 4b3a db55 ff3a 4fb8 ae3a
000000d0: ba93 b33b 6ed5 783b 684f e13b a769 c03b
000000e0: 8849 5e3a a443 a339 8741 aa38 01bf 8b38
000000f0: b350 df3b 955f 913b 416a 553b 3e11 de3a
00000100: a034 d53b 08d3 6c3b 98ac 903b 878b 903b
00000110: 5784 c93a d37d 653a f569 243c 272e b43b
00000120: d92e 353c c9f5 cb3b 441c 503d 9227 023d
00000130: 4fec 1f3b 0011 de3a 5c92 dc3b 44f4 8a3b
0.016823037 0.009814899 0.00069777825 0.0003748766 0.00049508223 0.00029141363 0.007944784 0.004019909
0.0031067708 0.0013824906 0.0011269598 0.00069905387 9.960148e-06 7.1975344e-05 0.015345896 0.01045229
0.0044645127 0.0021573338 0.005141485 0.0036827885 0.0069294865 0.0031937896 0.00014223345 6.371321e-05
0.0056980825 0.0041533923 0.0021388708 0.0014224801 0.0013370954 0.00064982247 0.0006029868 0.00064691086
2.929698e-06 3.5268702e-05 0.0064328285 0.004064027 5.9848047e-05 5.172856e-05 0.004854008 0.003317593
0.0037118215 0.003541306 0.0005314974 0.00026514698 0.0022283078 0.0016374743 0.014763621 0.007487158
0.0007253376 0.000777631 0.0019480543 0.0013330075 0.005480257 0.003796901 0.006875921 0.0058719697
0.0008479585 0.0003114018 8.118437e-05 6.663614e-05 0.00681504 0.004436443 0.0032564553 0.0016942394
0.0065065175 0.0036136527 0.004415106 0.004411164 0.0015374523 0.0008754406 0.010035028 0.005498666
0.011058533 0.0062243682 0.050808206 0.03177602 0.0024402326 0.0016942322 0.0067313146 0.0042405445

exp_avg f4 [40]
00000000: 378b 14bb 693e f6b9 ea6c 5cb9 c47b b5ba
00000010: c977 663a 919d 183a 3747 c7b9 d990 183b
00000020: 8244 84ba e490 c53a 044f 97ba 0c10 8238
00000030: 2f94 d43a c6a3 5d3a 6979 f939 5df2 ec39
00000040: 63f8 fdb8 82f1 b93a ab5f 0e39 fa46 dc3a
00000050: 42cb b83a e0d2 bbb8 6729 8aba 0a8f dd3a
00000060: 446c 273a 3a04 4dba 6c3c c6ba f8d1 f23a
00000070: f665 df39 85ad a539 5e9a bfba df0f 69ba
00000080: 7e27 ab3a 959b cd3a b8ab dfb9 b515 df3a
00000090: c1d6 d8ba 2958 9a3b 73a8 6aba ba80 afba
-0.0022665986 -0.00046967276 -0.00021021409 -0.0013846089 0.0008791653 0.0005821819 -0.00038009297 0.0023279695
-0.0010091218 0.0015073088 -0.0011543934 6.201872e-05 0.0016218479 0.0008454885 0.0004758344 0.00045194002
-0.00012110246 0.0014186355 0.00013577814 0.0016805821 0.0014098661 -8.9561334e-05 -0.0010540903 0.0016903591
0.0006386677 -0.0007820759 -0.0015124208 0.001852571 0.0004260984 0.00031600535 -0.0014618149 -0.00088906096
0.0013058034 0.0015686626 -0.00042661815 0.0017020019 -0.0016543494 0.0047102165 -0.00089514925 -0.0013389804

exp_avg_sq f4 [40]
00000000: 801f 2a3c 1cd6 c439 3e66 9e39 e7bb 8c3b
00000010: 1e68 c33a 86bd 493a 247f af38 e03a 333c
00000020: 83a3 1c3b 8276 763b 1692 623b 5622 8138
00000030: 7878 8b3b 2935 cb3a 3a8f 313a 7b35 2c3a
00000040: 8ec3 0c38 a7cc 8a3b ac1d 6338 28b8 633b
00000050: ee5d 693b 3519 8c39 c880 d83a 2a41 043c
00000060: e9e7 483a 8c1b b73a 8abd 823b 5182 c13b
00000070: efcc b839 3eef 8838 745b 973b d7e7 ec3a
00000080: 7179 763b e35b 903b 509d 683a ab87 bd3b
00000090: 3b26 db3b a685 083d c314 f03a f026 933b
0.010383487 0.00037543557 0.00030212285 0.0042948606 0.0014908349 0.00076957827 8.368332e-05 0.01093933
0.0023901172 0.0037607257 0.0034571937 6.157595e-05 0.0042563044 0.0015503514 0.00067733566 0.00065692485
3.3560726e-05 0.0042358222 5.414865e-05 0.0034747217 0.0035608965 0.00026721662 0.0016517872 0.008072177
0.0007663952 0.0013970002 0.00398988 0.0059054275 0.00035247902 6.529548e-05 0.0046190564 0.0018074465
0.0037609006 0.004405485 0.0008873539 0.005783995 0.006687907 0.033330582 0.0018316734 0.0044907257

exp_avg f4 [40, 40]
00000000: 12e8 d4b7 c3d7 a038 5659 3738 34ea 6eb8
00000010: aa96 07b8 2f04 ff37 6125 8538 b2d9 b037
00000020: 80af 89b8 efca 74b8 2bc1 8e37 fd52 4e36
00000030: 8f32 9cb8 7169 1f38 52a6 a738 1550 ba37
00000040: cfc2 30b7 d54e 47b7 b698 ac38 a06a 95b5
00000050: ee7c e136 5138 f4b7 de5a 9337 7158 89b7
00000060: 17c4 3c36 0856 0a37 2c8e 19b8 2905 2db8
00000070: 9b33 e3b7 a27f afb8 093a 78b8 a64e 8338
00000080: 2cb8 21b8 2574 cc38 ea18 8c37 087a 0737
00000090: f8e7 0a38 3dc2 01b8 7664 fab7 cf53 d337
000000a0: 617e 78b8 4b60 ae39 c645 fdb6 760a 8fb8
000000b0: 36d0 83b9 8ef6 d639 88a6 bcb6 1878 81b8
000000c0: 822b 3eb9 b12d 48b9 f683 fa38 3338 c1b9
000000d0: 2c6b 99b9 01ff 6339 9d93 2839 8302 083a
000000e0: 40f0 91b9 3312 22b9 7498 5239 d256 9439
000000f0: c753 a037 0147 e5b9 1073 9639 0550 c1b8
00000100: 9056 76b9 27ab 06b9 158b e2b8 282c 48b9
00000110: f363 9439 5c10 a6b9 3bcc d1b8 cfb3 7839
00000120: e8e4 3fb9 fcbd a338 624b eb38 1b26 e9b7
00000130: 403c 0e39 4bfd c536 a1f2 74b8 2547 8239
00000140: a186 98b7 b429 3139 dd28 6db7 40ff 82b7
00000150: 0c6e 0fb9 d1fc 4f39 d330 5db7 f7ec 30b8
00000160: 41a0 a2b8 81b7 d8b8 73ad 8938 6787 49b9
00000170: 9539 1cb9 9a7b d438 43ef 9038 556b 8939
00000180: e9df 19b9 c091 b5b8 974a bc38 8e46 0939
00000190: 961a df36 0454 64b9 39ae 2539 1d64 66b8
000001a0: aa7f 0eb9 17f3 8cb8 b2ee 35b8 5ba3 d4b8
000001b0: f2d7 1b39 33da 21b9 cd5f 19b8 0395 fe38
000001c0: 679b ccb8 b2a7 bc37 a7de 7238 e814 b3b7
000001d0: 5332 9c38 7107 b5b6 1bd2 b8b7 2c82 0e39
000001e0: f50d b537 eba1 8cb9 c999 5e38 595f bfb5
000001f0: c491 7439 f31d bcb9 3897 8738 1cc2 bd38
00000200: 7e2d e438 4dae 2039 7123 e8b8 9dbc be39
00000210: e0ed 7239 70f6 31b9 731b adb8 c35a fbb9
00000220: 06c9 8c39 2127 2039 4562 fcb8 f234 85b9
00000230: 1735 19b7 014b ce39 6108 94b9 0c00 bc38
00000240: 5bc2 8439 4dd9 0a39 7d3b 8138 30c8 2939
00000250: 4e8a 9cb9 42ef 7a39 d8f2 1138 a0f7 43b9
00000260: e809 2439 bb27 7937 f918 cdb8 dfac 3538
00000270: 4364 f3b8 4117 73b7 4605 ca37 54bc 77b9
00000280: 4065 18b8 ba09 d538 9da4 7038 1242 a4b8
00000290: bcfd 28b8 7d00 5638 b197 aa38 37ce f337
000002a0: 2b4a bcb8 28a1 97b8 e91a ae37 abb6 0a35
000002b0: f5f5 cbb8 b623 6238 20c8 dd38 addc 2f38
000002c0: 6230 7ab7 8e7b 66b7 9bc4 e538 c05e fc36
000002d0: 5899 1f37 a00f 49b8 e504 b237 6b29 9bb7
000002e0: bf99 de36 7125 1f37 505a 55b8 ed48 5ab8
000002f0: 908b 06b8 67a1 ecb8 f40b a7b8 626b a938
00000300: 0766 4bb8 bb01 0539 b536 b637 9e8c 4b37
00000310: b37f 2a38 739e 13b8 cac5 28b8 4d66 0238
00000320: cec7 54b8 5d11 3139 616c 9238 2bbd d8b8
00000330: 3dca adb8 c141 e838 ed15 d338 91e6 e637
00000340: a1da 09b9 6a82 f2b8 b884 2d38 63f0 3db8
00000350: 4737 26b9 89d3 c038 9a5e 1d39 9bd2 f338
00000360: b75d 60b8 c154 1cb8 ff4f 2739 d836 2a38
00000370: b89f 6737 d287 ebb8 8a4c 8538 92f2 15b8
00000380: 22e3 bab7 8962 82b6 63e1 9cb8 8db2 bbb8
00000390: 1544 b6b6 89a1 3bb9 cff6 e5b8 bd3d 0939
000003a0: 4854 b0b8 6c06 2f39 0ee9 2b38 9899 3437
000003b0: bad2 8f38 0e11 3db8 c480 6cb8 dece 9438
000003c0: ceaf feb8 beaa 0b3a 7ec4 ae38 6fa9 50b9
000003d0: 7813 b5b9 de95 0a3a 89c3 0339 52a5 c3b7
000003e0: 60e9 b3b9 03c4 adb9 4c42 2f39 9691 d4b9
000003f0: bfdb fcb9 6d49 aa39 18b0 b639 62fb 253a
-2.5380436e-05 7.669583e-05 4.37138e-05 -5.696174e-05 -3.2326825e-05 3.0400317e-05 6.3488966e-05 2.1082207e-05
-6.5653585e-05 -5.836313e-05 1.701767e-05 3.0744698e-06 -7.448077e-05 3.8006754e-05 7.99416e-05 2.2210219e-05
-1.0535775e-05 -1.1879679e-05 8.230044e-05 -1.1132397e-06 6.7200663e-06 -2.9113291e-05 1.7566079e-05 -1.6372856e-05
2.8128322e-06 8.245472e-06 -3.661045e-05 -4.125122e-05 -2.708454e-05 -8.368424e-05 -5.9181857e-05 6.261216e-05
-3.8556915e-05 9.7491116e-05 1.6700902e-05 8.07504e-06 3.31178e-05 -3.0936895e-05 -2.9849103e-05 2.5192187e-05
-5.9245507e-05 0.0003325961 -7.5481103e-06 -6.82072e-05 -0.00025141396 0.00041000958 -5.6222234e-06 -6.1735685e-05
-0.0001813602 -0.00019090508 0.000119455086 -0.000368537 -0.00029262283 0.00021743403 0.00016076719 0.00051883626
-0.00027835555 -0.00015456304 0.00020083954 0.00028293446 1.9112498e-05 -0.00043731186 0.00028695958 -9.217862e-05
-0.00023492635 -0.00012842995 -0.00010802426 -0.00019089936 0.00028303228 -0.00031674176 -0.000100039375 0.00023718107
-0.00018300454 7.807833e-05 0.00011219714 -2.7793509e-05 0.0001356462 5.9005447e-06 -5.84001e-05 0.0002484854
-1.8182503e-05 0.00016895571 -1.4135815e-05 -1.5616068e-05 -0.00013678538 0.0001983524 -1.3183994e-05 -4.218236e-05
-7.7546116e-05 -0.00010333863 6.5649765e-05 -0.00019219295 -0.0001489877 0.0001013197 6.911021e-05 0.00026210645
-0.0001467463 -8.6579006e-05 8.978432e-05 0.00013091622 6.649013e-06 -0.00021775073 0.00015800529 -5.492951e-05
-0.00013589734 -6.720999e-05 -4.3376065e-05 -0.00010139375 0.00014862398 -0.00015435442 -3.6567264e-05 0.000121394194
-9.756424e-05 2.2489436e-05 5.7904657e-05 -2.1348198e-05 7.448033e-05 -5.3950866e-06 -2.2032347e-05 0.00013590668
2.158338e-05 -0.0002682352 5.3072148e-05 -1.4258359e-06 0.00023323955 -0.00035880468 6.465468e-05 9.048378e-05
0.00010880361 0.00015323721 -0.000110692235 0.00036380152 0.00023167534 -0.0001697184 -8.254396e-05 -0.00047942073
0.00026852655 0.00015273366 -0.000120346005 -0.00025407184 -9.131872e-06 0.00039347264 -0.00028235003 8.964547e-05
0.00025321808 0.00013241656 6.16228e-05 0.00016191672 -0.00029857684 0.00023930988 3.479686e-05 -0.00018688897
0.00015643949 1.4850807e-05 -9.779813e-05 4.331476e-05 -0.00011605818 -1.4489343e-05 2.4082732e-05 -0.00023625913
-3.633392e-05 0.00010158443 5.7373767e-05 -7.832436e-05 -4.029063e-05 5.102203e-05 8.1344864e-05 2.9063884e-05
-8.9783534e-05 -7.230259e-05 2.0754947e-05 5.1674823e-07 -9.7256074e-05 5.3915857e-05 0.000105753774 4.192877e-05
-1.4912426e-05 -1.3737836e-05 0.000109561915 7.5212156e-06 9.512842e-06 -4.7936686e-05 2.1221533e-05 -1.8496727e-05
6.634014e-06 9.485856e-06 -5.0867267e-05 -5.2043168e-05 -3.2078067e-05 -0.000112834205 -7.965407e-05 8.0785496e-05
-4.8493992e-05 0.00012684513 2.1721566e-05 1.2132483e-05 4.0650088e-05 -3.51951e-05 -4.0238527e-05 3.108969e-05
-5.073082e-05 0.00016886504 6.98201e-05 -0.00010334918 -8.286953e-05 0.0001107487 0.00010065348 2.7525502e-05
-0.00013146784 -0.00011563751 4.1370018e-05 -4.528499e-05 -0.00015851586 9.194675e-05 0.00015007929 0.00011626371
-5.349304e-05 -3.727223e-05 0.00015956162 4.0582236e-05 1.380586e-05 -0.00011230972 6.356191e-05 -3.575028e-05
-2.2278695e-05 -3.885773e-06 -7.480641e-05 -8.9501125e-05 -5.4319485e-06 -0.00017893886 -0.000109655426 0.00013088337
-8.4080326e-05 0.00016691693 4.0986626e-05 1.0764597e-05 6.858022e-05 -4.5076995e-05 -5.6386707e-05 7.095722e-05
-0.0001214441 0.0005327872 8.333566e-05 -0.00019899545 -0.00034537516 0.0005286614 0.00012565976 -2.3322795e-05
-0.00034315418 -0.00033143171 0.00016713998 -0.0004054426 -0.0004822891 0.00032479633 0.00034844945 0.00063317094
