Lid_Driven_Re100/saved_models/Van-10000.pt (torch, 95161 bytes, 36 tensors)

linears.0.weight f4 [40, 2]
000000 10 50 67 3e 0d 2a 6f be b0 e1 37 3d da c3 68 be
       0.22589135 -0.23355885 0.044892967 -0.22730961
000010 6c 9a 11 3e fb 31 7b be 84 a3 94 3e 4c e0 9c be
       0.14219064 -0.24530785 0.29031003 -0.30639875
000020 d2 13 a7 bd 14 b3 b4 3e 9e cf 32 3d 77 35 28 be
       -0.08158077 0.35292876 0.04365503 -0.16426645
000030 94 63 a3 3e 23 cc 3a be a6 1a 9d 3e 0a b5 1e 3d
       0.3191191 -0.18241934 0.30684394 0.03874687
000040 f3 0f 9f be de ff 8e 3d 1e b0 85 3d 2c f6 7e 3e
       -0.31066856 0.069823965 0.06527732 0.24898595
000050 ee cd b7 bc 4b 7f 46 3e 9d 75 ef bd 12 5a 8e be
       -0.022437062 0.19384496 -0.11692355 -0.27803093
000060 b1 94 06 be d2 33 bd bd fe 95 89 be d8 04 c6 3e
       -0.13142659 -0.092383996 -0.26872247 0.3867557
000070 d4 fc f8 3d cb 4f c8 3d c7 be 3a 3d 37 4d 3b 3e
       0.12157598 0.09780844 0.045592096 0.18291174
000080 c2 8f a5 be 1a e4 35 bf 82 4d ae be fb 67 66 3e
       -0.3233624 -0.7105118 -0.3404351 0.22500603
000090 15 65 1b bd 60 2b 91 3e b4 e4 57 3e 55 d3 3c 3e
       -0.037938196 0.28353405 0.21083337 0.18439992
0000a0 74 20 b5 3e 89 2c b2 3e 93 ab 6b be 52 9f 72 be
       0.35376322 0.34799603 -0.23014669 -0.23693588
0000b0 f9 35 b5 3e b4 8c 5e 3e b4 45 a4 be 3d 35 ae 3e
       0.3539274 0.21733361 -0.3208443 0.34024993
0000c0 48 4b 7f 3e fa 27 23 3e 3c 08 b0 3e fd fe 2c 3e
       0.24931061 0.15933219 0.34381282 0.16894145
0000d0 eb 78 1b be 43 1e 7e be 96 84 de bb b3 9f e9 3d
       -0.15182845 -0.24816231 -0.006790708 0.11407413
0000e0 c4 1a ac be f1 41 33 be 50 00 2b 3e 3e bb 9e 3e
       -0.3361417 -0.17505623 0.16699338 0.3100223
0000f0 51 39 ab 3e 36 ab 57 3e 77 a8 9c 3e c6 5e b9 bd
       0.33442166 0.21061406 0.30597278 -0.0905128
000100 58 7e 78 be b6 1f e5 bd c5 bd 87 bd 6f 8d 90 be
       -0.24266946 -0.11187689 -0.066279925 -0.28232905
000110 c4 bf e7 bd e0 00 5b 3e 45 45 8d 3d da a6 37 be
       -0.11315873 0.21387053 0.06897978 -0.17934743
000120 54 51 b9 3e de 30 13 be 0e 92 5d be 1b fa c1 3e
       0.3619486 -0.1437411 -0.21637747 0.37886128
000130 13 91 09 be 6e 0d 63 be ae 71 a0 3e 80 be 80 3e
       -0.13434248 -0.22173092 0.3133673 0.2514534

linears.0.bias f4 [40]
000000 95 d1 5e 3c 3a a9 8e 3e 2d 26 93 3d 76 1b e5 3d
       0.013599773 0.27863485 0.07185016 0.111868784
000010 97 61 77 be 2e 4f c7 3d 66 a6 64 3c 6b 73 16 3d
       -0.24158321 0.09731899 0.013955688 0.036731165
000020 1a 6a ed 3d f0 3c 0f bd d5 1d 11 be a5 e8 9a 3e
       0.11592503 -0.034970224 -0.14171536 0.3025562
000030 b3 37 2a 3c 5b d9 13 be 87 5c 23 bd 1c 49 f5 bc
       0.010389256 -0.14438383 -0.039883163 -0.029942088
000040 40 14 02 3d 83 de 52 bd 4f ba 09 bd b5 db 83 bc
       0.031757593 -0.051481735 -0.033624943 -0.016095975
000050 87 71 9c bb 70 cf 01 3d c3 b4 6c bc f9 25 2e be
       -0.0047742757 0.03169197 -0.014447394 -0.17006673
000060 1a 7b 5c bd 41 f5 2b bd 55 a2 ad 3d a9 65 4f bc
       -0.053828336 -0.04198194 0.08478228 -0.012658515
000070 99 1c a7 3c 0a 89 1a 3d 98 24 da b8 56 eb da bb
       0.020399379 0.037728347 -0.00010401866 -0.0066808863
000080 91 69 37 3c 8c f1 99 bd 55 c5 4b bd 57 cb c4 3d
       0.011194603 -0.075167745 -0.049748737 0.096090965
000090 61 28 ed 3c 8b 2a 0e be 98 61 8b 3e c0 91 32 be
       0.028949918 -0.13883416 0.27222896 -0.17438412

linears.1.weight f4 [40, 40]
000000 1a b3 d5 bd 20 08 a2 bd 8c 18 bd 3d aa f6 25 be
       -0.104345515 -0.07911706 0.092331976 -0.16207376
000010 63 37 91 be b7 67 a1 bd 4f b6 52 be 6c f0 95 be
       -0.2836257 -0.0788111 -0.20577358 -0.2928499
000020 b7 0c eb bd 61 27 ae 3d a1 90 33 3e f1 f6 a1 bd
       -0.114770345 0.08503605 0.1753564 -0.079084285
000030 f7 7b ec 3c 8c 20 81 be c3 5d 92 bd d0 ee 32 3e
       0.028867705 -0.25220144 -0.0714679 0.17473912
000040 23 e3 17 be 95 ce 13 3e 50 98 4a 3e 63 38 1e 3d
       -0.1483274 0.14434274 0.19784665 0.038627993
000050 e1 7f 0c be 30 27 9e bb de 8d 81 be 08 95 c1 3d
       -0.13720657 -0.004826449 -0.2530355 0.094522536
000060 8c af 95 3c 46 a0 75 be 6d a8 8b 3e 82 79 80 bd
       0.018272184 -0.2398692 0.27276936 -0.06273176
000070 9b 29 55 be b0 96 00 3d e0 84 81 be 36 02 92 3d
       -0.20816652 0.031393707 -0.25296688 0.07129328
000080 c5 0b 44 3e ac 98 b8 bb 39 9e f6 bd c0 25 89 bb
       0.19145115 -0.0056334343 -0.12041897 -0.0041854084
000090 98 f3 49 be 3b 89 d7 3c c2 3b 38 3e 1f f5 e2 3d
       -0.1972183 0.026310554 0.17991546 0.110819094
0000a0 2a 39 ce bd 22 76 39 bc 99 7f 9a 3d cf de 75 be
       -0.10069497 -0.011319669 0.075438686 -0.24010776
0000b0 5a 41 ad be 31 8f 29 3e 8c 79 5b be c2 b1 9c bd
       -0.33838922 0.1655853 -0.21433085 -0.07651092
0000c0 05 f5 75 3e 81 25 30 3e 73 0f 0a 3d 8a d0 ed 3d
       0.24019249 0.17201807 0.03370614 0.11612041
0000d0 d5 d6 90 bc 36 c9 46 be 4d b0 96 be f2 ab 1e bd
       -0.017680565 -0.19412693 -0.29431382 -0.0387382
0000e0 ad da df 3d c1 d4 32 bd ed 1a eb bd cb 2b 16 3e
       0.10930381 -0.04365993 -0.11479745 0.14665143
0000f0 1b 5a 26 bd c6 5d ce bd 88 d3 61 be 70 31 0d be
       -0.040613275 -0.100764796 -0.22053349 -0.1378839
000100 cc d7 3c be 4b 28 fb 3c 90 6f 6c bd e4 38 12 3e
       -0.18441695 0.030658862 -0.05772358 0.14279515
000110 61 78 11 be c4 10 a9 bd 7a e6 7e 3e 02 e2 bb bd
       -0.14206077 -0.08255151 0.24892607 -0.09173967
000120 72 a3 8e 3c b1 64 44 3e 99 f5 0b be ad 43 8b 3e
       0.017411921 0.19179036 -0.13667907 0.2720007
000130 f4 eb 90 bd 8f f3 33 3e b2 e7 e3 3e 86 8a 10 bd
       -0.070762545 0.17573379 0.44512707 -0.035288356
000140 49 71 0e 3e c8 cf 25 3d a5 80 5d bd b5 98 25 3e
       0.13910402 0.04048136 -0.054077763 0.16171534
000150 ef 70 6c 3e ff f4 3e be b1 6d 0a be 96 74 85 be
       0.23089956 -0.18648146 -0.13518406 -0.2606551
000160 a0 20 12 bd 56 bd 1d bd ef 9d 9d bd 89 66 ce bd
       -0.035675645 -0.038510643 -0.07696139 -0.10078151
000170 f1 b1 03 be df d3 3c be 8e a5 65 3e 70 60 0b be
       -0.12860848 -0.18440197 0.22426435 -0.13611007
000180 7f 1f ff 3c 65 d4 14 be 0b 6e f2 3c 8e c0 de 3d
       0.031142948 -0.14534147 0.029593488 0.10876571
000190 13 19 4e be 23 ec 5e be 3a f4 79 be ea 6a fd 3d
       -0.20126753 -0.21769767 -0.24409571 0.12373908
0001a0 47 d8 1c 3e 77 38 09 be 9e b0 18 3d e7 38 ad bd
       0.15316878 -0.13400446 0.03727781 -0.08458119
0001b0 78 59 5c be d2 8f 8c 3d 15 45 3b be da f4 d2 3d
       -0.21518505 0.06863369 -0.18288071 0.10300608
0001c0 d3 9c 55 be 0e bd 7f be 8b 08 96 3e 89 fb 1f 3e
       -0.20860605 -0.24974462 0.29303393 0.15623297
0001d0 40 1b 00 3c 29 38 88 3e b4 c4 df bd c4 67 69 3e
       0.007818997 0.26605347 -0.1092619 0.2279349
0001e0 1d 7e 81 be 46 a2 8d 3e 57 d9 65 3e 12 3e 22 bd
       -0.2529153 0.27662867 0.2244619 -0.039609976
0001f0 8c 26 4b 3d 2b a1 60 bd 31 30 a1 3d f6 6b 0f 3e
       0.049597308 -0.0548412 0.0787052 0.14006028
000200 f9 13 58 3e 0a dd 38 3e 8b f5 b5 3d a8 1d bc 3d
       0.21101369 0.1805307 0.08884724 0.09185344
000210 0a 6c 5e be 71 74 67 be cb de 98 be 73 e0 5c be
       -0.21720901 -0.22603013 -0.29857478 -0.21569996
000220 a3 69 31 3e d5 60 8a 3d 8c 54 ee 3d 50 3b 33 be
       0.17325453 0.067567505 0.1163722 -0.17503095
000230 bc 5e 58 3e c4 ef cd bb 8a 88 37 be 68 93 09 bd
       0.21129888 -0.006284686 -0.1792318 -0.033587843
000240 8d 42 bd 3d 3c ff 81 be 7a cb bd 3d a7 ce 0b 3e
       0.09241209 -0.2539004 0.09267326 0.1365305
000250 dd c6 98 bd ab e0 71 bd 67 fa 21 3e 05 17 83 be
       -0.07459805 -0.05905215 0.15818177 -0.256035
000260 4a e4 57 3e 8d 62 73 3e f6 87 13 3e 50 7b 80 bd
       0.21083179 0.23768063 0.14407334 -0.0627352
000270 f1 b6 3e be 92 ec 72 3e 1c 98 be 3c 69 78 6f be
       -0.18624474 0.23723057 0.02326589 -0.23385777
000280 a2 58 42 be 85 5b 51 3e 4f 6c ca bd 3d 7c 51 3e
       -0.18979123 0.20445068 -0.098839395 0.2045755
000290 83 05 27 3d 59 74 ac 3d fe c8 31 bd f6 0e 10 be
       0.04077674 0.08420629 -0.04340457 -0.14068207
0002a0 cd 71 0f be 57 97 3a 3d 8e 36 63 3d 93 8c bb 3e
       -0.14008255 0.045554485 0.05547195 0.36630687
0002b0 14 4d 2f 3e 83 d4 05 be ad be 96 bd 86 24 41 bd
       0.17119247 -0.13069348 -0.07360587 -0.047153972
0002c0 59 98 5f bd c3 b6 79 be da 2f 3e 3e 94 54 e8 3d
       -0.05458865 -0.24386124 0.18572941 0.11344257
0002d0 c3 ff 53 3e 7a 1e 14 be 9c 4b 5f 3d 7d e9 d4 bd
       0.20703034 -0.14464751 0.054515466 -0.10396097
0002e0 80 17 1e 3d 5d b7 b2 3d 0f 93 9c 3d b3 7a 19 bc
       0.03859663 0.0872638 0.07645237 -0.009367633
0002f0 cf 2f fb 3b 1e eb 95 be f0 c4 97 bc 34 27 82 be
       0.0076656113 -0.29280943 -0.018526524 -0.25420535
000300 b2 0c 40 bc a0 51 3e be 13 bb 40 3d f5 c8 89 3e
       -0.011721777 -0.18585825 0.047053408 0.2691113
000310 94 2e 71 3d 29 40 82 be f1 a3 d5 3e 11 75 46 be
       0.05888231 -0.25439575 0.4172664 -0.19380595
000320 58 7c 57 bd c0 b9 25 be 43 ca 2a 3d b2 25 7d be
       -0.052608818 -0.16184139 0.041696798 -0.24721411
000330 ce 08 3d be 07 ae 86 be db ea df bd f8 88 8b 3e
       -0.1846039 -0.26304647 -0.10933467 0.27252936
000340 1e 7e 09 bd c0 fe 59 be e6 b6 0f 3d 18 9a aa be
       -0.03356754 -0.21288586 0.035086535 -0.3332069
000350 90 3d 20 3e d6 d8 68 3d a6 9b 6f 3e bd ed 46 3e
       0.15648484 0.056847416 0.23399219 0.19426627
000360 d0 90 96 3e 19 6c 8f 3d 7c 0c 17 be 68 fe 55 3e
       0.29407358 0.0700304 -0.14750856 0.2089783
000370 34 88 ec 3d a0 3a 7f 3e 32 01 bc 3d 6b 2e 4d 3e
       0.11549416 0.24924707 0.091799155 0.20037238
000380 80 be 91 3e e0 87 5a 3e f0 c7 4f be c7 eb 08 be
       0.28465652 0.21340895 -0.20291114 -0.13371192
000390 98 23 d8 3c b2 e7 ab bd 2f ac 2b 3e 2c 49 8e 3e
       0.02638416 -0.08393802 0.16764902 0.277902
0003a0 9f 26 15 bd cd 2b 60 bc 23 98 6a 3e 61 10 08 3e
       -0.036413785 -0.013682318 0.22909598 0.13287498
0003b0 e7 4a e5 3d d2 50 88 3e 3f 84 90 be a5 21 02 3e
       0.11195927 0.2662416 -0.28225896 0.12708147
0003c0 37 86 ab bd 5c 92 53 3d b8 7e 8b 3d fb a6 69 3d
       -0.08375209 0.05165325 0.06811279 0.05704401
0003d0 9b 21 57 be 8d 21 ab 3d 00 2b 94 bd 20 a4 9a 3e
       -0.21008913 0.08356009 -0.07234764 0.30203342
0003e0 b0 33 bc bc 39 e2 00 be ec 27 67 bd 1d 26 93 bd
       -0.022973865 -0.12586297 -0.056434557 -0.07185004
0003f0 79 4f 34 3e e6 be ea bd c4 e2 2d 3d 67 9f 8f 3e
       0.17608441 -0.11462192 0.04245259 0.28051302

linears.1.bias f4 [40]
000000 be 8f d2 b8 00 ac 14 3d 1e ec 50 bc 0e 30 23 3c
       -0.000100403544 0.036296844 -0.012751607 0.009960188
000010 9e 7b 3f 3d 34 5b 43 bd 2e 04 4c 3d 97 bb c8 3d
       0.04674875 -0.0476944 0.049808674 0.09801405
000020 93 9d 81 bd db 88 cb bb 6a ba 4e 3d cc c6 5b 3c
       -0.06328883 -0.006211383 0.050470747 0.013414096
000030 58 42 37 be 9d 5f 06 bc 5c 35 62 bb a9 e3 7d bd
       -0.17896402 -0.008201507 -0.0034516668 -0.06198469
000040 6d 3a e8 bb 65 18 9c 3c c1 be 27 bd 89 75 f6 3c
       -0.007087043 0.019054601 -0.0409534 0.030085342
000050 da 89 76 3c 63 57 21 3e 44 36 bf 3c 88 ed fa 3c
       0.015047515 0.15755992 0.023341306 0.030630842
000060 82 bf 12 bd e5 27 e1 3b 50 f5 82 bc 91 38 2b bd
       -0.035827167 0.006871211 -0.015986115 -0.041801993
000070 b0 a1 bc 3d 1a 38 ce 3d aa 80 6d be 2f 67 09 3d
       0.09210527 0.10069294 -0.23193613 0.03354567
000080 90 02 cd 3c d8 b4 22 bd 76 5d b4 bb 93 9f 00 3b
       0.025025636 -0.039723247 -0.0055043055 0.0019626364
000090 9f d1 a0 bc bb d1 87 bc fe 69 38 3d c5 b2 1a bc
       -0.019631205 -0.0165795 0.045022957 -0.009442036

linears.2.weight f4 [40, 40]
000000 86 29 a7 3c d9 aa 4a 3d f1 d2 dd bb d8 c1 93 3d
       0.020405542 0.04947934 -0.006769531 0.07214707
000010 a4 0c 8e be 89 37 23 3e ac bf 46 3c ff cd 4e bd
       -0.2774402 0.15939154 0.012130659 -0.050489422
000020 7f 30 33 3c 79 a0 02 3d d7 90 b8 be 2b 8f 62 be
       0.010936855 0.03189132 -0.36048004 -0.22124927
000030 7e 91 2b 3e a3 07 59 3d c8 37 31 be 1d 9a 02 3e
       0.1675472 0.0529858 -0.17306435 0.12754102
000040 98 88 74 3d a7 3c 64 be 4f 95 aa 3e 2c 5b 0d 3d
       0.05970058 -0.22288762 0.33317038 0.034510776
000050 0e ce 74 be c0 5e 9f 3e 2f 2d 7d bc 01 63 22 3e
       -0.23906729 0.31126976 -0.015452667 0.1585808
000060 c6 3a 6a 3e d3 ab 64 3e da 5a 3f be 54 2b 9d be
       0.22873983 0.2233117 -0.18687001 -0.3069712
000070 70 9f b9 bd 05 63 69 be a6 39 83 3e 2f c6 80 3e
       -0.090636134 -0.22791679 0.2562992 0.25151202
000080 13 35 2b bd 51 5c 14 3d d8 21 8a 3e 80 5d c7 3d
       -0.041798662 0.036220852 0.26978946 0.097346306
000090 90 e2 8f bd e7 22 c1 3d af 78 98 be b3 80 3a be
       -0.07025635 0.09430485 -0.29779574 -0.18213157
0000a0 92 0f 95 bb d4 d5 9a 3e bb 53 28 be 7f 00 64 bb
       -0.0045489753 0.30241263 -0.1643819 -0.0034790335
0000b0 51 8f a5 3e f8 5a bf be 03 db 68 3e c4 77 03 bd
       0.32335904 -0.3737409 0.22739796 -0.03209664
0000c0 39 96 9d be 66 71 00 3e ed 3c aa 3e ba 11 7b 3e
       -0.30778673 0.12543258 0.33249608 0.24518481
0000d0 0b e6 82 be 2f 3d 15 be 78 fb 61 be db 1b 07 bf
       -0.25566134 -0.14574121 -0.22068584 -0.5277688
0000e0 ca 26 ee bd 4a b0 1f 3d 00 0c fe bb 4e ee bf 3d
       -0.11628492 0.03898648 -0.0077528954 0.09371625
0000f0 df 84 24 3e d4 6d 32 3e cf 16 1c be 75 10 16 be
       0.16066311 0.17424709 -0.15243076 -0.14654715
000100 44 93 14 be f3 8c 73 3e 02 4a 9c 3d f8 18 29 3c
       -0.14509302 0.23784237 0.07631303 0.010320894
000110 28 b6 19 be 4a 16 c6 3e e6 54 2f be 24 35 90 bd
       -0.15010893 0.3868888 -0.1712223 -0.07041386
000120 e8 4a e6 3b 08 cd 2f 3d e9 e4 c2 3d 71 fc 6c bd
       0.0070279725 0.042920142 0.095163174 -0.057857934
000130 13 6a 54 be 07 e7 43 3e cd d0 0c be e2 27 0f 3d
       -0.20743589 0.19131099 -0.13751526 0.034950145
000140 d0 b9 2f bd bd 17 0f 3d 19 43 17 be 0f 73 16 3d
       -0.042901814 0.034934748 -0.1477169 0.036730822
000150 8e 82 72 3e 89 65 36 3d ac a7 40 be e6 c4 33 be
       0.23682615 0.044530425 -0.18813962 -0.1755558
000160 55 14 b8 bd e1 01 fb bd 6a db 9d 3e d8 47 08 3f
       -0.08988253 -0.12256218 0.30831462 0.53234625
000170 32 ec 73 3d b4 30 56 be f4 42 7b 3e 6e fd 79 be
       0.059551425 -0.20917016 0.2453726 -0.24413082
000180 d0 43 2f 3d 10 ab ba 3d ca 9a 99 be 64 45 e8 3d
       0.04278928 0.09114659 -0.30000907 0.1134136
000190 38 ed d4 3d 65 8b c0 be ae 51 34 3d 39 4b 2d 3b
       0.103968084 -0.3760635 0.04402321 0.0026442541
0001a0 7f 0a ac bb 4b fd 99 be 14 d2 46 be 0f 8b 15 3e
       -0.0052502747 -0.3007606 -0.19416076 0.14603828
0001b0 df 44 cc bd be 64 9f 3e 82 61 4e be 72 50 7c 3e
       -0.099740736 0.31131548 -0.20154384 0.24640062
0001c0 43 d6 1d bd 28 74 3a 3e bf a4 b2 3c 85 2b 6a be
       -0.038534414 0.18208373 0.021807073 -0.22868164
0001d0 39 04 d7 be 09 8a 9f 3d 3f 4b 98 3e 07 ef 7b be
       -0.4199541 0.0779 0.29744908 -0.246029
0001e0 3a 2d 76 bd 6d 8c ab bc 47 64 28 3e cd 30 4e 3e
       -0.060101725 -0.020940984 0.16444503 0.20135804
0001f0 d5 0c 1f 3e 2a 2e f7 3d b7 38 7d bd bf dd e9 3d
       0.15532239 0.12069352 -0.061821666 0.11419248
000200 db 8d 42 3e ee 4d 70 bd da 41 a4 bd 6e be f8 3d
       0.18999426 -0.05866807 -0.08020373 0.121456966
000210 ff fd 6d 3e d7 dd 85 bd 38 a8 28 be 5f f8 be 3d
       0.23241423 -0.06536453 -0.1647042 0.09324717
000220 b1 87 68 3e 8d d5 a3 3d be 53 1b be 43 63 8f be
       0.22708012 0.07999716 -0.15168664 -0.28005418
000230 76 8a b1 bd 0e e4 a0 bd 8b fc 18 bd 7a de 18 3b
       -0.086689875 -0.07855998 -0.03735022 0.0023325966
000240 07 76 77 3e c8 dc 28 bd f4 37 5c be 05 fd 3e 3e
       0.24166118 -0.04122618 -0.2150572 0.18651207
000250 b3 6e d4 3c 01 30 43 3e 80 40 72 be f3 1e 27 3e
       0.025931692 0.19061281 -0.23657417 0.163204
000260 3c 3e 51 3e 56 61 e9 bd ac 32 32 be bf ff 96 be
       0.20433897 -0.113955185 -0.17402142 -0.29491994
000270 8b 39 cc 3c 38 fa 17 be e8 90 8f be cb 72 53 3e
       0.024929782 -0.14841545 -0.28040242 0.20649259
000280 5f 25 8a 3e 10 a1 63 3e 5e 51 12 be a1 57 b9 3d
       0.26981637 0.22229409 -0.14288852 0.09049917
000290 72 e7 0f be 6e 22 a9 be d2 f2 cc bd af 2c ec 3d
       -0.14053133 -0.3303408 -0.10007252 0.1153196
0002a0 50 e2 f3 bc bd c9 8a bd b5 7c 19 bd 50 01 6a 3d
       -0.029771 -0.0677676 -0.037472446 0.057130158
0002b0 4e e9 89 bd be d9 ae bd 03 0d 7e bc 5a 5f b5 be
       -0.067339525 -0.08537625 -0.015506032 -0.3542431
0002c0 67 b4 69 3e eb c2 4f be bf 83 36 3e 61 ed 99 bd
       0.22822724 -0.20289199 0.17823695 -0.075159796
0002d0 3b 76 98 3d da 41 99 be da d8 87 3e 5b 70 eb bd
       0.07444426 -0.29933053 0.26532632 -0.114960395
0002e0 53 4b 57 3b 99 73 79 3e 6c db 35 3e de d4 46 3d
       0.0032851293 0.24360503 0.17759484 0.04854285
0002f0 5c 79 88 be e2 8e 8d bb 34 9a b2 3c 04 37 13 3e
       -0.2665509 -0.0043200115 0.021802045 0.14376456
000300 59 88 31 3e 90 ef 36 bd 14 4b 4f 3e 94 7e 13 be
       0.17337169 -0.04466206 0.20243484 -0.14403754
000310 4a 22 dd 3c a6 25 63 3e 6b 1e 94 3a 8d fa 0d be
       0.02699389 0.2218233 0.0011300569 -0.13865109
000320 fb e7 5c 3d 57 73 93 3d 88 c2 a4 bd 31 e7 5a 3c
       0.05393217 0.07199734 -0.080449164 0.013360784
000330 86 18 da bd a5 c2 98 3d 07 e3 1d be 80 6c 1c be
       -0.10649209 0.074590005 -0.15418635 -0.15275764
000340 12 78 4a bd e9 b0 35 3e 29 e8 53 be fe 68 ce be
       -0.049430914 0.17743267 -0.20694031 -0.40314478
000350 6a 3a 08 3e 0e 66 47 3e f8 75 51 be 5f 94 81 3e
       0.13303533 0.19472525 -0.20455158 0.2530851
000360 e5 29 f5 bc 0a 14 5e 3e ee 91 fb 3e 4b 30 a0 be
       -0.029927203 0.21687332 0.49134773 -0.31286845
000370 98 73 5f be e0 25 b3 3e 63 5c d5 bd ad 21 2c be
       -0.2182144 0.34989834 -0.10418012 -0.16809721
000380 a9 8e ef bb 66 9a f9 bd 94 1c 3b 3d 4e cd 1f be
       -0.0073107076 -0.12187652 0.04568155 -0.15605661
000390 99 77 8b 3e 41 98 8e be f1 a5 0a 3d a0 f7 4e 3b
       0.27239683 -0.27850536 0.03384966 0.0031580701
0003a0 3f d6 fd 3d 21 11 7e be 18 1b 19 3c 4c ff 39 bd
       0.1239438 -0.24811222 0.009344839 -0.045409486
0003b0 94 d1 35 3e aa 70 92 3e e4 90 ad bd 17 9d 87 3d
       0.17755729 0.2860158 -0.08474901 0.066217594
0003c0 04 10 1e 3e 61 5b 8f 3d 54 80 ce 3d 9e ec 26 be
       0.15435797 0.06999851 0.100830704 -0.163012
0003d0 5d 61 67 bd dc 57 19 be fe 34 83 bd 12 7d a0 be
       -0.056489337 -0.14974922 -0.06406592 -0.3134542
0003e0 bf 48 22 3e ef cd f1 3d 65 eb 5a 3d ac 1d d8 be
       0.15848063 0.11806857 0.053447146 -0.42210138
0003f0 fb 4d 3e 3e 1e 9b f9 bd 76 92 a4 3d 9a 94 2f 3e
       0.18584435 -0.121877894 0.08035748 0.17146531

linears.2.bias f4 [40]
000000 31 57 8f bc 1e 7f 23 3d 35 a5 d1 3c 54 06 4d 3c
       -0.01749763 0.03991615 0.025591472 0.012513716
000010 88 9b e5 ba 10 69 b2 3c fa b4 5d bd bf db 0a bd
       -0.0017517665 0.021778613 -0.05412767 -0.033900972
000020 a6 43 d9 bc a1 31 3c bc 8c 88 d2 bb 53 b4 cc bc
       -0.026521515 -0.011486442 -0.006424969 -0.024988329
000030 3b 1f 10 3d 91 49 09 3d a7 38 11 bd 87 20 80 3d
       0.035186034 0.033517424 -0.03545442 0.06256204
000040 bf 70 fe bd 7d 73 97 3c 5c 7f 5f 3d 31 d8 bd ba
       -0.12423848 0.018487686 0.05456482 -0.0014483986
000050 6d ab a8 3c a9 d3 41 bd 45 84 d8 3c e7 4c 8c bd
       0.020589555 -0.047320995 0.026430259 -0.068506055
000060 fa b8 84 3d d2 ec d4 3d 8f de 3a 3c 02 d0 42 39
       0.06480594 0.103967324 0.011405601 0.0001857877
000070 74 8e f8 bc 33 7d 4e bd 43 74 c5 3d 2c 22 90 bb
       -0.030341364 -0.050412368 0.09641316 -0.004398605
000080 50 2a 02 bd 06 20 33 3d 73 aa 29 3c 81 e6 88 3d
       -0.031778634 0.04373171 0.01035558 0.0668459
000090 07 68 e8 bb a9 9a bc 3c f3 c0 80 3c 00 32 2a 3d
       -0.007092479 0.023022966 0.015717005 0.04155159

linears.3.weight f4 [40, 40]
000000 0b 76 bb bd 34 96 15 3e 44 07 17 bd 30 fa 0e be
       -0.09153374 0.14608079 -0.036872163 -0.13962626
000010 74 d6 34 be 7a 05 5c 3e f7 3f 05 3e a7 a5 8c be
       -0.17659932 0.21486464 0.13012682 -0.27470133
000020 03 c7 5d be e2 a9 aa 3c b8 64 28 3e e1 5a b5 bd
       -0.21657948 0.02083296 0.16444671 -0.088552244
000030 ac 76 bc 3e d3 4d 1b 3e 85 e4 19 be c5 04 29 3d
       0.3680929 0.15166406 -0.1502858 0.041264314
000040 0b d2 2d bd 2e 87 53 be 64 74 e7 3e 90 b8 39 3e
       -0.04243664 -0.20657036 0.45205986 0.18136811
000050 22 04 2d be 5b ee 3f 3e ad 49 07 be 7c 64 4e be
       -0.16896108 0.18743269 -0.13211699 -0.20155519
000060 7a ae 43 bc 5e cc 8c 3e 85 c5 9a 3d bc d4 95 bc
       -0.011943454 0.2749967 0.07557205 -0.018289916
000070 ef bb 55 be e8 d2 9f be 3c 4c 54 be 50 e2 59 be
       -0.20872472 -0.31215596 -0.20732206 -0.21277738
000080 39 62 43 be 39 45 a7 bc 31 85 e9 bd 22 85 06 bd
       -0.19080438 -0.02041875 -0.11402357 -0.03284181
000090 eb f7 3f bd b7 c8 98 bd eb 71 3d be 7a 2c 1d bd
       -0.046867292 -0.07460158 -0.18500488 -0.038372494
0000a0 e1 b7 7d 3e 1c b6 3a be 0a 81 15 be f6 2d 69 3e
       0.24777175 -0.18233532 -0.14600006 0.22771439
0000b0 28 e8 97 3d 49 5d 48 bc d2 2b 33 be a3 34 84 be
       0.07417327 -0.012229272 -0.17497185 -0.2582141
0000c0 6e 7b 95 be 62 4b a4 be be b3 cf bd 56 60 3c be
       -0.29195732 -0.32088763 -0.10141705 -0.18396124
0000d0 60 90 3f bd 88 e9 8e 3b 46 47 a7 bd a0 02 fd 3d
       -0.046768546 0.004361335 -0.08167891 0.12354016
0000e0 d9 c1 47 be 4f dc 68 3e a7 22 89 bd c7 8a 2d bd
       -0.19507541 0.22740291 -0.066960625 -0.042368677
0000f0 f1 b7 10 be 87 62 1a 3e f8 87 69 3c ac 3a 38 3d
       -0.14132668 0.15076648 0.014253609 0.04497783
000100 9c 30 89 be 6d 83 06 3e cd e0 55 be 7e ab a6 3e
       -0.267949 0.13136072 -0.20886536 0.32552713
000110 3b 0d ef bd b5 bf b2 bd 28 ec a0 3e 0f b6 25 3e
       -0.116724454 -0.087279715 0.31430173 0.16182731
000120 05 fc 2f bd 71 7c 10 3e 57 42 7c bd 08 69 63 3e
       -0.042964954 0.1410997 -0.061586704 0.22208035
000130 b9 19 63 3e 5c 4d 26 be ec a0 54 be 83 e0 d4 3d
       0.22177781 -0.16240448 -0.20764512 0.10394385
000140 bf 59 59 3e 18 c4 87 3d 9e dc 82 3e a3 f2 4b 3d
       0.21225642 0.06629199 0.25558943 0.049791943
000150 f1 87 48 be 02 6a 58 be f9 3e cd bd 82 25 90 bd
       -0.19583108 -0.21134189 -0.10021777 -0.07038404
000160 3a 58 32 be 2b d4 77 3e 45 44 22 be ce f1 d3 3d
       -0.17416468 0.2420203 -0.15846355 0.10348855
000170 40 09 e9 3d e7 2c 28 3e 4c db 88 be f9 0c 80 3d
       0.113787174 0.16423379 -0.2672981 0.06252474
000180 42 63 e9 bd 92 e9 f1 bd 01 bb 9a bd 7a bb 40 bd
       -0.11395885 -0.11812128 -0.075551994 -0.04705379
000190 fd 94 7d 3e b2 46 27 3e e5 29 9b 3d fd 54 3d bd
       0.24763866 0.16335562 0.0757635 -0.04622363
0001a0 52 27 ce 3d 32 d8 64 3d 6f 24 b7 3c 5c 5a 56 be
       0.100660935 0.055870242 0.02235624 -0.20932907
0001b0 b0 23 df 3d 34 e7 71 3e ff 30 a2 bd 9a e6 81 3e
       0.10895479 0.23623353 -0.079195015 0.25371248
0001c0 51 0d 8f 3d 77 ed bb 3d c9 c7 4f 3d 88 14 e9 bd
       0.06984962 0.09176152 0.05072764 -0.11380869
0001d0 fa ae 2d 3e cb 83 5e be e2 6d 2a bd b0 65 96 3a
       0.1696128 -0.21729963 -0.0416087 0.0011474397
0001e0 16 9f b1 3d 87 54 e4 be c9 82 41 be d8 ab ef bd
       0.08672921 -0.4459574 -0.18897547 -0.117026985
0001f0 d2 1f 43 3d f5 28 8e 3e d0 d0 21 3e cb 5f 7c 3d
       0.047637768 0.27765623 0.15802312 0.061614793
000200 1d 10 c2 bd 5f 25 3d be d3 64 76 3d 62 23 18 be
       -0.094757296 -0.18471287 0.060154747 -0.14857247
000210 28 d5 2b bf ad 1b 2a be ea 95 d3 3e 3d c5 39 3c
       -0.67122126 -0.1661212 0.41325313 0.011338529
000220 83 9f 1f 3e a8 08 af bd 71 55 23 bf f7 90 b3 bd
       0.15588193 -0.08546573 -0.6380225 -0.08767884
000230 b4 19 9e be ab fb 9c 3e c6 67 da be 25 ba b7 3e
       -0.30878985 0.30660757 -0.42657298 0.35884205
000240 48 97 e5 be e9 b2 3d bf 5f 74 a5 3e 44 5a 93 bc
       -0.4484198 -0.7410112 0.32315347 -0.017987378
000250 3d ad c3 3d 60 55 8d 3e 9b 42 01 3e 91 9a e1 3d
       0.09554527 0.27604198 0.12623064 0.11015809
000260 c1 02 99 3e bc dc 82 bf a4 ed 6e 3e 59 6d 5c 3e
       0.29884914 -1.0223613 0.2333284 0.21526088
000270 f6 5e cb 3d c6 f5 7f 3e 16 5b 5b 3d cf 83 9d be
       0.09930222 0.24996099 0.053553663 -0.30764624
000280 fb df 1a bd a4 b3 40 be 5f 54 70 3e f1 6a 1e 3e
       -0.03781126 -0.18818527 0.23469685 0.15470482
000290 c6 7e 66 3e 70 53 af bd ff 42 81 be 4e 7d 72 3e
       0.22509298 -0.08560836 -0.25246426 0.23680612
0002a0 d4 1b 2a 3c 6a 6b 06 3c 63 fa ea bd 4f 0c 28 3e
       0.010382611 0.00820432 -0.11473539 0.16410945
0002b0 25 68 1d be d0 28 28 3e 40 69 82 3e 6d 4c 74 bd
       -0.15371759 0.16421819 0.25470924 -0.059643198
0002c0 21 83 32 3d 79 e8 5d 3e d3 d8 45 3e 30 03 a0 3d
       0.043582086 0.21670713 0.19320993 0.07813108
0002d0 27 6c 87 3c 98 37 0c 3e ba e5 71 3d bd 25 a7 bd
       0.016531063 0.13693082 0.059056975 -0.08161495
0002e0 d4 9f a2 3b 14 43 56 3e 3e 00 52 3e 9e cb ff 3d
       0.0049629007 0.20924026 0.20507905 0.12490009
0002f0 14 3c 99 bd 17 31 fe 3c 37 ab 06 bd bb 6f 04 3e
       -0.07482162 0.031029267 -0.032878127 0.12933247
000300 4c af ad 3b b5 99 49 bd 04 fd 4e 3d d4 46 47 bd
       0.005300438 -0.049218852 0.050534263 -0.04865153
000310 43 1c b0 ba 3b 59 29 3d 63 4d 6e be e6 15 44 be
       -0.0013436157 0.041344862 -0.23271708 -0.19148979
000320 e8 60 6f 3e 06 de 83 be 76 42 9f bd 03 3c 8f be
       0.2337681 -0.25755328 -0.07776348 -0.27975473
000330 c6 a1 7b be 93 56 4c be 81 1d 5e 3d 67 ad 04 3e
       -0.2457343 -0.199549 0.054227356 0.12956773
000340 ab c5 6f be f2 d8 39 be 41 b7 67 be 20 c5 2b 3e
       -0.23415248 -0.18149164 -0.226285 0.16774416
000350 fa dc 87 be 85 76 8a bd 69 0e 73 be d0 b8 3c 3e
       -0.2653578 -0.06760887 -0.23735966 0.18429875
000360 1f 75 b1 3d db fe 3f be 4e 1b 0d bf f7 f5 31 3c
       0.08664917 -0.18749563 -0.5511979 0.010861865
000370 d4 64 1e 3e fe 35 9c 3e 92 3f a3 be 57 f0 8a 3e
       0.1546815 0.30509943 -0.31884438 0.2713649
000380 73 45 c3 bd ad b4 d4 be 77 de 8c be 05 90 8e bd
       -0.09534731 -0.41544095 -0.27513477 -0.06961063
000390 15 0f 46 3d 8e 3d d3 3d 02 c3 04 3e bf a0 d6 bd
       0.048354227 0.10314475 0.12965015 -0.10479879
0003a0 65 86 97 bd 81 c7 da be d8 c2 52 be e7 e9 f8 3d
       -0.073986806 -0.42730334 -0.2058214 0.12153988
0003b0 41 b9 13 3d 2f 0c 90 bd f3 37 17 be 80 3b 31 be
       0.036065344 -0.07033574 -0.14767437 -0.17307854
0003c0 15 c0 9b be 7d 59 be 3d 38 a3 94 3e 2b 9d d7 3d
       -0.30419984 0.09294412 0.29030776 0.10528024
0003d0 44 76 c5 3e 86 98 53 be 79 f7 7e be bb cd da bd
       0.38566792 -0.20663652 -0.24899091 -0.10683771
0003e0 7c fd db bd 70 f4 a9 3e ec d1 05 3e cc cf 3c 3d
       -0.10741708 0.33194304 0.1306836 0.046096608
0003f0 50 0d d8 3d cd 19 84 3d da 81 58 be eb 23 56 3e
       0.10549414 0.064502336 -0.21143284 0.20912139

linears.3.bias f4 [40]
000000 bc 71 5a 3d cf 0a fd 3c 43 0e 48 3b 64 05 17 bd
       0.05333112 0.030888943 0.0030526079 -0.036870375
000010 63 72 24 3c 45 cc b4 bc be 24 a3 3c 17 ae 27 3d
       0.010037038 -0.02207006 0.019914981 0.04093751
000020 13 a3 49 bd 52 12 2a 3d b9 8b 17 3d 88 f2 bd bc
       -0.049227785 0.041521378 0.036998484 -0.023186937
000030 fd 96 59 bd 89 b0 54 bd e9 a8 1e 3c d7 2f b5 bc
       -0.05312251 -0.05192617 0.009683826 -0.022117538
000040 7e 87 bb 3b 0d 14 46 bc 95 21 ba 3c 12 18 8c bc
       0.005722939 -0.012089741 0.022721091 -0.017101321
000050 2f 24 55 3c 4d 88 ed 3c 53 60 06 bd b1 d7 f5 bb
       0.013009115 0.028995657 -0.032806706 -0.007502519
000060 64 c0 10 bd 3c 6f 05 bc 0c ae 87 3c 9b 66 f5 3b
       -0.035339728 -0.008144196 0.016562484 0.007489038
000070 56 0a 10 bd cc c4 31 3d dd 9d bc 3c 79 55 9b 3c
       -0.035166107 0.04340057 0.023024494 0.018961655
000080 ff 5b 8d bc d1 ec 58 bc 26 dd f5 3a 67 e4 1c 3e
       -0.017255781 -0.013240055 0.0018757924 0.15321504
000090 fc f2 8d bd e2 89 bb 3c 23 b1 18 bd 89 44 1a 3d
       -0.06931111 0.022892896 -0.037278306 0.037663016

linears.4.weight f4 [40, 40]
000000 ee a1 1f be 0c ae 96 be 2d 05 39 be 70 f7 d5 bd
       -0.15589115 -0.29429662 -0.1806838 -0.104475856
000010 9a 16 06 be c5 e5 2d 3e 9b 31 6b be 50 59 57 3e
       -0.1309456 0.16982181 -0.22968142 0.21030164
000020 51 75 4f be 0b 7d da 3b de 42 c0 3d 86 c6 90 3d
       -0.20259596 0.0066677383 0.09387754 0.07069115
000030 be 33 82 3d 76 9c 5d be a4 7f 3a be fe d3 6d 3e
       0.06357525 -0.21641716 -0.18212754 0.232254
000040 ba 35 5b 3e 4a 53 c2 bc 21 cf 43 be df b6 5d be
       0.21407214 -0.023721356 -0.19121982 -0.21651791
000050 57 ef d6 bd 4d 86 ef bd 70 6c a5 3c 31 35 87 3c
       -0.10494869 -0.11695538 0.020193309 0.016504856
000060 53 03 0e bd df 27 97 3d 48 c9 df 3d 22 6f 54 3d
       -0.03467114 0.07380652 0.10927063 0.051863797
000070 1e c2 8f 3e 27 29 1a bd 41 ee 04 3e 0e 12 6b bd
       0.28077787 -0.037636902 0.12981512 -0.057390265
000080 00 64 f1 3c 06 ec 3a 3e a6 7b 10 3e b0 73 fb 3d
       0.029466629 0.18254098 0.14109668 0.12277925
000090 a6 f9 27 be bb 16 0a be 88 6a 54 bd c6 f7 06 3d
       -0.16403827 -0.13485233 -0.05185941 0.03295114
0000a0 5c a9 96 3e 79 79 a7 3e cb e7 71 be 2a 63 af bd
       0.29426086 0.32709864 -0.23623578 -0.08563836
0000b0 02 e1 a2 be 1c 44 24 3e ac ed 83 bc 2b db bf 3e
       -0.31812292 0.16041607 -0.016104542 0.374719
0000c0 37 de c7 be 6f 66 9f 3e f7 1b 22 3e 55 2a 81 be
       -0.39036724 0.31132838 0.1583098 -0.2522761
0000d0 35 a0 1a 3e f4 73 09 be 1c 90 3c be fa dd 6e 3e
       0.15100177 -0.13423139 -0.18414348 0.23326865
0000e0 8e d0 63 be d9 a2 5b bd b6 60 a0 be 76 ec 56 3d
       -0.22247526 -0.0536221 -0.31323785 0.0524716
0000f0 e6 6e 8f be a9 cd 97 be dc 75 bc be 21 fc bb 3e
       -0.28014296 -0.29649094 -0.3680867 0.36715797
000100 5a c3 04 be ad 96 19 be bd fc 0c 3e 13 06 cf bc
       -0.12965146 -0.14998884 0.13768287 -0.025271451
000110 59 af c7 be 41 23 42 3e bd de 67 3e 0c 02 b1 3e
       -0.39000967 0.18958761 0.22643562 0.34571874
000120 43 42 9a 3e ab 11 82 3e 3d 74 d2 bd 4d 4d 47 3d
       0.3012868 0.25404105 -0.10276077 0.048657704
000130 77 d6 ba bd db 9d 33 3d 21 48 79 3d 54 c8 47 3e
       -0.09122937 0.043851715 0.060859803 0.19510013
000140 b8 93 8a be 7f b7 0f be 00 02 5b 3e 58 8e a3 3e
       -0.27065825 -0.14034842 0.21387482 0.31944537
000150 27 59 82 3d 61 a1 29 3c a1 17 e2 3d da 48 31 be
       0.06364661 0.010353417 0.11039663 -0.17312947
000160 7b 70 35 be 28 ce 20 3d 79 cc a0 3c be d5 85 be
       -0.17718689 0.039259106 0.01962875 -0.26139635
000170 0a 39 3b be 79 ac f4 3d 05 5f 6b be 6f 0e 81 3e
       -0.18283477 0.11946959 -0.22985466 0.25206324
000180 91 0d 68 3e 4a 4b 6a be 3b 0d 69 be d3 94 92 3c
       0.22661425 -0.22880283 -0.22758953 0.01789323
000190 3e 10 13 3e b3 a9 cd 3c 00 6d 9e 3d 39 82 ad 3e
       0.14361665 0.025105333 0.07735634 0.33888415
0001a0 a2 82 85 3e f2 59 56 be 16 b2 40 3e c1 c6 99 3d
       0.26076227 -0.20932749 0.18817934 0.075086124
0001b0 db 21 ea 3d 2a 9c cf 3d 6a bf 15 be 45 0d 34 3d
       0.11432239 0.10137208 -0.146238 0.043957967
0001c0 7c e7 27 be db c0 99 bd 07 ff f9 bd 8e 82 dd 3c
       -0.16396898 -0.075074874 -0.12206846 0.027039792
0001d0 a6 ec d9 bd 41 7f 5a 3e b2 b5 a1 3d 79 ce d9 3c
       -0.1064084 0.21337606 0.07895984 0.026587712
0001e0 e1 ae a3 be ae 92 f0 be 66 0d b7 3d 2c e5 7a bb
       -0.3196936 -0.46986908 0.089381024 -0.003828357
0001f0 71 e9 db 3d e6 d8 94 3d 6e 46 8e bd d2 27 b5 be
       0.10737885 0.072679326 -0.06947027 -0.35381943
000200 e2 0d a4 3e 46 14 b7 bd 8a 85 f9 be ce 04 a0 3c
       0.32041842 -0.08939414 -0.48734695 0.019533541
000210 a0 e4 5d 3d 7f 9d 1f bd 7c 3c 0e 3e 2b ae fb bd
       0.054173112 -0.03896856 0.1389026 -0.12289079
000220 80 46 ce 3e c0 2b 03 3e c6 03 a0 bc 4b f1 82 3d
       0.40288162 0.12809658 -0.01953305 0.06393679
000230 9e b4 ee 3c a2 eb bc be 58 55 c6 3e 62 63 c0 3d
       0.02913886 -0.36898524 0.38736987 0.09393956
000240 a0 57 8a 3e 9d c4 51 bd 93 27 a9 be f5 4b 0c bf
       0.27019978 -0.051212896 -0.33038005 -0.548034
000250 20 b0 95 3e 84 19 01 bf 68 5f 49 bd 18 9a 1d bf
       0.29235935 -0.5042956 -0.049163252 -0.61563253
000260 f7 96 12 be 98 e9 3b 3e 2e 30 37 be b0 3a 0e 3d
       -0.14315401 0.18350828 -0.17889473 0.034723938
000270 bf 32 ed 3d af e8 a5 be fa 8a f8 bd 5e 49 bb be
       0.11581945 -0.32404086 -0.12135883 -0.36579412
000280 c1 7d 9d 3e 1d 89 a5 3d 50 89 ff bd 99 1e fd 3d
       0.30760005 0.08082793 -0.12477362 0.12359352
000290 09 bd a5 bd 4d 41 cd be a1 ec 8d be 13 01 51 3e
       -0.08092696 -0.40088883 -0.27719596 0.20410566
0002a0 1f d9 cd 3c c0 d6 cb 3d b7 06 4f 3e 51 ea 0f be
       0.025127945 0.0995307 0.20217405 -0.14054228
0002b0 af bb 3e bc e0 94 ea bd 04 d6 84 3e c6 eb 8b be
       -0.011641427 -0.11454177 0.2594453 -0.27328318
0002c0 56 05 2c 3e c4 6b 27 be 55 a5 ab 3e ef 57 47 be
       0.1679891 -0.16349703 0.33524576 -0.19467138
0002d0 d6 2f 18 3e 0f 01 01 be ad 3d b0 3c ae 37 53 bd
       0.14861998 -0.1259806 0.021513784 -0.051566772
0002e0 81 18 3d be 9c b7 03 3e 36 a4 9f bd 35 fe 3d 3e
       -0.18466379 0.1286301 -0.077949926 0.18554004
0002f0 c6 4b 63 be 10 7b 62 be b6 d5 92 be b3 2b 4e be
       -0.22196874 -0.22117257 -0.28678674 -0.20133857
000300 6f 19 78 be 28 fa a1 3e bb 3a ad bc 61 b6 80 3e
       -0.24228452 0.31636167 -0.021146169 0.25139144
000310 3b f9 25 bd a6 ae bb 3d 76 9b c3 bd cc 26 00 bd
       -0.040520888 0.09164171 -0.09551136 -0.031287
000320 62 03 34 3e 79 e2 4d bc 4d 0b 42 be c5 76 ad be
       0.17579415 -0.012566202 -0.18949623 -0.33879676
000330 9a e1 70 3e 5f cd 1c bd e1 51 74 be a5 c3 3c be
       0.2352356 -0.038281795 -0.2385936 -0.18434007
000340 62 33 94 be 9f 3e a3 3c f7 d1 bf bd 3f 88 06 3d
       -0.28945452 0.019927321 -0.093662195 0.03284478
000350 38 50 5d be 0a e5 bb bd e2 d2 95 be 55 e8 c5 3d
       -0.21612632 -0.09174545 -0.29262453 0.096634544
000360 8b e0 e6 bd 05 9d 3a 3e 56 4b 7e 3e 5b e9 29 3c
       -0.11273297 0.1822396 0.24833426 0.010370578
000370 08 29 0c be 27 59 dc 3d 16 75 07 be b7 11 b1 bd
       -0.13687527 0.10759192 -0.13228258 -0.08645957
000380 78 01 f9 bd 20 af 88 3e 38 25 62 3d 2e 31 50 3e
       -0.12158483 0.2669611 0.055211276 0.2033126
000390 4b c9 85 3e 48 65 51 3d 31 e9 3f 3e 89 95 7b bd
       0.26130137 0.05112198 0.18741299 -0.061421905
0003a0 9f 9c 5b bb 5e 9e 3e be 15 bf 3c bd d9 8a 37 bc
       -0.0033510101 -0.186151 -0.046080668 -0.011202537
0003b0 c9 4a 0a 3e 4f ed 6b 3e fb cf 87 be 60 47 13 be
       0.13505091 0.23039745 -0.26525864 -0.14382696
0003c0 15 ce f9 3c a6 51 29 be 48 23 26 3e 13 58 40 bd
       0.030493775 -0.16535053 0.16224396 -0.046958994
0003d0 21 08 45 3e 54 31 6f be 06 23 58 3e 45 ff 4a 3e
       0.19241382 -0.23358661 0.2110711 0.1982394
0003e0 da ae bb 3d cc a3 1a 3d 95 2a bd bd c9 48 2b bd
       0.0916421 0.037753865 -0.092366375 -0.04181746
0003f0 aa b3 44 be 89 a6 4e 3d 18 06 bb 3d 9e ce 93 3e
       -0.19209161 0.05045179 0.09132022 0.28868574

linears.4.bias f4 [40]
000000 c2 2c 93 bc 8d 16 eb 3d 48 06 81 bc 41 80 25 bd
       -0.017965678 0.114789106 -0.015750065 -0.040405516
000010 69 4c a7 3b 4c b6 58 3b 6e 8a 23 3c ca 19 2c bc
       0.0051055443 0.0033067642 0.009981735 -0.0105041955
000020 51 a8 ab bc 0e 5f 3d bd 10 d8 b3 bc a3 e2 f8 bc
       -0.020954283 -0.04623323 -0.021953613 -0.030381506
000030 52 a8 cc 3a 33 3f 8d bc a3 96 00 3c 05 50 52 3c
       0.0015614128 -0.01724205 0.007848415 0.012836461
000040 5b f0 44 3c 3c 57 b1 bc a4 3c 4c 3c 28 d9 bd 3c
       0.012020196 -0.021648042 0.01246563 0.023174837
000050 40 d4 29 bd b5 28 3d bd 09 8f 50 bd 22 8e 63 bc
       -0.041462183 -0.0461814 -0.05091766 -0.013888868
000060 72 05 8c bc 78 3e 4f bd c6 5c dd bc 36 37 75 bc
       -0.01709244 -0.050596684 -0.027021777 -0.014966777
000070 3c 36 dd 3b 78 e1 f1 3c 98 ad 7b b8 8a 08 40 bd
       0.00675085 0.029526457 -6.0004735e-05 -0.046883143
000080 54 99 55 bd 6d 3d f5 3c 1c e6 6d bc 75 d7 95 bc
       -0.05214818 0.029936517 -0.014520194 -0.018291214
000090 19 7a 04 3b ca dd 09 3c 68 07 cd 3b 43 f7 e9 b9
       0.0020214377 0.008414695 0.0062569864 -0.00044625447

linears.5.weight f4 [3, 40]
000000 14 c4 99 be 37 14 25 3e c7 76 15 be 7b b8 64 be
       -0.30032408 0.16120993 -0.14596091 -0.22335999
000010 06 90 c8 3e ef ea 41 3d 35 90 dd 3d 81 9c 93 3c
       0.3917238 0.04734319 0.10818521 0.018018963
000020 7e 83 a4 bd 16 81 d3 be 67 0d a2 3d 25 e6 83 bd
       -0.08032893 -0.41309422 0.079127125 -0.06440381
000030 02 98 22 be c8 da 19 be 07 53 19 bd 40 5a 49 3e
       -0.15878299 -0.15024865 -0.037432697 0.19663334
000040 0a 46 be 3e ba 69 57 3e 39 f7 fd 3d 2e c5 2a 3e
       0.3716281 0.21036425 0.124006696 0.1667678
000050 8e 3b 90 be 03 9f c5 be e2 27 1f be f9 4d 9a be
       -0.28170437 -0.3859788 -0.15542558 -0.30137613
000060 9c fe 7e be d3 58 a6 be b4 d0 60 be dd b4 83 be
       -0.24901813 -0.32489643 -0.21954614 -0.25723925
000070 49 aa e0 be 02 db 24 bf 7e 5d dd 3e f1 57 c4 be
       -0.43879917 -0.6439668 0.4323539 -0.38348344
000080 44 fa 21 be f6 d2 95 3e 71 65 98 be ec bc 96 be
       -0.15818125 0.29262513 -0.29764894 -0.2944101
000090 fe 3c e0 ba 81 3e 82 3e 50 84 e2 3d 87 7e 4f be
       -0.0017108021 0.25438312 0.11060393 -0.2026311
0000a0 b2 a1 82 3e aa 3f 02 3e 84 1c 09 be 17 fe d3 3c
       0.2551399 0.12719598 -0.13389784 0.025877995
0000b0 76 ef c9 3d e3 a4 66 be d0 34 bf bd 9c ad 5c be
       0.09860127 -0.22523837 -0.09336245 -0.21550602
0000c0 70 89 c0 3d 34 38 7f be 65 d2 7b 3d 30 30 a2 be
       0.09401214 -0.24923784 0.061479945 -0.3167739
0000d0 50 c0 cc 3e 01 02 61 be 49 66 a7 be 7e 0d 0d be
       0.39990473 -0.2197342 -0.32695225 -0.13774678
0000e0 ca 93 0b 3e 23 22 a8 be 5a 1e b2 bd 11 cc 2e 3e
       0.13630596 -0.32838544 -0.08697195 0.17070033
0000f0 e6 f3 b2 3d e0 75 89 3e 44 53 ce 3d 7c 7a 5b 3d
       0.08737926 0.26847744 0.100744754 0.053583607
000100 5a b2 cf 3d 3d af 90 3d fe f6 98 3e 86 a8 69 3d
       0.1014144 0.07064674 0.2987594 0.057045482
000110 4a a7 8d 3c 04 64 00 be d0 56 2c be 27 7e 75 3e
       0.017291684 -0.12538153 -0.16829991 0.23973905
000120 96 48 bd be f0 22 72 bd 01 fd 48 be 0f 35 53 bd
       -0.3696944 -0.05911535 -0.19627763 -0.051564272
000130 24 19 49 3e 6a e2 78 be ea b1 32 3e dc 43 bd bd
       0.19638497 -0.2430512 0.17450681 -0.09241459
000140 2a df 9b be 52 09 97 bc 4b 48 75 bd 22 fc 6a 3e
       -0.30443698 -0.018437061 -0.059883397 0.22947744
000150 eb 71 29 bd 6a 25 2d 3e ab 16 69 be f9 1c 4d be
       -0.041368406 0.16908804 -0.22762553 -0.20030583
000160 8b 58 b2 bd 35 18 9e 3e 8b 61 43 bd a2 65 be 3e
       -0.087082945 0.30877843 -0.047700446 0.37186915
000170 a4 f0 c0 bd 37 5a 9a bd 04 70 5b 3e 60 79 8a be
       -0.094208986 -0.07536738 0.2142945 -0.27045727
000180 ba dc 89 be 73 44 80 be 95 7e b2 be 8b 65 80 3e
       -0.26926214 -0.25052223 -0.348622 0.2507747
000190 b0 dd a3 be fb 6a e9 3d c1 59 65 3e 37 cf 34 be
       -0.32005072 0.11397358 0.2239752 -0.17657171
0001a0 57 4f 18 3e c4 44 3d be 49 87 0b 3d 7c fb 67 be
       0.14874016 -0.18483263 0.034064565 -0.22654527
0001b0 fb 4f 5a bd 0b 41 d7 bd 03 34 a2 3d 9d aa d6 be
       -0.05329893 -0.10510453 0.07920077 -0.41927043
0001c0 3f 91 02 3d 69 13 8d 3e 7c 86 07 3e 07 02 d9 3d
       0.0318768 0.2755387 0.13234895 0.1059609
0001d0 f1 ff ce 3d 9c 6a 5e be d6 8d a5 3d ae aa 6c 3d
       0.10107411 -0.21720356 0.08083694 0.05777996

linears.5.bias f4 [3]
000000 8d 7e 6f 3c 90 cc ac bb 00 00 00 00
       0.014617574 -0.005273409 0.0

exp_avg f4 [40, 2]
000000 52 f2 05 3a 50 09 14 3b 8d d8 de 3a a9 63 fb 3b
       0.0005109656 0.0022588558 0.0017001793 0.0076717925
000010 4b 6c ee 39 36 81 f6 3a 6d f4 f3 3a 6a 7c fe 3b
       0.00045475582 0.0018806818 0.0018612273 0.007766296
000020 3c 8e b3 ba e1 00 d7 bb d0 3b af 3a 63 28 dd 3b
       -0.0013699005 -0.006561384 0.0013369266 0.0067491992
000030 da 90 2b 3a 6c b4 1b 3b cd 40 c6 b9 a6 2e 88 ba
       0.0006544717 0.0023758663 -0.00037813783 -0.0010389879
000040 3a ad 44 3a 79 c2 25 3b e2 d8 8a b9 31 57 9a ba
       0.00075026194 0.0025292917 -0.00026483 -0.0011775253
000050 d2 0c 73 ba 96 23 84 bb 48 47 12 3b 98 17 24 3c
       -0.0009271625 -0.0040325625 0.002232032 0.010015391
000060 5e 0f 53 b9 f4 d9 61 ba 23 0e 7a ba 67 e8 9a bb
       -0.00020128253 -0.00086155464 -0.00095388497 -0.0047274115
000070 ba 1a 27 ba e4 88 49 bb 92 84 af b9 5c 30 eb ba
       -0.0006374527 -0.003075176 -0.00033477374 -0.0017943489
000080 8c 00 5f ba e4 4e 8b bb ea e1 05 b7 62 23 e3 b8
       -0.00085068564 -0.004251348 -7.9800175e-06 -0.00010830794
000090 84 d5 97 37 0b 0e 2a 3a 58 71 16 b9 a2 18 c4 ba
       1.8100029e-05 0.0006487078 -0.00014347339 -0.0014960954
0000a0 7a 1e 03 3a ca cf ec 3a 00 00 d2 39 aa a2 0c 3b
       0.0005001795 0.0018067297 0.0004005432 0.002145926
0000b0 e2 ec f8 38 fe bd 9b b9 ac c7 37 ba a4 f0 29 bb
       0.000118696844 -0.0002970546 -0.00070106494 -0.0025930787
0000c0 7b df 48 ba 12 c6 7c bb d7 13 f3 b9 6c 2b 2a bb
       -0.0007662696 -0.0038570208 -0.00046363354 -0.0025965823
0000d0 98 70 95 3a 77 f5 bb 3b 59 30 2e b8 36 29 de b9
       0.0011401353 0.005736049 -4.152986e-05 -0.00042373844
0000e0 8b bf 38 3a f5 46 43 3b 73 e3 16 3a 90 5d 27 3b
       0.0007047585 0.0029796932 0.00057559385 0.0025537945
0000f0 45 d5 b6 b9 56 65 80 ba 8a a2 9c ba a8 16 a8 bb
       -0.00034872643 -0.0009795825 -0.0011950296 -0.005129654
000100 aa bb 1b b9 43 2d 52 b9 83 b4 9f b9 5a aa 91 ba
       -0.00014851862 -0.00020044022 -0.00030461335 -0.0011113391
000110 cf a3 81 ba 65 e7 92 bb aa d0 16 3a 7a 01 10 3b
       -0.0009890738 -0.004483151 0.0005753139 0.0021973536
000120 25 37 28 37 f4 bc a6 ba bd 47 ee ba f0 14 ec bb
       1.002642e-05 -0.0012721107 -0.0018179339 -0.0072046444
000130 9a 0b 0d 3b e1 4b 25 3c 7b dc ad ba d8 85 c5 bb
       0.0021521808 0.010088892 -0.0013264561 -0.0060279183

exp_avg_sq f4 [40, 2]
000000 20 43 f0 39 d9 37 05 3b 3c e4 b8 3b 29 4e f7 3c
       0.0004582638 0.0020327477 0.005642442 0.030188637
000010 03 c8 10 3a e0 4d 1f 3b 3c c5 d1 3b 75 56 fa 3c
       0.0005522968 0.0024307892 0.006401686 0.030558804
000020 61 76 89 3b f4 23 b7 3c 90 00 93 3b 1e c9 c1 3c
       0.00419502 0.022356011 0.004486151 0.02365547
000030 d7 07 47 3a 6f 4b 3e 3b 20 a9 00 39 54 ed b6 39
       0.0007592416 0.002903666 0.00012270035 0.00034890568
000040 a0 f7 57 3a 20 48 90 3b 9d 77 f9 38 ea 99 16 3a
       0.0008238498 0.004403129 0.00011895525 0.0005744981
000050 cc 63 a0 3a e3 f7 e3 3b 5c fb 23 3c bd d6 59 3d
       0.0012236773 0.0069570406 0.010008659 0.053183306
000060 0d 2c 7a 39 e7 b5 54 3a 21 5e 1e 3b 93 8d 37 3c
       0.00023858268 0.0008114264 0.0024164992 0.0112031875
000070 91 12 96 3a 37 54 b8 3b 0e df 11 3a 77 91 1e 3b
       0.0011449625 0.0056252736 0.0005564549 0.002419559
000080 3d d3 d2 3a 6f 2f 10 3c 1f 18 2d 37 d7 b6 14 38
       0.0016084682 0.008800372 1.031722e-05 3.5456233e-05
000090 fb c6 3f 38 a5 b8 3d 39 b4 f7 9b 38 ad 3b f0 39
       4.5723264e-05 0.0001809323 7.437114e-05 0.0004582083
0000a0 29 f1 0a 3a ba 68 2b 3b 8c 5b f2 39 11 76 19 3b
       0.0005300218 0.0026154951 0.00046226045 0.002341632
0000b0 24 c8 85 37 67 45 1a 39 05 2c 36 3a 49 db 57 3b
       1.5948033e-05 0.00014712439 0.00069493084 0.00329371
0000c0 4a 33 bc 3a 37 d3 f5 3b 2e af 29 3a a8 a2 5c 3b
       0.0014358547 0.0075019854 0.0006472942 0.0033666287
0000d0 02 cd 4e 3b 6f e2 85 3c 78 0b aa 36 c2 76 cc 37
       0.00315553 0.016343324 5.06773e-06 2.4373996e-05
0000e0 e8 69 1f 3a 44 93 57 3b 80 ac 3c 3a 70 f3 70 3b
       0.000608115 0.0032894174 0.00071973354 0.0036766194
0000f0 fd ea c2 38 57 f3 ab 39 5f 9c 55 3b 1d 4f 7b 3c
       9.294411e-05 0.00032796964 0.0032594425 0.015338686
000100 51 06 30 37 cd 2d ac 38 d4 c9 e4 38 7b 9c 26 3a
       1.0491888e-05 8.21013e-05 0.000109094806 0.0006355715
000110 f5 ce 19 3b fa 99 33 3c 73 ac 0d 3a 21 09 46 3b
       0.0023469303 0.010962004 0.000540442 0.0030217844
000120 a0 29 eb 38 d3 5e 24 3a 97 cd c2 3b eb 46 e4 3c
       0.000112134265 0.00062702334 0.0059449184 0.027865848
000130 f3 97 12 3c 08 c0 46 3d df c5 5f 3b e9 9b 94 3c
       0.00894736 0.04852298 0.003414504 0.01814075

exp_avg f4 [40]
000000 cf cc 0f 3b 5e a6 ec 3b 90 af de 3a 7e 2e f3 3b
       0.0021942144 0.007221981 0.0016989578 0.007421314
000010 c0 0f ca bb 00 2f d3 3b bc 82 13 3b b2 4f 8b ba
       -0.0061664283 0.006444812 0.0022508344 -0.001062861
000020 3c fc 1a 3b 90 7b 99 ba 5d 7c 77 bb a4 88 1a 3c
       0.0023648879 -0.0011709798 -0.0037763335 0.009431992
000030 52 02 6c ba 12 79 93 bb cb f3 41 bb d9 52 e0 ba
       -0.00090030313 -0.0045005167 -0.0029594775 -0.0017114534
000040 68 12 89 bb b3 5c 80 b8 c1 21 21 3a 34 09 c1 ba
       -0.0041831024 -6.120782e-05 0.00061466923 -0.0014727474
000050 53 3e e5 3a a1 e8 08 3b 38 45 82 b9 cb 64 1f bb
       0.0017489888 0.002089061 -0.00024847104 -0.0024321552
000060 a1 57 73 bb 6e 2c 25 bb b0 47 b5 3b 44 5f c2 b9
       -0.0037131088 -0.0025203484 0.0055322275 -0.00037073542
000070 68 b5 40 3b 4a c3 22 3b 54 33 81 ba 43 68 a2 bb
       0.0029405002 0.002483564 -0.0009857216 -0.0049562766
000080 a3 bf 87 b9 f4 ef 89 ba 68 c8 8b bb 6d 7d 03 3b
       -0.00025891987 -0.0010523782 -0.0042658336 0.0020063773
000090 da 02 b1 ba 4f be e0 bb fe 39 1d 3c 56 e0 bc bb
       -0.0013504878 -0.006858624 0.009596346 -0.0057640476

exp_avg_sq f4 [40]
000000 6e 3e 06 3b 14 8f f7 3c 12 05 1e 3b 57 a5 fc 3c
       0.0020483988 0.030219592 0.002411191 0.030840559
000010 9c e5 b7 3c 40 17 c3 3c e0 16 42 3b df 19 be 39
       0.022448353 0.023814797 0.0029615685 0.000362589
000020 db 9f 8f 3b 86 c3 1a 3a de 18 e4 3b 6f 7f 5a 3d
       0.00438307 0.0005903769 0.006960972 0.053344186
000030 3e f2 5e 3a 39 7e 39 3c 7a 5a b9 3b 46 42 1e 3b
       0.0008504725 0.011321598 0.0056565376 0.0024148389
000040 7c 83 11 3c 4c 74 1f 38 f7 7c 38 39 ff 63 f4 39
       0.008881446 3.8016864e-05 0.0001759416 0.0004661381
000050 dc 7c 2c 3b ef e1 18 3b af c1 0c 39 f0 81 5c 3b
       0.002631954 0.0023328026 0.00013423593 0.0033646785
000060 ef 42 f6 3b 5a 39 5a 3b 65 6e 86 3c 0d 06 b7 37
       0.0075153033 0.0033298344 0.016410062 2.1818118e-05
000070 82 7f 5a 3b 7d 65 73 3b 24 0b b5 39 47 6a 7b 3c
       0.003334016 0.003713935 0.0003453131 0.015345163
000080 99 67 a0 38 4c c7 2b 3a d7 fb 34 3c 80 58 45 3b
       7.648691e-05 0.000655283 0.011046371 0.0030112565
000090 5b d1 25 3a de 7d e5 3c 34 79 47 3d b3 4d 95 3c
       0.0006325447 0.02801412 0.048699573 0.018225526
