Lid_Driven_Re100/saved_models/VPA-21000.pt (torch, 95161 bytes, 36 tensors)

linears.0.weight f4 [40, 2]
00000000: 0fb9 2f3e eb82 88be 22a8 4d3e 429a a5be
00000010: 2a17 0dbe 2143 0cbf 1e49 f03d 64f4 173e
00000020: e68a 283e 435e 98be 93ee 8d3d 4698 f1bd
00000030: a9e4 85be 53c6 ad3e 9f10 0abe 9f5c ab3e
00000040: 599a b6bd 2848 16be 3aa3 2bbe 8b20 68be
00000050: 35ca ef3e c26d 9bbe a389 c93e 8c3b 983e
00000060: 3a1f 03bf f9cd 3a3e 2880 023e 676b d3bd
00000070: b4af 6d3d 3d31 213e 8616 b7be 1a43 433e
00000080: 02c0 37bd 8de4 bd3e 3498 e6bd 6a1f 5dbe
00000090: baad e63e b196 563c 6d25 80be 5542 b2bc
000000a0: 7602 ec3c 1e79 193e a5b4 783c 86d4 813e
000000b0: d9f8 bb3e 9eeb a43e 4106 e7bd c51c 8a3e
000000c0: 00ad 36be 7187 a43e 6e8d 21be 5bc8 a63e
000000d0: 5cae fbbd f3fb 9b3e 16ec 3e3d 624c 713e
000000e0: fafa 90be 90a9 fbbc 1c19 e9bd ea05 c8bd
000000f0: 4a2b a2be f774 a1be 521e 8a3e 592b 23be
00000100: 41c4 bdbd 5e00 47be e019 92be eddb 4b3d
00000110: fe96 cd3e 5393 98be df5a aabe fe56 6ebb
00000120: 1bd9 86be 08d8 5b3d 706c e1bd 9e40 0cbd
00000130: b465 02bf cd6f d4bd 33bd 653d 9df5 b63e
0.17160438 -0.26662382 0.20083669 -0.32344252 -0.13778368 -0.5478993 0.11732696 0.14839321
0.16459236 -0.29759416 0.0693027 -0.11796622 -0.26151016 0.33940372 -0.13482903 0.33469102
-0.08916158 -0.14675963 -0.16761485 -0.22668664 0.4683396 -0.30357176 0.3936282 0.2973293
-0.5121952 0.18242635 0.127442 -0.1032322 0.05802889 0.15741439 -0.35759372 0.19068566
-0.044860847 0.37088433 -0.11259499 -0.21594015 0.45054418 0.013097451 -0.25028554 -0.021760145
0.028809767 0.14987609 0.015179788 0.25357455 0.36713293 0.32211012 -0.1128049 0.26975074
-0.17839432 0.32134584 -0.15776607 0.32574734 -0.12289116 0.3046566 0.046611868 0.23564294
-0.2831648 -0.030720502 -0.11381742 -0.09766753 -0.31673652 -0.3153455 0.26976258 -0.15934505
-0.09265948 -0.19433734 -0.28535366 0.049770284 0.4015426 -0.297999 -0.33272454 -0.003636777
-0.26337513 0.05367282 -0.11007011 -0.03424131 -0.50936437 -0.10372887 0.056088638 0.35734263

linears.0.bias f4 [40]
00000000: 16ed 723d 051b c9be 3195 a2be d66c c0bd
00000010: d614 bf3d 5be2 d83d b482 d1bd 43c4 debd
00000020: f8d9 b03d 8e5d c43d 900a 02be 8338 2f3e
00000030: ad12 333e 177d 86bd 879a 91bd d01b 2b3e
00000040: ef49 1fbe 6850 d13d b47f 09bd efb2 47bd
00000050: 04d4 6abe 0f56 06be 0cba d6bd f3c0 b2bd
00000060: 3ced 9bbd b6d1 9cbd 0d8b c8bd 0d68 83bd
00000070: 11ee c53d 5d61 ff3c c644 b33d 26cb ac3e
00000080: 8e28 d93d 532c 103d 50be 06bd ff8a 4c3d
00000090: 377a 993d c3c6 1fbe f5ed d3bd 91eb 6abe
0.059308134 -0.39278427 -0.3175445 -0.09395759 0.09330146 0.10590049 -0.10230008 -0.10877278
0.08635324 0.09588157 -0.12699342 0.17111401 0.17487593 -0.06566828 -0.07109552 0.16709828
-0.15555547 0.102204144 -0.033569053 -0.04875463 -0.2293244 -0.13118766 -0.104847044 -0.087282084
-0.07613608 -0.07657187 -0.09792147 -0.064163305 0.09664548 0.031174356 0.08753352 0.3374874
0.10603438 0.03519852 -0.03289634 0.049937245 0.07494014 -0.15603165 -0.10348121 -0.22941424

linears.1.weight f4 [40, 40]
00000000: 36a5 84be bbf7 07bd 7529 2d3e 002d 3e3e
00000010: cb71 d4bc dd42 c6be 2cf4 53be f905 ab3e
00000020: d3c5 c13d e15d 90be 919f 27be e06a 07be
00000030: 5400 85bd bc6c 5c3e bdb2 8a3e 0a18 4ebe
00000040: 7436 4b3e 1005 0fbe 453e 8b3d 8b2e 9d3d
00000050: 54de 583e 5e76 6d3d 942c 4ebe 3953 e83d
00000060: a4af 683e b6a7 44be 2fe1 873e 332c 9d3e
00000070: 7b5d 66be ef9b 593e 52ed 85be 8ffb 0cbe
00000080: dd80 9fbe 3e63 8cbd c17d 7b3e 2a45 9ebd
00000090: 756e c3ba 423c 8e3e 651a 1dbe 3cab ae3e
000000a0: 47b0 04be 2a54 7b3c aed7 2fbe 0301 b4be
000000b0: dc9c 06be 7f35 56be 2f5b 8a3e 7591 d63d
000000c0: 3461 093e 5016 133e beff 5abd 39ff 8e3d
000000d0: b1e6 3f3e 6077 82bd 783c f43c 83c9 dd3d
000000e0: f735 54be 3d3b dcbd 2555 0cbe 0cf6 57be
000000f0: 97cc dabe fc61 aebd b5bf a3be b27b adbd
00000100: 2817 213d ac36 313e 1bb3 d73d 8974 5dbd
00000110: a8df 9a3e f938 0ebe 610b a13d c0fe 213e
00000120: af43 53bd b69d c33e 4dec b23c 6a34 dbbd
00000130: 26a9 0ebe f599 883c 5064 0ebe 7669 163c
00000140: 2671 f83d 402d 653d 8d07 91be 977f 6dbe
00000150: b023 8f3e fb57 eb3d d262 5cbe fe7a 873d
00000160: b39e 463e 99f5 86be 6a43 25be bf59 833e
00000170: dcbd e03a 3928 00be 0294 833d aca0 9ebd
00000180: 5896 97be d422 49be 61c5 103e cf07 4bbc
00000190: ddbb d5be 7b6d 98be c8d9 443e c31a 1f3e
000001a0: 718c 3a3e 5082 72be b0b7 73be 8442 733e
000001b0: 84d3 ca3d 4c59 743e e244 b93d a7e4 19be
000001c0: d11f 723e 2653 c8bd 0120 ab3e 90dd a5bc
000001d0: e5f9 303e cd5c b1bd 67d0 8ebd 5522 55be
000001e0: c466 6ebe fd2d 2fbd 6584 76bd 4cfc 9cbe
000001f0: b6b2 583e 36e9 3dbe 82cc 27be 862f 2b3e
00000200: 5548 b1bd 8b35 98bd 9c28 203e 67eb 0fbe
00000210: 2c7b df3b 71ec 973e 7fb8 cd3d 46ee 1e3e
00000220: 8f2e 8a3e ffef 22be 2539 85be c080 b33e
00000230: 9785 633e 70d2 3b3e 93d5 aabd 9268 373e
00000240: 1c95 873e 4aa0 043c e92b 653e b271 76be
00000250: 2efe 70bd 64d2 fbbd 7233 c33d 5932 e7be
00000260: ab8d dc3d cdf1 8c3e 9764 9dbe 6bc6 3d3e
00000270: 9652 bebd ec3f e33d cbed 063e d394 55be
00000280: 27e1 be3c 7166 ffbc 29a6 2e3e 3d09 4b3e
00000290: f6b9 78be d339 623d 092e bc3e 9e13 f5bb
000002a0: 0e11 e1bd 1693 0e3e d6e1 4ebe 1451 52be
000002b0: 655b 243e f85a 59bb 08df c2bd 9f62 78bd
000002c0: 7203 133e 87ac 35be c3be 93bd 2211 e4bd
000002d0: d7ff fa3d f361 a13e 2c0d 173d a8d5 963d
000002e0: f6c6 203d 5246 a23e 2b13 c43d 3b7c 04bd
000002f0: 6d9c 3abd 66e9 1cbe 9500 333e 239b 143e
00000300: e741 4abe ce80 4dbd 8c9e 233e ee51 213c
00000310: 6b6e 19be 3a3a 32bd e250 6abe ae7d 823e
00000320: bb26 b1be a477 373e 039e 223e e6e7 b23d
00000330: cf22 81be 81cd 1ebe a22d 18bd c2d5 513e
00000340: 6f85 c9bd b98f 093e a266 d1bd 911e 6f3d
00000350: 840e 003e ef8a ffbd 5d22 973d 0197 7b3e
00000360: fa09 aa3d 9200 923d 95cd 973d 39d9 743c
00000370: 57ce 8cbd 8246 2c3e fcc6 cf3c 326b c53c
00000380: 7039 9e3d eefc 27be 5aac 82bd 5489 ee3d
00000390: 3b0c 223e 53f4 89be b9d2 4a3d 0fcd 2ebe
000003a0: 37d0 f3bd 1eb7 833e 6844 06be eaca 953e
000003b0: dd47 e8bb b021 4ebe 4ab3 4c3e 12e5 68bc
000003c0: 0ec9 9cbe c67c cb3b 18e0 b33d 8014 9cbd
000003d0: 833e 77be e420 36be bea3 903d bad3 843e
000003e0: 89b3 afbd 313d ebbd 8faa 06bc ca77 8cbd
000003f0: 13b2 373d 7ac1 c43d 8df3 883e 6d64 1dbd
-0.25907296 -0.03319524 0.16910346 0.18571854 -0.025933167 -0.38722888 -0.20698613 0.33402994
0.0946156 -0.28196624 -0.16369464 -0.13224363 -0.06494203 0.21525854 0.2708949 -0.20126358
0.19844991 -0.13966775 0.06798986 0.07674893 0.21178561 0.057974212 -0.20134193 0.113439985
0.22723252 -0.19204602 0.2653899 0.30697784 -0.22496597 0.2125089 -0.26157624 -0.13767837
-0.31153002 -0.068548664 0.2455969 -0.07728036 -0.0014910238 0.27780348 -0.153421 0.34115016
-0.1295787 0.0153398905 -0.17172119 -0.35157022 -0.13145775 -0.20918845 0.27022693 0.104769625
0.13415986 0.1436398 -0.05346655 0.069822736 0.18740346 -0.06370425 0.02981399 0.10829451
-0.20723711 -0.10753486 -0.13704355 -0.21089953 -0.42734215 -0.08514783 -0.31982198 -0.08470859
0.039328724 0.17306012 0.105322085 -0.054066215 0.3024876 -0.13888921 0.078634985 0.15819836
-0.05157822 0.3820626 0.021841193 -0.107033566 -0.13931713 0.016674975 -0.13905454 0.009180417
0.12130956 0.055951357 -0.28326073 -0.23193203 0.27956915 0.1149139 -0.21522072 0.06615256
0.19396476 -0.2635925 -0.16138998 0.25654408 0.0017146426 -0.12515344 0.064247146 -0.077454895
-0.2960689 -0.19642192 0.14137794 -0.012391998 -0.4174489 -0.29771027 0.19223702 0.15537553
0.18217637 -0.23682523 -0.2380054 0.23755842 0.09903625 0.23862189 0.090463415 -0.1502863
0.2364495 -0.09781484 0.33422855 -0.02024725 0.17282827 -0.086602785 -0.06973343 -0.20813878
-0.2328139 -0.042768467 -0.060184855 -0.30661237 0.21161923 -0.18545994 -0.16386607 0.16717348
-0.08656374 -0.074320875 0.15640491 -0.14054643 0.006820103 0.29672578 0.100449555 0.15520582
0.26988646 -0.15911864 -0.2602016 0.35059166 0.22218929 0.18341994 -0.08341517 0.17910984
0.2648095 0.0080948565 0.22380032 -0.24066809 -0.058836155 -0.12295988 0.09531297 -0.451556
0.107692085 0.2752823 -0.30740806 0.18532722 -0.09293096 0.110961765 0.13176648 -0.20857553
0.02330072 -0.031176778 0.17055573 0.19827743 -0.24289688 0.055230927 0.36753872 -0.007479145
-0.10989581 0.13923296 -0.20203337 -0.20538741 0.16050489 -0.0033165794 -0.09515196 -0.060640927
0.14356783 -0.17741595 -0.07214119 -0.1113608 0.12255829 0.31520042 0.036877796 0.073649704
0.039252244 0.31694275 0.095739685 -0.032345038 -0.045559336 -0.1532341 0.17480691 0.14512305
-0.19751702 -0.050171666 0.1597845 0.009846194 -0.14983527 -0.04351256 -0.22882417 0.2548651
-0.34599862 0.17916733 0.15880589 0.08735637 -0.2522187 -0.15508081 -0.037152894 0.20491698
-0.098399036 0.13433732 -0.10224654 0.05837876 0.12505537 -0.12477671 0.07379601 0.24569322
0.08302684 0.07129015 0.074122585 0.014944368 -0.06875294 0.16823772 0.025363438 0.024098966
0.07725799 -0.16405079 -0.0638053 0.11647287 0.15824978 -0.26944217 0.049517367 -0.17070411
-0.11904948 0.25725645 -0.13112032 0.29256374 -0.007088645 -0.20130038 0.19990268 -0.014214771
-0.30622143 0.0062099425 0.08782977 -0.076210976 -0.2414494 -0.17785984 0.07062481 0.25942785
-0.085791655 -0.11486281 -0.008219375 -0.068587855 0.04484756 0.09607215 0.26748314 -0.03842585

linears.1.bias f4 [40]
00000000: 13fa e6bd 4e3f 603d e62b 8d3d d2c1 24be
00000010: 7b44 09bd 70da 0bbd 8c0e 6cbd 2381 f03d
00000020: 6737 0bbd 66eb 753d 14fc cf3e 3475 38bd
00000030: a67a d0bd 92c3 56be f188 993c 287a 4ebd
00000040: 07f1 053e 81ff 96bd 5084 ba3d 5e56 f3bc
00000050: af49 a03d c738 573e d728 94bd 5e00 a53d
00000060: 9672 183e b0dc 3dbd 1504 a53d 0a5e dc3d
00000070: d36a 683d b8e8 c4bc ad74 8fbd 0f69 913e
00000080: 0103 95bc c614 93bd 87c8 803e 05ae e73d
00000090: e15b 983d 0fcd ddbd 14b3 02be 6416 8b3d
-0.112781666 0.054747872 0.068931386 -0.16089562 -0.033512574 -0.034143865 -0.05763106 0.11743381
-0.033988383 0.060038947 0.40622008 -0.04503365 -0.10179643 -0.20973042 0.018742057 -0.050409466
0.13080226 -0.07372952 0.09107268 -0.029704269 0.07826554 0.21017753 -0.07234352 0.08056711
0.14887461 -0.046353042 0.08057419 0.10760124 0.0567425 -0.02403675 -0.07004676 0.28400466
-0.018189909 -0.071816966 0.2515299 0.113124885 0.074393995 -0.108301274 -0.12763625 0.0679138

linears.2.weight f4 [40, 40]
00000000: 6221 af3e 38cc a1bd 8f93 80be 6ea0 063c
00000010: 5c9b 08bd 2753 22bd 20d8 863e d1e9 8abe
00000020: b6f2 72bc 616d 7b3e 6b64 a1be 16c0 6bbd
00000030: 41d5 bc3c b081 6e3e 8ce4 1bbe 3f08 133e
00000040: ec08 12be feb1 903e 47c0 8b3d e86a 083e
00000050: 8fde 7bbd 8376 0f3e d32a 72bd 4a54 1dbe
00000060: 5f8a 19be dc44 49be 18b7 3dbe 1452 cdbe
00000070: d182 06be 225c 6fbe b472 dc3e 7b76 a33e
00000080: c9e8 2bbc feac 1dbe 11b9 b6be b048 09be
00000090: ae32 38bd 5d4c b23e 3247 843e 9fec 2a3d
000000a0: d08f 59be fe7c fe3d fc4e 3f3d b3bd 943d
000000b0: 172c 313e 88d0 6dbe bc81 63be 2cdd 9b3e
000000c0: 7839 4cbe 78c3 68bd eca7 d4bc 5d58 2e3e
000000d0: bfbe 133e 313a e4bd 5beb 623e ec16 4abd
000000e0: 71f4 5e3c 3340 943d 810a 92be 0977 6ebd
000000f0: a8ae 49bd 469f ad3d 8ee4 573e 6c04 863d
00000100: 5862 4f3e d8e4 2bbc 9aff ad3e c695 0abe
00000110: 1f72 7c3e 6a99 fcbc 32fe bfbe c0d5 1e3d
00000120: a44d 923e ad8b 973e 0399 9fbc 903f 41bd
00000130: 2135 3c3d d919 08be 07e7 80be e8f6 e63d
00000140: 7a05 003f 6b2d ed3b 56c9 b0be 39d8 7c3e
00000150: 9cb3 ba3e b8f7 3ebd 51c3 9b3e 8ee4 0fbe
00000160: 9169 69bd 65aa f1bd 54d9 e1be 3d67 bcbd
00000170: 43f7 833d 6e34 513e 0ada b3be b119 d83d
00000180: 934c 3bbe 56b0 9bbc 5af4 a63e a4ee 0f3e
00000190: 3cc4 d5be bbd3 10be e569 60be c2eb 06bf
000001a0: a88d b3bd 1d98 863d 7910 c2be 39bf 3fbe
000001b0: 6922 a1bc e9b2 20be 7859 323f 8ca7 7f3e
000001c0: 03f0 83be b8f7 5f3e 00fb 68bf a554 0d3e
000001d0: f13e 95be 4fa0 7b3d 099d ab3e 17d3 c4bd
000001e0: 9158 66be 419e 993d 7502 12be 467e 743e
000001f0: 04fa 7cbe d6c4 483d 7f6b 18be 2945 4c3e
00000200: 7df0 bf3c d247 cfbd 7035 683e 696e 67bd
00000210: a116 e4bd 5e46 14be 91b8 78be 36ce 053e
00000220: 764a 28be 8d0e 2bbe 8271 1bbe 8bb1 0dbc
00000230: 0768 0d3e 0efd b13e 6938 973e 5ebd 663e
00000240: ab4b 4ebd 7818 cfbd 4cd9 3f3e 8890 803e
00000250: 84c9 213e b2cf 47be e1e2 7abe 2e14 d53e
00000260: e4b4 323d 5c7e 953e 1b5b 943d f011 6a3e
00000270: 3a7c ee3d 6c22 7abe 18e4 8cbe dbdd 26be
00000280: 707b d93e e73b 0b3e fa77 94be dcb4 e33d
00000290: 8a86 e33d 234b cebc dc59 813e 2cf7 07be
000002a0: e396 c0bb a371 a8bd 4a45 09bf 695e 88be
000002b0: 1592 ad3e d109 8ebd 3189 61be 0ae1 60be
000002c0: 1ac9 d5bd 2293 203e 13aa 643e 0096 6c3e
000002d0: 5350 b1be c1c1 d93d 8d1e 79be d901 27bf
000002e0: ac85 53be 222e c3bd f87e 21bf 086b ddbe
000002f0: 52e1 dfbe 1280 023d 3fcd 1f3e 6c34 af3e
00000300: 2c80 ba3c 1d78 b8bd 1f61 48bf d210 003e
00000310: 6efd 38be 2871 ce3e 1411 8ebd 7898 95be
00000320: d2e1 98be f3f7 ffbd 2710 233e 980f d83d
00000330: d6f9 92bc a76f ac3d 8940 9cbe b244 d9bd
00000340: 5211 8abe 0d4c f83c 85b7 a23e f084 5cbd
00000350: 73c2 013d 8d13 75bc 8841 e3bc b44a 61bd
00000360: b84a 8c3e fcc9 b93c a9e0 573e e705 f5bd
00000370: 8854 1dbe 3b55 c8ba 7d6f 96be 82e5 ac3e
00000380: 05d8 863e 6100 923e 0588 3cbe 13a0 b03d
00000390: 3123 c73e f001 20bc 265e a3bc a48e 06be
000003a0: 673e a93c 167c 903e f34f d03e c559 683b
000003b0: 4987 29be 3162 9abe 28cb bdbe be46 0a3e
000003c0: 1503 f83e e697 0abe 9e6f 96bd 0eb3 813d
000003d0: 5f2a 79bd 0411 283e f3df ac3e ccc5 babe
000003e0: 14a8 a73e 7d1f 44be 5a04 6bbe 99f5 f83d
000003f0: dd27 b53c ae6b 603e 6d1d 77be 0dd1 383e
0.34205157 -0.0790028 -0.25112578 0.00821696 -0.033351287 -0.03963008 0.26336765 -0.27131513
-0.014828375 0.24553443 -0.31521925 -0.057556234 0.023050906 0.2329166 -0.15223902 0.14358614
-0.14261216 0.28260797 0.06823783 0.13322031 -0.061491545 0.14010052 -0.05912287 -0.15364185
-0.1499419 -0.19655174 -0.18526876 -0.40101683 -0.1313584 -0.2337499 0.43056262 0.3192633
-0.010492512 -0.15398023 -0.3568807 -0.13406634 -0.044970207 0.34823886 0.25835568 0.041729566
-0.21246266 0.12426184 0.046706185 0.07262745 0.17301975 -0.2322408 -0.22217458 0.30442178
-0.19943798 -0.05682704 -0.025958978 0.17025895 0.14428233 -0.11143912 0.22160093 -0.049338266
0.013608084 0.072388075 -0.2852364 -0.05821899 -0.04923883 0.084776446 0.2108328 0.06543812
0.20252359 -0.010491572 0.3398407 -0.13533697 0.24652909 -0.030834872 -0.37498623 0.038778067
0.2857486 0.29598752 -0.019482141 -0.04717976 0.045949105 -0.1329111 -0.2517626 0.112775624
0.50008357 0.0072380803 -0.34528607 0.24691857 0.36465156 -0.04662296 0.30422452 -0.1405203
-0.05698544 -0.11800078 -0.4411112 -0.09199379 0.06443646 0.20430157 -0.35127288 0.10551775
-0.1829093 -0.019004982 0.326083 0.14055878 -0.41751277 -0.14143269 -0.21915396 -0.5270349
-0.08767253 0.06571982 -0.37903193 -0.1872529 -0.019669728 -0.15693249 0.6966777 0.24966258
-0.25769052 0.21871841 -0.91007996 0.1380182 -0.29149583 0.06143218 0.33518246 -0.09610575
-0.22494723 0.07500888 -0.1425875 0.23876294 -0.24704748 0.049015842 -0.14884757 0.19948258
0.023430103 -0.101211205 0.22676635 -0.05650178 -0.111371286 -0.14479968 -0.24289156 0.13066944
-0.16434655 -0.1670477 -0.15180019 -0.008648287 0.13809215 0.34763378 0.29535225 0.22533175
-0.05036513 -0.10112089 0.18735236 0.2511027 0.15799528 -0.19512823 -0.2450061 0.41616958
0.043629542 0.29197967 0.072439395 0.22858405 0.11644788 -0.24427193 -0.27517772 -0.16295569
0.42476988 0.1359707 -0.28997785 0.111184806 0.11109646 -0.025182312 0.2526387 -0.13277882
-0.005877362 -0.082247995 -0.5362135 -0.2663453 0.33900514 -0.06935466 -0.2202499 -0.21960846
-0.10438748 0.15681127 0.22330503 0.23104095 -0.34631595 0.10632659 -0.2432806 -0.65237194
-0.2065646 -0.095302835 -0.63084364 -0.4324572 -0.43726593 0.03186042 0.15605639 0.34219682
0.022766195 -0.09007285 -0.78273195 0.12506416 -0.18065426 0.40320706 -0.06936851 -0.29217887
-0.29859787 -0.124984644 0.1592413 0.10549849 -0.017941397 0.084197335 -0.30517986 -0.10608806
-0.2696634 0.030309701 0.3178064 -0.053837717 0.03167958 -0.014958275 -0.027741209 -0.055002883
0.27400756 0.022679321 0.21081795 -0.119640164 -0.15364277 -0.001528419 -0.29381934 0.3376885
0.26336685 0.28515914 -0.18411262 0.08624282 0.38894036 -0.009766087 -0.019942354 -0.1314035
0.020659639 0.2821967 0.40685996 0.0035453897 -0.16555513 -0.3015304 -0.37069058 0.13503549
0.4843985 -0.13534507 -0.07345508 0.0633298 -0.060831424 0.16412741 0.3376461 -0.36479032
0.3274542 -0.19152637 -0.22950879 0.12156219 0.022113735 0.21916077 -0.24132319 0.18048497

linears.2.bias f4 [40]
00000000: 1296 2dbd bfbe 663c 1b8f fcbd 205b 5dbc
00000010: 61a1 bfbd cc02 da3c 5434 18bd fc24 013e
00000020: 6a5c 8cbc 6a42 d83b 8bb2 b13c 995c 80bd
00000030: 0a78 1dbd 850e 80bd b9f1 963c e83b c03d
00000040: bf69 71ba 4278 84ba 7939 3ebd 7410 d3bd
00000050: 79cd bf3c f7dd a3bd f009 b73d 8d2c 303d
00000060: d896 09be 0e61 4e3e 5d40 053e c5ab dc3c
00000070: 2519 7dbd 15e1 83bd 404a 1cbd 6e85 383c
00000080: 9136 d0bd 9561 85bc 5fe8 403d 7616 62bb
00000090: 479d 173d 719b 39bd 1e6c 7a3c efa8 2abd
-0.042379446 0.014083563 -0.12331983 -0.013510495 -0.093569525 0.026612662 -0.03715928 0.12611765
-0.01713391 0.006599714 0.021691581 -0.062676616 -0.038444556 -0.062527694 0.01842581 0.09386426
-0.0009209178 -0.001010664 -0.04644153 -0.103058726 0.023413407 -0.08001321 0.08937442 0.043011237
-0.13436449 0.20154211 0.13012834 0.026937375 -0.061791558 -0.06439415 -0.038156748 0.011262281
-0.10166658 -0.016281882 0.047096606 -0.003449825 0.037015226 -0.045314256 0.015284566 -0.041665014

linears.3.weight f4 [40, 40]
00000000: 1aec a13e 5f20 d33e 4d77 71be 3ab5 6e3e
00000010: b4e7 69be a4ec 8fbe a234 42bd 42e8 74bd
00000020: c249 00be e5cd d1be 7604 e4bd 6cff 533e
00000030: d41b 0a3d 9763 56bd 29c2 9cbe 920a 27bd
00000040: f40d 8e3e 51db 67bd bd28 42be fc8f e73e
00000050: 62e9 e7bc 331f 22be d867 a4be 8a92 763e
00000060: ea5a d43e 8b57 c7bc 5002 803e 0a8f 863e
00000070: fca7 94bd eee3 9b3d 32e0 23be caf9 b2bd
00000080: ada1 8dbe af31 d5be 98d5 7bbd 368f ffbe
00000090: d1b7 4f3e eadb a53e df6f 2a3e 4ed0 183e
000000a0: 4a0f 6f3e 07cf 8f3e 5483 463e 4936 b93e
000000b0: 7b70 58be c9a2 1cbd 8ad4 38be 7db1 d4bd
000000c0: 91a2 c0be 341d babe a847 8ebe e538 bf3e
000000d0: 89e4 573e 96e6 08be 57cb a7bc b6c7 783e
000000e0: ea9b f23c 0c39 733e cbdd 403e b63d f63e
000000f0: 17a2 b7b8 4fb6 163d d88f 3fbe 66cc 3ebe
00000100: 9546 0b3f 1074 6a3d e1b9 0bbe 4a23 74be
00000110: dcde d23e ca84 973e e08c 203c 065f 823e
00000120: 4c01 dfbb 9219 23be 8c1f b13d cabd 5dbd
00000130: 60e1 ba3d 87a2 913e 1aed 183d 90c0 083e
00000140: c446 0c3e f508 de3d 0de1 173e 4b42 8f3d
00000150: 2e7d 373e 6480 083d 3052 6c3e 4cfa 68be
00000160: 8cfc 3a3e 7000 383d 7998 023e 7d0c 66bd
00000170: 72ad 443e cbc5 58be aef9 b63c 89fc 9abc
00000180: 2049 5a3e f6ae 2bbe a4ac d13c 2310 1a3e
00000190: c252 8e3d ca54 1cbe 3b19 4dbe 4470 453d
000001a0: e4ae 1bbe 7af5 08be ef38 db3d cc34 6f3b
000001b0: f3d4 1f3e ff7d 243e 3596 8bbc 824c aabd
000001c0: b6a7 a13e e43c 933e 7209 55be 4bd1 133e
000001d0: fbd7 813e 5a3b 633e 66b6 96bc 3cad 853e
000001e0: 4e9d 083f c5c3 94be 426a b93e b43f d83d
000001f0: cfcb f83d 2f3d c6be 1231 313e ffad b43e
00000200: aa7d 6a3d 469e 0dbd 504e 14bd 5ec3 0f3e
00000210: 761d af3e c5a4 ddbd 25ee b7be 88cc 89bd
00000220: 1eee adbd 4a2a 973e 5d62 3f3e a58f 6f3e
00000230: d2d0 fcbc 4bdd cf3e e28e b23d db96 a1be
00000240: 9746 373d 9925 03bf de4a 963e 0ff1 c83d
00000250: 504b e53e c494 f13d 6235 963e 6c81 ecbc
00000260: 7670 963e 501b a93c 80f0 a93e 8f27 8f3e
00000270: e73a d1bc 1799 463e aad3 443e d57f dc3e
00000280: 7882 a13d 3e85 ba3c 44ea ff3c 82ae 4dbe
00000290: 1559 523e a8d2 0b3e 325c 8f3d 07a5 cbbd
000002a0: c3f8 4bbe dd22 e3bd 3331 4bbe 92f1 1bbe
000002b0: 7369 c53d e444 e83d 6ab5 933d ecb1 343d
000002c0: 3f96 103c 88b6 d3bd c631 e7bd 0b06 863e
000002d0: 9e08 8dbe 3a43 aa3d 9041 bc3d e575 8abd
000002e0: be68 1a3d b32b 663e 6edf 1abd 2ee3 563e
000002f0: 80e3 65be 432b b3bd b95c a5bd e923 e93d
00000300: 3a2c 993d c98d e7bd 411f f83d 1f70 8b3e
00000310: de25 24be 5d65 cbbd 3cf5 513d c4a0 66be
00000320: 3190 96bd a9dd 263e 22c6 a83c 1e64 073f
00000330: 53cc c0bd e1b8 323e 74b7 d5be 93fb 453e
00000340: 98dc a63e 78f1 74be 1659 20bc 24d3 c0bc
00000350: 2b32 4cbe 5422 553d 55eb afbe dce0 593e
00000360: 6147 463e 7c0c d73c 3b42 c6be 8c61 43be
00000370: 19ad 71be 69ff 733e a310 043e 1878 133e
00000380: a541 5abe ca62 b13c f690 c53e a304 243d
00000390: 36c8 9fbd a959 8bbe 9cd9 a2be ae8b 373e
000003a0: 2b2e 26bf 9923 a2bd a30c bd3e a4b4 ddbd
000003b0: 27b9 813e 1f0b 53bc 21c4 dd3e 15b1 5fbe
000003c0: 7536 343d 2e61 bfbe f7d3 b23e e24e 1bbe
000003d0: 0813 ac3e 2879 8d3e 3a49 403b ba86 e33d
000003e0: 3e64 d63e 8772 ad3e 23a3 133d b99e 65be
000003f0: fdcc b4bd 66bc 9fbe 110f 403e 32d8 6cbd
0.31625444 0.41235635 -0.23580666 0.2331132 -0.22842294 -0.2811023 -0.047413476 -0.05979181
-0.12528136 -0.40977398 -0.11133663 0.20702904 0.033717945 -0.05234107 -0.30616882 -0.040781565
0.2774502 -0.05660564 -0.18960853 0.4522704 -0.028309528 -0.15832214 -0.32110476 0.24079338
0.41475612 -0.024333736 0.25001764 0.26281005 -0.07258603 0.076118335 -0.16003492 -0.0873905
-0.2766241 -0.41639468 -0.061482996 -0.4991395 0.20284964 0.32394344 0.16644238 0.14923212
0.23345676 0.28087637 0.19386035 0.3617423 -0.21136658 -0.03824118 -0.18049827 -0.10385416
-0.37624028 -0.36350405 -0.27789044 0.37348095 0.21083273 -0.13369212 -0.020482702 0.24294934
0.029615361 0.2375223 0.18834607 0.48093957 -8.7563116e-05 0.036794957 -0.18707216 -0.1863266
0.54404575 0.057239592 -0.13645126 -0.23841587 0.41185653 0.29593498 0.009799212 0.25463122
-0.0068055745 -0.15927723 0.08648595 -0.054136075 0.09125018 0.2844431 0.037335493 0.13354707
0.1369887 0.10841552 0.14831944 0.06995066 0.17918846 0.033325568 0.23078227 -0.2275173
0.18260401 0.044922292 0.12753476 -0.056164254 0.19206789 -0.21169202 0.022335853 -0.018919246
0.21316957 -0.16765961 0.025595017 0.15045218 0.069493786 -0.1526672 -0.20029156 0.048202768
-0.15203434 -0.13374892 0.107042186 0.0036499975 0.15608577 0.16063689 -0.017039398 -0.08315374
0.31573266 0.28757393 -0.20804384 0.14435308 0.25360093 0.2219061 -0.018397521 0.2610873
0.5336503 -0.2905561 0.3621388 0.105590254 0.121482484 -0.38718554 0.17303875 0.35288998
0.05724875 -0.03457477 -0.036207497 0.1403937 0.34202164 -0.10822443 -0.35923877 -0.06728464
-0.08492683 0.29524451 0.18689866 0.2339464 -0.030861292 0.4059852 0.08718659 -0.31560406
0.044745054 -0.51229244 0.29353994 0.09811603 0.4478402 0.11795953 0.29337603 -0.028870307
0.29382676 0.020642906 0.331913 0.27959868 -0.025540782 0.19394337 0.19221368 0.43066278
0.07886213 0.022768613 0.031239636 -0.200861 0.20541795 0.13654578 0.07000007 -0.09943586
-0.19919114 -0.11090634 -0.19842987 -0.1522887 0.096392535 0.11341265 0.07212336 0.044114992
0.008824884 -0.103375494 -0.112887904 0.26176485 -0.27545637 0.08313604 0.091921926 -0.06760768
0.037697546 0.22477607 -0.037810735 0.209851 -0.22450066 -0.08748486 -0.08074326 0.113838024
0.07479139 -0.1130634 0.12115336 0.2723398 -0.1603007 -0.09931443 0.051259264 -0.22522265
-0.07351721 0.16295494 0.02060229 0.5288714 -0.09413972 0.17453338 -0.41741526 0.19334249
0.32590175 -0.23920238 -0.009786865 -0.02353818 -0.19941013 0.05203469 -0.34359232 0.21277183
0.19363166 0.02625107 -0.38722405 -0.1908018 -0.23601188 0.238279 0.12896971 0.14401281
-0.21314104 0.021653552 0.3858716 0.040043484 -0.07801859 -0.27216843 -0.31806648 0.17924377
-0.64914197 -0.07916946 0.36923704 -0.1082547 0.25336573 -0.012881069 0.43313697 -0.21844895
0.043997247 -0.3737883 0.3492734 -0.1516681 0.3360827 0.27631497 0.0029340521 0.111096814
0.41873354 0.3387644 0.03604425 -0.22423829 -0.08828161 -0.31198424 0.18755747 -0.057823367

linears.3.bias f4 [40]
00000000: 28bd 35bd d8ff f7bc 3b32 5ebb 0a78 bdbc
00000010: 87c9 123d e0ce f73c 2607 a53d 0473 b5bd
00000020: 96da 87bd e4f2 1abc d1b4 253d 9e55 87bd
00000030: 3a77 c63c 21d7 24bd 5859 2ebd a0b7 84bc
00000040: 229b 0e3c de15 6b3c 38db 923c d2b3 e23c
00000050: 7ff0 4dbc fd12 80bc 57cd d3bc 4c65 2ebd
00000060: 6c00 0c3d 0dcd 183d 90be 0dbd 4503 6dbc
00000070: aa57 933c 8e80 693d 28fd 2fbd 44e2 9ebc
00000080: 461c 10bd b500 cc3b 5db5 7ebd c96f c4bc
00000090: f51a e53a 55ea 613d 3eff fc3c c282 d1bc
-0.044369847 -0.030273363 -0.0033904451 -0.023128528 0.035836723 0.030250013 0.08058004 -0.08859828
-0.06633489 -0.009457324 0.040455643 -0.06608127 0.024226774 -0.040244225 -0.042565674 -0.01620084
0.008703979 0.014348475 0.017926797 0.027673636 -0.012569546 -0.015634054 -0.02585475 -0.042577073
0.03418009 0.037304927 -0.034605563 -0.014466112 0.017986137 0.057007365 -0.042966038 -0.019395001
-0.035183214 0.00622567 -0.06218468 -0.023979085 0.0017479347 0.055155117 0.030883428 -0.025575045

linears.4.weight f4 [40, 40]
00000000: 437b b93c 5c75 403b 4bb5 18be fad9 9e3e
00000010: 25d8 95bd c506 88be d1b5 8f3e b636 5b3d
00000020: ed8c a5be 8fdc 8f3e 9a21 98be 80a1 473e
00000030: e547 2c3d 18a0 8d3d 6ce0 a0bd b30f 963e
00000040: 3169 9bbd dab3 60be 8cea a6bd 03c5 7c3b
00000050: fd63 a03d 3262 2abe eff4 483e 21ca 1ebe
00000060: 7619 a1bd 9fe6 153e fd51 a0bd 9e3e a53e
00000070: 7559 463d c0b7 b3bc 8e29 8bbc 0794 9fbd
00000080: f1f2 173d 7e91 8e3d 3b21 dabd 181f 1ebe
00000090: 8733 7abe 4b61 a0bd 8e7f 9f3e aab6 21bc
000000a0: 2087 5e3d 11f4 963e 830b 383e faa8 d63e
000000b0: 1801 893d baf7 b2bd e8e8 2dbe 2175 c33e
000000c0: fd78 35bd d46d 553e 4c4f 5bbe 6ec0 87be
000000d0: 986e 68be 5765 a13d 2940 aa3e 31bb 883e
000000e0: d0f2 0ebd c3b2 e1bd 30ae 49bd 8962 dc3d
000000f0: 7562 063e 8964 83be 7bc7 98be 1054 b03e
00000100: 7384 7bbe 3313 cf3d 0e38 84be d07c db3d
00000110: 00e8 91be 4773 17be f2ae 643e 0596 bd3c
00000120: 134c 2ebe 1ef1 7d3e a29c 893d a15f e8bd
00000130: 0f72 c0be 853a a2be 7d13 75be 7f43 0c3e
00000140: 6f5e 633e 24a2 a93d ad67 78be d302 853d
00000150: 683f c83d 5fd6 0abe d348 ab39 a72c 2bbe
00000160: 53a1 8a3e 33aa 0ebe b4be 793e 23fa a53b
00000170: 4212 9a3d 5dec 213e 6950 313e 6f94 12be
00000180: b326 78be fc13 b9bd 0504 983e e978 ed3d
00000190: 6914 b9bd 17e7 81be 10f8 55be 5436 2b3e
000001a0: aa6e fcbd 87b1 58be 8bce 3d3e a129 d1be
000001b0: be44 b13e 2515 05be c5e3 e3bd a44a e6bd
000001c0: dcde 2e3e 2fbf f4bd 514f 8abb 5c04 c4bd
000001d0: f378 2c3e ed0b 053e 734b a0be d3d0 32bd
000001e0: 0a9d 41be 83a5 44be 1641 943c a79b 27be
000001f0: f494 383e 1b9c 32be 3a51 273e 85b7 3d3d
00000200: 7c8b 1c3d 40ec 1bbe 812f 7cbd 4500 603e
00000210: ddc3 e23d abcc 1b3b 9a8e 733e 6021 b43d
00000220: dcfe cebb a14a 8fbd 86d0 babc c949 ff3d
00000230: 23ba 653d 7f23 3dbe c111 2ebe 1b99 22be
00000240: cb95 33be 7ac9 4e3e 9819 543e 11f4 e3bd
00000250: 1f0b 803e 3106 cbbd 1af0 c33d 50fb 5ebe
00000260: f6f1 bbbd 5f6a 07bd 61fc 78be f9e2 423e
00000270: 097e 3fbe 2631 053e 5174 f9bd 054f 623e
00000280: 9445 ca3d e9f0 993e 5e63 15be b022 3b3e
00000290: 2d37 31bd 3e5e 583e 3e9b f4bd 7745 4abe
000002a0: fe63 89bd 1105 19be 9cb1 10be 5383 54be
000002b0: e48e 513e 0456 bebd d9b0 c7bd c04d 4fbe
000002c0: 02ba 8abd c3dc 39be a2be 75be 6d1f 0b3d
000002d0: fb56 563d e52e d63d 4a06 27bd 8304 67be
000002e0: d259 0e3d 0803 5fbd b381 303e 05c4 e03d
000002f0: afcc a43e 5891 023e bfa0 86be 750e d0bd
00000300: cad4 ed3d 5e8d 923c 944d b8bd 0ceb 24be
00000310: 09f0 e8bd 0ee5 60be 93df 713d 72b1 bf3d
00000320: f652 adbe cc12 333e 1b8b 29bd c358 e9bd
00000330: 6e39 b5bc 6f0a d23e 55a7 4ebd 3985 67bd
00000340: e8ca 4dbe ee1b e0bd 9ad1 ee3d e550 b83e
00000350: b080 bfbe 86a2 b63e 8e49 b73b 008e 1ebe
00000360: e140 01be 548d 2ebd 47f2 83bd 8c92 4bbc
00000370: 703e 113d 7733 0c3e 3a7e 24be c271 32bd
00000380: f6ba 38be 530e 933d f914 9bbe 3698 a33e
00000390: 091f 57be eaa2 a9be fbed d83c bc80 973c
000003a0: f9b6 fdbd b09c bc3e 8bd2 36be 594e 8d3e
000003b0: 833c a13e fc4b 7d3e d947 ee3d 5532 183f
000003c0: 5860 1bbe 8143 1cbe f694 503e a4f1 78be
000003d0: 4648 d33d cab7 48bd 7cba d2bd ae3c edbd
000003e0: ffa6 84be cf5b 16be c28c 0abe 22db 3f3d
000003f0: d839 35be 06f9 263e bf27 79be dc03 73be
0.022641784 0.0029366827 -0.14912908 0.31025678 -0.07316617 -0.26567665 0.28068402 0.053518973
-0.3233408 0.2809796 -0.29713136 0.19495201 0.04206075 0.06915301 -0.07855305 0.29308853
-0.07588423 -0.21943608 -0.08150205 0.0038569577 0.07831571 -0.16639021 0.19624685 -0.15506794
-0.078661844 0.14638756 -0.07828138 0.32274336 0.048425157 -0.021938205 -0.016987588 -0.07791906
0.03709692 0.06961344 -0.106508695 -0.15441549 -0.24433719 -0.07831057 0.31152004 -0.009870211
0.054328084 0.29483083 0.17973141 0.41925794 0.06689662 -0.08738656 -0.16983378 0.381753
-0.044304837 0.20842677 -0.21416968 -0.26514 -0.22698438 0.07880657 0.33252075 0.26705316
-0.034899533 -0.11020424 -0.049238384 0.107609816 0.13123496 -0.2566264 -0.29839692 0.34439135
-0.24562244 0.10111084 -0.25824016 0.107171655 -0.28497314 -0.14790069 0.22332361 0.023142824
-0.17021208 0.2479901 0.067193285 -0.11346365 -0.3758702 -0.31685272 -0.23933215 0.13697623
0.22203992 0.08282879 -0.24258299 0.06494679 0.09777719 -0.13558339 0.0003266992 -0.16716252
0.27076206 -0.13932113 0.24389154 0.005065219 0.07523014 0.15812822 0.1731583 -0.14314435
-0.24233513 -0.09037015 0.29690567 0.115953274 -0.09037096 -0.2537162 -0.2089541 0.16719943
-0.12325795 -0.21161471 0.18535821 -0.40852073 0.3462276 -0.12996347 -0.11127428 -0.11244705
0.17077202 -0.11950528 -0.004220881 -0.09571144 0.16843013 0.1299283 -0.31307563 -0.04365618
-0.18907562 -0.19203763 0.018097442 -0.1636797 0.18025571 -0.17442362 0.16339579 0.046317596
0.03821896 -0.15226841 -0.06156874 0.21875103 0.11072514 0.0023773115 0.23784867 0.08795428
-0.0063170027 -0.06996656 -0.02280451 0.12465245 0.056085717 -0.18470572 -0.1699896 -0.15878718
-0.1753761 0.20194045 0.20712888 -0.11130536 0.25008485 -0.0991329 0.0956728 -0.21775556
-0.0917701 -0.033060428 -0.24315025 0.19031896 -0.18700422 0.1300703 -0.12180389 0.22100456
0.09876552 0.30066612 -0.14588687 0.18274951 -0.04326551 0.211297 -0.119436726 -0.19753061
-0.06708525 -0.14943339 -0.14130253 -0.20753221 0.20464665 -0.0929375 -0.09750528 -0.20244503
-0.067737594 -0.1815062 -0.23998502 0.033965517 0.052329045 0.10458163 -0.040777482 -0.22560315
0.034753628 -0.05444625 0.17236976 0.10974888 0.3218741 0.12750757 -0.26294515 -0.101590075
0.11612852 0.017889675 -0.08999172 -0.16105288 -0.11373908 -0.21962377 0.059051108 0.09360017
-0.33852357 0.17487639 -0.041392427 -0.11393883 -0.022122111 0.41023585 -0.05045255 -0.056523535
-0.20096934 -0.10942827 0.11661072 0.35999218 -0.37402868 0.3567087 0.005593485 -0.15483856
-0.12622406 -0.04261525 -0.06442695 -0.012425076 0.035459936 0.13691507 -0.16063777 -0.04356552
-0.1804007 0.071804665 -0.30289438 0.31952065 -0.21007933 -0.33132106 0.026480665 0.018494003
-0.12388415 0.36838293 -0.17853753 0.27598837 0.3149148 0.24736017 0.116347976 0.594518
-0.15173471 -0.15260126 0.20369324 -0.24310929 0.103165194 -0.0490034 -0.10289475 -0.11583839
-0.25908658 -0.1468346 -0.13530257 0.04683984 -0.17697847 0.16305932 -0.24331568 -0.23731941

linears.4.bias f4 [40]
00000000: 5d73 c93c cb28 babc fcea 6e3d cd49 a8bb
00000010: 3566 bc3b 8092 263d 2d74 8b3c bd3d a7bb
00000020: 91cf 353c 5267 fd3c 71c4 be3d 8de5 53bb
00000030: 88d3 393d be2f 8b3d c2f1 b4bb 8e10 583d
00000040: 703f ed3d 56a5 8c3a f58b 09bd 360d b0ba
00000050: b37d edbc 5da3 c93c 7787 5c3c 16bb 913d
00000060: e81d 423b 8130 7dbc e82c 003d 816e 0e3d
00000070: 5147 5cbd 702c f4bc ab28 8bbc e93b fbbc
00000080: 2aab b4bc 8fd8 11bd 8c64 533d 0768 fc3c
00000090: 7a95 d7bb 4a11 aabc 0272 d63c 87f5 86bc
0.024591142 -0.02272453 0.058329567 -0.005135751 0.0057494887 0.040667057 0.01702317 -0.0051037953
0.011096851 0.030933056 0.09314812 -0.0032332868 0.045367748 0.067962155 -0.005521984 0.052750163
0.11584365 0.0010730426 -0.03358074 -0.0013431672 -0.028990602 0.02461403 0.013460032 0.07115762
0.0029619876 -0.015453459 0.031292826 0.034773353 -0.05377895 -0.029806346 -0.016987165 -0.030668216
-0.022054274 -0.035606917 0.05160956 0.030811323 -0.0065790983 -0.020760197 0.02617741 -0.016474498

linears.5.weight f4 [3, 40]
00000000: dd09 703e b705 e4bd 4838 ae3e b1b5 82be
00000010: 5c10 ae3e aee1 55bd e22f 373d 124a 0cbd
00000020: dde2 d0bd ae1e c43e aab8 853e ce5f 9b3d
00000030: 1092 b93e 45a3 a83e e6c6 a93e 9692 e23e
00000040: de4a 8b3e a939 27bc 0eb8 96be cec8 08bd
00000050: 8763 ca3d 09c6 3cbe f3f5 9cbc 22a3 b23e
00000060: ad33 14bc 0f89 c7be 99c8 463d 8b35 b93e
00000070: e949 b43e f91c 7cbe 6556 c03e 2307 bbbd
00000080: 9a16 44be 553d 95be a1b0 593e 232d a93e
00000090: c70e 2fbe 6175 a53e 6621 14be 6343 903e
000000a0: f16b a63d e683 cb3c e6d9 35bc 7774 4dbe
000000b0: f397 76be 1a65 90be 09d4 8abe 9a9e b63e
000000c0: c8ad 5f3d 2080 043e d6fd 26bc a1cb 25be
000000d0: 7998 0d3e 732d 0cbd c73c 76be a555 2d3e
000000e0: e326 69bd 641f 15be 55ce 943e 790a a4be
000000f0: 5fad 543e fb60 8dbe 9e06 3fbe c995 ebbd
00000100: a9dc 363e 8c4f 3abe 7679 90bd 0d92 8e3e
00000110: ca07 44be dd11 83be ed1c abbd 35b7 00be
00000120: cede 953e 8adf 94be 540a 96bd dbdb 41bb
00000130: cd71 cfbd 5aab 1e3e 1607 7abd 0850 763e
00000140: 4662 bd3d 629d 27be 5709 5ebe 83a8 2ebe
00000150: 248a 923e 122a b0bd 86f5 b8bd 5317 403e
00000160: 934d 65bb 2de2 c23d 87ab 88be 265d fbbd
00000170: a443 d9bd cb3d 1cbe ca0d 57be dcc2 3bbd
00000180: a0cc c73e 0a84 283e 8f18 a9be da22 41be
00000190: b7ab d9bd 058f 8cbe e1dc 70be 337f e1be
000001a0: 3a03 463e 408f 83be 809c 83be 56eb 11be
000001b0: a288 b7bc 4048 823e 3bd8 f1bd 9bb8 433e
000001c0: 985d da3d aea9 403e 970e b13e 6d59 2a3e
000001d0: 0659 c83e 7eb2 25bb db17 27be 3cda eabd
0.23441263 -0.111339025 0.34027314 -0.25529245 0.33996856 -0.052217178 0.0447234 -0.034250326
-0.10199521 0.38304657 0.2611745 0.07586633 0.3624425 0.32937065 0.3315956 0.4425246
0.27205557 -0.010206618 -0.29437298 -0.033394627 0.098822646 -0.1843492 -0.019160246 0.34890085
-0.009045524 -0.38971755 0.04853115 0.36173663 0.3521264 -0.24620427 0.37565914 -0.091322206
-0.19149247 -0.29148355 0.21258785 0.3304225 -0.17095481 0.32316115 -0.14465865 0.28176412
0.08126057 0.024843168 -0.011099314 -0.20063959 -0.24081402 -0.28202134 -0.27114895 0.35667878
0.05460909 0.12939501 -0.010192355 -0.1619096 0.13827695 -0.03422303 -0.24046622 0.16927202
-0.05692185 -0.14562756 0.2906367 -0.3203924 0.20769261 -0.27613053 -0.18654868 -0.115031786
0.17857613 -0.18194407 -0.07054417 0.27845803 -0.19143596 -0.25599566 -0.083551265 -0.12569888
0.2927155 -0.29076797 -0.07326189 -0.0029580507 -0.10129128 0.15495053 -0.061041914 0.24053967
0.0924726 -0.1636863 -0.2168325 -0.1705647 0.28621018 -0.08601774 -0.09031205 0.18758897
-0.0034988865 0.09515796 -0.26693365 -0.12273626 -0.106086046 -0.15257947 -0.21001354 -0.04584013
0.39023304 0.16456619 -0.3302655 -0.18860951 -0.10628455 -0.27452865 -0.23521759 -0.44042358
0.19337168 -0.2569523 -0.25705338 -0.1424993 -0.022404019 0.25445747 -0.11808821 0.1911339
0.10662383 0.18814728 0.34581444 0.16635676 0.3913042 -0.0025283392 -0.16317694 -0.11467406

linears.5.bias f4 [3]
00000000: abc1 803d 2681 b9bb 0000 0000
0.06286939 -0.0056611476 0.0

exp_avg f4 [40, 2]
00000000: 8bc0 28ba c704 06ba ae10 e238 5bdf 5638
00000010: 596c 0e39 4b6a c737 0785 7639 7cd8 9538
00000020: cb67 4dba f27f 0aba ebbb 40ba bb9b 02ba
00000030: 93d4 273a 3c0e e139 c2d0 063a da5c c439
00000040: 6068 10b8 b04a 9738 a4ad 9bb9 8e94 5eb9
00000050: f11d d7b9 c5a7 e2b9 3256 52b8 c3ed 8b37
00000060: 3459 c639 db6d e339 4117 55b9 79f1 59b9
00000070: e29a 8239 7113 d338 d659 b039 e6be b439
00000080: 6848 173a 275d b039 04b8 ecb9 29b8 99b9
00000090: b27f 4a39 44c5 f938 38b0 1cb9 0ac9 1fb9
000000a0: e67c 543a 8d19 3139 4792 073a b1e9 8739
000000b0: 543a 3239 738a 0db8 af5b 113a 767b d239
000000c0: 8853 253a f59a 063a 4f74 2e3a da97 c139
000000d0: ab3a bc39 0860 b539 8473 8239 f945 3839
000000e0: d1ba 00b7 70c0 3e39 b331 2cb9 9280 f7b8
000000f0: e791 19b8 cc20 4b38 7aa8 96b9 a870 01b9
00000100: 67dd e1b9 5898 21b9 316a 2739 229a 2639
00000110: dd28 ecb9 ad22 01ba bb58 3eb9 95bd 9eb8
00000120: c4e3 63b7 39d9 fd38 2518 7d38 5f00 20b8
00000130: 6924 c8b8 ab89 e6b7 6f25 013a 7bb6 8938
-0.00064373825 -0.0005112406 0.000107796266 5.1229592e-05 0.00013582538 2.3772145e-05 0.00023509945 7.145197e-05
-0.0007835596 -0.00052833476 -0.0007352221 -0.0004982312 0.00064022205 0.0004292595 0.00051428017 0.00037453213
-3.4429482e-05 7.214153e-05 -0.00029693276 -0.00021226911 -0.00041030304 -0.00043231077 -5.0148177e-05 1.6680808e-05
0.00037831964 0.00043378663 -0.00020321926 -0.00020784688 0.0002491093 0.00010064885 0.0003363627 0.00034474506
0.0005770982 0.0003363874 -0.0004515053 -0.00029319644 0.00019311791 0.00011909989 -0.00014942966 -0.00015238315
0.00081057695 0.00016889554 0.00051716383 0.0002592332 0.00016997132 -3.374596e-05 0.0005544973 0.00040146307
0.00063066976 0.0005134785 0.00066549046 0.00036924967 0.00035901865 0.0003459456 0.00024881598 0.00017573674
-7.672891e-06 0.000181915 -0.00016421713 -0.00011801826 -3.6613925e-05 4.8429516e-05 -0.00028735754 -0.00012344366
-0.00043080302 -0.00015410909 0.0001596592 0.00015888413 -0.00045043873 -0.00049261266 -0.00018152867 -7.5693395e-05
-1.3583285e-05 0.00012104441 6.0342387e-05 -3.814732e-05 -9.543525e-05 -2.7482243e-05 0.00049265375 6.566659e-05

exp_avg_sq f4 [40, 2]
00000000: 14eb 6f3b 9dd9 a33b e753 533b 5efa 8d3b
00000010: ef7e 4a3a dd91 8b3a d43c d13b f0d2 0e3c
00000020: 83b9 163c 6160 473c 4945 683c 09a6 a03c
00000030: 9971 bd3b 5b16 023c 7455 bc3b 0aed f33b
00000040: e835 133b 7887 423b dea1 673b fca3 973b
00000050: c6b7 083a d7d3 203a c60e 7139 2fb1 a639
00000060: a94a be3a 341e f93a 0441 c638 2a8c e838
00000070: 7454 203b dc3f 533b b423 8039 a40e a139
00000080: f68e 503c b5c9 8c3c 73fb bc3b 290e f03b
00000090: 4893 283a d0d4 613a 7e1c 2337 0a70 1e37
000000a0: 5ee1 993d a1bd d03d 02db 593c 3265 913c
000000b0: ffee 3f3b 3b92 863b 9e60 893b c358 af3b
000000c0: 17a7 9a3b 2441 c33b 6d65 233c 9050 5f3c
000000d0: 11bd 3b3b 0fde 7c3b 440b d43a ae8a 133b
000000e0: 5707 613b bb61 9f3b 1c2c 1639 1def 0e39
000000f0: 1f7c c43a 3390 0e3b 171e a93b 44af e83b
00000100: aaa4 0f3c 57f7 403c 4ea5 b438 9c2c bd38
00000110: 15a7 1f39 a5de 2339 b5a3 a03a 3bdf c53a
00000120: d9b1 a93b 4707 eb3b b74a 013b 0cc8 3e3b
00000130: 7384 c338 c937 ea38 9000 913c 68c2 c33c
0.0036608623 0.0050003068 0.0032246055 0.0043328246 0.0007724603 0.0010648329 0.006385425 0.008717284
0.009199503 0.012168975 0.014176675 0.019610422 0.005781364 0.0079399 0.0057474915 0.0074440287
0.002246255 0.0029682796 0.0035344283 0.0046277028 0.00052153727 0.0006135082 0.00022989055 0.00031794
0.00145181 0.0019006194 9.453486e-05 0.0001108873 0.00244644 0.0032234108 0.00024440663 0.0003071922
0.012729397 0.017186025 0.00576728 0.007325907 0.0006430638 0.00086147804 9.722191e-06 9.44362e-06
0.075136885 0.10192419 0.013296844 0.017748449 0.002928674 0.0041067875 0.004192426 0.0053511574
0.0047196257 0.005958693 0.009972912 0.013630047 0.0028646628 0.0038584506 0.0016177674 0.002251308
0.003433665 0.0048639453 0.00014321547 0.00013631252 0.0014990604 0.002175343 0.0051610577 0.0071009714
0.008767286 0.01177772 8.613859e-05 9.0205314e-05 0.00015225665 0.00015627833 0.001225582 0.0015096435
0.005178672 0.0071724984 0.0019728371 0.0029110936 9.322995e-05 0.0001116838 0.017700464 0.023896411

exp_avg f4 [40]
00000000: ea9e 0fba f782 ec38 728a 1f38 7e7b 0039
00000010: c40d 20ba 5d6c 18ba af3d fb39 98c8 e639
00000020: d216 0138 6679 7bb9 a4b8 ceb9 c3b3 b1b5
00000030: 4f44 d139 89de 34b9 3db0 0d39 c3a0 a139
00000040: fa3b d239 7807 c2b9 be03 1639 6780 26b9
00000050: 055f c739 fc43 b539 2984 a434 de77 f039
00000060: ca03 0f3a bdd7 de39 d586 bb39 0345 4739
00000070: 72ba 2139 2fd3 20b9 55f4 3b38 eff3 3ab9
00000080: 1b92 69b9 0a06 3339 bbff f3b9 6457 f7b8
00000090: 4815 6738 235c 91b7 e1c3 89b7 1b3c 2739
-0.0005478697 0.00011277751 3.803749e-05 0.00012253036 -0.0006105567 -0.0005814487 0.00047920409 0.00044018473
3.077725e-05 -0.0002398245 -0.0003942895 -1.3239845e-06 0.0003991448 -0.00017249039 0.00013512462 0.0003082809
0.00040099007 -0.00037008128 0.00014306509 -0.00015878827 0.00038027033 0.00034573663 3.064354e-07 0.00045865675
0.00054555817 0.00042503877 0.00035767877 0.00019003828 0.00015423613 -0.00015337461 4.4811826e-05 -0.00017829215
-0.0002227504 0.0001707302 -0.00046539106 -0.000117941556 5.509451e-05 -1.7328251e-05 -1.6422886e-05 0.00015948752

exp_avg_sq f4 [40]
00000000: c1b1 ad3b 2a63 983b 8153 983a 75a3 163c
00000010: 4ee2 513c 8f20 ac3c 52f8 083c e292 003c
00000020: 7a63 4f3b 613e a33b 7d46 363a 4c11 bf39
00000030: eed2 023b 1e01 f338 ad9c 623b 813b b439
00000040: ee16 963c 0f59 003c 4da5 683a b1a1 6a37
00000050: 4e35 df3d dcbe 9a3c 1c35 8e3b 17fd b83b
00000060: 9a7e cb3b 97c7 6a3c 96f7 863b a896 1b3b
00000070: 35a8 a93b d2d1 1639 6a9a 183b 5eb4 fb3b
00000080: 0392 4d3c f48d d438 48e7 1039 d49b cd3a
00000090: 6d7a f93b 195f 4a3b 4fc3 0139 e7c0 cf3c
0.005300731 0.004650493 0.0011621566 0.009194245 0.012810303 0.021011619 0.008359985 0.00784752
0.0031644986 0.0049818014 0.00069532526 0.00036443246 0.001996215 0.00011587351 0.003457825 0.0003437661
0.01832148 0.007833733 0.00088747294 1.3985134e-05 0.10898839 0.018889837 0.004339827 0.005645405
0.0062101604 0.0143298125 0.00411887 0.0023740921 0.0051775225 0.00014383279 0.0023285397 0.0076814136
0.012547019 0.000101353886 0.00013819069 0.0015686699 0.0076134712 0.0030879437 0.00012375157 0.025360538

exp_avg f4 [40, 40]
00000000: c3f0 4737 9472 81b8 b907 00b9 97fa 0b38
00000010: cb14 4337 d0a3 8937 9347 f6b7 0051 0fb6
00000020: eee3 e8b7 535e 65b8 e904 2c38 10bf 0c39
00000030: baec 82b8 bbc6 c036 1aa3 cc37 5e7c e7b7
00000040: c124 8337 73d5 26b8 b7e3 d538 3937 90b8
00000050: 540e 1ab7 2877 9337 a624 e138 790c 2fb6
00000060: b466 0db7 698f 56b6 2503 f2b5 71f1 0a38
00000070: 99d5 6ab8 62cb 15b8 6610 ceb8 70b0 bf38
00000080: d025 05b8 b145 67b8 083c 3838 34c8 95b8
00000090: cf53 35b8 de13 60b8 5cbf 10b9 6b9d d237
000000a0: aaa1 a2b5 8676 92b8 f24e f3b8 652a d537
000000b0: b6ba c6b5 210a 3537 9ca4 21b7 177f 1a37
000000c0: 9966 b7b7 92bd 36b8 8db8 4a37 f16d e338
000000d0: 1145 f4b7 90aa 98b6 920b ae37 9335 8eb6
000000e0: 57e4 b437 6997 09b8 373e 8a38 d762 50b8
000000f0: 2fa6 1eb7 cea0 9937 0102 aa38 759e e436
00000100: b512 b336 40a9 1a37 84db 0e37 3f91 0138
00000110: 2c94 11b8 8aeb e5b7 6b98 9fb8 5af9 8f38
00000120: c216 dbb7 8a23 0ab8 5ebc 8c37 8cc8 3eb8
00000130: 0001 c2b7 aa95 3fb8 e4cb cdb8 0c31 cd37
00000140: 874b 2eb7 95ab 99b7 7527 87b7 8f93 4cb5
00000150: 84ce 2eb7 795c 35b6 8efa 6537 1b8f 2e37
00000160: ea15 75b3 ca62 a1b4 b545 b2b7 d840 8536
00000170: c711 ad37 6ce4 ffb6 14e6 c335 7d88 8e37
00000180: f3f5 0b37 a2fa 9db5 ff5c 45b7 2d61 9536
00000190: f14d c2b5 dadb 8736 388a ddb5 01df 0e37
000001a0: b906 4437 ac9f 3d37 c193 1f37 19eb 8b36
000001b0: 2128 0d37 67a1 5e35 7ce6 9c34 01a2 76b6
000001c0: b0b5 7db5 6a38 1d37 e804 99b7 03c7 1e37
000001d0: 0693 2537 14b2 fbb5 a129 da36 1b14 8636
000001e0: 8435 ccb7 2638 dfb8 253e 0ab9 775f 5e37
000001f0: f32d c4b7 b0d2 8c36 41e3 c437 3255 ec37
00000200: e8fa 58b7 8036 f0b7 d4ee 4eb8 d019 c738
00000210: cf2c 1938 3b6e c3b7 5d56 8637 c08a 3a38
00000220: 7c13 fc37 1d02 bfb7 a1b2 a437 4745 ddb7
00000230: 358e 91b7 1aff 9937 6187 5b38 2e07 be37
00000240: 204f fa37 8d5b 0438 2030 d937 22d9 f937
00000250: 2f28 e3b5 00d7 8bb7 33dc 59b8 a150 5738
00000260: 319d 91b7 c48f a333 ef38 12b8 6b10 13b7
00000270: c73a 1e37 7602 2db8 fd03 82b8 0255 a037
00000280: 4f70 6337 e962 a7b8 4db9 1bb9 9a31 0e38
00000290: e80b 6b37 de5a af37 4927 0db8 c78d 7cb6
000002a0: 168a ebb7 53df 71b8 3949 3038 8775 1e39
000002b0: 7fd2 84b8 d65c 3336 a2e2 d137 c9ca d0b7
000002c0: f025 7937 d84f 2db8 758e de38 e2b7 9eb8
000002d0: 7c17 8bb7 7bd9 8b37 ffe1 ed38 69dd 87b6
000002e0: 3486 27b7 19ff 8bb6 70df 5bb6 9730 1538
000002f0: 70dd 6eb8 651a 20b8 72d9 dbb8 37ed df38
00000300: 8453 07b8 4279 70b8 260e 4338 41ee 9bb8
00000310: ac28 36b8 a438 86b8 c0da 1ab9 2391 bf37
00000320: bcc9 12b7 cbed 75b8 1b28 a8b8 1ae9 4237
00000330: 49cb 0cb7 376d a236 7893 b036 906d 4d37
00000340: 508d 30b7 c65e b9b7 1ce6 6fb7 2499 8638
00000350: 81ed a436 a67d 1fb7 4b14 3e37 e977 7837
00000360: 823b 8837 ae7b 8eb7 8d5f d737 0b79 c5b7
00000370: 95f8 1eb7 5588 3c37 5bf1 2a38 93ea 2137
00000380: 4acc 4637 3a7e 6337 72ef 3c37 a7c4 9f37
00000390: dea1 2cb7 c356 63b7 e4f8 24b8 a97a 2238
000003a0: fd50 5db7 d2b7 1eb7 4d1f fdb6 4446 86b7
000003b0: 8226 57b6 b78b e9b7 5e87 50b8 9487 5837
000003c0: 3bfd ac37 61e1 cbb8 2c72 50b9 90e7 6638
000003d0: 4b70 a637 064b e437 aa8b 50b8 999d 83b6
000003e0: 060c 40b8 47cb bcb8 3914 9b38 ec13 6139
000003f0: f722 e2b8 abad 1d37 c247 2838 4083 4eb8
1.1917381e-05 -6.172541e-05 -0.00012209908 3.3373562e-05 1.1627747e-05 1.6407954e-05 -2.9358815e-05 -2.1355809e-06
-2.7762693e-05 -5.46857e-05 4.101257e-05 0.00013422617 -6.242977e-05 5.745181e-06 2.4394645e-05 -2.7595259e-05
1.5633532e-05 -3.9776274e-05 0.00010199047 -6.876741e-05 -9.182451e-06 1.7579252e-05 0.00010735662 -2.6084292e-06
-8.428167e-06 -3.197196e-06 -1.803132e-06 3.3126624e-05 -5.5988876e-05 -3.5713783e-05 -9.8259e-05 9.140454e-05
-3.1744887e-05 -5.5139597e-05 4.3924927e-05 -7.1421644e-05 -4.3231816e-05 -5.3424264e-05 -0.00013804197 2.5107254e-05
-1.2116991e-06 -6.983899e-05 -0.00011601848 2.541132e-05 -1.480649e-06 1.0790799e-05 -9.634674e-06 9.208706e-06
-2.1863076e-05 -4.3568733e-05 1.2083107e-05 0.00010844682 -2.9119228e-05 -4.549809e-06 2.0747804e-05 -4.2381666e-06
2.1564001e-05 -3.2804357e-05 6.591941e-05 -4.9683116e-05 -9.4562265e-06 1.8313902e-05 8.106605e-05 6.8133763e-06
5.3367935e-06 9.218522e-06 8.5149695e-06 3.0891268e-05 -3.470869e-05 -2.7408609e-05 -7.610101e-05 6.865217e-05
-2.6117432e-05 -3.2934862e-05 1.6777016e-05 -4.5486304e-05 -2.3127068e-05 -4.5677334e-05 -9.813139e-05 2.4460744e-05
-1.0388793e-05 -1.831892e-05 -1.6111628e-05 -7.621065e-07 -1.0419291e-05 -2.7024928e-06 1.37078005e-05 1.04045275e-05
-5.706344e-08 -3.0060465e-07 -2.1251713e-05 3.9712577e-06 2.0631485e-05 -7.626184e-06 1.4595594e-06 1.6991276e-05
8.34231e-06 -1.1770355e-06 -1.1763767e-05 4.451859e-06 -1.447681e-06 4.0489076e-06 -1.650601e-06 8.515782e-06
1.1684076e-05 1.1302454e-05 9.51154e-06 4.169892e-06 8.413598e-06 8.2936316e-07 2.9224964e-07 -3.6751155e-06
-9.4514235e-07 9.371064e-06 -1.8241306e-05 9.46387e-06 9.868998e-06 -1.8752785e-06 6.5017525e-06 3.995852e-06
-2.4343615e-05 -0.00010643927 -0.00013183856 1.3254458e-05 -2.3386418e-05 4.1968524e-06 2.3470844e-05 2.8173064e-05
-1.2933022e-05 -2.8635608e-05 -4.9336653e-05 9.4938674e-05 3.6519774e-05 -2.3297142e-05 1.601426e-05 4.4475077e-05
3.0049814e-05 -2.2769958e-05 1.9633504e-05 -2.6377513e-05 -1.7351567e-05 1.8357812e-05 5.233975e-05 2.2653108e-05
2.9839168e-05 3.1556516e-05 2.5890826e-05 2.9784223e-05 -1.6924513e-06 -1.6670208e-05 -5.1941908e-05 5.1335086e-05
-1.7358545e-05 7.61643e-08 -3.4862136e-05 -8.765705e-06 9.431219e-06 -4.1248706e-05 -6.199626e-05 1.9113071e-05
1.3556403e-05 -7.981604e-05 -0.00014850982 3.3901633e-05 1.4009864e-05 2.0903939e-05 -3.3653607e-05 -3.7633451e-06
-2.8078484e-05 -5.7666864e-05 4.2029864e-05 0.00015111837 -6.3334584e-05 2.6727116e-06 2.5020276e-05 -2.4889961e-05
1.485039e-05 -4.1320774e-05 0.000106123196 -7.568278e-05 -1.6581027e-05 1.6671363e-05 0.00011343136 -4.049089e-06
-9.985222e-06 -4.17222e-06 -3.27636e-06 3.556962e-05 -5.694985e-05 -3.8171554e-05 -0.00010483236 0.00010677653
-3.2264288e-05 -5.733339e-05 4.65048e-05 -7.435354e-05 -4.343006e-05 -6.400168e-05 -0.00014768075 2.2836559e-05
-8.749248e-06 -5.8634014e-05 -8.0183345e-05 1.1617574e-05 -8.391981e-06 4.8406905e-06 5.2623764e-06 1.2244462e-05
-1.0523319e-05 -2.209785e-05 -1.4299087e-05 6.4181426e-05 4.91523e-06 -9.506393e-06 1.1329607e-05 1.4809871e-05
1.6240174e-05 -1.6985312e-05 2.5674492e-05 -2.3540595e-05 -9.475411e-06 1.12374155e-05 4.075594e-05 9.650964e-06
1.1849284e-05 1.3559644e-05 1.1261423e-05 1.904585e-05 -1.02896865e-05 -1.3550455e-05 -3.9332444e-05 3.8738046e-05
-1.3191483e-05 -9.460333e-06 -7.5436315e-06 -1.6006765e-05 -3.205991e-06 -2.7840824e-05 -4.9717135e-05 1.290617e-05
2.0621917e-05 -9.7217744e-05 -0.00019878958 5.5051933e-05 1.9841033e-05 2.7214654e-05 -4.9721137e-05 -3.922451e-06
-4.5787565e-05 -9.002402e-05 7.394743e-05 0.00021465094 -0.000107830325 9.398364e-06 4.012115e-05 -4.9236463e-05
