Lid_Driven_Re100/saved_models/VPA-10000.pt (torch, 95161 bytes, 36 tensors)

linears.0.weight f4 [40, 2]
000000 ac b0 3d 3e 30 ae 86 be ac f9 44 3e 4b 64 b2 be
       0.18524426 -0.2630477 0.19235867 -0.34842142
000010 d2 da b0 bd 63 0c f2 be 33 78 02 3e ae e3 07 3e
       -0.08635487 -0.47275075 0.12741165 0.13270447
000020 ab ef 32 3e 6f 65 91 be 43 e4 93 3d f3 93 d2 bd
       0.17474239 -0.283977 0.07221272 -0.10282125
000030 ab c8 8c be 40 fc a5 3e 1f e6 0d be f8 14 ad 3e
       -0.27496848 0.32419014 -0.13857315 0.3380506
000040 9d 71 81 bd 76 b7 f4 bd ce 1e 3a be be 23 66 be
       -0.06320498 -0.11949055 -0.18175814 -0.22474572
000050 8a b8 9d 3e 1d a7 8a be 90 86 bf 3e 09 21 8e 3e
       0.30804855 -0.27080622 0.3740735 0.2775958
000060 e1 2c a1 be 9c 3a 87 3d f2 c4 29 3d 8d 1f eb bd
       -0.31479552 0.06602976 0.041447587 -0.11480627
000070 e1 9b 86 3d d1 2c 26 3e 53 82 f0 be f3 18 68 3e
       0.065727 0.16228034 -0.4697443 0.22665767
000080 37 38 50 bd ff fc b9 3e 4d 96 f5 bd 3f 9f 59 be
       -0.05083486 0.36325833 -0.11991558 -0.21252154
000090 6a 9f 1c 3f 13 44 dd bc be c9 6c be 76 f2 0d bd
       0.61180747 -0.02701 -0.23123834 -0.034655057
0000a0 ec 7b f4 3c 9a 02 09 3e 9b 11 31 3c 19 3c 7d 3e
       0.029844247 0.13379899 0.01080742 0.24729957
0000b0 82 25 ce 3e 0c a0 a4 3e 0c 9e cf bd 19 c6 92 3e
       0.4026299 0.32153356 -0.10137567 0.28666762
0000c0 8a 96 41 be d9 e6 a4 3e 34 7b 32 be 40 74 a7 3e
       -0.18905082 0.32207373 -0.17429811 0.3270588
0000d0 df d2 21 be b9 42 9c 3e d4 40 96 3d 28 24 58 3e
       -0.15803097 0.30519655 0.07336584 0.21107543
0000e0 4c c5 92 be fd 03 fa bc c6 0b 1d be d5 62 f4 bd
       -0.2866615 -0.03051948 -0.15336522 -0.11932913
0000f0 61 2f b7 be c2 61 a2 be 0b 5b 90 3e c5 ae 24 be
       -0.35778335 -0.31715208 0.2819446 -0.16082294
000100 f7 d9 b1 bd b3 29 1c be 53 c7 7a be 0f 68 ab 3d
       -0.086841516 -0.15250282 -0.24490099 0.08369457
000110 f6 84 c4 3e d1 9b 89 be 0e 96 af be cb e5 8f bc
       0.3838269 -0.2687669 -0.3429417 -0.017565629
000120 ae 9c 8d be db 23 89 3d a0 44 e5 bd 4e 1f 5d bd
       -0.276586 0.06696292 -0.1119473 -0.053984933
000130 9c db 19 bf 5d 1f 33 be 5a b2 33 3d 9e fa a9 3e
       -0.6010072 -0.17492433 0.04387126 0.33199018

linears.0.bias f4 [40]
000000 96 45 60 3d a9 d3 b4 be e6 68 8c be 64 67 9d bd
       0.054753862 -0.35317734 -0.2742378 -0.07685736
000010 d4 de b3 3d 76 1a e0 3d 81 10 8f bd 55 73 cb bd
       0.087827355 0.10942547 -0.0698557 -0.09934107
000020 92 46 96 3d 63 56 a5 3d 90 1f 2c bd 02 ed dd 3d
       0.07337679 0.080731176 -0.042022288 0.10836221
000030 85 34 88 ba 3c 4b 47 bd 04 8f 33 bd a7 f6 8e 3e
       -0.0010391629 -0.048655733 -0.043837562 0.27922556
000040 19 f0 14 be f0 0d ca 3d 12 d2 82 3c c8 04 d3 bd
       -0.14544715 0.098659396 0.01596931 -0.10303646
000050 d6 27 54 be 20 0c 13 be 82 90 d5 bd f4 be d0 bd
       -0.20718321 -0.14360094 -0.10427953 -0.101926714
000060 45 09 a1 bd 47 5a 98 bd 90 f4 af bd bb be 84 bd
       -0.07863096 -0.07439094 -0.085915685 -0.064816914
000070 e0 e1 2d 3d 42 b8 7f 3c c3 05 ad 3d fe 6e a0 3e
       0.04245174 0.015607895 0.084483646 0.3133468
000080 06 f4 86 3d 9e 0e b5 3d e4 89 3b 3d 7c 2c 0b 3d
       0.065895125 0.08840679 0.0457858 0.03397797
000090 10 7d 32 3d 19 28 0b be 95 56 01 be bd 98 59 be
       0.0435763 -0.13589515 -0.12630685 -0.21249671

linears.1.weight f4 [40, 40]
000000 9f 31 80 be 5d c1 5f bd 6d 7a 1b 3e 29 b8 2a 3e
       -0.25037858 -0.054627765 0.1518342 0.16671814
000010 d4 16 01 bc f1 2a b5 be 27 d9 65 be be a2 a1 3e
       -0.007878978 -0.35384324 -0.22446118 0.31569475
000020 f7 ed e6 3d 01 51 8a be 01 81 38 be 84 03 f5 bd
       0.11275857 -0.27014926 -0.18017961 -0.11963561
000030 af 75 14 bd 39 35 63 3e e2 32 7d 3e d9 d0 50 be
       -0.036245044 0.22188272 0.24726442 -0.20392169
000040 1a 08 33 3e 7e 9c 02 be dd 26 85 3d 18 a5 ab 3d
       0.17483559 -0.1275501 0.06501553 0.083810985
000050 87 af 21 3e d2 1d 30 3d 49 00 4a be a5 32 db 3d
       0.15789615 0.04299719 -0.19726671 0.10703019
000060 06 33 61 3e e9 2c 4e be ab e7 7e 3e 72 fb 95 3e
       0.2199212 -0.2013432 0.24893062 0.292934
000070 e6 aa 50 be 9f f0 5b 3e cc 2e 88 be be 0e ea bd
       -0.20377693 0.21478508 -0.26598203 -0.11428593
000080 cc bd 8d be 69 f3 92 bd ee cc 62 3e fd f6 97 bd
       -0.27683866 -0.07175333 0.22148487 -0.07420156
000090 18 eb a3 3c fe bb 89 3e b3 74 1f be ad 97 9d 3e
       0.020009562 0.2690124 -0.15571861 0.30779782
0000a0 8e 21 5c be 59 80 3c bd 13 73 68 be 97 9f c8 be
       -0.21497175 -0.04602084 -0.22700147 -0.39184257
0000b0 e3 14 5f be bf 7e 8c be d9 9d be 3e a2 b0 24 3e
       -0.21785311 -0.2744045 0.37229803 0.16083005
0000c0 ed 24 18 3e 6c 32 1f 3e d6 97 9d bd 1b 7a ac 3d
       0.14857836 0.15546578 -0.07694976 0.08421727
0000d0 57 86 c4 3e 4b 9c b4 bd 4b df 4b 3d a9 e0 92 3e
       0.38383743 -0.08818873 0.049773496 0.28687027
0000e0 d9 71 2d be 3d 0f af bd d8 5d 11 be 44 6a 62 be
       -0.1693796 -0.08547828 -0.14195955 -0.2211085
0000f0 4a 41 f0 be 2b 56 d4 bd 08 c1 a6 be 65 a4 3b bd
       -0.46924812 -0.10367998 -0.32569146 -0.045811076
000100 f0 84 f2 3d 4e 7d 7f 3e f4 b8 45 3e b1 f2 30 bd
       0.11841762 0.24950144 0.19308835 -0.0432002
000110 51 73 be 3e a9 28 f5 bd b9 5b 9e 3d 06 7b 0d 3e
       0.37197354 -0.11970646 0.077323385 0.13816461
000120 a5 35 5d bd b6 67 1d 3f 41 9a 72 be ca 4a 5b bc
       -0.054006238 0.61486375 -0.23691656 -0.01338453
000130 15 05 36 3e ff b7 94 3b 81 2d 26 be b5 ed 4c bc
       0.17775376 0.0045385356 -0.16228296 -0.012507846
000140 41 29 c8 3d c0 67 81 3d 10 95 8d be cf 4a 5a be
       0.097734936 0.06318617 -0.27652788 -0.213176
000150 55 da 7e 3e 5d 6a 8f 3d 28 78 1c be 1b 9d c8 3d
       0.24887975 0.07002709 -0.15280211 0.097955905
000160 c2 42 36 3e a0 aa 8d be f0 a3 33 be 80 c2 81 3e
       0.17798904 -0.2766924 -0.17543006 0.25343704
000170 68 91 09 bd c8 10 0b be dd 10 ad 3d 3c e5 95 bd
       -0.033585936 -0.1358062 0.08450482 -0.073191136
000180 be 92 8a be 3c aa 58 be 1c 19 11 3e 6f 2d 80 bc
       -0.2706508 -0.2115869 0.14169735 -0.015646664
000190 24 4f b2 be fa 1a 8d be f5 89 49 3e ad 97 35 3e
       -0.34826005 -0.27559644 0.19681533 0.17733641
0001a0 fe 68 4f 3e 71 06 60 be 06 b4 5a be 86 98 7f 3e
       0.20254895 -0.21877457 -0.21357736 0.24960527
0001b0 06 44 ab 3d 6a 38 6f 3e 1f 46 ae 3d 47 e6 2b be
       0.08362584 0.23361364 0.08509468 -0.16787063
0001c0 29 b1 55 3e 48 b9 1e bd a1 b9 c4 3e 15 66 b7 bc
       0.20868362 -0.038750917 0.38422874 -0.022387544
0001d0 98 da 1d 3e 3a 74 a9 bd 49 ff 8c bd 1e 03 30 be
       0.15415418 -0.082741216 -0.06884629 -0.17188689
0001e0 cf 05 9f be f3 12 37 be c6 90 2b be 6e b9 7b be
       -0.3105912 -0.17878322 -0.16754445 -0.24582455
0001f0 7d cd 08 3e c4 5f db bd 9a be 4f bd 66 74 5b 3e
       0.13359638 -0.10711625 -0.05071888 0.21431121
000200 73 e3 1e be 28 04 19 be eb bc 4d 3d 51 6d bf bc
       -0.15516452 -0.14942992 0.050228994 -0.023367556
000210 a2 62 8b 3d 05 80 34 3e b6 3a 29 3e 9f 92 a9 3e
       0.06805922 0.1762696 0.16526303 0.33119676
000220 b5 35 a7 3e db 21 6a be 83 95 38 be ab 17 77 3e
       0.32658163 -0.22864477 -0.18025784 0.24130122
000230 08 2f 99 3d 81 48 72 3e 42 5b 2b 3c d0 3e 75 3e
       0.074796736 0.2366047 0.010458769 0.23949742
000240 7c 7d ad 3e 70 65 9a 3d 07 26 92 3e 1b e0 2a be
       0.338848 0.07538879 0.28544638 -0.16687052
000250 21 4b 81 bd 84 d5 5e be fa 7c 70 3a 0c 32 9d be
       -0.06313158 -0.21761137 0.00091738964 -0.30702245
000260 3a b0 4f 3d eb cf 11 3f c0 1e e3 be a5 c9 1a 3e
       0.050705172 0.5695788 -0.44359398 0.15115984
000270 30 b2 45 3c e8 24 bb bc b6 3f 9b 3c 76 4d 2e be
       0.012066409 -0.022844747 0.018951278 -0.17021737
000280 60 94 2d 3d 49 e6 1e bd 08 4c 21 3e 41 5d 45 3e
       0.04237783 -0.038793836 0.1575166 0.19273855
000290 90 a1 5d be 9f b6 a1 3d a3 4e ac 3e 79 2c 1e bd
       -0.21643662 0.0789616 0.33653745 -0.03861663
0002a0 79 9d d4 bd 96 27 11 3e 44 c0 39 be d8 73 48 be
       -0.10381598 0.14175257 -0.1813975 -0.19575441
0002b0 8f 1c 0c 3e 94 77 ad 3c 4e 9a d7 bd 40 59 52 bd
       0.13682769 0.021175183 -0.10527478 -0.051354647
0002c0 2e 97 fc 3d 4e 5a 30 be 36 2f 4b bd ff c8 eb bd
       0.12333523 -0.17221949 -0.04960557 -0.11512946
0002d0 0c f0 cb 3d bf 01 9a 3e f5 53 3c 3d 3e c4 53 3d
       0.09957895 0.30079457 0.045978505 0.051700823
0002e0 54 01 9c 3c 8c a2 98 3e 51 b4 9b 3d 33 ac 28 bd
       0.019043602 0.29811513 0.07602752 -0.041179847
0002f0 c4 ec 56 bd 73 74 1f be 28 6a 2a 3e a9 e3 21 3e
       -0.05247189 -0.15571766 0.16642058 0.15809502
000300 4f b0 39 be a8 cb 3d bc cb 78 3d 3e 93 5e 8d bb
       -0.18133663 -0.0115842 0.1850311 -0.0043142526
000310 ab 4f 25 be 9f 87 3e bd 01 1f 79 be c0 e1 6e 3e
       -0.16143672 -0.046516057 -0.24328233 0.23328304
000320 53 ec 83 be cb 73 4e 3e fa 53 2a 3e 80 e6 d9 3d
       -0.2576624 0.20161359 0.16633597 0.106396675
000330 8a dd 24 be ca e8 5e bd 4c 85 46 be b9 51 0b 3e
       -0.16100135 -0.054421224 -0.19386786 0.13605393
000340 92 9d df bd 87 b3 ff 3d 3f e5 7a 3c 30 c0 73 3d
       -0.10918726 0.12485414 0.015313446 0.059509456
000350 57 8e bd bd e6 5d b5 bd 37 00 8f 3d aa 5a eb 3d
       -0.09255665 -0.088558 0.06982463 0.11491902
000360 32 e2 42 3d 29 ae 81 3d 6f 9a d9 3d 74 00 8e b8
       0.047578998 0.063320465 0.10625159 -6.771172e-05
000370 45 86 69 bd 0d cb 1d 3e 37 56 08 3d f8 fc 02 bd
       -0.057012815 0.15409489 0.033285346 -0.03197953
000380 a4 f9 a5 ba 0c a1 6c be ce bc 03 be f8 3a e0 3d
       -0.00126629 -0.2310831 -0.12864992 0.109487474
000390 dc ca c7 3d e1 b7 92 be c4 7a 2e 3d cd 2b 14 be
       0.09755489 -0.28655913 0.042597547 -0.14469834
0003a0 78 70 f0 bd dd 9f 90 3d 5d 33 6c 3e 87 c8 67 3e
       -0.11740202 0.070617415 0.23066469 0.22635089
0003b0 f1 17 9c be cb 92 52 be 5f 46 46 3e 5a 83 da bc
       -0.30487016 -0.2056381 0.19362782 -0.026673961
0003c0 55 f1 87 be 43 75 8a 3b 70 8c a3 3d 3c 24 b9 bd
       -0.2655131 0.0042254045 0.07985771 -0.09040114
0003d0 a5 a2 47 be ec ea 1f be ea 52 39 3c 0e f6 5d 3e
       -0.19495638 -0.1561696 0.011311272 0.21675894
0003e0 4b 54 91 bd 86 6d d5 bd 02 ff c9 3c cf 35 80 bd
       -0.07096156 -0.104212806 0.02465773 -0.06260263
0003f0 3f 71 1b 3d 6e fc f2 3d bd 8a 7b 3e c3 2b b3 bd
       0.037949797 0.118645534 0.24564643 -0.08748581

linears.1.bias f4 [40]
000000 ef 97 bb bd dd 38 b4 3d 7a b2 46 3d 58 45 5f bd
       -0.091598384 0.08799908 0.048510052 -0.05450949
000010 1b 7d da bc 40 95 0a bd 9a b6 6a bd 09 fc bb 3e
       -0.026670983 -0.033833742 -0.05730305 0.36715725
000020 b8 0c 1f bd 5e 07 84 3d 73 14 d1 3e 45 95 ff bd
       -0.03883049 0.06446718 0.40835914 -0.12479643
000030 6f a3 fd bd 3c 89 1b be c7 a6 2e bc 71 61 06 be
       -0.12384688 -0.1518907 -0.01065988 -0.13123108
000040 b2 2a f2 3d c3 bf 8a bd 9c 15 0c 3d fe 7e b9 bc
       0.1182455 -0.06774857 0.034200296 -0.022643562
000050 7a 2e 83 3d b3 11 3f 3c 29 b8 c2 bd d8 0e a0 3d
       0.06405349 0.011661935 -0.09507782 0.07815331
000060 ac 4d 13 3e 26 e1 4b 3d ca 5d 7f 3d e3 1e 03 3e
       0.14385098 0.049775265 0.062345304 0.12804751
000070 b8 95 96 3d c1 32 62 3d e6 69 52 bd db 41 ea bd
       0.07352775 0.055224184 -0.051370524 -0.11438342
000080 db ab 94 bb dc ed d0 bc 14 16 7d 3e f0 38 88 3d
       -0.0045370883 -0.025504045 0.24715453 0.06651485
000090 ec be 67 3d 3d 1c 19 be 3a f8 e8 bd 20 92 e1 3c
       0.05657856 -0.14952178 -0.113754705 0.027535498

linears.2.weight f4 [40, 40]
000000 e0 f7 88 3e fd 2c ab bd 6b 78 7c be 1d 9f 97 3d
       0.26751614 -0.0835819 -0.24655311 0.07403395
000010 f3 30 6f bd 8d 7a 26 bd 10 de 84 3e ae 57 8a bd
       -0.05839629 -0.040644217 0.2595067 -0.06755005
000020 41 0b 47 bc d9 e9 75 3e 05 59 7a be 57 56 02 3c
       -0.012148679 0.24014987 -0.24448021 0.007955155
000030 e2 4f 1c 3e 59 69 65 3e 6a 70 14 be 59 e6 d2 3d
       0.15264848 0.22403468 -0.14496008 0.102978416
000040 cf 7e 32 be ff 51 87 3e b9 c8 a8 3d 2c b0 01 3e
       -0.17431186 0.26429746 0.0824141 0.1266486
000050 4c 81 2e bd 46 02 12 3e 89 5f 95 bc e0 e1 e1 bd
       -0.042603776 0.1425868 -0.018234031 -0.1102941
000060 9d 2c c2 bd 53 fa 39 be d5 5e 0c be 8c 32 1e bf
       -0.094811656 -0.18161897 -0.1370805 -0.6179588
000070 ce 39 7a be 65 3f 86 be ef 68 a6 3e de b1 94 3e
       -0.24436113 -0.2622024 0.32501933 0.29041952
000080 63 79 a2 bc 4a 2f 52 be 85 59 4f be 59 87 f5 bd
       -0.019833272 -0.20525852 -0.20248993 -0.11988706
000090 7e 3f 93 be cc d5 e8 3e 5d 77 41 3e fd 88 b6 3d
       -0.28759378 0.45475614 0.1889319 0.08912847
0000a0 74 1b 08 be 6d e2 e3 3d ed 01 0e 3d af 09 54 3d
       -0.13291723 0.11127172 0.034669805 0.051767047
0000b0 59 46 42 3e 82 16 69 be 06 22 42 be da 9b 43 3e
       0.18972148 -0.22762492 -0.18958291 0.19102421
0000c0 20 98 1b be bc 22 58 bd 2a e5 b9 bd ce 14 13 3e
       -0.1519475 -0.0527675 -0.09076913 0.14363405
0000d0 be 1b b9 3d 5c 01 ed bd 73 82 57 3e 18 51 c8 bd
       0.090384945 -0.11572525 0.21045856 -0.097810924
0000e0 97 83 08 bd cc cf 16 3e 33 68 8d be f8 28 07 bd
       -0.03332862 0.14727706 -0.2761856 -0.032998055
0000f0 f6 8b 97 bd cf a0 e1 3d cf 7b 5c 3e 0a fa 76 bd
       -0.07399742 0.11017 0.21531604 -0.06029705
000100 55 c8 f5 3d ad cb 29 bd 9c 4d 94 3e e5 dd e9 bd
       0.12001101 -0.041454006 0.2896546 -0.11419276
000110 59 45 80 3e 46 96 6d bc 35 70 78 be 1b ca 4e 3d
       0.25052908 -0.01450116 -0.24261554 0.05048571
000120 e5 f4 9a 3e c4 80 93 3e 43 0f 38 be af 3a 06 bd
       0.30264965 0.28809178 -0.17974572 -0.03277081
000130 2f 5f d9 3d 69 18 0e be dd bd 4f be 35 67 ae 3d
       0.10613858 -0.13876499 -0.20287271 0.08515779
000140 8b fa 9a 3e 6b 5e b2 3d b0 96 8e be 1f 49 af 3e
       0.30269274 0.08709415 -0.2784934 0.34235474
000150 e2 36 91 3e ca a2 22 be ea e3 5f 3e bb 82 00 3f
       0.28362185 -0.15882412 0.21864286 0.5019948
000160 0f c2 11 be 83 2f b6 bd c0 c1 5b be 2c 0b 3e be
       -0.14234184 -0.08895781 -0.21460629 -0.18558949
000170 a7 cf b2 3d 05 13 eb 3d 5f 8c 99 be 24 2b 2a bd
       0.08731013 0.11478237 -0.29989907 -0.04154505
000180 3e 03 51 be eb 1d 57 bd f7 75 be 3e 8c b9 df 3d
       -0.20411393 -0.052518766 0.37199375 0.10924062
000190 ae 0a 9b be bf 34 9e bd 4b 7d 80 be 0a ef bf be
       -0.30281585 -0.07724904 -0.2509559 -0.3748706
0001a0 a5 a5 46 3e 2c 35 cf 3d a5 1b 84 be 3c c1 52 be
       0.19399126 0.101175636 -0.2580234 -0.20581526
0001b0 bf 09 67 bd 48 60 23 be a9 7d da 3e 71 d9 81 3e
       -0.05640578 -0.15954697 0.42673996 0.25361207
0001c0 34 e8 94 be 70 58 81 3d b6 fa 0f bf 9b 78 39 3e
       -0.29083407 0.06315696 -0.5624193 0.18112414
0001d0 b9 87 c0 be a8 72 f1 3d 16 43 44 3e 55 a4 33 bd
       -0.37603548 0.11789447 0.19166216 -0.04385789
0001e0 09 4c 9f 3c 6d 93 6f 3d d6 14 0c be a6 43 48 3d
       0.019445436 0.058490206 -0.13679823 0.04889264
0001f0 39 ff 4d be be 3e ea 3c 08 fa c6 bd c3 38 01 be
       -0.20116891 0.028594371 -0.097156584 -0.12619309
000200 62 3a 07 3d 89 df c2 bd d2 f4 0d 3d 7c 77 3e bd
       0.033014663 -0.09515292 0.034657307 -0.046500668
000210 8d 3d 26 be 1a 5f 18 be 92 8f 67 be c3 45 a0 3e
       -0.16234417 -0.14880028 -0.22613361 0.31303224
000220 f4 63 04 be 71 75 34 bd 1d 1b 3d be 86 ba d9 3c
       -0.12928754 -0.044057313 -0.18467374 0.0265782
000230 48 36 43 3e 8b f2 2a 3e 22 9d 40 3e f5 8b 35 3d
       0.19063675 0.16694085 0.18809941 0.044322927
000240 75 30 27 be c7 66 26 be 83 f7 5e 3d 51 70 5d 3e
       -0.16327079 -0.16250144 0.054435264 0.21624877
000250 de 32 3d 3e 34 32 39 be 4c 41 ef bd 93 7b 6f 3e
       0.18476436 -0.18085557 -0.11682376 0.23386984
000260 17 bb 97 3d 6f a9 90 3e ed 98 fc 3b c6 9b 3b 3e
       0.074087314 0.28254268 0.00770866 0.18321142
000270 cd 79 2f 3e 86 67 8e be 61 1a e0 bd 10 51 61 be
       0.17136307 -0.27813357 -0.109425314 -0.22003579
000280 d9 19 8d 3e 97 d4 5d 3e c4 e8 4b be 2d a1 7a 3e
       0.27558783 0.21663128 -0.19913012 0.24475546
000290 6e 1d 98 3d 0f db 0f be bc 4d 06 3e bb 56 ad 3e
       0.07427488 -0.14048408 0.13115591 0.33855233
0002a0 64 94 a8 bd fa 15 88 bc 2a 42 cd be 1f c5 a6 be
       -0.08231428 -0.016612042 -0.40089542 -0.32572266
0002b0 a2 59 a1 3e 7b 49 2a be 29 05 ee bd 68 86 95 be
       0.31513697 -0.16629593 -0.11622078 -0.29204106
0002c0 14 19 5b bd 10 a1 3e 3e 73 d1 9d 3e d1 3d f3 3d
       -0.053490713 0.18616128 0.3082386 0.11877025
0002d0 dc 49 8a be e6 8c 90 3d ea 08 8b be da 55 a7 be
       -0.27009475 0.07058124 -0.27155238 -0.32682687
0002e0 40 68 95 3d 09 56 be ba 4c 06 ac be d2 8a fb be
       0.07295275 -0.001452149 -0.33598554 -0.4912935
0002f0 03 e7 0b bf 22 db bd 3c 5b da 31 3c db 04 68 3e
       -0.5464937 0.02317578 0.010855283 0.22658102
000300 e7 2d 62 bc 54 49 48 be 11 0e b4 be b0 9c 0a 3e
       -0.013804889 -0.19559222 -0.35166982 0.13536334
000310 d5 9c 00 be d0 8d ff 3e 91 a2 3f be ce b3 8b be
       -0.12559827 0.49912882 -0.18714358 -0.27285618
000320 fd e7 82 be 24 4b f1 bd b4 2f 17 3e a8 ed c3 3d
       -0.25567618 -0.1178191 0.14764291 0.09566814
000330 b3 30 38 3c a2 d3 a0 3d 6b cd 8a be 83 02 29 be
       0.01124208 0.07852866 -0.27109846 -0.16504864
000340 5c 07 8b be e2 68 54 3d a5 cc 9b 3e f9 af a8 bd
       -0.27154052 0.051857837 0.3042957 -0.08236689
000350 f6 a1 ec bd ed 3c 82 bc 0d 1e b6 bc 31 45 de bd
       -0.11554329 -0.015898192 -0.022231126 -0.10853041
000360 43 a5 6f 3e 12 9e 58 bc 74 1f 53 3e 47 6f 76 bd
       0.23402886 -0.013221281 0.20617467 -0.060164716
000370 89 fb 11 be 32 4e 28 3d 09 14 9f be ae 67 ae 3e
       -0.1425611 0.041090198 -0.31069973 0.34063476
000380 62 fb 90 3e ab 5b 90 3e df 07 62 be d2 af 7c 3e
       0.2831679 0.28194937 -0.22073315 0.24676445
000390 04 db c8 3e 49 bb 80 3c dd 62 59 bc 68 f9 31 bd
       0.39229596 0.015714305 -0.0132682 -0.043450743
0003a0 7c b1 33 3c 76 1a 9a 3e 46 84 cf 3e ba fe 6d bb
       0.010967609 0.30098313 0.40530604 -0.003631516
0003b0 b9 ee b4 3d bd 22 93 be 86 51 a8 be 7a 9f cb 3d
       0.08834595 -0.2873744 -0.32874697 0.09942527
0003c0 0c 08 df 3e 26 cf 2a be ce fc 83 bd 43 84 d5 3d
       0.43560827 -0.16680583 -0.06444703 0.104256175
0003d0 45 0a 54 bd 54 44 39 3e 22 09 b9 3e b0 b0 68 be
       -0.051767606 0.18092471 0.3613978 -0.22723651
0003e0 3c a4 af 3e d7 12 3f be b0 7b 0e be f2 0d 53 3e
       0.34304988 -0.1865953 -0.1391437 0.20610788
0003f0 64 c0 72 3e 7c 91 62 3e 30 21 58 be 02 3d a5 3e
       0.23706204 0.2212581 -0.2110641 0.32273108

linears.2.bias f4 [40]
000000 99 ee 8b bd 49 03 12 3c 4a dd c5 bd 76 2c c6 bb
       -0.06832618 0.008911916 -0.09661348 -0.0060477806
000010 69 54 d9 bd 1c b1 70 3d 1f 0c 0d bd ef e3 fb 3c
       -0.10611803 0.058762655 -0.034435388 0.030748336
000020 bc e8 aa bb 9a 44 08 3d 37 77 22 3d 06 26 03 bd
       -0.0052157324 0.03326855 0.039664473 -0.032018684
000030 37 1e b8 bd 11 6d b4 bb 76 ed 4d 3d e0 6d ae 3d
       -0.08990138 -0.005506166 0.05027529 0.08517051
000040 bd 41 7d 3c a5 7c 1e bd 74 84 78 bd c7 9b 23 be
       0.015457568 -0.03869309 -0.060673192 -0.15977393
000050 29 27 1b bb 7c 35 b7 bc b9 e9 dc 3d b6 00 69 3d
       -0.0023674464 -0.02236437 0.107867666 0.056885444
000060 84 dc 40 be a5 51 fc 3d 9d 3b a6 3c e7 c3 08 3d
       -0.1883412 0.1232026 0.020292098 0.033389952
000070 36 bd 35 bd d9 90 0c bd 57 01 72 bd ce c7 86 3c
       -0.0443699 -0.034317825 -0.05908331 0.016452696
000080 3d d1 63 bd d7 c6 6e 3a 6c 6c ce bc cc 4b 7a 3d
       -0.055619467 0.0009108609 -0.025198184 0.06110744
000090 01 26 59 bd f2 dd 06 bd cc b0 1b bd da 77 56 bd
       -0.05301476 -0.032926507 -0.038010404 -0.052360393

linears.3.weight f4 [40, 40]
000000 ad bf 98 3e 24 df 66 3e 45 8e 0e be a4 b6 25 3d
       0.29833737 0.22546059 -0.13921459 0.040457383
000010 9b 46 90 bd 55 4b 6d be b5 02 59 bd fb 19 4c be
       -0.07044717 -0.23173268 -0.052981097 -0.19931786
000020 ca 6f 8a bd 2e 80 33 be be e9 90 3d 34 0f d3 3c
       -0.06759603 -0.17529365 0.07075833 0.025764085
000030 88 72 12 bd 12 ac be bd bb 7b 71 be ea ba 9a bb
       -0.035753757 -0.093101636 -0.23582356 -0.004721989
000040 4e 6f 7d 3e f7 ae 1c be a4 bd 5f be dd a5 a6 3e
       0.2474949 -0.15301119 -0.21849686 0.3254842
000050 ff 2d 27 be be 64 3f be 8a 4b 29 be 27 3e 93 3e
       -0.1632614 -0.18690774 -0.16532722 0.28758356
000060 47 ed 4a 3e cf 6e df bc e0 37 60 3e 9f a1 4c 3e
       0.19817077 -0.027274517 0.21896315 0.19983529
000070 1f ad 3e be ac 59 93 bd 00 11 70 be c3 96 20 be
       -0.18620728 -0.07194838 -0.23443985 -0.15682511
000080 9d cb 96 be 70 d9 1b be 40 6c 1e be b5 6c 86 bd
       -0.2945222 -0.15219665 -0.15470982 -0.06563703
000090 b4 17 e4 3d 4b 32 8c 3e 2a 7b ff bc 51 28 22 3e
       0.111373335 0.2738212 -0.031186659 0.15835692
0000a0 3d cc 80 3e a9 e4 25 3e 1a b1 cb 3e 62 e1 23 3e
       0.2515582 0.16200508 0.39783555 0.16003945
0000b0 04 14 d9 bc d2 d9 e8 bb e8 e8 14 be 33 a2 48 be
       -0.026498802 -0.0071060443 -0.14541972 -0.19593124
0000c0 dd 21 5a be d2 2f 92 be d5 5d 17 be 13 1d 40 3e
       -0.2130198 -0.2855211 -0.14781888 0.18761091
0000d0 68 b3 44 3e f3 81 83 be cd 33 ac 3c dc b3 2f 3e
       0.19209063 -0.2568508 0.021020794 0.17158455
0000e0 56 40 91 bb a6 14 69 3e 0e a9 81 3e f0 6b 56 3e
       -0.0044327183 0.22761783 0.2532429 0.20939612
0000f0 90 ce 17 3c ce 95 49 3d 1f 12 ac bd 4b c2 9f be
       0.009265557 0.04921513 -0.08401894 -0.3120292
000100 c9 c9 2b 3e 9d df 99 3b 7a 2b 05 be f5 29 cc be
       0.16776194 0.0046958462 -0.13004866 -0.3987576
000110 e8 2e e7 3e 9d b1 85 3e f5 8d b2 bd b0 ab d0 3d
       0.45152974 0.2611207 -0.087184824 0.10188997
000120 4e 09 21 3d b2 0a 7b bd a9 c4 0e bc 0a 7d 19 3d
       0.039315514 -0.061289497 -0.00871388 0.037472762
000130 b6 48 c2 bd 7c 4a 80 3e 09 e6 34 3c ea 8b 8e 3e
       -0.09486525 0.25056827 0.011041173 0.2784112
000140 17 bc 22 3e 83 83 18 3e 27 78 0a 3e 0a 91 65 3d
       0.15892063 0.14893918 0.13522397 0.056046523
000150 9d cc 39 3e 68 35 48 bc a4 c9 93 3e 2e e1 a2 be
       0.1814446 -0.012219764 0.28864777 -0.31812423
000160 5e f7 3c 3e f4 fc a1 bc 31 60 c2 3d 77 d4 76 bd
       0.18453738 -0.019773938 0.09491003 -0.060261216
000170 d3 61 55 3e 6a fa 57 be bc 94 a3 bc 7c 89 32 be
       0.20838098 -0.21091619 -0.019968383 -0.17435259
000180 1d 7d 57 3e 53 82 03 be 23 fa b5 bd 7e c9 15 3e
       0.2104382 -0.12842683 -0.088856004 0.14627644
000190 08 03 1d 3e 90 16 2c be f0 2f 87 be 11 d6 d7 bc
       0.15333188 -0.16805482 -0.2640376 -0.026347192
0001a0 3b 62 cb bd 50 c3 3b be b4 57 b0 3d 42 00 5c bd
       -0.09930845 -0.18336225 0.08610478 -0.053711183
0001b0 2d 31 68 3e 40 15 91 3e 0a d0 6f 3b 14 0f 67 be
       0.22675009 0.28336525 0.0036592507 -0.22564346
0001c0 ec ec 90 3e e2 3a 73 3e b9 0e 5a be 63 82 fe 3d
       0.28305757 0.23752931 -0.21294679 0.12427213
0001d0 8b 52 70 3e cc b2 5b 3e d2 fb 42 3c d9 73 ab 3e
       0.23468988 0.21454924 0.011900859 0.33486822
0001e0 09 0d e3 3e cc 9e a9 be 74 da e9 3e 23 31 41 3c
       0.44345883 -0.33128965 0.4567448 0.0117915
0001f0 41 15 79 3e 7b 2c 81 be 7c 8a 18 bd ac 68 e2 3e
       0.24324514 -0.25229248 -0.037241444 0.44220483
000200 78 00 2d 3e 1d 68 39 be 59 8a 36 3d 98 06 c5 3d
       0.1689471 -0.18106122 0.044565532 0.09620398
000210 97 ca 8b 3e 50 a3 23 be b2 72 21 be 4f c8 09 3e
       0.27303 -0.15980268 -0.15766409 0.13455318
000220 c2 56 ad bd d8 b5 5f 3e 03 5d 31 3e c0 74 33 3e
       -0.08463813 0.21846712 0.17320637 0.17525005
000230 aa 58 63 bc 7d 59 d9 3e d5 1f ba 3e de b8 72 be
       -0.01387612 0.42451087 0.3635241 -0.23703334
000240 0b 32 0c be ba 88 96 be 4a 85 ec 3e f0 0e 4a 3e
       -0.13690965 -0.2940119 0.4619544 0.1973226
000250 62 09 c2 3e 8b f5 0f be d2 bc aa 3e ee a7 6d 3e
       0.37897784 -0.14058511 0.33347183 0.23208591
000260 94 6b 4d 3e 8e 47 d3 bc 07 10 0f 3e bb 04 81 3e
       0.20060569 -0.025790956 0.13970958 0.25198922
000270 68 e9 2a bd bb af 7f 3d f2 aa 09 3e 39 57 57 3e
       -0.0417265 0.06242345 0.13444117 0.21029367
000280 39 4a fe 3d 55 43 b3 3c ec 22 80 3c 82 c9 11 be
       0.124165006 0.021882692 0.015641652 -0.14237025
000290 4b 2f 46 3e 94 ed 95 3d 4f 66 10 3e be 18 4c bc
       0.19353978 0.07320705 0.14101528 -0.012457071
0002a0 d4 c2 82 be 54 ca 24 be 15 36 4e be 4f 4f 08 be
       -0.25539267 -0.16092807 -0.20137818 -0.13311504
0002b0 e6 ba 1e 3e 24 95 01 3e d5 b1 19 bc 7a 3b 32 3d
       0.15500984 0.12654549 -0.009380777 0.043513753
0002c0 a0 41 f3 bb 62 e6 52 bd d6 72 95 bd f8 46 7f 3e
       -0.0074235946 -0.05148924 -0.07297294 0.24929416
0002d0 76 55 09 be 51 46 ec 3d 80 95 60 3d c0 49 bf bd
       -0.13411507 0.11536849 0.054830074 -0.093402386
0002e0 14 20 0b 3d d2 b4 31 3e e2 78 b3 bd f7 e0 5a 3e
       0.03396614 0.17354134 -0.08763291 0.2137488
0002f0 e9 7c 2e be 39 83 93 bd 55 1e 97 bd 22 32 a2 3d
       -0.17039837 -0.07202763 -0.07378832 0.07919718
000300 b1 46 27 3e b5 89 d6 bd cc ca 3a 3e 11 dc 7d 3e
       0.1633556 -0.10475484 0.18241423 0.2479098
000310 56 39 f4 bd 42 97 00 be 4e 51 f9 3d 6c 60 31 be
       -0.119249985 -0.125577 0.12173711 -0.17321938
000320 b0 b3 d0 bd 5d 8a 07 3e 46 39 24 3e ed e5 98 3e
       -0.10190523 0.13236375 0.16037473 0.2986292
000330 44 9a 77 3b 9b f2 36 3e 53 8a a1 be aa 8e a1 3d
       0.0037781158 0.17865984 -0.31550846 0.07888539
000340 8d 2f 8a 3e 7b c4 69 be 70 35 b7 3d f8 97 ad ba
       0.26989403 -0.22828858 0.08945739 -0.0013244143
000350 53 4d 20 be b8 30 ea 3d e1 92 e8 bd 30 89 93 3e
       -0.15654497 0.114350736 -0.1135614 0.28815603
000360 44 99 67 3e 9d c8 b8 bd e6 77 0d 3e a3 62 33 be
       0.2261706 -0.09022639 0.13815269 -0.17518096
000370 d6 b0 9d be c5 4f 0f 3e b1 9d 53 3e a9 46 cc 3d
       -0.30798978 0.13995273 0.20665623 0.09974415
000380 12 81 1e be 61 11 49 bc 6c 67 2f 3e f1 16 54 3b
       -0.15478924 -0.01227221 0.17129296 0.0032362307
000390 74 f2 d9 bd 3e 4a a1 be b8 89 73 be 5d a1 fe 3d
       -0.106419474 -0.31501955 -0.23783004 0.12433121
0003a0 20 d9 a9 be 48 dd 0f 3e 39 4f 58 3e a3 a0 9a 3d
       -0.33173466 0.14049256 0.21123971 0.0755017
0003b0 46 5b 07 3e 49 1f cf bc 6f 51 6b 3e 68 1d 5a be
       0.13218412 -0.025283473 0.22980283 -0.2130028
0003c0 6d 16 f7 bb de 14 2a be 40 ec 58 3e 13 ef 18 bd
       -0.007540515 -0.16609523 0.21183872 -0.037337374
0003d0 b8 84 35 3e f7 08 a2 3e d4 92 89 bc 9e 01 1e 3e
       0.1772641 0.31647465 -0.016793646 0.15430304
0003e0 c5 84 b1 3e ab ec 80 3e 16 82 25 be db d0 3e be
       0.34671608 0.25180563 -0.16162905 -0.1863436
0003f0 77 23 c6 bd 25 f3 5e be ac e6 41 3e aa ff 85 3d
       -0.09674733 -0.2177244 0.1893565 0.06542905

linears.3.bias f4 [40]
000000 b0 8d cb bc 3c 49 49 bd 2d 9f cc 3c b0 c0 47 bd
       -0.024847835 -0.049142107 0.024978245 -0.048767745
000010 d8 9d d5 bc 42 9b b2 3a 47 bd 62 3d fe cf 2d be
       -0.026076242 0.0013626593 0.05535629 -0.16973874
000020 9d 2c 41 3c c0 82 1f 3d 2b a4 1c 3d 28 bf 11 bc
       0.011790422 0.038943052 0.0382425 -0.008895673
000030 7c 25 c7 bc 7b 2d 77 bb 04 5b ed bb fb d8 73 bc
       -0.024309866 -0.0037716317 -0.007243516 -0.014883275
000040 b3 82 5f bc ea 85 48 bb 0d 47 3d bc ab 3c 29 3d
       -0.013642001 -0.0030597397 -0.011552584 0.041317623
000050 bf 10 2d 3d b6 80 8d bd 8d 6f ec 3a e0 f7 d3 bd
       0.0422523 -0.06909315 0.0018038616 -0.10350013
000060 47 2a d9 3b f1 a4 80 3c d8 bf 42 bd b6 e5 93 bb
       0.0066273543 0.01570365 -0.047546238 -0.0045134677
000070 66 53 30 3d 84 df 90 3d 3c a3 51 bb 6e 6e d7 3b
       0.043048285 0.07073882 -0.0031988164 0.0065744435
000080 40 dd c6 bc 6c f1 64 bd 23 ce cd 3c cc 6a 30 bb
       -0.024275422 -0.0558943 0.025122708 -0.0026919125
000090 7d ee 2c bb a0 b2 b5 3c c5 b5 24 bc 20 aa 33 3c
       -0.0026387267 0.022179902 -0.010053103 0.010965854

linears.4.weight f4 [40, 40]
000000 6d 9e 4c bb 1e 41 b8 3c c3 2a 03 be f4 88 6f 3e
       -0.0031222359 0.022491988 -0.12809281 0.23392087
000010 7d 2f 85 bd b2 f1 05 be b8 c3 83 3e cc 43 02 3e
       -0.06503198 -0.1308048 0.2573526 0.12721175
000020 a0 44 8b be 55 16 97 3e 81 68 84 be 53 7c 64 bb
       -0.27200794 0.29509225 -0.2586098 -0.0034864142
000030 b1 cc 1d 3e 84 cc 53 3e 66 99 bb bc ce 7d 8a 3e
       0.15410115 0.20683485 -0.022900295 0.27049106
000040 8e 27 05 bd 87 ad 74 be b3 42 0b bd ac e7 c0 3a
       -0.032508425 -0.2389432 -0.033999156 0.0014717481
000050 97 92 0a 3e 5c 75 54 be 94 8a 51 3e 69 39 26 be
       0.13532482 -0.20747894 0.2046302 -0.16232838
000060 38 4b 8c bd 9a a4 8c 3e 83 d2 59 be 83 8c 6b 3e
       -0.06850284 0.2746933 -0.2127171 0.2300282
000070 fb fd 00 3e 6b 49 34 3d f2 b6 bd bd d4 b3 c5 be
       0.12596886 0.04401533 -0.0926341 -0.3861376
000080 49 45 a2 bd 18 a3 b3 3c 2c 56 b9 bd a7 f6 80 be
       -0.07923371 0.021928355 -0.09049639 -0.2518818
000090 6b 41 66 be c8 f0 89 bd 38 cf 78 3e 79 46 25 3e
       -0.22485892 -0.067353785 0.24297798 0.16140164
0000a0 6a 09 ed 3d e8 a8 92 3e 36 58 be 3d b5 fc d1 3e
       0.11574061 0.2864449 0.09294169 0.41013113
0000b0 3a 84 42 3e b1 ab 2f 3d ce 4e c2 bd 30 91 3a 3e
       0.18995753 0.042888347 -0.09487687 0.18219447
0000c0 a5 3a 85 bd e1 f9 5b 3e 27 4d 80 be be d5 10 be
       -0.06505326 0.2148204 -0.25058863 -0.14144036
0000d0 67 70 5e be 27 3a 8f 3d a4 a5 42 3e 5d 97 06 3e
       -0.21722566 0.069935136 0.190085 0.13143678
0000e0 db 9a 31 be e5 5d 02 be ad db 9d bd 27 21 1b 3d
       -0.17344229 -0.1273113 -0.077079155 0.037873413
0000f0 2e 93 cb 3d 30 94 6a be 74 a3 58 be 1e 4c 52 3e
       0.09940182 -0.22908092 -0.21156102 0.20536849
000100 13 e0 13 be 45 10 30 3e 2d 90 74 be b5 c7 71 3d
       -0.14440946 0.17193706 -0.23883124 0.059028346
000110 3e e6 be be d9 74 16 bd 87 7d 6a 3e c1 ef 0f 3e
       -0.37285036 -0.03673253 0.22899447 0.14056303
000120 b2 27 28 be 84 74 73 3e d3 be b3 3c 77 5a 81 be
       -0.16421393 0.23774916 0.021941578 -0.25264332
000130 51 11 9b be b5 d3 f3 be 85 07 71 be 86 68 fe bd
       -0.3028665 -0.47622457 -0.23538025 -0.1242228
000140 c3 82 a5 3e 40 a5 c2 bd 76 ff 7c be f7 b1 4a bd
       0.32326326 -0.09504175 -0.24706826 -0.049486127
000150 75 45 c9 bd c2 46 1c 3d 47 69 35 3c 95 cf 60 be
       -0.09827701 0.038153417 0.011072463 -0.21954186
000160 15 32 fb 3e 41 4f fb bd 57 23 7c 3e 47 7c 87 be
       0.49061647 -0.12270976 0.24622856 -0.26462004
000170 50 63 35 3e b5 39 da 3e 09 7e 22 3e 09 7b d2 3b
       0.17713666 0.42622152 0.15868391 0.0064233583
000180 1f 34 64 be 96 77 f2 bd 53 49 41 3e 0f 79 13 be
       -0.22285508 -0.118392155 0.18875627 -0.14401649
000190 86 ce b1 bd d9 8a f4 be 03 f3 88 be 51 c5 57 3e
       -0.08681969 -0.47762182 -0.26747903 0.21071364
0001a0 4a 3e d4 3b c1 5e 94 bd 43 64 6d 3e b3 c9 1f be
       0.006477152 -0.072446354 0.23182778 -0.15604286
0001b0 9f d2 4b 3e 55 f7 1c be 52 b6 90 bd 89 5a c4 be
       0.19904564 -0.15328725 -0.07066025 -0.38350323
0001c0 9f 40 79 bc 8f cb 96 be a2 1c fd bc d8 61 c9 bd
       -0.015213161 -0.29452178 -0.030897442 -0.09833115
0001d0 38 f0 5f 3e 75 28 8f 3e 33 87 ae be 88 90 d7 3e
       0.2186898 0.27960554 -0.34087524 0.42102456
0001e0 a0 b6 44 be 98 2e 40 be 79 36 37 3d f7 47 84 be
       -0.19210291 -0.18767774 0.044729684 -0.25836155
0001f0 22 00 4c 3e 47 2a 8e be c3 09 41 3e 23 fb 1c bd
       0.19921926 -0.2776663 0.1885138 -0.03832544
000200 5c 82 69 bd 88 d3 1e be ef 0b 7a bd d5 aa 80 3e
       -0.057009086 -0.1551038 -0.061046537 0.25130334
000210 be 81 bd 3d 5c f5 26 bc 49 2e 8d 3e 0b ba f7 3d
       0.09253262 -0.010190334 0.27574375 0.12096032
000220 87 b7 06 3d 3b 72 ca bd b5 f6 74 3c b7 5e f3 3d
       0.03288987 -0.09885069 0.014951398 0.118833
000230 fd a8 45 3d 9d 09 69 be 1a bc 1c be d5 74 1f be
       0.048256863 -0.22757573 -0.1530613 -0.15571912
000240 92 2b 1b be ad 53 15 3e 62 5d 72 3e 84 20 23 be
       -0.1515334 0.14582701 0.23668435 -0.15930372
000250 e6 0c a3 3e e1 6b c0 bd e8 18 8f 3d c6 ce 78 be
       0.31845778 -0.09395576 0.06987172 -0.24297628
000260 0b 59 d6 bd 0c ce 09 bd c8 01 83 be 64 dd 5a 3e
       -0.10466202 -0.033643767 -0.25587296 0.21373516
000270 fa 24 70 be 11 57 00 3e d6 dd da bd 81 3c 67 3e
       -0.23451605 0.12533213 -0.10686843 0.22581674
000280 7f ad bc 3c 1d d9 54 3e 03 2d 42 be 05 ab a0 3d
       0.023031948 0.20785947 -0.18962483 0.078451194
000290 04 60 b2 bd 95 18 98 3e f6 cc 0e bd 53 ea 4a be
       -0.0870972 0.29706255 -0.034863435 -0.1981595
0002a0 0a 56 b4 bd 17 6a 4f bd 30 91 d4 bd 02 af 94 be
       -0.08805473 -0.050638285 -0.10379255 -0.2903977
0002b0 c0 71 2b 3e 7b bf 82 ba e9 07 08 be d8 e6 68 be
       0.16742611 -0.0009975279 -0.13284267 -0.2274431
0002c0 44 cd 21 be 37 5f 20 be 90 3d 1f be 0b e2 d1 3d
       -0.15800959 -0.15661322 -0.15550828 0.102481924
0002d0 c9 01 3a 3e 79 9f 15 3d 53 67 c2 bb 31 43 b1 be
       0.18164743 0.036529038 -0.0059327274 -0.34621575
0002e0 55 3c a6 3d 7a b7 1a bc ce a5 16 3e 8a 98 1b 3e
       0.08116976 -0.009443158 0.14711687 0.15194908
0002f0 2c 80 85 3e 3b f9 61 3e 26 5c 65 be a2 21 70 be
       0.2607435 0.2206773 -0.22398433 -0.2345033
000300 54 c1 18 3d 84 71 91 3d 4e 1a bc bc bf 20 35 be
       0.037293747 0.071017295 -0.022961762 -0.17688273
000310 a6 10 2f bd 89 61 1e be a5 e2 03 3e 23 27 67 3e
       -0.042740487 -0.15466894 0.12879427 0.22573523
000320 fa c9 5a be b6 63 7d 3e e2 e2 15 bd 72 3c 66 be
       -0.2136611 0.24745068 -0.036593325 -0.22483996
000330 b2 45 58 3e 10 f7 89 3e 92 e0 55 bd 36 58 91 bd
       0.21120337 0.26946306 -0.05221612 -0.07096903
000340 cb bb ad bd f3 0b 52 be 7a 91 17 3e 45 88 92 3e
       -0.08483084 -0.20512371 0.14801589 0.2861959
000350 7c 04 8e be d8 96 81 3e 09 80 d3 bd 24 7f 46 be
       -0.27737796 0.25310397 -0.10327155 -0.19384438
000360 ac cf af bd 9e 1a 03 be 22 52 93 3c 2b 2c 2e be
       -0.08584532 -0.12803122 0.0179835 -0.17009036
000370 fd 56 57 bd e6 40 87 3d 64 dd 14 be 8c 31 aa bc
       -0.052573193 0.06604175 -0.14537579 -0.020775579
000380 b0 a5 90 bd 70 05 2d bc f2 fd 7a be 0f 83 40 3e
       -0.070628524 -0.010560378 -0.24510935 0.18799995
000390 5e 7e 46 bc bb 51 75 be 4b 8c 1d be 42 62 9c bd
       -0.012115089 -0.23956959 -0.15385549 -0.07635929
0003a0 c8 98 5d be 93 1f 24 3e 97 1a 1f be 5f 54 0e 3e
       -0.21640313 0.1602767 -0.15537487 0.13899373
0003b0 c5 f0 61 3e 6d 12 1d 3e cf 8e 19 3c f6 d9 29 3e
       0.22064503 0.1533906 0.009372427 0.16587052
0003c0 68 22 04 be d6 d1 10 be 12 17 59 3e 32 e6 91 be
       -0.1290375 -0.14142546 0.21200207 -0.28495938
0003d0 7e 92 b8 3d 78 13 cd bd 68 3c ae bd 28 e1 f4 bd
       0.09012316 -0.10013479 -0.08507615 -0.11957008
0003e0 da 1c 8c be 77 73 1a be 15 41 27 be 65 cc d6 bc
       -0.27365762 -0.15083109 -0.1633342 -0.02622051
0003f0 8f 22 4f be 2a 46 10 3e e9 9c 6f be 1e 7a 33 be
       -0.20228027 0.14089265 -0.233997 -0.17527053

linears.4.bias f4 [40]
000000 e9 76 e4 bc a7 0a 8c 3c 8c ef d0 bc 57 a6 ac 3c
       -0.027888732 0.017094923 -0.02550485 0.02107541
000010 18 df c0 3c 96 39 b5 bb aa 69 c9 3b 4b 7c f9 bb
       0.02354388 -0.0055305464 0.0061466293 -0.007613694
000020 39 6e ed 3d 00 91 9d 3b 3e 4e 00 3b 19 d8 98 3c
       0.11593289 0.004808545 0.0019577886 0.01865773
000030 a1 b5 c4 3c db 84 a8 bd 22 e2 ce bb 59 90 76 bb
       0.024012389 -0.08228465 -0.006313578 -0.003762266
000040 d8 9b 0d bd f4 8e ed 3c 58 46 9d 3c 52 ac c3 bb
       -0.034572452 0.02899883 0.019198582 -0.00597147
000050 6e a0 d4 3b fa cb 2e 3d e8 04 6c 3c b4 b9 96 3b
       0.0064888513 0.042674996 0.014405467 0.0045997743
000060 f6 f5 06 3c da 9e 48 bc 06 7e 7e bc ac 5a 0f 3d
       0.008237353 -0.012244904 -0.015532976 0.03499858
000070 b1 c4 42 bd 46 2f bf bc b5 77 a1 3b 61 c4 79 bc
       -0.04755086 -0.023337971 0.0049276003 -0.015244574
000080 15 a7 89 bc 6d 96 cf bc 1c cb 50 bd fe 2d a0 3b
       -0.016803304 -0.025340283 -0.05097495 0.004888295
000090 bd b0 4c bc 27 2d 94 bd 6b 1b 9b 3c d1 72 79 ba
       -0.01249331 -0.072351746 0.018933972 -0.0009515705

linears.5.weight f4 [3, 40]
000000 62 05 92 3e bb 31 78 3c d0 e9 da 3e 8a f8 c3 be
       0.28519732 0.015148575 0.4275651 -0.38275558
000010 50 0e 97 3e 38 54 6d bd e6 e2 bd bd 16 77 32 bd
       0.29503107 -0.057941645 -0.09271793 -0.0435706
000020 63 95 56 be 4f 08 bf 3e 02 d5 71 3e 92 54 41 3e
       -0.20955424 0.37311026 0.23616412 0.18879917
000030 ec 99 77 3e eb f6 9f 3e d7 fd 82 3e 56 2a fe 3e
       0.2417981 0.3124307 0.2558429 0.49641675
000040 57 dd ef 3d f3 1f 50 3d 1b 62 a7 be 38 81 7e 3c
       0.11712139 0.05081172 -0.32692036 0.015533738
000050 d2 ac ff 3d e9 f9 7f be ca b2 1d 3e 42 e4 b0 3e
       0.12484135 -0.24997677 0.15400234 0.34549147
000060 f2 43 40 3d 83 cb ca be 7e d9 ce 3d 78 62 a4 3e
       0.046939798 -0.39608392 0.10100077 0.32106376
000070 3d 4b 94 3e 6e 5c 64 be 8e 89 c2 3e 91 e6 d3 bd
       0.28963652 -0.22300884 0.3799557 -0.103467114
000080 fa ff 37 be 1b a8 9d be bb ce 1c 3e 47 7c 9a 3e
       -0.17968741 -0.30792317 0.15313236 0.3017294
000090 68 11 f2 bd c1 97 c8 3e e2 73 26 be bb 05 8c 3e
       -0.11819726 0.3917828 -0.16255143 0.27348122
0000a0 13 20 76 3d 57 93 0f 3d a1 40 57 bd a6 08 a3 be
       0.060089182 0.035052624 -0.05255187 -0.31842536
0000b0 ff bb 9b be 7c 77 8f be a6 d0 8f be 11 87 a0 3e
       -0.30416867 -0.28020847 -0.28088874 0.31353047
0000c0 3f 54 09 3e 8d f8 dc 3d ed 6c f3 3a 0d ae 12 be
       0.13411044 0.10789595 0.0018571891 -0.14324208
0000d0 0a 63 05 3e 69 84 cc bc 8a 04 85 be 56 cb 5e 3e
       0.13026062 -0.024965482 -0.25980026 0.21757254
0000e0 e0 04 3b bd b1 51 22 be d1 50 99 3e e8 8c b2 be
       -0.045658946 -0.15851475 0.2994447 -0.34873128
0000f0 d0 1a 34 3e 85 fd 78 be 95 6d 3f be a4 87 ef bd
       0.17588353 -0.2431546 -0.18694146 -0.11695793
000100 73 63 4f 3e 70 c0 3d be 27 02 0c be bd fa 95 3e
       0.2025278 -0.1853044 -0.13672696 0.2929286
000110 05 da 40 be 8e 0f 86 be bf 33 d2 bc 4f f4 4e bd
       -0.18833168 -0.26183742 -0.02565944 -0.05052596
000120 c3 d1 94 3e de b4 ad be 1a 7b fe bd 2f 9c d9 bc
       0.29066285 -0.33927053 -0.124258235 -0.026563732
000130 c5 a9 26 be 9a 15 e3 3d 19 76 97 bd 51 d2 86 3e
       -0.162757 0.110881045 -0.07395572 0.26332334
000140 25 10 ed 3d 36 62 40 be f9 ed eb bd 02 e4 5e be
       0.11575345 -0.18787464 -0.11519999 -0.21766666
000150 ca c8 53 3e bc a3 43 be 2f 6e 0c be 27 0d 18 3e
       0.20682064 -0.19105428 -0.13713907 0.14848767
000160 b0 1b 33 bb d1 8e 0d 3e b9 94 73 be f4 78 05 be
       -0.0027329735 0.13824011 -0.23787202 -0.13034421
000170 f0 39 03 be be 14 7e be 80 a7 86 be 7e 1b ed 3d
       -0.1281507 -0.248126 -0.26299667 0.11577509
000180 d1 3c 82 3e a5 6d 59 3e 23 e4 99 be bd 8a 5d be
       0.25437024 0.21233232 -0.30056867 -0.21634956
000190 38 00 e6 bd 3d 4d 52 be 8a 18 8c be fe 09 90 be
       -0.112305105 -0.20537277 -0.27362472 -0.28132623
0001a0 8c 50 44 3e 47 15 7b be a8 a9 51 be d9 e3 10 be
       0.19171351 -0.24519835 -0.20474875 -0.14149417
0001b0 c2 e9 a6 3c a4 32 99 3e 9a 2d 88 bd b4 14 5a 3e
       0.020375136 0.29921448 -0.06649323 0.2129696
0001c0 8a 55 c2 bb d3 84 38 3e 04 0c 91 3e 0e fa 96 bd
       -0.005930607 0.18019418 0.2832948 -0.07371913
0001d0 3c 96 cc 3e 13 11 46 bd 08 9b 68 be 02 f8 41 be
       0.3995837 -0.048356127 -0.2271539 -0.18942264

linears.5.bias f4 [3]
000000 c8 a0 ee 3b 4f e1 3a bb 00 00 00 00
       0.00728235 -0.0028515642 0.0

exp_avg f4 [40, 2]
000000 ca e0 74 bb 72 f9 ac bb c2 49 78 3b 23 bb af 3b
       -0.003736543 -0.0052787596 0.003788576 0.0053628846
000010 c8 6a 42 3b b2 52 8e 3b f9 02 bd 3b bb dd 0a 3c
       0.0029665697 0.004343354 0.0057681766 0.008475716
000020 05 c1 f4 bb de fc 2b bc e6 9b f4 bb f3 da 2e bc
       -0.007469299 -0.0104973 -0.0074648736 -0.010672319
000030 6c e6 8f 3b 85 6a c6 3b 49 47 b4 3b 1f 81 fe 3b
       0.004391482 0.0060551786 0.005501662 0.0077668573
000040 7c 52 f5 ba cf ee 27 bb 41 21 3c bb c6 75 8d bb
       -0.0018716599 -0.0025624519 -0.0028706344 -0.004317018
000050 eb f4 e1 3a 7f 20 23 3b 55 8f 7d b9 21 71 bf b9
       0.0017239129 0.0024891195 -0.00024181356 -0.00036514646
000060 b5 41 fd ba e1 99 3b bb d8 4b a2 3a 3d f8 ec 3a
       -0.001932195 -0.0028625655 0.0012382222 0.0018079352
000070 9a fe 1d 3b 59 e9 65 3b bb 1e be 38 3a f0 49 b8
       0.0024108053 0.0035081713 9.06563e-05 -4.8145863e-05
000080 c8 11 f0 3b 4a 74 2a 3c 0d 6e 93 bb aa e5 d9 bb
       0.0073263384 0.010403702 -0.004499203 -0.0066496925
000090 a6 9f 88 3a 95 45 f9 3a 1e 82 f9 3a 7c ca 26 3b
       0.0010423556 0.001901793 0.001903597 0.002545028
0000a0 e7 f4 a8 3c f0 63 f2 3c 68 c9 07 3c d6 99 42 3c
       0.020624591 0.02958867 0.008287765 0.011877498
0000b0 f1 ce 9f 3b 90 45 f5 3b 43 83 d9 3b 69 39 1b 3c
       0.0048769643 0.007485099 0.006637962 0.009474137
0000c0 d0 29 bf 3b 5d 46 06 3c 72 a1 09 3c e7 16 40 3c
       0.005833842 0.008195487 0.008400308 0.01172421
0000d0 ec 19 44 3b 98 07 8c 3b b2 9f ba 3a 8f b0 0f 3b
       0.0029922677 0.004273366 0.0014238267 0.0021925305
0000e0 eb 8a 16 bb 97 e9 64 bb 0e 59 d6 ba 9d 97 25 bb
       -0.0022970985 -0.003492927 -0.0016353445 -0.002526737
0000f0 44 6f 33 bb cd 63 8b bb bc 6b 7c bb b0 3f b5 bb
       -0.0027379552 -0.0042538405 -0.0038516363 -0.005531274
000100 47 a3 43 bb a7 b5 8b bb 9b b5 95 ba 79 7b 04 bb
       -0.002985196 -0.004263598 -0.001142192 -0.0020215197
000110 0d a5 07 bb 1e b0 30 bb 65 41 41 bb 6a d8 92 bb
       -0.0020697743 -0.0026960443 -0.002948844 -0.004481365
000120 9b c3 33 bb d4 22 84 bb 3a b5 69 3b c8 ac a6 3b
       -0.0027429822 -0.004032472 0.0035660998 0.005086515
000130 87 9e 0e 3a b5 bb 4b 3a 76 65 09 3c 58 e5 42 3c
       0.00054404925 0.0007771806 0.008386007 0.0118955

exp_avg_sq f4 [40, 2]
000000 a7 cb bd 3a 8c 8f 2e 3b f6 be e1 3a 65 04 43 3b
       0.0014480249 0.0026635854 0.0017223048 0.0029757258
000010 9f 31 91 3a 42 35 05 3b 52 ee 85 3b 8f 21 f6 3b
       0.001107741 0.0020325934 0.004087248 0.0075113247
000020 2a 11 c6 3b f5 23 32 3c da 64 c8 3b 15 b0 34 3c
       0.0060445266 0.010872831 0.006115538 0.011028309
000030 fc b6 01 3b 11 2b 5a 3b 36 ae 51 3b a3 5d c0 3b
       0.0019792905 0.003328983 0.0031994707 0.0058705374
000040 67 8a f5 39 f5 04 30 3a 41 55 92 3a fb dc 0c 3b
       0.0004683316 0.0006714606 0.0011164324 0.002149402
000050 83 13 e8 39 25 9c 4c 3a e3 36 ce 37 b5 c0 4a 38
       0.00044265026 0.000780525 2.4582672e-05 4.8340025e-05
000060 34 c5 f0 39 f6 e8 77 3a d7 a5 89 39 68 65 e7 39
       0.00045923295 0.0009457016 0.00026254237 0.00044135307
000070 e4 d2 46 3a ac 33 ba 3a 1f 1b f4 37 c8 21 fc 37
       0.0007584526 0.0014206073 2.9099696e-05 3.0056472e-05
000080 ce c3 cb 3b 34 08 35 3c 24 4d 1c 3b 71 0f 8f 3b
       0.00621841 0.011049319 0.002384969 0.0043658544
000090 0b 52 fe 38 67 55 d1 39 73 94 f4 39 ef d4 30 3a
       0.000121269455 0.00039927216 0.0004664991 0.0006745597
0000a0 09 b1 4f 3d f6 a4 b7 3d 89 fe 02 3c a6 d0 64 3c
       0.050705943 0.08967011 0.007995256 0.013965761
0000b0 a1 bb 2b 3b f2 7b ae 3b eb 61 98 3b e8 8f 0b 3c
       0.0026204365 0.005324834 0.0046503446 0.008518197
0000c0 62 c4 76 3b 72 1f db 3b 38 50 f3 3b 25 fd 59 3c
       0.0037653674 0.006687098 0.0074253343 0.013304983
0000d0 c3 d3 69 3a 1e 60 db 3a a2 e1 95 39 8b 8a 09 3a
       0.00089197996 0.0016737019 0.00028587604 0.000524678
0000e0 fa 50 35 3a 7c fe b5 3a d0 0a aa 39 d8 79 2c 3a
       0.00069166685 0.0013885046 0.00032432983 0.00065794354
0000f0 b1 49 50 3a 9e 0f dc 3a 8f 70 df 3a 0d 66 43 3b
       0.0007945551 0.0016789322 0.0017047095 0.0029815466
000100 a7 1e a2 3a 9a 71 09 3b 97 e8 50 39 92 d4 ca 39
       0.0012368754 0.0020972253 0.00019923072 0.0003868682
000110 f4 c7 b7 39 88 ce 23 3a a6 15 8b 3a 78 8c 0d 3b
       0.00035053457 0.0006248732 0.001061131 0.0021598618
000120 42 9c 9c 3a 52 7a 11 3b 31 6d c3 3a ea b2 2e 3b
       0.0011948424 0.0022198153 0.0014909861 0.0026656934
000130 8f 05 c1 37 03 d5 06 38 9e e2 09 3c 9c 47 6c 3c
       2.3009981e-05 3.2146472e-05 0.008415846 0.01442137

exp_avg f4 [40]
000000 60 eb ae bb 90 6e b9 3b 19 b0 93 3b 46 98 10 3c
       -0.0053381175 0.005658932 0.0045070765 0.008825367
000010 fc 7f 2e bc a4 85 34 bc 0e b1 c9 3b 8f 9a 01 3c
       -0.010650631 -0.0110181905 0.0061551398 0.007910385
000020 f8 2b 32 bb ef 00 92 bb 88 84 31 3b 52 46 d9 b9
       -0.0027186852 -0.0044556777 0.0027087051 -0.00041441858
000030 b2 9e 47 bb 48 a4 02 3b 0c e9 6f 3b 8d 6f b2 b9
       -0.003045958 0.0019934345 0.0036607413 -0.00034033917
000040 91 76 2f 3c 6b dc e0 bb 15 79 05 3b e3 66 28 3b
       0.010709421 -0.0068622134 0.002036636 0.002569609
000050 a8 ea fb 3c 7a 88 49 3c f1 f1 fb 3b a5 d1 1d 3c
       0.030751541 0.012300605 0.007688754 0.009632503
000060 0f ea 06 3c 8a f5 43 3c c5 a3 8e 3b 49 ed 17 3b
       0.008234515 0.011960397 0.004353019 0.0023182204
000070 94 9f 71 bb 5a f0 2a bb 63 5c 90 bb 01 d3 ba bb
       -0.0036868798 -0.0026083202 -0.0044055446 -0.005701423
000080 2f 5a 92 bb 61 cb 1e bb b6 33 29 bb ed 6b 98 bb
       -0.004466317 -0.002423011 -0.0025818176 -0.0046515376
000090 db 9a 8d bb 8e 2f ad 3b e2 4e 5b 3a 2e e7 49 3c
       -0.0043214387 0.00528521 0.00083659415 0.012323184

exp_avg_sq f4 [40]
000000 a8 91 33 3b 9f 97 4d 3b 99 b0 0b 3b 5e 80 00 3c
       0.002740005 0.003137089 0.0021314977 0.007843105
000010 30 cd 36 3c d0 94 3c 3c 5c f4 62 3b 65 cc c5 3b
       0.011157319 0.011510089 0.0034630513 0.0060363286
000020 7b 7b 3b 3a 04 42 12 3b bc ce 5d 3a d1 13 5f 38
       0.0007151884 0.002231718 0.0008461287 5.31858e-05
000030 e9 60 82 3a c9 15 f9 39 dd ae c3 3a 47 39 4b 38
       0.0009947094 0.00047509212 0.0014929433 4.8452315e-05
000040 9d fc 3b 3c 4e e5 95 3b d5 de de 39 c8 e0 36 3a
       0.011473802 0.0045744544 0.00042509162 0.0006976244
000050 0c 40 c0 3d 34 17 6f 3c 24 02 b5 3b 6b ab 0f 3c
       0.09387216 0.014592934 0.005523937 0.008768897
000060 f5 0a e0 3b 3c 3f 61 3c 46 5b e4 3a c2 ee 11 3a
       0.0068372437 0.013747986 0.0017422221 0.0005566889
000070 61 8d c0 3a a0 bd 30 3a a5 22 e6 3a 18 7c 4a 3b
       0.0014690572 0.00067421235 0.0017557932 0.003089672
000080 95 f3 11 3b ac 0c f0 39 a4 ca 21 3a f0 dc 13 3b
       0.002227043 0.00045785808 0.00061718584 0.002256211
000090 f4 b6 1a 3b 3d b4 36 3b ba 02 09 38 cb 4f 77 3c
       0.0023607584 0.0027878426 3.2665885e-05 0.015094708
