Lid_Driven_Re100/saved_models/VPA-14000.pt (torch, 95161 bytes, 36 tensors)

linears.0.weight f4 [40, 2]
0.1685848 -0.2647916 0.19132802 -0.32948983 -0.12823927 -0.5412268 0.11516976 0.14543256
0.16438735 -0.29267994 0.07100645 -0.11224904 -0.2606127 0.33518854 -0.13877787 0.33018464
-0.0866624 -0.14499368 -0.16497704 -0.22424276 0.4092073 -0.31438908 0.3738667 0.28824762
-0.47838438 0.18765563 0.080386706 -0.118650295 0.055887498 0.15333788 -0.29158732 0.20910935
-0.04469174 0.3678743 -0.11132844 -0.2135623 0.4443905 0.009983665 -0.2443919 -0.057002835
0.022712417 0.14332886 0.012310544 0.24932636 0.37545893 0.32587856 -0.10922787 0.26617214
-0.17576958 0.31766436 -0.15984334 0.32113937 -0.121932805 0.3044731 0.05333501 0.23549375
-0.27872616 -0.029860165 -0.12480045 -0.106020465 -0.32573643 -0.3230025 0.27238464 -0.15456058
-0.09034598 -0.1903111 -0.22537933 0.05029333 0.3691228 -0.29694766 -0.32619607 0.00057311286
-0.25461015 0.057530817 -0.111822404 -0.038575634 -0.49076152 -0.10242461 0.055198874 0.35426092
00000000: 7ea1 2c3e c492 87be 7eeb 433e e4b2 a8be
00000010: 2851 03be d78d 0abf 20de eb3d 46ec 143e
00000020: 2855 283e 25da 95be d46b 913d d3e2 e5bd
00000030: 076f 85be d59d ab3e c91b 0ebe f60d a93e
00000040: 0e7c b1bd 3979 14be beef 28be e59f 65be
00000050: 9f83 d13e 9bf7 a0be 756b bf3e 3195 933e
00000060: ccee f4be cc28 403e c9a1 a43d edfe f2bd
00000070: 4aea 643d 9b04 1d3e ef4a 95be c320 563e
00000080: b00e 37bd 055a bc3e 2a00 e4bd 13b0 5abe
00000090: 2787 e33e 8792 233c df41 7abe ce7b 69bd
000000a0: 640f ba3c cdc4 123e 2ab2 493c 694f 7f3e
000000b0: 273c c03e 8ed9 a63e ddb2 dfbd b747 883e
000000c0: f1fc 33be e7a4 a23e f9ad 23be 616c a43e
000000d0: e8b7 f9bd e6e3 9b3e d075 5a3d 4625 713e
000000e0: 32b5 8ebe 4e9d f4bc 6197 ffbd 4221 d9bd
000000f0: edc6 a6be 9560 a5be 0076 8b3e 2145 1ebe
00000100: 5007 b9bd eae0 42be d7c9 66be 6100 4e3d
00000110: aafd bc3e 8609 98be 2c03 a7be f43c 163a
00000120: 435c 82be 6fa5 6b3d 2503 e5bd 7c01 1ebd
00000130: 1845 fbbe fec3 d1bd 3718 623d b061 b53e

linears.0.bias f4 [40]
0.05320837 -0.38135326 -0.29668042 -0.081843756 0.08733959 0.09963545 -0.09632216 -0.10058688
0.07303048 0.08476073 -0.07503864 0.14408837 0.12844591 -0.035757996 -0.061535493 0.109120734
-0.14599076 0.09094535 -0.020313343 -0.0812117 -0.22054608 -0.12169544 -0.08668453 -0.08173768
-0.07207423 -0.068362266 -0.085685246 -0.055292238 0.076329894 0.014433855 0.0614934 0.32842332
0.09578337 -0.014178704 0.0020326728 0.037384614 0.059955467 -0.14487526 -0.08793861 -0.21763939
00000000: 05f1 593d bc40 c3be 7fe6 97be b39d a7bd
00000010: 19df b23d ac0d cc3d 8d44 c5bd 7f00 cebd
00000020: 0191 953d 0997 ad3d dcad 99bd e78b 133e
00000030: 5387 033e fa76 12bd a40c 7cbd b17a df3d
00000040: 9a7e 15be 8e41 ba3d 2b68 a6bc 5252 a6bd
00000050: d5d6 61be 753b f9bd a987 b1bd 1666 a7bd
00000060: a79b 93bd 8401 8cbd bf7b afbd 1d7a 62bd
00000070: d952 9c3d fa7b 6c3c 81e0 7b3d 1a27 a83e
00000080: 122a c43d cb4d 68bc 9736 053b 9c20 193d
00000090: dd93 753d 2e5a 14be 2819 b4bd dcdc 5ebe

linears.1.weight f4 [40, 40]
-0.25004518 -0.038209714 0.16547358 0.17636967 -0.0105684865 -0.3722881 -0.22489533 0.32030252
0.103751026 -0.27532876 -0.17019697 -0.12987348 -0.04825343 0.21722724 0.2628901 -0.1914875
0.18391626 -0.1311483 0.066734284 0.07765102 0.17601721 0.04271044 -0.20369746 0.100680955
0.21694529 -0.20156579 0.25297287 0.30088684 -0.21780165 0.21592581 -0.2591339 -0.13065125
-0.30119178 -0.06578118 0.23979637 -0.0740365 0.00719622 0.27610505 -0.15507768 0.32011092
-0.1181426 0.017268615 -0.17856044 -0.31549346 -0.13295007 -0.2202361 0.2504085 0.12286836
0.09975188 0.11459472 0.008965474 0.0807244 0.13561602 -0.055397686 0.060767736 0.024560446
-0.17635064 -0.13917562 -0.112166494 -0.23024467 -0.37204877 -0.048059344 -0.29821548 -0.06806543
0.043280862 0.18229498 0.12190576 -0.029758908 0.2624421 -0.16478671 0.057482634 0.16282375
-0.086769395 0.35159215 0.06452025 -0.1376634 -0.18419613 0.006660391 -0.15392615 0.056196388
0.11905339 0.071267046 -0.2698529 -0.23042066 0.27141207 0.0826281 -0.19790213 0.07170797
0.19290236 -0.26161003 -0.14942417 0.24476941 -0.020181537 -0.11638689 0.06372781 -0.0944924
-0.28988606 -0.1965349 0.13389327 -0.003391754 -0.36931992 -0.29034606 0.18644199 0.1601683
0.18474536 -0.23534459 -0.23355772 0.23470144 0.09673001 0.24440657 0.09640529 -0.16929612
0.23420869 -0.093325876 0.33967805 -0.016786722 0.16907799 -0.073749565 -0.058887877 -0.1939343
-0.25796863 -0.068133764 -0.08406863 -0.2738451 0.18608879 -0.20709695 -0.1397612 0.19349477
-0.11764063 -0.10503652 0.12936226 -0.114571296 0.033058845 0.2676408 0.13048069 0.18227899
0.29807666 -0.19006997 -0.24063706 0.32264298 0.20470504 0.21320623 -0.05553014 0.20560932
0.29064932 0.033894923 0.24970184 -0.21215737 -0.066025056 -0.15269443 0.06798289 -0.42813846
0.07597033 0.2773276 -0.33414996 0.17119583 -0.07182733 0.08377999 0.10482919 -0.17606203
0.04699891 -0.027282838 0.17090787 0.19697033 -0.21574838 0.06879982 0.33826205 -0.029026136
-0.10754448 0.14075881 -0.17984411 -0.20403431 0.14559841 0.013431655 -0.09882176 -0.080150194
0.12872879 -0.17419595 -0.06593586 -0.113454916 0.108937755 0.3037392 0.03805995 0.05292129
0.016783593 0.29707584 0.0756795 -0.037173256 -0.05223956 -0.15439191 0.17423548 0.15038042
-0.19356482 -0.057832606 0.17999656 0.0026841688 -0.1620626 -0.043631386 -0.23224783 0.24184184
-0.32762742 0.18705657 0.16546914 0.08473756 -0.23212883 -0.1550163 -0.06203198 0.18807407
-0.09512766 0.13832527 -0.080752015 0.05318372 0.10555261 -0.1087734 0.06908249 0.2276869
0.07036869 0.07603812 0.07368445 0.01798495 -0.066304594 0.15843233 0.02153279 0.0078921085
0.05964814 -0.18020959 -0.07984113 0.10987547 0.15452446 -0.26719323 0.053621735 -0.17251098
-0.11430615 0.25463304 -0.10957802 0.2903379 -0.022338169 -0.19607355 0.20318198 -0.024354134
-0.29586172 0.0066985786 0.08845897 -0.08444222 -0.22649217 -0.1712841 0.058365766 0.24542534
-0.07757224 -0.10792332 -0.008297438 -0.070170455 0.054109804 0.10319128 0.25976232 -0.03748435
00000000: ec05 80be ca81 1cbd e871 293e 409a 343e
00000010: 7227 2dbc 8c9c bebe f64a 66be b1fe a33e
00000020: 6b7b d43d e4f7 8cbe 1d48 2ebe 8efd 04be
00000030: 63a5 45bd d170 5e3e 8899 863e 4d15 44be
00000040: 8b54 3c3e bd4b 06be fcab 883d 7f07 9f3d
00000050: db3d 343e 24f1 2e3d 1196 50be d131 ce3d
00000060: e826 5e3e 4367 4ebe a985 813e d70d 9a3e
00000070: 6507 5fbe a81b 5d3e 33ad 84be 71c9 05be
00000080: cf35 9abe 49b8 86bd 2e8d 753e 73a0 97bd
00000090: 45ce eb3b a45d 8d3e afcc 1ebe 94e5 a33e
000000a0: bff4 f1bd e976 8d3c 8cd8 36be 5c88 a1be
000000b0: 1024 08be 9285 61be 8b35 803e 68a2 fb3d
000000c0: b74a cc3d a3b0 ea3d ece3 123c d652 a53d
000000d0: edde 0a3e afe8 62bd 97e7 783d fd32 c93c
000000e0: 4395 34be 0e84 0ebe 8cb7 e5bd 42c5 6bbe
000000f0: 2d7d bebe e0d9 44bd b3af 98be e365 8bbd
00000100: 4647 313d 89ab 3a3e baa9 f93d f4c8 f3bc
00000110: d05e 863e d9bd 28be e972 6b3d 45bb 263e
00000120: 27b4 b1bd e303 b43e 3123 843d a2f7 0cbe
00000130: e99d 3cbe 693f da3b d19e 1dbe 2f2e 663d
00000140: 44d2 f33d 75f4 913d 292a 8abe 65f3 6bbe
00000150: 86f6 8a3e ec38 a93d dba6 4abe a1db 923d
00000160: 3288 453e c0f1 85be a602 19be d5a4 7a3e
00000170: c053 a5bc 405c eebd ba83 823d 3b85 c1bd
00000180: f26b 94be 7240 49be 511b 093e 3148 5ebb
00000190: 8017 bdbe 3da8 94be a6ea 3e3e 2903 243e
000001a0: e32d 3d3e 2cfe 70be c129 6fbe 9355 703e
000001b0: 621a c63d b745 7a3e 2370 c53d f65b 2dbe
000001c0: 67d4 6f3e a321 bfbd 48ea ad3e 4f84 89bc
000001d0: c822 2d3e 030a 97bd 6a34 71bd b796 46be
000001e0: 7714 84be b789 8bbd 2d2c acbd 6d35 8cbe
000001f0: 0f8e 3e3e 3911 54be 8f1d 0fbe 7e23 463e
00000200: 92ed f0bd 631d d7bd 8a77 043e 5ba4 eabd
00000210: b668 073d 3708 893e bb9c 053e 58a7 3a3e
00000220: 819d 983e b4a1 42be 9069 76be 7631 a53e
00000230: 339e 513e bc52 5a3e 9273 63bd 408b 523e
00000240: fdcf 943e 67d5 0a3d d7b1 7f3e c83f 59be
00000250: 2538 87bd ee5b 1cbe 9d3a 8b3d f734 dbbe
00000260: 5596 9b3d e2fd 8d3e b415 abbe f64d 2f3e
00000270: 351a 93bd d894 ab3d b0b0 d63d 9b49 34be
00000280: ee81 403d 4280 dfbc 7902 2f3e 97b2 493e
00000290: 25ed 5cbe ece6 8c3d af30 ad3e 38c8 edbc
000002a0: 4840 dcbd 1423 103e 0e29 38be 5fee 50be
000002b0: c017 153e 7210 5c3c 1063 cabd c925 a4bd
000002c0: 7bd1 033e 6c60 32be 6109 87bd 0d5b e8bd
000002d0: c21a df3d b483 9b3e c0e4 1b3d ffc3 583d
000002e0: bf7d 893c 531a 983e dbfd 9a3d fc42 18bd
000002f0: 26f9 55bd ea18 1ebe c96a 323e 53fd 193e
00000300: db35 46be e2e1 6cbd 0551 383e e1e8 2f3b
00000310: bdf3 25be d3b6 32bd 60d2 6dbe 63a5 773e
00000320: c8be a7be c28b 3f3e be70 293e e38a ad3d
00000330: 2eb3 6dbe 98bc 1ebe 3f15 7ebd 7d96 403e
00000340: 4ad2 c2bd 24a5 0d3e 5061 a5bd 2cd7 593d
00000350: f72b d83d 97c4 debd 1f7b 8d3d c126 693e
00000360: 761d 903d e0b9 9b3d dfe7 963d 2d55 933c
00000370: b4ca 87bd 163c 223e 8965 b03c e74d 013c
00000380: 9c51 743d dd88 38be bf83 a3bd 6406 e13d
00000390: a93b 1e3e 8dcd 88be 77a2 5b3d b8a6 30be
000003a0: 5819 eabd 435f 823e 716a e0bd 2ba7 943e
000003b0: 89fe b6bc 81c7 48be f00e 503e 5282 c7bc
000003c0: 307b 97be c07f db3b fa29 b53d 0bf0 acbd
000003d0: 90ed 67be 1965 2fbe f110 6f3d c850 7b3e
000003e0: 32de 9ebd e706 ddbd faf1 07bc 87b5 8fbd
000003f0: 3ea2 5d3d f355 d33d 91ff 843e 3189 19bd

linears.1.bias f4 [40]
-0.10352124 0.049828734 0.04872274 -0.13635185 -0.031784628 -0.03851094 -0.05437426 0.10689623
-0.0284953 0.048677042 0.39616346 -0.035111926 -0.09682979 -0.17888926 0.0022184388 -0.00044885025
0.13037314 -0.06348064 0.09105458 -0.027857833 0.068331584 0.11665538 -0.06504435 0.07469269
0.1366215 -0.03679175 0.065185435 0.09784686 0.05035384 -0.004353302 -0.06254541 0.22063865
0.0002875947 -0.06292944 0.24336016 0.08725976 0.06322778 -0.10450693 -0.119400084 0.06101973
00000000: f202 d4bd 3719 4c3d 7f91 473d d29f 0bbe
00000010: 9930 02bd a6bd 1dbd 8bb7 5ebd 69ec da3d
00000020: fa6e e9bc 9461 473d f0d5 ca3e 86d1 0fbd
00000030: b24e c6bd bf2e 37be 3a63 113b a953 ebb9
00000040: 8980 053e 2302 82bd d37a ba3d 1c36 e4bc
00000050: 6ef1 8b3d 04e9 ee3d f935 85bd 7bf8 983d
00000060: 82e6 0b3e f2b2 16bd f17f 853d ef63 c83d
00000070: d43f 4e3d 25a6 8ebb cf17 80bd 19ef 613e
00000080: 4fc8 9639 26e1 80bd 6833 793e 3fb5 b23d
00000090: 917d 813d bb07 d6bd 0888 f4bd d3ef 793d

linears.2.weight f4 [40, 40]
0.309818 -0.078644276 -0.24554019 0.00068877795 -0.046517923 -0.042946316 0.240192 -0.2529546
-0.03348233 0.247898 -0.2782562 -0.06268107 0.006806706 0.23079233 -0.1457282 0.14765833
-0.12320164 0.27679586 0.074971214 0.11041763 -0.04935874 0.13588548 -0.061985005 -0.10392467
-0.1293786 -0.17787535 -0.15531443 -0.36929268 -0.10895581 -0.23428343 0.41236523 0.28585702
-0.012324054 -0.15572582 -0.33237845 -0.116704725 -0.044413116 0.3225361 0.23276465 0.045399852
-0.16923413 0.11691422 0.04869608 0.073912 0.1787205 -0.24188556 -0.21032959 0.26483503
-0.18998347 -0.053105738 -0.047433536 0.16053466 0.15661553 -0.11121238 0.21964176 -0.04799876
0.008347143 0.109018 -0.27943859 -0.05124513 -0.053990155 0.0837264 0.20297983 0.008753454
0.17286097 -0.035710234 0.30156943 -0.17493688 0.23873848 -0.024095954 -0.35139182 0.04194291
0.2932792 0.29071063 -0.042472016 -0.044374365 0.041422702 -0.124185815 -0.2287218 0.10153596
0.4649863 0.0064368425 -0.33424872 0.23457147 0.3438173 -0.056363896 0.26994622 -0.12403763
-0.0869519 -0.11179956 -0.39751482 -0.1026724 0.041724447 0.19928855 -0.34064698 0.11858029
-0.1557358 -0.018329397 0.33575588 0.099096216 -0.39986134 -0.14350294 -0.2264942 -0.45247293
-0.060070585 0.09296441 -0.3052508 -0.1136788 0.017953666 -0.15442282 0.65946627 0.2355097
-0.25456902 0.21380585 -0.8542538 0.14805095 -0.2867539 0.017185222 0.3042 -0.09415797
-0.0536116 0.07953316 -0.13880326 0.23462121 -0.20641363 0.038876977 -0.083289586 0.07136692
0.044322513 -0.09181154 0.10995982 -0.06798595 -0.08352864 -0.15208358 -0.24118495 0.13720015
-0.2035433 -0.08655277 -0.14642566 0.04879127 0.1319286 0.32162082 0.2826463 0.06596143
-0.09926445 -0.14950122 0.12778407 0.20621742 0.11237721 -0.20151281 -0.20747256 0.3784964
0.041680615 0.27971563 0.042067926 0.21932012 0.11495273 -0.19711877 -0.16078866 -0.1948471
0.40889525 0.15865701 -0.25255254 0.07580543 0.11996707 -0.05848833 0.24012941 -0.1449898
-0.05673387 -0.050733194 -0.5111764 -0.29108712 0.2888927 -0.10216972 -0.17701858 -0.19068727
-0.058659397 0.18162331 0.24801996 0.20914102 -0.30233604 0.086463034 -0.27572227 -0.54808927
-0.18527463 -0.051605105 -0.5437415 -0.34141126 -0.41209006 0.01319111 0.12812912 0.26564747
0.020341212 -0.12109918 -0.7189226 0.13947403 -0.14981563 0.3627766 -0.0783479 -0.3171674
-0.24488048 -0.13612932 0.16279475 0.09892935 0.005290423 0.06961277 -0.26870728 -0.15441865
-0.25378227 0.03747157 0.2672339 -0.058673315 0.034472033 -0.018612372 -0.027594527 -0.031410128
0.25937185 0.056433264 0.20933023 -0.08567581 -0.15421864 0.0004924587 -0.30740595 0.28067726
0.21504676 0.27216613 -0.2304039 0.04713791 0.35865855 -0.0013239075 0.026495304 -0.09869183
0.03520318 0.27207792 0.37423992 -0.018997915 -0.17187536 -0.26805028 -0.32768622 0.1162187
0.4008333 -0.12903427 -0.06567551 0.0530014 -0.07283484 0.15929969 0.31442374 -0.30329895
0.30150175 -0.18759467 -0.18867043 0.1144053 -0.01262927 0.21457332 -0.23440424 0.19400963
00000000: 77a0 9e3e 4010 a1bd e36e 7bbe 1b8f 343a
00000010: 9489 3ebd 7ae8 2fbd e4f4 753e 4483 81be
00000020: c524 09bd f9d8 7d3e 9977 8ebe ef5e 80bd
00000030: ca0a df3b d354 6c3e c639 15be bf33 173e
00000040: 2451 fcbd 30b8 8d3e 828a 993d a322 e23d
00000050: 642c 4abd 9025 0b3e fde3 7dbd 75d6 d4bd
00000060: d37b 04be f524 36be bf0a 1fbe ee13 bdbe
00000070: 3924 dfbd ffe7 6fbe 8921 d33e da5b 923e
00000080: d4ea 49bc 9776 1fbe 822d aabe e302 efbd
00000090: 87ea 35bd 7423 a53e db59 6e3e 32f5 393d
000000a0: b64b 2dbe b970 ef3d 8a75 473d 2d5f 973d
000000b0: 8202 373e d9b0 77be a460 57be 7598 873e
000000c0: 078b 42be 6785 59bd ab49 42bd 3363 243e
000000d0: d25f 203e 51c3 e3bd c5e9 603e 599a 44bd
000000e0: 75c2 083c d444 df3d 9312 8fbe 6ae6 51bd
000000f0: c824 5dbd bf78 ab3d f2d9 4f3e a66a 0f3c
00000100: 7702 313e e544 12bd 4f67 9a3e a722 33be
00000110: dc77 743e e164 c5bc a1e9 b3be 54cc 2b3d
00000120: b128 963e 06d8 943e 23f7 2dbd e5c1 35bd
00000130: daaa 293d 2255 febd 0c36 6abe 16f2 cf3d
00000140: af12 ee3e 26ec d23b a622 abbe 8133 703e
00000150: d208 b03e d4dd 66bd 6436 8a3e 7107 febd
00000160: d613 b2bd 2bf7 e4bd 1087 cbbe e845 d2bd
00000170: 41e7 2a3d 4c12 4c3e 4869 aebe 39da f23d
00000180: 3579 1fbe 8827 96bc 32e8 ab3e f5f2 ca3d
00000190: a0ba ccbe 6ff2 12be 18ee 67be 88aa e7be
000001a0: 930c 76bd 2064 be3d d549 9cbe 6ed0 e8bd
000001b0: 9113 933c 0421 1ebe c8d2 283f 7429 713e
000001c0: df56 82be ecef 5a3e 61b0 5abf ab9a 173e
000001d0: 68d1 92be 06c8 8c3c 1ac0 9b3e e5d5 c0bd
000001e0: d697 5bbd 48e2 a23d 7122 0ebe 8b40 703e
000001f0: 185e 53be 773d 1f3d bb93 aabd d228 923d
00000200: 868b 353d b007 bcbd 9d32 e13d 383c 8bbd
00000210: 1011 abbd ccbb 1bbe 30f9 76be 327e 0c3e
00000220: a86d 50be 9442 b1bd 9cf0 15be 5bd9 473d
00000230: 4a18 073e 7cab a43e 04b7 903e c916 873d
00000240: 294b cbbd d916 19be d4d9 023e a92a 533e
00000250: 0626 e63d 6059 4ebe b073 54be 48ca c13e
00000260: 4bb9 2a3d e336 8f3e 6b4f 2c3d 7495 603e
00000270: 566c eb3d 81d9 49be c8a5 24be 0086 47be
00000280: b85a d13e fc76 223e 914e 81be e13f 9b3d
00000290: 4cb1 f53d 7691 6fbd 7ce4 753e 3578 14be
000002a0: c661 68bd 9ccd 4fbd 75dc 02bf 5f09 95be
000002b0: bee9 933e 5c3e d1bd 5c44 35be 8643 43be
000002c0: d644 70bd 76fb 393e f2f8 7d3e 1029 563e
000002d0: cacb 9abe 8813 b13d 782b 8dbe 944f 0cbf
000002e0: a2b8 3dbe e05f 53bd a532 0bbf 75cd aebe
000002f0: 78fd d2be 871f 583c 4834 033e f202 883e
00000300: 9da2 a63c d902 f8bd 500b 38bf 48d2 0e3e
00000310: 4569 19be dbbd b93e dd74 a0bd c463 a2be
00000320: f3c1 7abe 7c65 0bbe abb3 263e 799b ca3d
00000330: 495b ad3b 2491 8e3d 0094 89be ec1f 1ebe
00000340: c0ef 81be ca7b 193d e2d2 883e 6e53 70bd
00000350: 8c32 0d3d f978 98bc eb0d e2bc e8a7 00bd
00000360: 63cc 843e 9126 673d aa5a 563e cd76 afbd
00000370: 7eeb 1dbe 5818 013a 5064 9dbe eeb4 8f3e
00000380: 3835 5c3e 5c59 8b3e 00ef 6bbe ae13 413d
00000390: 18a2 b73e f786 adba ae0c d93c f11e cabd
000003a0: 3631 103d cc4d 8b3e 609c bf3e 84a1 9bbc
000003b0: 1800 30be e33d 89be 7dc6 a7be 1204 ee3d
000003c0: 063a cd3e 8f21 04be e280 86bd ff17 593d
000003d0: 6f2a 95bd 751f 233e 26fc a03e 004a 9bbe
000003e0: 705e 9a3e d118 40be d232 41be 534d ea3d
000003f0: ffea 4ebc 1cb9 5b3e aa07 70be 76aa 463e

linears.2.bias f4 [40]
-0.03857067 0.010547086 -0.116862945 -0.006154236 -0.0587088 0.027439242 -0.030741751 0.0919986
-0.012241615 0.022909539 0.027681233 -0.066873536 -0.058422368 -0.0010195312 0.01943063 0.08457874
0.0019687975 0.0013320844 -0.053493463 -0.08901493 0.02134252 -0.04590227 0.09326865 0.04154654
-0.11188717 0.1855319 0.059150323 0.0234571 -0.05839959 -0.048870668 -0.032521866 0.010721964
-0.05811018 -0.021993728 0.00750637 -0.011367657 0.0599035 -0.05369317 0.0006704622 -0.046440627
00000000: 47fc 1dbd afcd 2c3c d755 efbd 79a9 c9bb
00000010: a378 70bd 43c8 e03c 20d6 fbbc c369 bc3d
00000020: 0e91 48bc c9ac bb3c c1c3 e23c fef4 88bd
00000030: 4b4c 6fbd caa1 85ba fc2c 9f3c 9e37 ad3d
00000040: f106 013b 5699 ae3a f61b 5bbd 764d b6bd
00000050: 82d6 ae3c 0504 3cbd a203 bf3d b42c 2a3d
00000060: 1a25 e5bd 13fc 3d3e 9c47 723d 1b29 c03c
00000070: 6934 6fbd 9c2c 48bd a635 05bd 2dab 2f3c
00000080: f104 6ebd 312c b4bc fff7 f53b 693f 3abc
00000090: 5f5d 753d 5fed 5bbd f5c1 2f3a 8738 3ebd

linears.3.weight f4 [40, 40]
0.29727924 0.31262463 -0.30113685 0.23710862 -0.22803771 -0.26858833 -0.08059186 -0.14634578
-0.19962318 -0.398633 -0.14162664 0.15661897 -0.0042252936 -0.06055565 -0.36826742 0.011343993
0.2980443 -0.081484415 -0.19920719 0.4225978 -0.043500725 -0.20502883 -0.3180546 0.265553
0.42033386 -0.010914962 0.31815928 0.28695694 -0.11534629 0.06613173 -0.19812249 -0.08203749
-0.29908714 -0.39940718 -0.049474087 -0.267031 0.16844448 0.31685203 0.046382595 0.09952797
0.22584601 0.28858113 0.19459298 0.35927328 -0.21269691 -0.02969592 -0.17830947 -0.1084069
-0.37899646 -0.36106756 -0.2578667 0.3797897 0.21714713 -0.12909804 -0.03500224 0.25134897
0.031858798 0.23222725 0.1975371 0.47649673 -0.0055692387 0.046521913 -0.18295279 -0.1848787
0.49095282 0.051422074 -0.14145224 -0.24257629 0.41581938 0.29863384 0.008208986 0.272363
-0.0020130633 -0.15848227 0.08175156 -0.047045533 0.08509447 0.2820839 0.030135695 0.1359877
0.12234621 0.13100909 0.11943963 0.087518595 0.16611695 0.033903327 0.21997006 -0.24481982
0.1876722 0.04148323 0.11270639 -0.047120627 0.1961317 -0.20479344 0.005933183 -0.012538749
0.22361301 -0.16574514 0.0046871817 0.16336025 0.06856115 -0.13822414 -0.21419257 0.05004887
-0.13545713 -0.12162556 0.12680192 0.015952703 0.15927128 0.15867753 -0.023240313 -0.04985054
0.29497725 0.2649478 -0.20645222 0.12787066 0.25185978 0.22641794 -0.002628209 0.24866766
0.46481183 -0.27758884 0.27624455 0.07131708 0.07696911 -0.32448414 0.17335038 0.28738585
0.059417054 -0.047009896 -0.035197284 0.1508067 0.34369585 -0.09388075 -0.25274712 -0.024808455
-0.079227135 0.25318134 0.13515805 0.24287234 -0.06065997 0.32272312 0.07133987 -0.29909235
0.057210784 -0.453734 0.2327582 0.14294401 0.44772136 0.014061217 0.29230186 -0.029654149
0.30224216 0.009711153 0.26707363 0.24462536 -0.009476132 0.10324538 0.19227885 0.40148634
0.06104852 0.016858893 0.026511239 -0.17207986 0.19464819 0.1362555 0.06881945 -0.038217757
-0.26003224 -0.11447135 -0.22757338 -0.14641474 0.09823413 0.11767613 0.056398407 0.061386894
0.0012227551 -0.10027957 -0.13501675 0.23353665 -0.26713958 0.08944024 0.05739503 -0.059277747
0.015605227 0.22659203 -0.0770416 0.21381034 -0.2152208 -0.09565862 -0.09117215 0.106444374
0.08252184 -0.11677936 0.108184054 0.24639547 -0.13965406 -0.11380811 0.08897723 -0.23238279
-0.053139675 0.14744535 0.10109016 0.32641727 -0.092531234 0.14442721 -0.27752748 0.058403026
0.2311394 -0.25542414 -0.0169177 -0.005908247 -0.16898747 0.08219081 -0.16921833 0.14432807
0.22370195 -0.013821923 -0.061864167 -0.17393354 -0.27660397 0.13684428 0.10774566 0.059998605
-0.18967168 -0.04031199 0.18126313 -0.02918837 -0.044481806 -0.21045601 -0.2492975 0.081646055
-0.4227483 -0.047629777 0.29501334 -0.09691248 0.24918206 -0.010561237 0.2746198 -0.13803187
0.009897236 -0.2862468 0.29023197 -0.13065827 0.29029006 0.29168275 0.00901441 0.1019315
0.42187458 0.3335879 -0.063009895 -0.24030708 -0.0841348 -0.2824699 0.12954448 -0.0061603542
00000000: fc34 983e 5610 a03e 9c2e 9abe 9acc 723e
00000010: b882 69be 6984 89be 580d a5bd abdb 15be
00000020: 056a 4cbe a019 ccbe 9306 11be b960 203e
00000030: 5574 8abb 3409 78bd 8c8d bcbe 28dc 393c
00000040: 4399 983e 4de1 a6bd f8fc 4bbe bd5e d83e
00000050: d12d 32bd 14f3 51be 0dd8 a2be 90f6 873e
00000060: 0036 d73e abd4 32bc c6e5 a23e 05ec 923e
00000070: ad3a ecbd 1370 873d 9fe0 4abe 4603 a8bd
00000080: f321 99be 197f ccbe 57a5 4abd 4ab8 88be
00000090: b67c 2c3e 6e3a a23e adfb 3d3d 52d5 cb3d
000000a0: 2d44 673e e8c0 933e 6243 473e abf2 b73e
000000b0: 38cd 59be dc44 f3bc c296 36be 7004 debd
000000c0: d30b c2be d9dd b8be 1b07 84be cc73 c23e
000000d0: d15b 5e3e 4732 04be 825e 0fbd d0b0 803e
000000e0: 5f7e 023d fbcc 6d3e 2a47 4a3e 61f7 f33e
000000f0: 297e b6bb c38d 3e3d fa57 3bbe d850 3dbe
00000100: 2b5e fb3e f49f 523d dbd8 10be eb65 78be
00000110: 47e6 d43e 89e6 983e fc7e 063c 2a73 8b3e
00000120: 99ed 03bb 2d49 22be 5d6d a73d d1b2 40bd
00000130: 0246 ae3d 4d6d 903e 22df f63c 5c40 0b3e
00000140: a690 fa3d 3f27 063e c49c f43d f33c b33d
00000150: 901a 2a3e 37de 0a3d d53f 613e 0cb2 7abe
00000160: 242d 403e 52ea 293d 9cd2 e63d 8f01 41bd
00000170: c0d6 483e 5fb5 51be 256b c23b 536f 4dbc
00000180: cffa 643e 18b9 29be ee96 993b e947 273e
00000190: ca69 8c3d a18a 0dbe 4c55 5bbe 0b00 4d3d
000001a0: 46b5 0abe d216 f9bd 5dd8 013e 3eaf 823c
000001b0: 0318 233e 5d7c 223e 7862 bebc 1430 4cbd
000001c0: 4207 973e 3da7 873e 3668 53be 87f0 023e
000001d0: c4f3 803e 1bda 673e 083e 2cbb bca2 7e3e
000001e0: d1fb ed3e 2020 8ebe ed6f 8d3e b00e 923d
000001f0: fba1 9d3d c922 a6be c382 313e 3d24 933e
00000200: 4c5f 733d 738d 40bd 072b 10bd 126d 1a3e
00000210: e7f8 af3e 8d44 c0bd 1268 81be 1a3b cbbc
00000220: d641 a2bd fca0 813e df66 0a3e 87b3 783e
00000230: 9776 78bd f73b a53e a31a 923d a222 99be
00000240: db55 6a3d d34f e8be 2a58 6e3e ea5f 123e
00000250: bc3b e53e 0561 663c 97a8 953e 42ed f2bc
00000260: 7cbf 9a3e 871b 1f3c e0bd 883e 127f 7a3e
00000270: c741 1bbc 5072 d33d bfe4 443e 9e8f cd3e
00000280: 030e 7a3d a91b 8a3c 192e d93c b435 30be
00000290: db51 473e 9086 0b3e 36f1 8c3d 398a 1cbd
000002a0: f222 85be f56f eabd ff08 69be bfed 15be
000002b0: fa2e c93d 2f00 f13d 0402 673d d370 7b3d
000002c0: da44 a03a 605f cdbd d541 0abe 3b24 6f3e
000002d0: 85c6 88be 722c b73d 0d17 6b3d 39cd 72bd
000002e0: 11ad 7f3c be07 683e fdc7 9dbd 19f1 5a3e
000002f0: d762 5cbe abe8 c3bd 77b8 babd 82ff d93d
00000300: 3601 a93d 042a efbd 9a8f dd3d 184f 7c3e
00000310: 7901 0fbe 3a14 e9bd b239 b63d c1f5 6dbe
00000320: fda8 59bd eafb 163e 5c08 cf3d 2a20 a73e
00000330: 0481 bdbd bae4 133e 1518 8ebe 0338 6f3d
00000340: cfaf 6c3e f4c6 82be fd96 8abc f899 c1bb
00000350: 0d0b 2dbe a853 a83d 9247 2dbe bdca 133e
00000360: 2012 653e 5975 62bc 4865 7dbd a21b 32be
00000370: 099f 8dbe e820 0c3e c2a9 dc3d 19c1 753d
00000380: 4b39 42be 2f1e 25bd 0b9d 393e 731c efbc
00000390: 8e32 36bd c881 57be d847 7fbe 0c36 a73d
000003a0: 7772 d8be 7117 43bd fd0b 973e 0d7a c6bd
000003b0: 9529 7f3e 0a09 2dbc f79a 8c3e 3a58 0dbe
000003c0: 0428 223c f18e 92be 4999 943e 48cb 05be
000003d0: e6a0 943e 7157 953e 2db1 133c 76c1 d03d
000003e0: f2ff d73e 09cc aa3e 550b 81bd 0f13 76be
000003f0: de4e acbd e59f 90be 4fa7 043e ccdc c9bb

linears.3.bias f4 [40]
-0.028388746 -0.035609603 -0.012311096 -0.035541702 0.014999965 0.023472201 0.063816614 -0.089911476
-0.06191254 -0.008265288 0.037159797 -0.017717892 0.024211623 0.0051050265 -0.032755837 -0.020460017
0.0032343897 0.001783404 0.009592324 0.024447847 -0.029750276 -0.009985366 0.012585063 -0.04974886
0.03312014 0.02768753 -0.065391935 -0.009505515 0.0063260845 0.055911843 -0.028216137 -0.022249822
-0.025608407 0.0014492698 -0.060499735 -0.01696962 -0.0013840068 0.034671154 0.019348513 -0.021421006
00000000: 848f e8bc 60db 11bd 7bb4 49bc 2d94 11bd
00000010: 6ac2 753c c648 c03c 49b2 823d 8223 b8bd
00000020: 0198 7dbd 216b 07bc df34 183d 1d25 91bc
00000030: 7457 c63c 1148 a73b fc2a 06bd c49b a7bc
00000040: 0ef8 533b 1cc1 e93a 1f29 1d3c da46 c83c
00000050: dab6 f3bc a999 23bc 9531 4e3c 76c5 4bbd
00000060: fca8 073d f5d0 e23c 35ec 85bd 05bd 1bbc
00000070: 0b4b cf3b d103 653d 8725 e7bc 4245 b6bc
00000080: b9c8 d1bc 6df5 bd3a 92ce 77bd df03 8bbc
00000090: 9067 b5ba 5703 0e3d c680 9e3c 1b7b afbc

linears.4.weight f4 [40, 40]
0.015341993 0.0066927546 -0.13565283 0.27475357 -0.09991898 -0.2748649 0.28168765 0.08056074
-0.30981958 0.2755568 -0.30668947 0.15696457 0.05735806 0.06882389 -0.06981015 0.30966336
-0.071322724 -0.21796279 -0.04015309 -0.0064903023 0.112169005 -0.15096113 0.2029177 -0.15140907
-0.06777153 0.1773958 -0.07531298 0.31144252 0.04905881 0.022159092 -0.043049295 -0.07335105
0.0581673 0.074730136 -0.097061366 -0.18327321 -0.24411437 -0.08523788 0.30003583 0.026086817
0.06448571 0.2928091 0.17224525 0.44069728 0.06778124 -0.08377058 -0.14260253 0.41714346
-0.050836783 0.21766904 -0.19834118 -0.26194242 -0.25493932 0.08099807 0.31633523 0.25648624
-0.037631422 -0.10298652 -0.042865902 0.103808716 0.14618674 -0.23216175 -0.31882197 0.34075034
-0.27882242 0.10489533 -0.2603865 0.13190676 -0.30332178 -0.15061164 0.23496589 0.040246222
-0.12408112 0.2867757 0.031109171 -0.14461806 -0.36871752 -0.3146458 -0.23179528 0.16403359
0.22731431 0.080563694 -0.24008292 0.07334308 -0.0126186265 -0.11907878 0.014479936 -0.20468947
0.28870583 -0.14997722 0.22316703 -0.034473177 0.16888161 0.1708193 0.16491085 -0.13256094
-0.20293847 -0.10404564 0.28295782 0.03835099 -0.085140124 -0.2802519 -0.21849754 0.16848208
-0.11730479 -0.13662449 0.19073631 -0.30908617 0.29595435 -0.12876098 -0.11767987 -0.07979021
0.18442707 -0.17283837 -0.03428944 -0.14652647 0.1451474 0.11967236 -0.29826838 -0.017830305
-0.19402136 -0.19411981 0.016754666 -0.1881939 0.18930238 -0.18008234 0.1655206 0.022779588
0.03597976 -0.15081462 -0.058366045 0.21766004 0.11018414 -0.0017720433 0.23846637 0.087280095
-0.009578558 -0.07297777 -0.032130554 0.12177628 0.04609875 -0.19933471 -0.16355117 -0.16186272
-0.14694205 0.19658212 0.21678068 -0.109707475 0.25204584 -0.06777558 0.088943586 -0.23585306
-0.11495753 -0.037030075 -0.25498405 0.19242834 -0.18807888 0.13142243 -0.12171601 0.24893865
0.10642574 0.29633206 -0.15463187 0.17589648 -0.04396635 0.20481856 -0.10765987 -0.19774288
-0.0569172 -0.13528863 -0.1357731 -0.19944687 0.20789327 -0.09363567 -0.10586598 -0.205751
-0.07023328 -0.21041006 -0.24525058 -0.01774626 0.051934585 0.08776292 -0.033351664 -0.24084201
0.055240244 -0.027627278 0.17640282 0.117342666 0.31408387 0.1415315 -0.26827586 -0.09541316
0.107665524 0.014472678 -0.09156021 -0.19429243 -0.11595261 -0.21457514 0.06752526 0.09482735
-0.29092214 0.2165319 -0.033506446 -0.16738658 0.09847593 0.30552116 -0.051008645 -0.05454179
-0.12419282 -0.16911629 0.15831307 0.30893144 -0.29528388 0.2625805 -0.048993543 -0.16736995
-0.06890228 -0.057305563 -0.02595226 -0.111463524 -0.030386524 0.036158465 -0.14832896 -0.0072523565
-0.14951392 0.06842676 -0.27984226 0.2546485 -0.06611117 -0.28652644 -0.0757333 -0.040039185
-0.16838245 0.20362939 -0.15469876 0.22016096 0.2573157 0.20303848 0.041399226 0.36826867
-0.14715493 -0.14101775 0.21513295 -0.2549715 0.107378565 -0.07136254 -0.10187883 -0.119206585
-0.2517704 -0.14947425 -0.14297909 0.042959735 -0.17513546 0.14621086 -0.24358 -0.22478504
00000000: fc5c 7b3c e54e db3b 93e8 0abe 80ac 8c3e
00000010: 52a2 ccbd 18bb 8cbe 5d39 903e 07fd a43d
00000020: aca0 9ebe c815 8d3e 6706 9dbe 52bb 203e
00000030: 49f0 6a3d 8af3 8c3d a0f8 8ebd 328c 9e3e
00000040: a611 92bd a331 5fbe 9177 24bd 9aac d4bb
00000050: ddb8 e53d 8e95 1abe a8c9 4f3e fb0a 1bbe
00000060: cdcb 8abd 3fa7 353e b13d 9abd 6575 9f3e
00000070: e4f1 483d fc86 b53c 7554 30bd 1339 96bd
00000080: d640 6e3d 1d0c 993d 1cc8 c6bd f9ab 3bbe
00000090: 1ef9 79be 3391 aebd 4c9e 993e 05b4 d53c
000000a0: 1511 843d 13eb 953e 0f61 303e 13a3 e13e
000000b0: e4d0 8a3d e98f abbd 6606 12be d493 d53e
000000c0: 3b3a 50bd a2e4 5e3e f319 4bbe 511d 86be
000000d0: 6887 82be 51e2 a53d b1f6 a13e 2a52 833e
000000e0: 6823 1abd 99ea d2bd 2894 2fbd aa99 d43d
000000f0: fab1 153e cfbb 6dbe a23c a3be d476 ae3e
00000100: d0c1 8ebe 5dd3 d63d 6151 85be 9112 073e
00000110: fe4c 9bbe f039 1abe e69a 703e 39d9 243d
00000120: 3e1e febd 44d4 923e a9d8 fe3c c216 14be
00000130: 8bc8 bcbe 4119 a1be be5b 6dbe 6cf8 273e
00000140: 15c5 683e 94fe a43d 4cd8 75be e634 963d
00000150: 5bbe 4ebc 93df f3bd 413d 6d3c 1e9a 51be
00000160: 40d1 933e a193 19be e685 643e bf33 0dbd
00000170: 4def 2c3e 41eb 2e3e 64de 283e 0ebe 07be
00000180: 1acf 4fbe e115 d5bd d9df 903e ed15 1d3d
00000190: f25d aebd 2d7d 8fbe d2bd 5fbe 9186 2c3e
000001a0: 7e3d f0bd 4ae7 0bbe 6150 433e 8b40 9ebe
000001b0: 5487 973e ebd9 03be 2502 f1bd 0d69 a3bd
000001c0: 73da 3c3e 8bfc 30be 1573 0cbd 090b 16be
000001d0: 85a1 143e c816 f53d a2b6 98be dc10 92bc
000001e0: 89ad 46be 58c7 46be 1541 893c e7b5 40be
000001f0: 7cd8 413e 8167 38be 3b7e 293e 429c ba3c
00000200: 835f 133d 266f 1abe 3c11 6fbd 46e2 5e3e
00000210: 39a8 e13d e843 e8ba 8730 743e e8bf b23d
00000220: 62ef 1cbc 5e75 95bd 549b 03bd d865 f93d
00000230: 0bd2 3c3d 661e 4cbe f579 27be 57bf 25be
00000240: fa77 16be d34c 493e c1fb 5d3e 50ae e0bd
00000250: 270c 813e eccd 8abd 0e28 b63d 7783 71be
00000260: da6e ebbd d9ac 17bd 458d 82be ef0b 453e
00000270: c097 40be 9a93 063e 3e46 f9bd c6e9 7e3e
00000280: bdf5 d93d d6b8 973e d157 1ebe 351e 343e
00000290: 0f16 34bd f5bb 513e c77c dcbd 1c7d 4abe
000002a0: 0322 69bd 1a89 0abe 1b08 0bbe cd3b 4cbe
000002b0: f9e1 543e 0fc4 bfbd 43d0 d8bd 64b0 52be
000002c0: 77d6 8fbd bc75 57be f822 7bbe 9b60 91bc
000002d0: 5cb9 543d 0cbd b33d c19b 08bd 4a9f 76be
000002e0: 9843 623d 9a52 e2bc f1a2 343e 5a51 f03d
000002f0: 9acf a03e a2ed 103e 745b 89be fa67 c3bd
00000300: be7f dc3d d01e 6d3c eb83 bbbd 98f4 46be
00000310: 9078 edbd 96b9 5bbe af4a 8a3d d734 c23d
00000320: bff3 94be 8aba 5d3e 0e3e 09bd 6367 2bbe
00000330: c0ad c93d 456d 9c3e 71ee 50bd 3667 5fbd
00000340: ce58 febd d22c 2dbe d21c 223e 432c 9e3e
00000350: 732f 97be f470 863e 74ad 48bd 0763 2bbe
00000360: a31c 8dbd 3db9 6abd d599 d4bc fd46 e4bd
00000370: 29ed f8bc e61a 143d 8ce3 17be 2da5 edbb
00000380: 2d1a 19be 5423 8c3d 7c47 8fbe 4a61 823e
00000390: 4b65 87bd 98b3 92be 0f1a 9bbd 2100 24bd
000003a0: 736c 2cbe 3984 503e 5a69 1ebe e071 613e
000003b0: e2be 833e 52e9 4f3e 3c92 293d b68d bc3e
000003c0: c8af 16be f566 10be d04b 5c3e a08b 82be
000003d0: 4be9 db3d 8626 92bd d9a5 d0bd 9522 f4bd
000003e0: 0de8 80be c70f 19be 1c69 12be 8cf6 2f3d
000003f0: b656 33be 4db8 153e 096d 79be 0d2e 66be

linears.4.bias f4 [40]
0.019756965 -0.019618437 0.040301118 -0.0035403774 0.013841323 -0.0020813765 0.01122747 -0.009432678
0.01592854 0.037515193 0.07454025 0.0045651644 0.022090996 0.07596703 0.005828559 0.046808247
0.06602646 0.002945231 -0.03180914 -0.0038090926 -0.0037257907 0.01234526 0.014245441 0.0617392
-0.005971639 -0.0186684 0.041184906 0.024778424 -0.030475842 -0.019285008 0.0028876432 -0.03200728
-0.016247142 -0.028889185 0.027169738 0.042667985 -0.015451978 -0.010983132 0.027308056 -0.0072404444
00000000: 5cd9 a13c d8b6 a0bc c912 253d ad05 68bb
00000010: b7c6 623c b467 08bb 6cf3 373c 858b 1abc
00000020: 927c 823c 88a9 193d 8fa8 983d 6097 953b
00000030: 2df8 b43c 9a94 9b3d 7ffd be3b 01ba 3f3d
00000040: e138 873d c704 413b 4d4a 02bd f8a1 79bb
00000050: 652c 74bb c643 4a3c b665 693c 3ee2 7c3d
00000060: bdad c3bb 79ee 98bc 81b1 283d 1ffc ca3c
00000070: 79a8 f9bc 98fb 9dbc 9d3e 3d3b 111a 03bd
00000080: ba18 85bc 03a9 ecbc 1293 de3c a0c4 2e3d
00000090: 4b2a 7dbc 98f2 33bc 25b5 df3c 4041 edbb

linears.5.weight f4 [3, 40]
0.2432111 -0.11543491 0.32832643 -0.3005728 0.34552944 -0.08104704 0.045744922 -0.03251475
-0.10271237 0.37653893 0.25450623 0.10402979 0.35655054 0.31895894 0.311878 0.43391013
0.26484957 0.0071927113 -0.2876595 -0.031076126 0.10034472 -0.18383025 -0.0845499 0.329251
0.003520137 -0.38073304 0.014560236 0.3794776 0.32509392 -0.2440286 0.35863394 -0.09716843
-0.1728613 -0.29352933 0.18990855 0.32177892 -0.1394537 0.3158468 -0.15069291 0.28114638
0.07132886 0.023542719 -0.011557671 -0.23499276 -0.23971742 -0.26624364 -0.2934126 0.36008865
0.044835325 0.12216418 -0.004612968 -0.17537943 0.13501179 -0.033227447 -0.25801277 0.16625404
-0.057784453 -0.14621921 0.294954 -0.3236798 0.18694246 -0.27213404 -0.18320967 -0.10731914
0.17180398 -0.19047089 -0.06696524 0.27843714 -0.17560802 -0.25764245 -0.07469666 -0.12635909
0.2914279 -0.30766732 -0.08256722 -0.0074419794 -0.09809713 0.1536226 -0.057361424 0.23072608
0.11464183 -0.18004932 -0.20517115 -0.17887275 0.30058613 -0.19076307 -0.09458846 0.17760669
0.019881178 0.09552359 -0.27247852 -0.12498535 -0.09392418 -0.16676772 -0.20244992 -0.0063733915
0.40448275 0.16479427 -0.3270066 -0.17919785 -0.11988434 -0.27906668 -0.22914289 -0.42327085
0.18696345 -0.26874563 -0.21425661 -0.16422223 -0.02726857 0.26495263 -0.09297662 0.203813
0.12966864 0.19470946 0.35089853 0.12374747 0.3771794 -0.04152811 -0.16909528 -0.15091102
00000000: 550c 793e 2369 ecbd 671a a83e aee4 99be
00000010: 3ce9 b03e fefb a5bd 075f 3b3d 302e 05bd
00000020: dd5a d2bd b6c9 c03e a44e 823e 920d d53d
00000030: cb8d b63e 964e a33e 79ae 9f3e 7829 de3e
00000040: 5d9a 873e d6b0 eb3b 1b48 93be 5c93 febc
00000050: 8881 cd3d ff3d 3cbe 7f28 adbd 9693 a83e
00000060: 19b2 663b 71ef c2be 0e8e 6e3c e34a c23e
00000070: b672 a63e a2e2 79be de9e b73e 3e00 c7bd
00000080: 8d02 31be 7a49 96be 6377 423e 35c0 a43e
00000090: f3cc 0ebe acb6 a13e 3e4f 1abe 6bf2 8f3e
000000a0: de14 923d a9dc c03c 635c 3dbc f1a1 70be
000000b0: 7c78 75be 1651 88be 2d3a 96be 8a5d b83e
000000c0: 3fa5 373d 3731 fa3d 6128 97bb aa96 33be
000000d0: 8840 0a3e 8119 08bd 401a 84be 803e 2a3e
000000e0: 64af 6cbd 7dba 15be 3604 973e 5cb9 a5be
000000f0: d86d 3f3e 2755 8bbe 519b 3bbe 23ca dbbd
00000100: 62ed 2f3e cd0a 43be 1225 89bd 508f 8e3e
00000110: 97d2 33be b6e9 83be 90fa 98bd 4764 01be
00000120: 0a36 953e 9286 9dbe 0119 a9bd d9db f3bb
00000130: 26e7 c8bd 3e4f 1d3e d0f3 6abd 7543 6c3e
00000140: 56c9 ea3d d95e 38be 6318 52be 6b2a 37be
00000150: 6de6 993e 6557 43be 98b7 c1bd 87de 353e
00000160: dadd a23c dfa1 c33d 4e82 8bbe 52f8 ffbd
00000170: 525b c0bd 28c5 2abe 084f 4fbe e2d7 d0bb
00000180: 5d18 cf3e d4bf 283e 696d a7be a47f 37be
00000190: ec85 f5bd d4e1 8ebe 6fa4 6abe f5b6 d8be
000001a0: 5973 3f3e 0799 89be 1666 5bbe df29 28be
000001b0: 5662 dfbc dfa7 873e 876a bebd 5bb4 503e
000001c0: dbc7 043e eb61 473e f9a8 b33e 506f fd3d
000001d0: a91d c13e 6119 2abd 5027 2dbe 6b88 1abe

linears.5.bias f4 [3]
0.056203183 -0.0070299166 0.0
00000000: 4f35 663d 375b e6bb 0000 0000

exp_avg f4 [40, 2]
-0.000858726 -0.0011622466 0.0005520843 0.00092238345 0.00041745394 0.00062959484 0.00089534954 0.0013352496
-0.001317149 -0.0017735828 -0.001507183 -0.002202575 0.0010613329 0.0014567612 0.00080000027 0.0011462773
-0.00044610992 -0.0007182451 -0.0006906674 -0.0010488773 -0.00013681153 1.0051694e-05 -0.00023531867 -0.0003741101
7.878183e-05 -7.286848e-05 -5.4641565e-05 6.36743e-05 0.0005931344 0.0008659578 0.00011726699 -4.408361e-06
0.0014353928 0.0020530887 -0.0008572518 -0.0012927647 0.00027450846 0.00042982408 7.8805126e-05 9.7603865e-05
0.002955392 0.0045823134 0.0013244179 0.001969137 0.00065389473 0.0010035103 0.0009002728 0.0011666963
0.0010464044 0.0013135057 0.0012832044 0.00175014 0.00058232015 0.000843862 0.0005223548 0.0007647492
-0.0005216985 -0.0008972707 -0.00026627257 -0.00034820137 -0.0003452879 -0.00056165055 -0.00077208807 -0.001250671
-0.0010100481 -0.0015642657 0.00012017226 0.000115465904 -0.00046666624 -0.0003938262 -0.000410022 -0.00060256035
-0.0005692583 -0.0010393466 0.0005168546 0.0008023801 9.409252e-06 6.775045e-05 0.0015224776 0.0022267958
00000000: 201c 61ba 8656 98ba c0b9 103a 1bcc 713a
00000010: b8dd da39 650b 253a e4b5 6a3a 8b03 af3a
00000020: 30a4 acba 9077 e8ba ab8c c5ba 1459 10bb
00000030: 6c1c 8b3a cbf0 be3a 1cb7 513a af3e 963a
00000040: dce3 e9b9 9d48 3cba e80d 35ba 7b7a 89ba
00000050: 1175 0fb9 b2a3 2837 e0bf 76b9 3524 c4b9
00000060: ac37 a538 f8d0 98b8 ef2e 65b8 e188 8538
00000070: 937c 1b3a 7201 633a 3ced f538 88eb 93b6
00000080: ca23 bc3a 1d8d 063b 32b9 60ba fc71 a9ba
00000090: e7eb 8f39 035a e139 2e44 a538 adb0 cc38
000000a0: 40af 413b 3b27 963b 1798 ad3a a30c 013b
000000b0: 226a 2b3a 3888 833a 4900 6c3a d5eb 983a
000000c0: 8127 893a f029 ac3a 3231 a83a f464 e53a
000000d0: d8a6 183a 9f36 5d3a a3ee 083a 7379 483a
000000e0: 98c2 08ba d136 6bba 809a 8bb9 cc8e b6b9
000000f0: c207 b5b9 bb3b 13ba f465 4aba 8eed a3ba
00000100: 9763 84ba 0c08 cdba fe04 fc38 4926 f238
00000110: e2aa f4b9 757a ceb9 39f8 d6b9 24f5 1dba
00000120: 473a 15ba af3a 88ba 867d 073a d156 523a
00000130: 6edc 1d37 3f15 8e38 df8d c73a 6fef 113b

exp_avg_sq f4 [40, 2]
0.0008283009 0.0017999932 0.0006047828 0.0013059127 0.00022910349 0.0005272707 0.0012151197 0.0027990325
0.0020994998 0.004623369 0.0028989585 0.0069631627 0.001321821 0.002972477 0.0008860326 0.0018916542
0.00032032575 0.0006799123 0.00075195637 0.0017062037 1.719384e-05 2.0170799e-05 7.3830095e-05 0.00017829095
1.3056034e-05 2.1096675e-05 1.3417828e-05 1.39944505e-05 0.00051607017 0.0010827843 2.9399725e-06 7.753793e-06
0.0026330345 0.0059122955 0.0010973045 0.0023332688 0.00014135917 0.00031445062 6.842561e-06 1.0191853e-05
0.014062285 0.031504456 0.0025513002 0.005670113 0.00051676953 0.0013325501 0.00085960625 0.0018012183
0.0011602262 0.002385651 0.0020104207 0.004314392 0.00043822118 0.0010465907 0.0003506508 0.0008224742
0.0005292127 0.0012091785 8.475725e-05 0.00013253136 0.00016370273 0.0004832153 0.0009059479 0.0023111445
0.0016166806 0.0036215456 6.0517073e-06 7.72316e-06 9.821464e-05 0.0002374662 0.00030874467 0.0005807651
0.0007940327 0.0017791118 0.00041621522 0.0010215198 7.5408852e-06 1.6922635e-05 0.0031305216 0.0069534
00000000: 5522 593a c0ed eb3a 498a 1e3a 292b ab3a
00000010: 803b 7039 8a38 0a3a a744 9f3a f96f 373b
00000020: c397 093b a17f 973b 74fc 3d3b 3e2b e43b
00000030: f440 ad3a e4cd 423b a444 683a 62f1 f73a
00000040: 65f1 a739 243c 323a f01e 453a b2a2 df3a
00000050: 7e3b 9037 7634 a937 3bd5 9a38 9df3 3a39
00000060: 3d0b 5b37 c4f8 b037 221d 6137 b5c9 6a37
00000070: e248 073a 36ec 8d3a 584c 4536 4a16 0237
00000080: fd8e 2c3b eebb c13b 6ed3 8f3a c1e9 183b
00000090: d039 1439 d9dc a439 2799 e536 adfd 2a37
000000a0: 8065 663c d10a 013d b733 273b 5bcc b93b
000000b0: d177 073a f6a8 ae3a 3357 613a db16 ec3a
000000c0: bb12 983a 9558 1c3b 43c1 033b be5f 8d3b
000000d0: 0dc1 e539 c22d 893a 8ed7 b739 4f9b 573a
000000e0: ddba 0a3a 4c7d 9e3a b4bf b138 1ef8 0a39
000000f0: 9ea7 2b39 0f58 fd39 227d 6d3a 9276 173b
00000100: cde6 d33a 7457 6d3b c50f cb36 b892 0137
00000110: 95f8 cd38 5900 7939 02df a139 7c3e 183a
00000120: a226 503a 1631 e93a 7637 da39 84e4 853a
00000130: b607 fd36 15f5 8d37 7029 4d3b 59d9 e33b

exp_avg f4 [40]
-0.001208586 0.0011093313 0.0007024046 0.0015276268 -0.0019340514 -0.0024170473 0.0015604516 0.0012490994
-0.0008412905 -0.0011678354 0.00015865844 -0.00045111842 -0.0002478103 0.00012979795 0.00095370354 -9.664026e-05
0.0022759514 -0.0014567005 0.0005031833 0.00011620941 0.005268458 0.0022170967 0.0011448477 0.0012496541
0.0013720735 0.0019266063 0.0009030961 0.00080073124 -0.0010899099 -0.00037164026 -0.00067344937 -0.0014164353
-0.0017286824 5.4468972e-05 -0.00029405896 -0.00071080984 -0.0012688291 0.00092534337 0.00012017055 0.0025270137
00000000: 6b69 9eba fb66 913a 9321 383a a63a c83a
00000010: ff7f fdba 5367 1ebb 1188 cc3a d2b8 a33a
00000020: 0d8a 5cba 0e12 99ba 8d5d 2639 1784 ecb9
00000030: 89ec 81b9 5f1a 0839 f601 7a3a 58ab cab8
00000040: 2128 153b c2ee beba 0fe8 033a 74b5 f338
00000050: 07a3 ac3b b64c 113b b70e 963a 6fcb a33a
00000060: 26d7 b33a 2e86 fc3a c1bd 6c3a 2ae8 513a
00000070: 4fdb 8eba b6d8 c2b9 6c8a 30ba afa7 b9ba
00000080: f594 e2ba 9d75 6438 ed2b 9ab9 a455 3aba
00000090: d74e a6ba be92 723a 1304 fc38 419c 253b

exp_avg_sq f4 [40]
0.0018857878 0.0013880396 0.0005528219 0.0029094247 0.004822594 0.0073050195 0.0031081203 0.0019809222
0.0007286278 0.0017748849 1.9788737e-05 0.0001876972 1.9682573e-05 1.27221465e-05 0.0011327142 1.0380966e-05
0.0062026847 0.0024444258 0.00032060192 1.1650491e-05 0.033111688 0.0059538144 0.0013942413 0.001874201
0.0024718442 0.004489546 0.0010920735 0.000851792 0.0012574613 0.00013725256 0.0005140133 0.0024642649
0.0038114274 1.0053061e-05 0.00023425093 0.0005966794 0.0018543522 0.0010722381 1.8020244e-05 0.007285896
00000000: 8a2c f73a e1ee b53a 40eb 103a 0cac 3e3b
00000010: da06 9e3b f25e ef3b 9bb1 4b3b 5cd2 013b
00000020: 6201 3f3a 41a3 e83a fdff a537 95d0 4439
00000030: 011c a537 3471 5537 9577 943a e929 2e37
00000040: e43f cb3b a932 203b 7616 a839 7a76 4337
00000050: 1fa0 073d 3718 c33b fabe b63a c0a7 f53a
00000060: aafe 213b 0b1d 933b e823 8f3a cb4a 5f3a
00000070: 66d1 a43a 74eb 0f39 d9be 063a 817f 213b
00000080: 24c9 793b 91a9 2837 41a1 7539 7a6a 1c3a
00000090: bc0d f33a 578a 8c3a 2e2a 9737 87be ee3b

exp_avg f4 [40, 40]
-9.031844e-05 -0.00052563654 -0.00071038224 0.00011397577 -8.294286e-05 4.011856e-05 5.7785455e-05 0.00011770083
-0.00010665527 -0.00020898145 -0.00012748853 0.0005589525 2.8987282e-05 -9.7309974e-05 0.00010835736 0.0001353049
0.00015839582 -0.0001636302 0.00023803972 -0.00026758658 -8.250899e-05 0.00010893866 0.00040285225 9.593667e-05
0.00011445362 0.00013033625 0.00011922602 0.00018628985 -0.00010790298 -0.00015225876 -0.00039803798 0.00033769547
-0.00012624873 -9.67074e-05 -5.7814043e-05 -0.00014652875 -3.181275e-05 -0.00024227591 -0.00043538603 0.00013017892
7.00092e-07 -4.619979e-06 -1.4133308e-05 5.903062e-06 3.3627074e-07 1.2026629e-06 -2.7128615e-06 1.1360452e-06
-5.0330514e-06 -8.901974e-06 5.93191e-06 1.4895373e-05 -9.62983e-06 -4.44304e-07 4.3619348e-06 -4.258795e-06
4.5226025e-06 -7.046829e-06 1.2302293e-05 -9.482416e-06 1.1097675e-06 4.240081e-06 1.5046327e-05 1.0268063e-06
-1.4917898e-08 6.1084336e-07 1.3327053e-06 6.062358e-06 -8.557578e-06 -6.1168475e-06 -1.4246402e-05 8.225363e-06
-5.850206e-06 -6.3180523e-06 5.8405385e-06 -9.617375e-06 -6.3577277e-06 -6.0812645e-06 -1.4207135e-05 6.670658e-06
2.2164231e-05 0.0001475159 0.00020097346 -3.204475e-05 1.96438e-05 -1.3262602e-05 -1.1423962e-05 -2.9500468e-05
2.998308e-05 5.8675316e-05 2.979464e-05 -0.00015750069 -3.0376214e-06 2.5573076e-05 -3.0116265e-05 -3.5261186e-05
-4.1538606e-05 4.5571258e-05 -6.919231e-05 7.715085e-05 2.5194173e-05 -2.8887776e-05 -0.00011237358 -2.4035666e-05
-2.8357088e-05 -3.30999e-05 -3.0353354e-05 -5.15716e-05 3.235583e-05 4.3673354e-05 0.000111486144 -9.969015e-05
3.5037752e-05 2.9997893e-05 1.1037243e-05 4.356433e-05 1.1545701e-05 7.0113834e-05 0.000123224 -3.4102246e-05
9.894829e-07 5.7720094e-06 8.446211e-06 -1.7059144e-06 9.321363e-07 -3.587993e-07 -4.197448e-07 -1.3862276e-06
1.5578311e-06 3.0606627e-06 8.893688e-07 -8.77626e-06 9.531238e-07 9.866206e-07 -1.5009751e-06 -1.2878698e-06
-2.0330647e-06 2.3351895e-06 -5.098782e-06 3.8094806e-06 5.4361027e-07 -1.5421815e-06 -7.225158e-06 -1.1612992e-06
-1.2652191e-06 -1.4758698e-06 -1.4192871e-06 -2.413873e-06 2.0965713e-06 2.0790283e-06 6.6281145e-06 -4.4405624e-06
1.8413882e-06 1.5869405e-06 3.1277406e-08 2.8007094e-06 9.180551e-07 2.8236639e-06 8.527475e-06 -1.9974498e-06
-3.9752755e-05 -0.00026306772 -0.00037812936 6.9663685e-05 -3.7029182e-05 2.3159933e-05 1.83855e-05 5.742989e-05
-6.376187e-05 -0.00012302295 -4.357404e-05 0.00030798517 -1.3479523e-05 -4.7078214e-05 6.2693434e-05 5.2151416e-05
8.582895e-05 -9.61732e-05 0.00014827332 -0.00015368374 -3.7416798e-05 6.20425e-05 0.00023359203 4.70585e-05
5.289041e-05 6.216271e-05 5.883178e-05 0.00010418603 -7.488739e-05 -8.880632e-05 -0.00022876979 0.00018497428
-7.510578e-05 -6.375656e-05 -1.0285744e-05 -9.657353e-05 -3.286436e-05 -0.0001321646 -0.00024792674 7.819242e-05
-1.6980244e-05 -9.139904e-05 -0.00012568968 2.153225e-05 -1.6056541e-05 6.1428923e-06 1.1565331e-05 2.2579996e-05
-2.0136953e-05 -3.8499296e-05 -2.2014425e-05 9.602474e-05 3.9993893e-06 -1.7278187e-05 2.0344338e-05 2.3017821e-05
3.0571686e-05 -3.0600673e-05 4.0849383e-05 -4.6738478e-05 -1.2415037e-05 2.1200161e-05 7.071289e-05 1.8375213e-05
2.1625838e-05 2.4492341e-05 2.268167e-05 3.4427136e-05 -1.996657e-05 -2.7621116e-05 -7.034533e-05 5.6709025e-05
-2.394933e-05 -1.7159255e-05 -1.0490646e-05 -2.6117148e-05 -6.3340963e-06 -4.2108855e-05 -7.296682e-05 2.6104457e-05
-7.937292e-05 -0.0005264584 -0.00074697373 0.00013600808 -7.326972e-05 4.634509e-05 3.670493e-05 0.00011334005
-0.00012498526 -0.00024086503 -8.854746e-05 0.0006057031 -2.2948676e-05 -9.302443e-05 0.00012311057 0.000107614236
00000000: 5869 bdb8 dfca 09ba f238 3aba 4706 ef38
00000010: 9cf1 adb8 fa44 2838 a95e 7238 27d6 f638
00000020: 1dac dfb8 0822 5bb9 71ae 05b9 ab86 123a
00000030: b729 f337 e512 ccb8 ea3d e338 a2e0 0d39
00000040: 0e17 2639 2694 2bb9 4d9a 7939 dd4a 8cb9
00000050: ad08 adb8 ff75 e438 ea35 d339 9c31 c938
00000060: d206 f038 dfaa 0839 fb08 fa38 cd56 4339
00000070: f949 e2b8 a6a7 1fb9 c1af d0b9 b80c b139
00000080: a361 04b9 64cf cab8 5b7d 72b8 83a5 19b9
00000090: ae6e 05b8 720b 7eb9 8644 e4b9 a380 0839
000000a0: f5ed 3b35 5105 9bb6 181e 6db7 eb12 c636
000000b0: b388 b434 2f6b a135 9b0e 36b6 377a 9835
000000c0: 95e1 a8b6 b059 15b7 b80a c736 24e7 7937
000000d0: ce8f 21b7 ad88 eeb4 bc5c 9236 c5e6 8eb6
000000e0: dcc0 9736 cd73 ecb6 f265 4e37 ab16 1fb7
000000f0: 52f3 9435 0546 8e36 7b6f 7c37 ccd0 8935
00000100: ce24 80b2 d6f8 2335 68df b235 426b cb36
00000110: 8592 0fb7 523f cdb6 d503 6fb7 aaff 0937
00000120: e34c c4b6 a8ff d3b6 d8f9 c336 505a 21b7
00000130: 7754 d5b6 aa0d ccb6 2e5b 6eb7 84d4 df36
00000140: 53ed b937 7fae 1a39 67bc 5239 ca67 06b8
00000150: bdc8 a437 7182 5eb7 8ba9 3fb7 c677 f7b7
00000160: 2d84 fb37 241a 7638 81ef f937 c526 25b9
00000170: f0d9 4bb6 c385 d637 30a2 fcb7 69e5 13b8
00000180: bd39 2eb8 c423 3f38 571b 91b8 0ccc a138
00000190: 1358 d337 0754 f2b7 1baa ebb8 33a0 c9b7
000001a0: 62e0 edb7 bfd4 0ab8 559f feb7 954e 58b8
000001b0: cfb5 0738 e82d 3738 abcd e938 be10 d1b8
000001c0: 80f5 1238 fca3 fb37 992c 3937 d8b8 3638
000001d0: 69b4 4137 140a 9338 b135 0139 0209 0fb8
000001e0: 60ce 8435 2fad c136 33b4 0d37 c6f6 e4b5
000001f0: eb37 7a35 00a1 c0b4 4959 e1b4 6b0e bab5
00000200: ab16 d135 c965 4d36 f5bc 6e35 c03d 13b7
00000210: 2bda 7f35 076c 8435 1d75 c9b5 dfda acb5
00000220: c96f 08b6 40b6 1c36 3416 abb6 61a6 7f36
00000230: 9dec 1135 f4fc ceb5 a26f f2b6 f0dd 9bb5
00000240: 99d0 a9b5 8016 c6b5 557e beb5 06fe 21b6
00000250: d2b2 0c36 6f85 0b36 1267 de36 2400 95b6
00000260: 9e25 f735 dcfe d435 df55 0633 d2f3 3b36
00000270: 4470 7635 2d7e 3d36 3a11 0f37 ed0b 06b6
00000280: 32bc 26b8 5aec 89b9 aa3f c6b9 6818 9238
00000290: c84f 1bb8 9447 c237 903a 9a37 e0e0 7038
000002a0: e5b7 85b8 b9ff 00b9 45c3 36b8 1279 a139
000002b0: 1c26 62b7 d975 45b8 487a 8338 28bd 5a38
000002c0: 11ff b338 98b0 c9b8 d179 1b39 2a26 21b9
000002d0: fbef 1cb8 d01c 8238 62f0 7439 ae60 4538
000002e0: a5d6 5d38 5a5d 8238 25c2 7638 737e da38
000002f0: dd0c 9db8 883d bab8 ece1 6fb9 a8f5 4139
00000300: 1c82 9db8 0bb5 85b8 ef90 2cb7 8587 cab8
00000310: d6d7 09b8 aa95 0ab9 2afc 81b9 3cfb a338
00000320: cc70 8eb7 7cad bfb8 91cb 03b9 28a0 b437
00000330: 29b1 86b7 0b1f ce36 b808 4237 2c6a bd37
00000340: c7eb a8b7 4e7a 21b8 9eab b8b7 e460 c938
00000350: 7e32 8636 a0f0 90b7 22a9 aa37 6516 c137
00000360: 193a 0038 3959 00b8 b155 2b38 0f09 44b8
00000370: 2e4a 50b7 00d7 b137 b24b 9438 7824 9a37
00000380: 2269 b537 e774 cd37 8444 be37 db65 1038
00000390: e27d a7b7 e5b3 e7b7 5d86 93b8 dada 6d38
000003a0: cbe6 c8b7 38f1 8fb7 fb00 30b7 2616 dbb7
000003b0: 7989 d4b6 0a9e 30b8 c305 99b8 e5fa da37
000003c0: 0375 a6b8 0602 0aba 8fd0 43ba 649d 0e39
000003d0: 62a8 99b8 a962 4238 9ef3 1938 fab0 ed38
000003e0: 7a0e 03b9 b790 7cb9 8eb2 b9b8 0cc8 1e3a
000003f0: e881 c0b7 1c16 c3b8 3e17 0139 f4ae e138
