Lid_Driven/-25000.pt (torch, 57031 bytes, 18 tensors)

linears.0.weight f4 [20, 2]
0.308612 -0.28077263 0.25577456 -0.18284594 0.27897656 -0.28027916 0.40681463 -0.3628808
-0.17224665 0.50188947 0.057755895 -0.24362981 0.4215363 -0.23683488 0.37381032 0.004991149
-0.3935338 0.20220028 0.09399546 0.3839913 -0.07686662 0.26259035 -0.124232076 -0.35984698
-0.17561588 -0.10760232 -0.38845077 0.48113006 0.13419738 0.13870764 0.08978253 0.28424528
-0.45336443 -0.47536382 -0.35913184 0.2369908 -0.0069612428 0.4770707 0.2338325 0.20960893
00000000: 6402 9e3e 6ec1 8fbe e2f4 823e f73b 3bbe
00000010: 04d6 8e3e c080 8fbe 024a d03e 83cb b9be
00000020: 6d61 30be d47b 003f 7291 6c3d 187a 79be
00000030: 9bd3 d73e d884 72be 1164 bf3e cb8c a33b
00000040: 437d c9be 970d 4f3e b180 c03d 829a c43e
00000050: 3f6c 9dbd 3e72 863e 636d febd dd3d b8be
00000060: a6d4 33be 9b5e dcbd 05e3 c6be ae56 f63e
00000070: 0a6b 093e 6009 0e3e e7df b73d 9988 913e
00000080: 621f e8be e362 f3be 21e0 b7be b7ad 723e
00000090: 231b e4bb 9c42 f43e c971 6f3e b9a3 563e

linears.0.bias f4 [20]
-0.0006943032 -0.004334582 -0.0011267372 -0.008863035 0.006150914 -0.0021765444 -0.011151067 -0.005059264
-0.0077707376 -0.019534841 -0.0015172985 -0.002975523 0.0009792569 -0.0047757924 0.0015369962 -0.0038067366
-0.018531436 0.0029932552 -0.0031935568 -0.0010731722
00000000: e601 36ba 1c09 8ebb 07af 93ba 4336 11bc
00000010: 9b8d c93b 5ba4 0ebb f7b2 36bc 2fc8 a5bb
00000020: aca1 febb 8807 a0bc 17e0 c6ba fe00 43bb
00000030: 695a 803a 407e 9cbb 0975 c93a 717a 79bb
00000040: 3dcf 97bc 7d2a 443b fe4a 51bb afa9 8cba

linears.1.weight f4 [20, 20]
-0.13354644 -0.14057238 0.095152415 -0.19770521 -0.30845383 -0.20744285 -0.20914617 -0.322777
-0.23670152 0.17789441 0.3579841 -0.23732111 -0.04919942 -0.34076387 -0.02223791 0.31857318
-0.19998088 0.15187728 0.32821727 0.12545878 -0.17256327 -0.074157976 -0.29720613 0.10624713
0.08373938 -0.2638692 0.3106197 -0.006010927 -0.3381826 0.086734064 -0.30503374 0.16876197
0.20741227 -0.06452217 -0.11558615 -0.03406228 -0.20751156 0.10248273 0.092727505 0.20380503
-0.13589092 -0.15782277 0.07005397 -0.34604624 -0.34162167 0.14098457 -0.2564412 -0.0827907
0.27405927 0.3204665 0.16983691 -0.09262599 -0.080962345 -0.24409057 -0.3327802 0.02461044
0.15772031 -0.086062774 -0.10427097 0.27673236 -0.01716202 -0.18018769 -0.24782585 -0.1488738
-0.2072333 0.06477145 -0.13244246 0.28030255 -0.24214649 -0.06304626 0.36439264 -0.120183475
-0.015636103 0.21608116 -0.13372386 0.3337014 -0.09874851 0.29167935 0.3317278 0.031317137
0.18164943 0.098734096 -0.06990049 0.2360753 0.2877518 -0.26315302 -0.23295504 -0.41510198
0.009723715 -0.03820384 -0.13438255 -0.07940181 -0.15143336 -0.2726479 0.3150917 -0.1765348
0.03249835 -0.19367659 0.060668904 0.15021093 -0.2964942 -0.31308147 -0.36165044 0.0749136
0.21423031 -0.20268057 0.07384443 -0.14421354 -0.30047637 0.09118376 -0.2613509 0.1643151
-0.27959797 -0.34459084 0.3722682 0.28900447 0.03421492 0.3091325 -0.04349532 0.30252367
-0.34074238 0.34016794 0.31578857 -0.05792892 0.116556056 -0.09385799 0.15069012 0.24455576
0.24503988 0.27309394 0.16848786 0.0061305244 -0.35558215 -0.29984784 -0.37947294 -0.2869317
0.23562059 0.0632094 0.1742811 -0.21565127 0.33226267 -0.015236412 -0.20860349 -0.03086713
0.15113881 -0.31105667 0.11339744 0.22397089 -0.14672008 -0.079695396 0.23252675 -0.26753438
0.22370107 0.32041 0.23631777 -0.11970743 -0.18481697 0.35050693 -0.1457489 -0.27074936
-0.2729162 0.1670082 -0.17157063 0.23708576 0.19419925 0.03820033 -0.057920206 -0.17051312
-0.2363718 0.06794405 0.17137888 0.35614717 0.1974105 -0.12680586 -0.06671371 -0.04811486
-0.0716386 -0.3174297 0.24902439 0.1936456 0.3120252 -0.25218686 0.11158463 -0.050857916
0.10506176 0.15530702 0.041462738 0.032704934 -0.015167611 -0.38460767 0.019328726 -0.35370034
-0.044458143 -0.2826076 0.09454044 0.30680645 0.07955054 -0.26923317 0.3337756 -0.22620712
-0.08400673 -0.10814696 0.0899306 -0.33585462 -0.37780008 -0.2841823 -0.1970612 0.36405995
0.019253049 -0.30516598 -0.054910824 -0.29875344 0.26119173 0.046102215 0.29429007 0.2504138
0.35724407 0.11264015 -0.21741767 0.27804354 0.1768181 0.38847852 0.115279414 0.28678757
0.34492084 0.2878363 -0.24911733 -0.20872347 0.049894672 -0.12562446 0.19071022 0.34584844
-0.02125443 -0.041307922 0.3216281 0.21986184 0.11090153 0.33226472 -0.16756369 0.14999259
-0.21349496 -0.21403992 0.0057504256 -0.090551995 -0.1840529 0.05507965 -0.28598288 0.2934591
0.06388748 -0.20477395 0.018488146 -0.1649179 0.31889397 -0.025931451 -0.0033735235 0.36990494
00000000: 66c0 08be 35f2 0fbe 45df c23d 3c73 4abe
00000010: a9ed 9dbe e66b 54be 6a2a 56be 0743 a5be
00000020: e261 72be f429 363e b149 b73e 4e04 73be
00000030: 5585 49bd 9a78 aebe 472c b6bc 061c a33e
00000040: cac7 4cbe b885 1b3e 180c a83e 4478 003e
00000050: 6db4 30be 23e0 97bd 672b 98be 1898 d93d
00000060: 8d7f ab3d dd19 87be 8c09 9f3e 4ff7 c4bb
00000070: 4526 adbe a1a1 b13d 622d 9cbe f0cf 2c3e
00000080: e263 543e 3324 84bd 6eb8 ecbd e484 0bbd
00000090: e97d 54be 77e2 d13d ebe7 bd3d 44b2 503e
000000a0: fd26 0bbe 4b9c 21be 7578 8f3d f92c b1be
000000b0: 09e9 aebe 425e 103e 434c 83be 2c8e a9bd
000000c0: 7f51 8c3e 2f14 a43e bae9 2d3e b2b2 bdbd
000000d0: 96cf a5bd e1f2 79be 2b62 aabe d59b c93c
000000e0: 6f81 213e ae41 b0bd 058c d5bd ddaf 8d3e
000000f0: 5d97 8cbc 1f83 38be 0fc6 7dbe 6072 18be
00000100: f734 54be e5a6 843d ff9e 07be d183 8f3e
00000110: 40f5 77be 661e 81bd ac91 ba3e c122 f6bd
00000120: 4917 80bc 6144 5d3e e8ee 08be e9da aa3e
00000130: a93c cabd ff56 953e 3ad8 a93e 6646 003d
00000140: 4f02 3a3e 1a35 ca3d fd27 8fbd b9bd 713e
00000150: 3454 933e febb 86be c48b 6ebe 3f88 d4be
00000160: 3750 1f3c a17b 1cbd 949b 09be 6b9d a2bd
00000170: 5911 1bbe 8198 8bbe b353 a13e 8ac5 34be
00000180: fd1c 053d 2853 46be f57f 783d e5d0 193e
00000190: 16ce 97be 374c a0be 3f2a b9be 4d6c 993d
000001a0: 315f 5b3e 7f8b 4fbe c03b 973d b7ac 13be
000001b0: 0ad8 99be 8dbe ba3d c9cf 85be 3842 283e
000001c0: 7727 8fbe 366e b0be f099 be3e 65f8 933e
000001d0: f224 0c3d 9d46 9e3e 2628 32bd 62e4 9a3e
000001e0: c975 aebe 7e2a ae3e 0aaf a13e e046 6dbd
000001f0: f1b4 ee3d 9e38 c0bd 834e 1a3e d36c 7a3e
00000200: bceb 7a3e f8d2 8b3e 1588 2c3e 91e2 c83b
00000210: dd0e b6be a885 99be 474a c2be b6e8 92be
00000220: 8646 713e ee73 813d bf76 323e b0d3 5cbe
00000230: 551e aa3e 25a2 79bc 279c 55be 10dd fcbc
00000240: 22c4 1a3e d242 9fbe eb3c e83d a058 653e
00000250: ca3d 16be 5737 a3bd 7e1b 6e3e 44fa 88be
00000260: e511 653e c80c a43e 49fd 713e 2b29 f5bd
00000270: a940 3dbe a575 b33e 333f 15be a99f 8abe
00000280: acbb 8bbe 3304 2b3e 36b0 2fbe 9cc6 723e
00000290: 2bdc 463e f377 1c3d bd3d 6dbd fe9a 2ebe
000002a0: 730b 72be 4026 8b3d f27d 2f3e ec58 b63e
000002b0: fa25 4a3e 65d9 01be 33a1 88bd 1614 45bd
000002c0: 42b7 92bd 2586 a2be 4000 7f3e 084b 463e
000002d0: c4c1 9f3e a31e 81be 7c86 e43d 6450 50bd
000002e0: 9f2a d73d ce08 1f3e d5d4 293d 9cf5 053d
000002f0: 9281 78bc 4ceb c4be 4757 9e3c 3618 b5be
00000300: be19 36bd f1b1 90be 6b9e c13d bc15 9d3e
00000310: 65eb a23d eed8 89be a3e4 aa3e d7a2 67be
00000320: b80b acbd 277c ddbd 892d b83d 23f5 abbe
00000330: 036f c1be 5880 91be 69ca 49be 1166 ba3e
00000340: 92b8 9d3c b73e 9cbe 2cea 60bd 36f6 98be
00000350: ecba 853e add5 3c3d 30ad 963e 3d36 803e
00000360: b2e8 b63e e1af e63d bda2 5ebe b95b 8e3e
00000370: ce0f 353e a8e6 c63e 9d17 ec3d d2d5 923e
00000380: 7799 b03e 485f 933e 9d18 7fbe 9bbb 55be
00000390: 5b5e 4c3d b3a3 00be 8a49 433e 0c13 b13e
000003a0: c51d aebc 7f32 29bd 70ac a43e 7623 613e
000003b0: 5720 e33d 9a1e aa3e d195 2bbe a897 193e
000003c0: 6c9e 5abe 482d 5bbe 116e bc3b 5373 b9bd
000003d0: 5d78 3cbe 339b 613d 596c 92be 4540 963e
000003e0: 70d7 823d 43b0 51be 7474 973c 3de0 28be
000003f0: 1246 a33e 326e d4bc 5516 5dbb 2e64 bd3e

linears.1.bias f4 [20]
-0.001416489 -0.001633602 0.0018541411 -0.0030064452 0.00360578 -0.005277487 0.0018096174 0.0019037987
-0.02666693 0.0020700013 0.00017337209 0.0044826325 0.00066838856 -0.0029956729 -0.002651926 -0.0013466105
0.0016855208 -0.00010825662 -0.008519286 -0.0001740761
00000000: 7ca9 b9ba 961e d6ba a706 f33a c807 45bb
00000010: f34e 6c3b c5ee acbb af30 ed3a e288 f93a
00000020: 9b74 dabc dca8 073b 37cb 3539 0ce3 923b
00000030: cc36 2f3a 0d53 44bb efcb 2dbb c080 b0ba
00000040: b1ec dc3a d507 e3b8 7a94 0bbc 3388 36b9

linears.2.weight f4 [20, 20]
0.04182702 0.12556592 -0.07088761 0.08527582 -0.3301503 0.022388222 -0.009440765 -0.011563915
-0.048120953 0.08836149 -0.37337252 -0.045476034 0.2530852 0.07686399 -0.19884442 -0.22042996
0.07654394 -0.30825025 0.2826698 0.19453374 -0.34204164 0.28137544 0.102378175 0.27294463
0.07469086 0.34927925 -0.3014416 -0.38884267 -0.11950022 -0.097497374 0.3740984 0.3375304
-0.018709617 0.052216247 0.2993783 0.1018442 -0.20379248 0.030644568 -0.36797786 -0.2929332
-0.05086994 0.31691366 -0.16224657 -0.09033101 0.37773323 -0.36600155 0.34126997 -0.18332438
-0.37690967 0.12481971 0.31791306 0.115265645 -0.34672964 -0.20970881 -0.3338396 -0.3762868
-0.19319606 0.03578995 0.21529986 -0.048877526 0.23440439 0.26690945 -0.2826311 -0.22512077
0.00058124395 0.2733793 0.14599963 0.037917256 -0.21217698 0.24848345 -0.25154868 -0.088789724
-0.038827635 0.06992471 0.2152458 -0.025502343 -0.21863604 0.2966256 -0.21616982 0.100497685
-0.087545045 0.071119115 -0.22310632 0.13369577 0.24004753 0.09995854 -0.32520494 -0.20300806
-0.034912217 -0.16920362 0.15350811 0.107882544 0.14129415 -0.3560317 0.3561326 -0.2194224
0.11061693 0.18611304 -0.15322536 0.16001064 0.2067859 -0.27400362 0.038482126 0.016114086
0.098592386 -0.3738623 -0.32568914 0.25567526 -0.12764671 0.27326033 -0.24524152 0.28733128
-0.0047989064 0.24168958 0.0056711277 -0.34382182 -0.3457998 0.17927781 0.25979874 -0.36823305
-0.14526314 0.08868875 0.16635059 0.2701235 0.2578603 0.14237553 -0.04708331 0.2066553
0.20147012 -0.13666044 -0.050353106 0.21539177 0.31180078 -0.11786548 -0.23157702 0.06392838
0.20015442 0.10202161 -0.25846153 -0.347271 -0.075094365 0.118437864 -0.030180013 0.03837759
0.34112588 -0.11598296 -0.33563584 0.25370675 0.052923415 0.2888851 -0.3281488 0.22232932
0.30541041 -0.06395174 -0.20236689 -0.37658277 -0.033691082 -0.31007564 -0.32158422 0.2673587
0.3390711 0.32030275 -0.21672793 0.09607138 -0.17656991 -0.3656031 -0.09225813 0.13701086
-0.111959346 -0.12816052 0.040515848 0.16418311 -0.13297854 -0.09669503 -0.021862065 -0.35414848
0.22653215 -0.2856072 0.19510598 -0.17845437 0.107738145 -0.39030948 0.245285 -0.122367345
0.053353228 0.3025196 0.28405732 0.01182997 -0.3472411 -0.024191117 0.010261995 0.20279959
0.19854452 -0.05907175 0.32750222 -0.15676552 -0.063787855 0.31542912 0.025914121 -0.19302066
0.14605655 0.16445364 -0.17670345 0.049484305 -0.16917904 -0.058191177 -0.24586274 -0.14581601
-0.15497462 0.3451606 -0.19453523 -0.26037148 0.20686267 0.24046327 -0.21154973 0.094733834
0.0013798706 0.35534838 0.36847734 -0.31764093 -0.24018069 0.34051025 0.05018857 -0.20995831
-0.20645942 -0.10916883 0.002474015 -0.108875915 0.31473392 -0.22036101 0.12940843 -0.02867665
0.2318779 -0.30830607 -0.058177624 -0.1604968 0.12062952 0.27382538 -0.14029892 0.020955246
0.15583928 0.14929806 0.13146056 -0.28902742 0.056259234 -0.34924898 -0.0130012045 -0.3706842
0.16271275 0.13941608 0.16840632 -0.32450056 0.16934837 -0.14696883 0.10051658 -0.11897414
00000000: cf52 2b3d 5a94 003e 862d 91bd 17a5 ae3d
00000010: 7609 a9be 8167 b73c 70ad 1abc 9376 3dbc
00000020: 7a1a 45bd def6 b43d af2a bfbe 1445 3abd
00000030: 6294 813e de6a 9d3d df9d 4bbe 64b8 61be
00000040: 12c3 9c3d fad2 9dbe 19ba 903e da33 473e
00000050: 1520 afbe 7110 903e a6ab d13d 66bf 8b3e
00000060: 86f7 983d bbd4 b23e 8e56 9abe 6316 c7be
00000070: 88bc f4bd b4ac c7bd d389 bf3e c9d0 ac3e
00000080: e944 99bc b4e0 553d 1d48 993e b193 d03d
00000090: faae 50be 510a fb3c 9867 bcbe 57fb 95be
000000a0: 005d 50bd 8242 a23e f723 26be 77ff b8bd
000000b0: 4066 c13e 8e64 bbbe f0ba ae3e 63b9 3bbe
000000c0: 4efa c0be 7aa1 ff3d 80c5 a23e 6510 ec3d
000000d0: 8c86 b1be e8bd 56be 06ed aabe aaa8 c0be
000000e0: 30d5 45be 7c98 123d 9177 5c3e cd33 48bd
000000f0: b407 703e 5ba8 883e 06b5 90be 0f86 66be
00000100: 9f5e 183a 5ff8 8b3e ed80 153e 204f 1b3d
00000110: ec44 59be 7272 7e3e fdca 80be 63d7 b5bd
00000120: ba09 1fbd b034 8f3d 6569 5c3e 4aea d0bc
00000130: 20e2 5fbe 50df 973e 9f5b 5dbe bbd1 cd3d
00000140: d14a b3bd e6a6 913d fc75 64be 8be7 083e
00000150: 05cf 753e 10b7 cc3d 4381 a6be 58e1 4fbe
00000160: 1d00 0fbd b743 2dbe 3b31 1d3e 86f1 dc3d
00000170: 6aaf 103e c949 b6be 0357 b63e 44b0 60be
00000180: 218b e23d 6b94 3e3e 1ce7 1cbe d4d9 233e
00000190: afbf 533e 344a 8cbe 6f9f 1d3d b001 843c
000001a0: ceea c93d e16a bfbe bac0 a6be dee7 823e
000001b0: d2b5 02be c7e8 8b3e 9820 7bbe 161d 933e
000001c0: 2540 9dbb 797d 773e ded4 b93b 6a09 b0be
000001d0: ac0c b1be 9a94 373e 5704 853e 0b89 bcbe
000001e0: dcbf 14be 73a2 b53d cf57 2a3e a14d 8a3e
000001f0: 4406 843e e4ca 113e 6eda 40bd 729d 533e
00000200: 2f4e 4e3e b7f0 0bbe 0f3f 4ebd a98f 5c3e
00000210: 5aa4 9f3e 7563 f1bd 8722 6dbe e2ec 823d
00000220: 48f5 4c3e b5f0 d03d 1255 84be 81cd b1be
00000230: 13cb 99bd 8d8f f23d 133c f7bc d231 1d3d
00000240: 0da8 ae3e 7988 edbd 76d8 abbe dae5 813e
00000250: 39c6 583d bfe8 933e 1f03 a8be 4caa 633e
00000260: c15e 9c3e 21f9 82bd 4439 4fbe 75cf c0be
00000270: a9ff 09bd 3cc2 9ebe b0a6 a4be 3de3 883e
00000280: ba9a ad3e b9fe a33e eded 5dbe 12c1 c43d
00000290: bece 34be 5430 bbbe d5f1 bcbd 934c 0c3e
000002a0: f14a e5bd 833c 03be f2f3 253d 9e1f 283e
000002b0: 872b 08be 0b08 c6bd 1318 b3bc f352 b5be
000002c0: 0bf8 673e 1b3b 92be ddc9 473e bebc 36be
000002d0: d1a5 dc3d a5d6 c7be fe2b 7b3e bb9b fabd
000002e0: ea88 5a3d d9e3 9a3e f66f 913e 7ed2 413c
000002f0: 96c9 b1be 732c c6bc ed21 283c b2aa 4f3e
00000300: 414f 4b3e 38f5 71bd 5fae a73e 2487 20be
00000310: 35a3 82bd ed7f a13e da49 d43c 35a7 45be
00000320: d98f 153e 8966 283e c0f1 34be 0eb0 4a3d
00000330: 453d 2dbe df59 6ebd 71c3 7bbe cb50 15be
00000340: abb1 1ebe e4b8 b03e 3e34 47be 694f 85be
00000350: cfd3 533e 013c 763e 7ea0 58be d003 c23d
00000360: c6dc b43a 39f0 b53e 10a9 bc3e d5a1 a2be
00000370: edf1 75be 5c57 ae3e 8892 4d3d 50ff 56be
00000380: 196a 53be e893 dfbd 1623 223b 56fa debd
00000390: ce24 a13e 51a6 61be a583 043e 4beb eabc
000003a0: 6671 6d3e 4bda 9dbe a94b 6ebd 4659 24be
000003b0: 9c0c f73d d732 8c3e 85aa 0fbe 56aa ab3c
000003c0: 5594 1f3e 97e1 183e 999d 063e 67fb 93be
000003d0: 1570 663d c3d0 b2be 0103 55bc 52ca bdbe
000003e0: 2c9e 263e 17c3 0e3e b572 2c3e f024 a6be
000003f0: a969 2d3e ff7e 16be a3db cd3d b7a8 f3bd

linears.2.bias f4 [20]
-0.0035352472 0.00022990514 0.0012410098 -0.0005320132 -0.0019726963 0.0017082496 -0.0012478495 0.0027258522
0.00080812344 -0.0010531609 0.0005455933 -0.0020081836 0.0024425904 0.0007366675 0.0024358218 0.0017617148
-0.0029910516 -0.00046655454 -0.0012726586 0.0066772355
00000000: 9baf 67bb b112 7139 61a9 a23a cd76 0bba
00000010: 5a48 01bb 58e7 df3a e28e a3ba 36a4 323b
00000020: 3fd8 533a 370a 8aba 2606 0f3a bb9b 03bb
00000030: de13 203b eb1c 413a 4fa2 1f3b 57e9 e63a
00000040: 8505 44bb e49b f4b9 56cf a6ba b6cc da3b

linears.3.weight f4 [20, 20]
-0.11365258 0.023502437 -0.21290545 -0.15581363 -0.19006537 0.25697905 0.1603922 -0.30631325
-0.2034625 0.020918107 0.26035482 -0.051208645 0.32402775 0.19723846 -0.12320964 -0.029052429
-0.022897715 -0.35842717 0.34188735 0.24230687 -0.23454243 0.29313257 -0.29350197 -0.1421927
-0.13029918 0.16043271 0.087876976 -0.065789215 -0.29919383 -0.40031648 -0.30099025 -0.2598877
-0.21167915 -0.31182364 -0.2531825 -0.057712257 -0.07780638 -0.2023514 -0.31928203 -0.11430578
0.38730285 -0.27713877 -0.17274548 0.3245715 0.17472526 -0.021462834 -0.22554435 -0.3083784
-0.35011625 -0.37678355 -0.10903999 -0.1997578 0.067191854 0.040880457 -0.15366015 0.08030965
-0.27777115 0.3552152 0.009685045 -0.11431901 -0.11426762 0.15814614 0.11571772 0.11656693
-0.26825944 0.27359697 -0.23963133 0.392376 -0.12725148 -0.04047901 0.36580652 0.2257409
-0.15557401 0.33806854 -0.039110247 0.24277595 0.3265849 -0.28977525 -0.27269182 0.091865316
0.31727052 0.08219177 0.27087033 0.054523923 -0.34519684 -0.20539284 -0.098584585 -0.13667814
-0.22717467 0.29834673 -0.24473615 0.11027346 0.044215776 0.21625368 -0.25061807 0.13134153
-0.16134687 -0.043794803 -0.23542249 -0.08490181 0.28131726 0.28373712 0.008093245 -0.07674014
0.18618914 0.0153724 0.07815306 -0.22611113 0.1925809 0.30915225 -0.124748886 0.35938212
0.12782069 -0.06595352 0.06775065 -0.1533848 0.2353293 -0.24063878 -0.09536302 0.050489128
-0.0055339923 -0.34165815 0.10585559 -0.17980082 0.19058985 0.23062274 -0.033148088 0.10204865
-0.21946388 -0.17242846 0.10470755 -0.091546774 -0.28942955 -0.12183712 -0.19238171 -0.061033167
0.10307274 0.010548519 -0.036511477 0.08726047 -0.31391293 0.15721022 -0.12384555 0.2193986
-0.15232287 -0.14424598 0.32632595 -0.12023516 0.09833294 0.042150132 0.32690504 0.23993354
0.17913859 -0.10140267 0.33665362 0.27557284 0.3571263 0.326627 -0.03240352 -0.34117612
-0.048062034 -0.2994235 0.32756397 0.1947026 0.354098 -0.12905876 -0.3268648 0.36955452
0.014963331 0.005379063 -0.16802616 0.24177667 -0.2713509 0.22330026 0.38647407 -0.11815
0.063257314 0.35117748 0.25926024 0.08308979 -0.025915956 0.2650119 0.06587409 -0.06615671
-0.056054913 0.25605884 0.25631037 0.13714221 -0.15579702 0.041511465 -0.036911912 0.24261819
0.005578121 -0.17015608 0.07665797 -0.050864432 0.02197517 0.048476446 -0.33913794 -0.28971756
0.31613523 -0.27550557 0.3245926 -0.36361045 -0.23557466 -0.22435488 0.1022807 0.14467749
-0.33052176 -0.13496031 -0.26017264 0.2583101 -0.1640204 -0.06197579 -0.36102885 0.22133121
0.1313988 -0.22920065 -0.27926698 -0.024326978 0.30622718 0.31758478 -0.29908052 0.334273
0.10172425 -0.3357313 -0.30947578 -0.10063091 0.09379993 0.1430358 0.16791305 -0.14809017
-0.27490327 -0.072649844 -0.19170101 0.15213345 0.096780136 -0.13430531 -0.08923443 -0.21843243
-0.3604914 0.08706574 0.2521614 0.096567355 0.37306932 -0.22590756 -0.2605053 -0.19919884
-0.1955293 0.32830068 0.16905122 0.014895744 -0.1724846 0.09688851 -0.076708116 0.35504636
00000000: afc2 e8bd 2f88 c03c e303 5abe 9c8d 1fbe
00000010: 7fa0 42be c292 833e da3d 243e 17d5 9cbe
00000020: 7958 50be 735c ab3c 3a4d 853e 28c0 51bd
00000030: f7e6 a53e e1f8 493e 5655 fcbd 5cff edbc
00000040: fd93 bbbc c483 b7be dc0b af3e 4b1f 783e
00000050: e42b 70be 7915 963e e445 96be f79a 11be
00000060: 266d 05be 7948 243e d8f8 b33d 7fbc 86bd
00000070: ef2f 99be 48f6 ccbe 651b 9abe 0010 85be
00000080: 6bc2 58be 59a7 9fbe 23a1 81be b063 6cbd
00000090: f458 9fbd 3535 4fbe ef78 a3be 2619 eabd
000000a0: 8f4c c63e 22e5 8dbe 31e4 30be 3c2e a63e
000000b0: 2eeb 323e d3d2 afbc 19f5 66be c6e3 9dbe
000000c0: 7042 b3be c6e9 c0be 5c50 dfbd 4f8d 4cbe
000000d0: e29b 893d 4472 273d 1659 1dbe 6379 a43d
000000e0: 0538 8ebe c4de b53e 06ae 1e3c 1620 eabd
000000f0: 2405 eabd 10f1 213e 69fd ec3d a5ba ee3d
00000100: 4d59 89be e714 8c3e ea61 75be 82e5 c83e
00000110: 364e 02be 52cd 25bd fe4a bb3e 9f28 673e
00000120: cb4e 1fbe 5217 ad3e 1132 20bd 429a 783e
00000130: 2336 a73e 6c5d 94be 439e 8bbe e223 bc3d
00000140: 4871 a23e 2954 a83d 84af 8a3e 7a54 5f3d
00000150: a4bd b0be 8052 52be b7e6 c9bd 5bf5 0bbe
00000160: 7aa0 68be e7c0 983e 1d9c 7abe 0dd7 e13d
00000170: 9a1b 353d 9b71 5d3e 0351 80be 657e 063e
00000180: 1d38 25be 2e62 33bd 9812 71be 00e1 adbd
00000190: d108 903e fe45 913e 8899 043c ef29 9dbd
000001a0: 5ea8 3e3e 85dc 7b3c b60e a03d ad89 67be
000001b0: ed33 453e 3449 9e3e 587c ffbd ef00 b83e
000001c0: 6de3 023e a412 87bd dac0 8a3d e810 1dbe
000001d0: 2afa 703e 036a 76be b04d c3bd b0cd 4e3d
000001e0: 7e56 b5bb d1ed aebe d1ca d83d b51d 38be
000001f0: fc29 433e 5e28 6c3e 4ac6 07bd e2fe d03d
00000200: 24bb 60be 1691 30be e970 d63d e07c bbbd
00000210: 1c30 94be bd85 f9bd b6ff 44be eafd 79bd
00000220: cd17 d33d b2d3 2c3c 0f8d 15bd 9eb5 b23d
00000230: 32b9 a0be b7fb 203e bca2 fdbd 07aa 603e
00000240: 87fa 1bbe 38b5 13be 3214 a73e da3d f6bd
00000250: c862 c93d 9ea5 2c3d 1960 a73e 23b1 753e
00000260: 1b70 373e 34ac cfbd dd5d ac3e e217 8d3e
00000270: 42d9 b63e a73b a73e 8eb9 04bd a3ae aebe
00000280: b2dc 44bd 094e 99be 77b6 a73e 1e60 473e
00000290: 554c b53e fb27 04be d35a a7be 4036 bd3e
000002a0: c228 753c da42 b03b 0d0f 2cbe 4e94 773e
000002b0: 81ee 8abe d3a8 643e eedf c53e a1f8 f1bd
000002c0: 0d8d 813d 89cd b33e c2bd 843e fb2a aa3d
000002d0: b34d d4bc a4af 873e ffe8 863d 2b7d 87bd
000002e0: d699 65bd 251a 833e 1d3b 833e 026f 0c3e
000002f0: 4189 1fbe ed07 2a3d f230 17bd e770 783e
00000300: acc8 b63b 653d 2ebe dbfe 9c3d 3957 50bd
00000310: 4605 b43c 3d8f 463d 7da3 adbe dc55 94be
00000320: 7adc a13e 110f 8dbe 0031 a63e 262b babe
00000330: 7c3a 71be 49bd 65be 8b78 d13d 5626 143e
00000340: 263a a9be 0933 0abe 5935 85be 3941 843e
00000350: f7f4 27be 53da 7dbd c6d8 b8be a6a4 623e
00000360: 688d 063e 93b3 6abe 15fc 8ebe 5f49 c7bc
00000370: cfc9 9c3e 799a a23e 1521 99be d525 ab3e
00000380: ce54 d03d f9e4 abbe 9c73 9ebe 9417 cebd
00000390: 2d1a c03d fa77 123e 66f1 2b3e f3a4 17be
000003a0: 1fc0 8cbe 71c9 94bd 454d 44be dfc8 1b3e
000003b0: aa34 c63d 5587 09be 8ac0 b6bd c0ac 5fbe
000003c0: 5492 b8be 864f b23d 4d1b 813e 1bc5 c53d
000003d0: f102 bf3e 5054 67be f360 85be c8fa 4bbe
000003e0: d538 48be 0717 a83e c31b 2d3e 470d 743c
000003f0: ce9f 30be 7c6d c63d 2519 9dbd a3c8 b53e

linears.3.bias f4 [20]
0.0012245469 0.0011254763 -0.00940882 0.00010637016 -0.0025480604 0.0003649599 -0.004830779 -0.002053022
0.001604774 -0.0111309225 -0.001376565 -0.0061364956 -0.0009040901 0.0016249936 -0.012122713 0.0012556387
0.016030831 -0.0032440342 0.00061323255 -0.00023054089
00000000: fa80 a03a b884 933a 7427 1abc 0b13 df38
00000010: 5cfd 26bb 1758 bf39 834b 9ebb fe8b 06bb
00000020: 4857 d23a 795e 36bc db6d b4ba a814 c9bb
00000030: 7600 6dba bdfd d43a 589e 46bc 3e94 a43a
00000040: 1753 833c dd99 54bb 57c1 203a 59bd 71b9

linears.4.weight f4 [20, 20]
-0.16767238 -0.3186765 -0.2128524 -0.22094765 -0.21776976 0.14086829 -0.35490373 0.28612936
-0.312614 -0.030918188 0.051009506 0.12436759 0.06568783 -0.31889465 -0.26955372 0.34117275
0.33076262 0.0033999996 -0.180814 -0.34230277 -0.14227061 -0.028105592 0.055788506 0.05059566
-0.114822425 0.22916341 0.16065465 0.123178735 0.38212827 0.04103758 0.11002271 -0.094700456
0.04262243 0.30632704 0.23713617 0.20362398 -0.35051066 -0.11233821 -0.039714143 -0.006416432
0.16007452 0.25771216 -0.20146856 -0.07954218 -0.2749535 0.22185013 -0.13041137 0.34893814
-0.3105122 0.36854315 0.16955662 -0.23463131 0.32589844 -0.2236269 -0.37030843 0.19448073
-0.28608072 0.049236245 -0.29833174 0.26087373 -0.3323876 -0.30447862 -0.3849937 0.34805492
-0.011041293 -0.061387323 -0.018309148 -0.23698057 -0.3803388 -0.025407873 0.17739864 0.22597675
0.26532444 0.23506838 -0.008475545 0.030543543 -0.14676347 -0.005687954 -0.021102505 0.1315935
-0.22444205 -0.15356046 0.3024424 0.36493084 0.08498483 -0.11508767 0.1367409 -0.26483187
-0.25437587 0.10676567 -0.07656545 -0.3276843 -0.27062175 0.16956058 -0.29717872 0.25969982
0.32056296 -0.27164555 -0.21612565 0.032081325 0.22761708 0.113041565 0.09472936 0.32170114
0.36218974 -0.24853446 0.24468634 0.06497399 0.11444897 0.1789801 -0.21437699 0.013509062
-0.3235221 -0.12218054 -0.23659174 0.06353969 -0.17189072 0.32372576 0.10719076 0.00022392612
-0.22117305 -0.29077998 -0.12242615 -0.04313691 -0.10568904 0.20026861 -0.13348205 -0.25919032
-0.038754374 -0.0084325485 -0.39028803 -0.10395995 -0.03016109 -0.09795323 0.19089593 0.11821304
0.105531216 -0.038478173 -0.35297453 -0.11684055 -0.19612482 -0.26231435 0.14044598 0.19470197
0.14197917 -0.21316501 -0.09428514 -0.33525956 0.09687194 -0.28729236 0.20885213 -0.17889702
0.13442367 0.27640963 -0.31134245 -0.16910872 0.37425452 -0.115579344 0.10896749 -0.2779006
0.37663636 0.22821717 -0.22101201 0.2828653 -0.14613275 -0.36703977 -0.30339393 0.27017814
-0.015475398 0.19266708 0.29053506 -0.13509163 -0.08109432 -0.23565187 0.36533982 -0.3344908
0.08963381 -0.22404666 0.35526666 -0.25818023 0.22029 -0.056592464 0.0153810885 -0.008241577
-0.24738689 0.15133446 -0.07071862 0.27697876 -0.28438345 -0.2944844 -0.26911238 -0.20534942
-0.27707553 0.36096525 -0.023080422 0.2877503 -0.18775894 0.048213255 -0.09572714 -0.00097527314
0.20171428 -0.09378848 -0.26065847 -0.31502402 0.37063566 0.02304269 -0.30216378 -0.25767812
-0.38217372 0.034818362 -0.07875795 0.05698874 -0.19633403 -0.0451447 -0.3542353 0.20419088
-0.16788441 0.24896638 0.19100043 0.06188207 -0.1708653 0.10506461 -0.18907984 -0.10621068
-0.15059863 0.27632493 0.084687814 0.28327575 0.3808266 0.03456409 0.26682678 -0.060833678
0.030353079 -0.2352103 -0.0955991 -0.14423451 0.34610227 0.25238147 -0.3214711 -0.18404977
0.0051267147 -0.21053217 0.22247438 -0.07250152 0.31467608 -0.23022479 0.32489905 0.23595554
0.14556265 0.035429653 -0.15874438 0.023217069 -0.2093339 0.14666471 0.2621756 0.39852855
00000000: 4fb2 2bbe 9129 a3be fbf5 59be 1a40 62be
00000010: 09ff 5ebe c73f 103e f1b5 b5be 8c7f 923e
00000020: f10e a0be 2448 fdbc 58ef 503d 6fb4 fe3d
00000030: 5787 863d 2946 a3be f202 8abe 32ae ae3e
00000040: b859 a93e 87d2 5e3b 4e27 39be 4f42 afbe
00000050: 63af 11be b33d e6bc 7d82 643d 653d 4f3d
00000060: 0528 ebbd d0a9 6a3e a782 243e 2245 fc3d
00000070: 51a6 c33e 0617 283d 9653 e13d 50f2 c1bd
00000080: db94 2e3d e6d6 9c3e d3d3 723e ce82 503e
00000090: 2276 b3be 9311 e6bd 4cab 22bd ef40 d2bb
000000a0: 93ea 233e d9f2 833e c64d 4ebe 03e7 a2bd
000000b0: b5c6 8cbe ae2c 633e 8f8a 05be 05a8 b23e
000000c0: 75fb 9ebe b0b1 bc3e 40a0 2d3e 3143 70be
000000d0: 29dc a63e 73fe 64be 1199 bdbe f525 473e
000000e0: 2c79 92be f2ab 493d f0be 98be 3e91 853e
000000f0: b52e aabe 9fe4 9bbe e51d c5be 4134 b23e
00000100: 8ae6 34bc 4671 7bbd 11fd 95bc 09ab 72be
00000110: c4bb c2be 2c24 d0bc fda7 353e 7366 673e
00000120: 9bd8 873e c4b5 703e 03dd 0abc 7436 fa3c
00000130: 2a49 16be 0462 babb 29df acbc 72c0 063e
00000140: 23d4 65be f43e 1dbe bbd9 9a3e 37d8 ba3e
00000150: 870c ae3d 16b3 ebbd ce05 0c3e 0b98 87be
00000160: 8e3d 82be f6a7 da3d 59ce 9cbd 3dc6 a7be
00000170: ef8e 8abe 4aa1 2d3e cf27 98be 60f7 843e
00000180: d420 a43e 2015 8bbe 0b50 5dbe b567 033d
00000190: 7414 693e 5682 e73d 7701 c23d 03b6 a43e
000001a0: ef70 b93e d17f 7ebe 0e8f 7a3e 1511 853d
000001b0: 3964 ea3d 8f46 373e a485 5bbe 1d55 5d3c
000001c0: b0a4 a5be ca39 fabd 1b45 72be 1921 823d
000001d0: 1f04 30be 62bf a53e d486 db3d b6cd 6a39
000001e0: 307b 62be 1de1 94be 90ba fabd 54b0 30bd
000001f0: 7f73 d8bd 3713 4d3e 85af 08be 98b4 84be
00000200: e8bc 1ebd ac28 0abc d5d3 c7be f4e8 d4bd
00000210: 6414 f7bc b49b c8bd 397a 433e ae19 f23d
00000220: c020 d83d 4a9b 1dbd 14b9 b4be 194a efbd
00000230: f2d4 48be 114e 86be 12d1 0f3e f45f 473e
00000240: fd62 113e ee47 5abe 9118 c1bd 24a7 abbe
00000250: cc64 c63d fc17 93be 55dd 553e c830 37be
00000260: 5ca6 093e 9085 8d3e 4768 9fbe d62a 2dbe
00000270: 4a9e bf3e ddb4 ecbd 592a df3d fd48 8ebe
00000280: 7bd6 c03e c3b1 693e f950 62be b8d3 903e
00000290: d3a3 15be a3ec bbbe 7356 9bbe ca54 8a3e
000002a0: 868c 7dbc 854a 453e 03c1 943e 7655 0abe
000002b0: c714 a6bd b94e 71be d20d bb3e 6142 abbe
000002c0: ee91 b73d 7d6c 65be 83e5 b53e 3330 84be
000002d0: b493 613e 80cd 67bd f600 7c3c ae07 07bc
000002e0: fd52 7dbe 6cf7 1a3e edd4 90bd 29d0 8d3e
000002f0: b59a 91be a9c6 96be 19c9 89be 1e47 52be
00000300: d8dc 8dbe 70d0 b83e 2713 bdbc 0254 933e
00000310: e143 40be 437b 453d 970c c4bd 79a9 7fba
00000320: 308e 4e3e 2d14 c0bd 0775 85be d44a a1be
00000330: f5c3 bd3e 06c4 bc3c 36b5 9abe 63ee 83be
00000340: 46ac c3be b39d 0e3d d94b a1bd 066d 693d
00000350: ca0b 49be a6e9 38bd 545e b5be 6a17 513e
00000360: e4e9 2bbe 0bf1 7e3e 9e95 433e 0e78 7d3d
00000370: 50f7 2ebe 1d2c d73d 259e 41be fc84 d9bd
00000380: 8736 1abe 767a 8d3e ce70 ad3d 8509 913e
00000390: b4fb c23e 1393 0d3d 859d 883e bc2c 79bd
000003a0: 05a7 f83c f8da 70be 76c9 c3bd 36b2 13be
000003b0: 5134 b13e 2538 813e dc97 a4be 8b77 3cbe
000003c0: 00fe a73b bf95 57be 53d0 633e ad7b 94bd
000003d0: 391d a13e 0cc0 6bbe 2b59 a63e 549e 713e
000003e0: 600e 153e af1e 113d e38d 22be b931 be3c
000003f0: a05b 56be 462f 163e e13b 863e ef0b cc3e

linears.4.bias f4 [20]
0.0027050695 -0.002085278 -0.004347001 -0.0016888422 -0.0003634243 -0.0011443165 -0.0016060107 -0.002713143
-0.0021989532 -0.0020703077 0.0012691916 -0.0013429936 -0.0019043137 -0.00027956557 -0.0025945688 -0.0008554269
0.0016167182 0.00058555783 -0.0048302715 -0.00011447715
00000000: 8947 313b 29a9 08bb 4a71 8ebb 245c ddba
00000010: fc89 beb9 e4fc 95ba c780 d2ba fcce 31bb
00000020: 501c 10bb 00ae 07bb 015b a63a 6307 b0ba
00000030: 2a9a f9ba a892 92b9 a409 2abb ba3e 60ba
00000040: 10e8 d33a 1f80 193a 4147 9ebb 7413 f0b8

linears.5.weight f4 [3, 20]
-0.3748506 0.18994302 -0.16391002 -0.27361482 0.4229403 0.10302236 0.12531666 -0.050424464
-0.12035374 -0.3819736 -0.08571814 -0.11262842 -0.24112019 -0.18914518 -0.07126028 0.3011906
0.45073837 0.19132626 0.22962175 0.18084405 -0.35900298 -0.4617885 -0.07889536 -0.37275147
-0.33178714 -0.2743758 -0.29330748 -0.25055638 -0.38053238 -0.48950404 0.41391128 -0.45743537
-0.14574578 0.20564702 -0.34114936 -0.27288005 0.06697 0.2963671 0.13330652 -0.18025124
0.42330936 0.1740584 -0.21279706 6.558414e-05 0.20719956 -0.25627357 -0.17152455 -0.2830981
0.08379526 -0.34989175 0.09564378 -0.38469642 0.5132181 -0.39316458 -0.41243124 -0.2401359
0.18307222 -0.387348 -0.20143238 0.18352927
00000000: 6bec bfbe 6c80 423e 07d8 27be 3e17 8cbe
00000010: a28b d83e 63fd d23d 0353 003e e289 4ebd
00000020: 067c f6bd 0b92 c3be fe8c afbd bba9 e6bd
00000030: 36e8 76be 46af 41be e9f0 91bd a835 9a3e
00000040: 2ec7 e63e 08eb 433e f721 6b3e 2f2f 393e
00000050: 3dcf b7be 8b6f ecbe e493 a1bd 48d9 bebe
00000060: 01e0 a9be fc7a 8cbe 662c 96be ed48 80be
00000070: 24d5 c2be 46a0 fabe 2eec d33e f834 eabe
00000080: 623e 15be 2295 523e 21ab aebe efb6 8bbe
00000090: 9127 893d 6ebd 973e 8181 083e c893 38be
000000a0: 01bc d83e 5d3c 323e 79e7 59be 388a 8938
000000b0: 1f2c 543e 4a36 83be 22a4 2fbe 3cf2 90be
000000c0: d99c ab3d 0325 b3be e3e0 c33d eef6 c4be
000000d0: 4362 033f de4c c9be 302a d3be 2fe6 75be
000000e0: 4977 3b3e 7a52 c6be 4a44 4ebe 19ef 3b3e

linears.5.bias f4 [3]
0.00055502163 0.0022943094 0.0
00000000: df7e 113a 205c 163b 0000 0000

d f4 [1803]
-9.535654e-09 5.668099e-09 4.0427666e-09 -1.2695188e-09 5.8294827e-09 -2.862707e-09 -9.02147e-11 8.059973e-09
1.9062016e-08 1.1392818e-08 2.3470847e-09 -4.6110173e-09 -1.5522376e-08 -2.4097016e-10 8.917841e-09 -5.216755e-09
-5.80244e-10 4.732466e-09 4.906265e-10 -2.9405278e-09 -8.046995e-09 -2.4635682e-09 3.8689723e-09 3.668795e-09
6.6911134e-09 5.3479003e-09 -1.5950966e-09 -6.2709987e-10 -1.1631133e-09 -1.668644e-09 -4.8887796e-09 1.0024372e-09
1.9811585e-08 4.4661275e-09 5.3055946e-09 -6.6187824e-09 -7.171643e-09 -8.2386356e-09 7.0486785e-09 3.2678127e-09
1.6160253e-09 -2.5244173e-09 -1.2307021e-09 -8.88541e-09 -2.3949533e-09 -2.538126e-09 6.7821793e-09 1.2212228e-09
7.028898e-09 -2.730619e-09 -2.3271287e-09 -1.6026667e-09 -7.1942226e-09 -4.2481423e-09 -2.8243644e-10 -4.2393644e-09
1.2555372e-08 4.25841e-09 6.6556574e-09 1.2391976e-09 -3.5156542e-10 -4.0447184e-10 -3.6068631e-10 -2.0514274e-10
-2.5193692e-10 1.5182283e-10 4.548062e-11 -5.2059485e-10 1.5943698e-10 -1.0868597e-09 -1.2813096e-10 8.534831e-10
6.409027e-10 7.913409e-10 -5.831224e-10 -7.282015e-10 -1.2554155e-09 2.4419666e-10 -1.0701964e-09 -7.657417e-10
1.5457561e-09 1.4550289e-09 1.6856624e-09 9.459012e-10 -1.4389937e-09 -5.7281575e-12 -7.731237e-10 7.0452205e-10
-8.853064e-11 2.2178115e-09 -2.1573252e-10 -2.1077358e-09 -1.9035735e-09 -3.6995518e-09 1.7705128e-09 1.785293e-09
1.5396088e-09 -6.938344e-10 1.6225862e-09 2.1069755e-09 -1.4261356e-11 -4.2002357e-10 -2.552066e-10 1.2794581e-09
7.998818e-10 -4.2352727e-10 1.33433e-09 5.78147e-10 -8.6233e-10 3.6958306e-10 5.1602167e-10 -2.2359296e-10
4.650613e-10 -1.2249252e-09 -4.0393391e-10 1.6492061e-11 -2.2219449e-09 -4.8351934e-10 7.8333023e-10 -1.07664905e-10
-3.894873e-09 -4.063464e-09 -3.5372494e-09 -4.0316386e-09 -2.5630595e-09 1.4649972e-09 -4.1335353e-09 -5.2176734e-09
4.300905e-09 -7.651261e-09 -1.2041995e-09 7.2947075e-09 5.4095675e-09 3.4128076e-09 -5.007389e-09 -5.914674e-09
3.0319776e-09 4.40427e-09 -7.1211312e-09 -6.691279e-09 -1.5404262e-09 -1.4220672e-09 -1.6327798e-09 -1.2353182e-09
2.1303206e-09 -1.1135061e-09 -8.23158e-10 6.96004e-11 6.2619077e-10 8.6103513e-10 1.2299585e-09 -8.1478474e-10
2.4949842e-10 1.1003805e-09 -4.9126737e-11 5.846122e-10 -2.351916e-09 1.1906968e-09 1.6100977e-09 2.3168929e-10
-8.0450374e-10 -5.900672e-10 -7.7159223e-10 -1.0484436e-09 1.1046345e-09 -1.246776e-10 -6.2018995e-10 -8.822478e-10
6.9581657e-10 -4.4599419e-10 2.1958001e-10 6.354428e-10 6.014011e-10 1.9344883e-09 -5.0853205e-10 -4.319671e-10
8.1348045e-10 7.1703476e-10 3.7043233e-11 -9.032675e-10 1.4599616e-09 9.654652e-10 1.4064016e-09 1.862678e-09
-2.1166833e-09 1.1552891e-09 1.3838832e-09 1.6060107e-09 -1.6766087e-09 -1.3993146e-09 -1.2254645e-09 1.5432099e-09
2.7681094e-10 -3.492915e-09 -5.71089e-10 -1.2540889e-09 2.2158135e-09 -1.3836629e-09 -1.6204597e-09 -3.9687287e-10
-3.0577677e-10 -2.9746303e-10 -1.4386545e-10 -7.186048e-10 -1.3200775e-09 9.021336e-10 -9.003329e-10 -1.0802403e-09
8.3245566e-10 -2.0700859e-09 -8.744849e-10 2.2158484e-09 1.1226843e-09 2.8413852e-10 -1.1637876e-09 -1.6807937e-09
4.441727e-09 6.411341e-10 -2.1536497e-09 -1.7255004e-09 1.971954e-09 1.849758e-09 1.7603183e-09 2.4537228e-09
-3.060825e-10 3.4693352e-11 2.95293e-09 2.4190767e-09 -2.5275175e-09 1.4289042e-09 -1.4081039e-10 -1.5560733e-09
-1.6092914e-09 -1.3465621e-09 1.3563407e-09 1.2587338e-09 -2.1776452e-09 -2.4501823e-09 7.211178e-10 1.9896595e-09
-1.8337699e-09 -1.3447128e-09 -1.6408238e-09 -2.6528777e-09 2.1153423e-09 -9.854969e-10 -2.9957696e-09 -2.490773e-09
2.694121e-09 1.1236867e-09 1.0743002e-09 -8.466118e-10 1.8491123e-10 2.6351006e-09 1.4860103e-10 8.0656776e-10
00000000: 40d2 23b2 20c1 c231 8de8 8a31 397b aeb0
00000010: ac4c c831 46b9 44b1 5c62 c6ae 2378 0a32
00000020: d1bd a332 25ba 4332 5a4a 2131 f06e 9eb1
00000030: 1156 85b2 8979 84af 1435 1932 103f b3b1
00000040: 0b7f 1fb0 369b a231 c5dc 0630 5012 4ab1
00000050: 0f3f 0ab2 8d4b 29b1 d7ef 8431 201e 7c31
00000060: a8e7 e531 a1c0 b731 793a dbb0 3b60 2cb0
00000070: 69db 9fb0 3156 e5b0 29fa a7b1 20c6 8930
00000080: 232e aa32 7974 9931 814c b631 6d6b e3b1
00000090: 706a f6b1 e789 0db2 d530 f231 f88f 6031
000000a0: d61a de30 057a 2db1 7b25 a9b0 72a6 18b2
000000b0: 7794 24b1 2f6b 2eb1 ae08 e931 f5d7 a730
000000c0: d782 f131 8fa5 3bb1 48eb 1fb1 d244 dcb0
000000d0: 0d31 f7b1 0ef7 91b1 6545 9baf d8a9 91b1
000000e0: 1cb3 5732 5f51 9231 c8af e431 6450 aa30
000000f0: 6f46 c1af 5a5c deaf 164a c6af 8c8e 61af
00000100: f880 8aaf 54ee 262f a006 482e 9b19 0fb0
00000110: 854d 2f2f 7a60 95b0 a9e1 0caf 899a 6a30
00000120: 852b 3030 aa85 5930 9749 20b0 a02a 48b0
00000130: 028b acb0 a03f 862f 3016 93b0 487c 52b0
00000140: 7572 d430 47fa c730 f9ac e730 f100 8230
00000150: 17c6 c5b0 a88a c9ac be83 54b0 55a8 4130
00000160: 52ae c2ae 2768 1831 4e33 6daf aed7 10b1
00000170: 05d0 02b1 343b 7eb1 6256 f330 6a5e f530
00000180: 2b9a d330 41b8 3eb0 ad01 df30 4eca 1031
00000190: 70e3 7aad 10e9 e6af 234d 8caf eed8 af30
000001a0: aede 5b30 2ad6 e8af 9063 b730 7aeb 1e30
000001b0: 1409 6db0 312e cb2f ccd7 0d30 d3d7 75af
000001c0: 8fab ff2f 395a a8b0 a510 deaf d210 912d
000001d0: deb0 18b1 a6e8 04b0 f751 5730 f4c1 ecae
000001e0: aad3 85b1 9b9e 8bb1 f313 73b1 ab86 8ab1
000001f0: d221 30b1 0259 c930 f606 8eb1 2447 b3b1
00000200: 29c7 9331 9a72 03b2 0181 a5b0 eda4 fa31
00000210: 0fdf b931 bf86 6a31 760d acb1 063a cbb1
00000220: 1d5b 5031 5e54 9731 22ae f4b1 1de9 e5b1
00000230: eeb6 d3b0 8b72 c3b0 5568 e0b0 e5c7 a9b0
00000240: ff64 1231 030a 99b0 9844 62b0 8b0d 992e
00000250: 4220 2c30 f6ad 6c30 510b a930 61f7 5fb0
00000260: c829 892f 323c 9730 ca0f 58ae 6db2 2030
00000270: 589f 21b1 eba5 a330 474a dd30 bdbe 7e2f
00000280: eb23 5db0 4a32 22b0 fa17 54b0 d418 90b0
00000290: dfd1 9730 a015 09af fd79 2ab0 ab82 72b0
000002a0: bd43 3f30 1a30 f5af 476e 712f 50ab 2e30
000002b0: d74f 2530 e1ef 0431 c3c8 0bb0 f779 edaf
000002c0: 999b 5f30 d618 4530 f9ea 222e cd49 78b0
000002d0: d5a7 c830 49b1 8430 5b4b c130 9400 0031
000002e0: 1675 11b1 1fc8 9e30 1033 be30 7aba dc30
000002f0: 6d6e e6b0 0152 c0b0 336d a8b0 df18 d430
00000300: ad2d 982f 0308 70b1 d1fa 1cb0 555c acb0
00000310: 0145 1831 4f2b beb0 dbb6 deb0 e42e daaf
00000320: 411a a8af 3388 a3af 862e 1eaf 5187 45b0
00000330: 196e b5b0 02fa 7730 4c7b 77b0 9477 94b0
00000340: dcd2 6430 5641 0eb1 6760 70b0 9e45 1831
00000350: f14c 9a30 f134 9c2f 23f3 9fb0 ac01 e7b0
00000360: d89d 9831 cd3b 3030 68ff 13b1 a626 edb0
00000370: fb82 0731 933a fe30 b2ef f130 599e 2831
00000380: 4845 a8af 3e95 182e 7eec 4a31 d93c 2631
00000390: 8fb0 2db1 1963 c430 9ad2 1aaf 76dd d5b0
000003a0: e82d ddb0 f111 b9b0 ff69 ba30 c2ff ac30
000003b0: 8aa5 15b1 1060 28b1 2738 4630 76ba 0831
000003c0: 0b08 fcb0 e0d0 b8b0 5b83 e1b0 eb4d 36b1
000003d0: 7f5d 1131 1772 87b0 23de 4db1 242a 2bb1
000003e0: 7a23 3931 3670 9a30 94a6 9330 02b7 68b0
000003f0: e24f 4b2f 2e15 3531 7963 232f 29b5 5d30

old_dirs f4 [1803]
-2.996736e-06 4.6910867e-07 1.9078857e-06 -5.8062346e-07 2.4049314e-06 -7.212959e-07 -3.6762624e-06 1.9055915e-07
-1.0376798e-05 6.0065304e-08 3.139542e-06 7.9000756e-08 -6.730827e-06 -3.0430738e-07 6.144533e-06 -7.254084e-07
-4.1664744e-06 -5.938822e-07 -2.1287783e-06 -5.95449e-07 6.108038e-06 -1.10810106e-07 6.645628e-07 2.9699436e-07
-5.0004487e-06 1.3696354e-07 -8.480746e-07 -1.6024256e-07 -5.455061e-07 3.9261334e-07 8.509021e-06 3.638172e-07
2.5770946e-06 -2.68568e-07 6.531599e-06 -2.9572539e-07 3.84416e-07 3.015756e-07 2.4397136e-06 1.5797787e-07
5.846648e-07 2.874684e-06 3.6479107e-06 -2.358745e-06 -9.193698e-06 4.754711e-06 -5.283957e-06 3.954527e-06
-1.7215539e-06 4.2027955e-07 5.9822532e-06 -2.7150377e-06 -7.6280226e-06 7.6057654e-07 9.437533e-07 4.9829146e-06
2.640229e-06 8.140364e-06 -5.523326e-07 -7.218788e-07 6.644707e-07 5.690763e-07 5.912627e-07 8.563626e-07
-2.2356443e-07 4.2522345e-08 9.371932e-07 9.236792e-07 -9.094126e-07 3.6796723e-07 -8.927739e-08 -4.6753132e-07
-4.9186735e-07 -7.8415985e-07 4.0435143e-07 3.4265764e-07 -1.2553284e-06 -8.0084226e-07 1.7375288e-07 6.7361714e-07
-2.01668e-06 -1.6548614e-06 -1.8201208e-06 -2.5549334e-06 1.0243575e-06 -3.2730213e-07 -2.6458215e-06 -2.43748e-06
2.648269e-06 -5.177435e-07 4.8917946e-07 9.363696e-07 1.2041095e-06 2.543414e-06 -9.565338e-07 -6.2930326e-07
3.1484503e-06 2.3279779e-06 -3.0981937e-09 -1.6046084e-06 1.5956897e-06 1.2974946e-06 1.4538348e-06 2.0448936e-06
-9.835197e-07 3.5610873e-07 2.058796e-06 1.7731614e-06 -1.9923427e-06 2.5198074e-07 -4.723757e-07 -5.043744e-07
-8.243789e-07 -2.0527077e-06 6.236967e-07 3.3443445e-07 -1.9847691e-06 -1.8067153e-06 -2.0251127e-07 1.0646812e-06
2.5688278e-06 2.0994814e-06 2.330149e-06 3.2762116e-06 -1.4504462e-06 4.9883283e-07 3.3440767e-06 2.9752964e-06
-3.2830815e-06 5.359068e-07 -6.938301e-07 -9.949023e-07 -1.4267932e-06 -3.270704e-06 1.1065656e-06 6.667492e-07
-3.5792536e-06 -2.9362645e-06 -1.644255e-07 1.8728654e-06 2.4444682e-07 1.8421974e-07 2.289717e-07 3.072359e-07
-2.3264138e-07 1.0144056e-07 2.7445054e-07 1.8721117e-07 -2.7316267e-07 -8.803184e-08 -1.2172711e-07 3.6059532e-08
-5.9574305e-08 -3.4874998e-07 3.168384e-08 -4.1496435e-08 -1.3004592e-07 -2.5385336e-07 -1.4874078e-07 6.0573655e-08
-1.0403927e-07 -6.875243e-08 -1.0148241e-07 -1.2741822e-07 1.5274063e-07 -7.400733e-08 -9.0580016e-08 -2.3926447e-08
9.537006e-08 1.210773e-07 8.4145384e-08 -9.091778e-08 -1.900132e-08 1.7121694e-07 2.9002365e-08 7.9111075e-08
-6.383553e-08 9.3196036e-08 1.4103452e-07 4.260656e-08 -1.9620063e-07 -2.1552927e-07 -1.5123894e-07 -2.6099286e-07
-2.404463e-07 1.6198541e-07 -4.08755e-07 -5.7877105e-07 4.002464e-07 -5.425233e-07 -1.5094152e-07 5.626257e-07
3.9047268e-07 1.1517062e-07 -3.5808353e-07 -4.3673415e-07 1.0771489e-06 3.1656913e-07 -4.766435e-07 -5.788666e-07
-8.409002e-08 -9.9385446e-08 -6.477224e-08 -1.2394193e-07 -1.069011e-07 7.205503e-08 -1.9382813e-07 -2.5882684e-07
1.6053897e-07 -2.7536402e-07 -7.313923e-08 2.4749568e-07 1.7450247e-07 3.685313e-08 -1.5689443e-07 -2.0230107e-07
4.2273643e-07 1.4086098e-07 -2.247013e-07 -2.565074e-07 2.736182e-07 2.3623468e-07 2.4103971e-07 3.4858243e-07
-6.191266e-08 4.970673e-10 3.9191335e-07 4.0744817e-07 -3.9288307e-07 1.7823379e-07 -2.1900377e-08 -2.3356435e-07
-2.2480191e-07 -3.163426e-07 1.8967353e-07 1.6936225e-07 -6.0532517e-07 -3.3594733e-07 1.0688214e-07 3.129494e-07
-1.0747174e-06 -8.500597e-07 -9.864334e-07 -1.3585645e-06 7.6120045e-07 -2.9685452e-07 -1.3211517e-06 -1.0859071e-06
1.315832e-06 1.9751724e-08 3.8373537e-07 2.0153448e-07 4.7061636e-07 1.434598e-06 -3.424189e-07 -1.0250699e-07
00000000: 881b 49b6 ced9 fb34 3a09 0036 24dc 1bb5
00000010: 6864 2136 149f 41b5 b5b5 76b6 809c 4c34
00000020: 0218 2eb7 40fd 8033 ecb0 5236 20a7 a933
00000030: 5dd9 e1b6 b05f a3b4 232d ce36 b0b9 42b5
00000040: becd 8bb6 466b 1fb5 22dc 0eb6 f2d6 1fb5
00000050: a6f3 cc36 80f6 edb3 6864 3235 9872 9f34
00000060: 87c9 a7b6 4010 1334 3ea7 63b5 240f 2cb4
00000070: e56e 12b5 5ec8 d234 f8c1 0e37 a852 c334
00000080: 26f2 2c36 b42f 90b4 022a db36 30c4 9eb4
00000090: bc61 ce34 3ce8 a134 f6b9 2336 a0a0 2934
000000a0: dcf1 1c35 b2ea 4036 a1ce 7436 ee4a 1eb6
000000b0: a23e 1ab7 a88a 9f36 d84c b1b6 21b1 8436
000000c0: 2410 e7b5 c8a2 e134 2abb c836 fe33 36b6
000000d0: 37f4 ffb6 6c2a 4c35 3c56 7d35 e932 a736
000000e0: ca2e 3136 9992 0837 0244 14b5 22c7 41b5
000000f0: 145e 3235 a0c2 1835 43b7 1e35 cae0 6535
00000100: ec0c 70b4 d0a1 3633 6d93 7b35 c0f2 7735
00000110: 5c1e 74b5 088d c534 c4b8 bfb3 0401 fbb4
00000120: de08 04b5 0e7f 52b5 a315 d934 82f6 b734
00000130: c17c a8b5 76f9 56b5 d490 3a34 9ed2 3435
00000140: 4c56 07b6 9b1c deb5 e04a f4b5 6c75 2bb6
00000150: a87c 8935 10b8 afb4 de8e 31b6 9693 23b6
00000160: eab8 3136 10fb 0ab5 2850 0335 d45a 7b35
00000170: e39c a135 85af 2a36 4062 80b5 64ed 28b5
00000180: f749 5336 5b3a 1c36 00e8 54b1 ed5d d7b5
00000190: 7b2b d635 9325 ae35 6221 c335 013b 0936
000001a0: 7b01 84b5 362f bf34 d929 0a36 5dfd ed35
000001b0: 30b4 05b6 f847 8734 d29a fdb4 5864 07b5
000001c0: e34a 5db5 40c1 09b6 1c6c 2735 528c b334
000001d0: 1332 05b6 447e f2b5 e071 59b4 2be6 8e35
000001e0: 2064 2c36 d1e4 0c36 a85f 1c36 e3dc 5b36
000001f0: f4ac c2b5 88e7 0535 cd6a 6036 34ab 4736
00000200: e952 5cb6 3cdb 0f35 a43f 3ab5 9588 85b5
00000210: 3e80 bfb5 447e 5bb6 4e85 9435 a8fa 3235
00000220: 1c33 70b6 a40c 45b6 f08c 30b4 2a5f fb35
00000230: 843c 8334 f0cd 4534 43db 7534 2ef2 a434
00000240: facb 79b4 8ad7 d933 3258 9334 3704 4934
00000250: 31a7 92b4 040c bdb3 18b4 02b4 e0df 1a33
00000260: a4de 7fb3 d53b bbb4 c014 0833 d039 32b3
00000270: c0a2 0bb4 5749 88b4 8eb5 1fb4 b814 8233
00000280: 326c dfb3 0ca5 93b3 8bee d9b3 74d0 08b4
00000290: 0601 2434 f6ed 9eb3 e484 c2b3 d086 cdb2
000002a0: 3fce cc33 7a01 0234 6ab3 b433 943e c3b3
000002b0: 5838 a3b2 c1d7 3734 e020 f932 c6e3 a933
000002c0: f415 89b3 1023 c833 466f 1734 68fe 3633
000002d0: 38ab 52b4 3c6c 67b4 3e64 22b4 961e 8cb4
000002e0: b016 81b4 36ee 2d34 dc72 dbb4 d85c 1bb5
000002f0: 72e1 d634 eba1 11b5 7d12 22b4 5807 1735
00000300: 28a2 d134 b853 f733 a03e c0b4 4978 eab4
00000310: 8e92 9035 eef4 a934 62e5 ffb4 6963 1bb5
00000320: fa94 b4b3 ba6d d5b3 ea18 8bb3 e614 05b4
00000330: 8091 e5b3 acbc 9a33 121f 50b4 e4f4 8ab4
00000340: 9e60 2c34 bed5 93b4 b810 9db3 8cdf 8434
00000350: e05e 3b34 7248 1e33 d076 28b4 1838 59b4
00000360: 74f4 e234 923f 1734 6c45 71b4 1cb6 89b4
00000370: cde5 9234 b2a7 7d34 3f68 8134 ce24 bb34
00000380: d8f4 84b3 00a2 0830 2968 d234 40bf da34
00000390: 70ed d2b4 8860 3f34 701f bcb2 aec9 7ab4
000003a0: 1461 71b4 ccd5 a9b4 10a9 4b34 f1d9 3534
000003b0: a17d 22b5 405c b4b4 1487 e533 7003 a834
000003c0: 023f 90b5 a82f 64b5 9865 84b5 ec57 b6b5
000003d0: 4c55 4c35 605f 9fb4 6d52 b1b5 7cbf 91b5
000003e0: a59b b035 80aa a932 3004 ce34 6065 5834
000003f0: 05a9 fc34 698c c035 b2d5 b7b4 d021 dcb3
